Weight/222222/PPO_continuous.pth (torch_old, 19759 bytes, 13 tensors)

actor.0.weight f4 [28, 31]
0	0x3e3b1894	0.18271095
1	0x3e4fe225	0.20301111
2	0xbdf0800a	-0.117431715
3	0x3d03c2bb	0.03216813
4	0xbe2e066c	-0.16994637
5	0x3d39169d	0.04518758
6	0xbce05b97	-0.027387423
7	0xbe1437ee	-0.1447446
8	0xbcae1444	-0.021249898
9	0x3c1c8f76	0.009555688
10	0x3dc56d96	0.096400425
11	0xbd994d1e	-0.07485412
12	0xbe65d6ec	-0.22445267
13	0xbcda39ef	-0.026638953
14	0x3d80bd82	0.06286146
15	0x3cf4ef4f	0.029899267
16	0x3de3aa6c	0.1111649
17	0x3d675272	0.05647511
18	0xbe534ba9	-0.20634331
19	0xbdfa56a3	-0.12223556
20	0xbe049651	-0.12947966
21	0x3ca5e843	0.020252353
22	0xbd3abc6d	-0.045589853
23	0x3e0fd01e	0.14044234
24	0xbdfef83f	-0.12449693
25	0x3ce52f21	0.027976574
26	0x3d3b98ad	0.0457999
27	0x3db3c2d6	0.087773964
28	0x3df47392	0.11936106
29	0xbe1e5267	-0.15461121
30	0x3d68aad1	0.05680353
31	0x3d1dfafe	0.038569443
32	0x3e064d92	0.13115528
33	0xbdb3b61b	-0.08774968
34	0xbe3a38d3	-0.18185739
35	0x3c49102b	0.012271921
36	0xbd87e89c	-0.066361636
37	0x3d65f3ab	0.056140583
38	0xbd9b4f7a	-0.07583518
39	0xbe45c58f	-0.19313644
40	0xbde7846f	-0.113045566
41	0xbd308628	-0.04309669
42	0x3ca6cea6	0.02036221
43	0xbdd86c57	-0.10567539
44	0xbdf1178f	-0.117720716
45	0xbd1d7e56	-0.03845056
46	0xbd67ad9e	-0.05656206
47	0xbb2ead00	-0.002665341
48	0xbd3984d7	-0.0452927
49	0xbe33adb0	-0.17546725
50	0x3de4137e	0.1113653
51	0xbd3516a6	-0.044211052
52	0xbe095700	-0.13412094
53	0xbe47a387	-0.19495974
54	0xbe27ed8c	-0.1639921
55	0xbde96b45	-0.11397413
56	0xbd935fc9	-0.07196004
57	0x3e3d77fb	0.185028
58	0xbd4b464d	-0.04962759
59	0xbd3dd87b	-0.04634903
60	0xbdb8ab2f	-0.09017026
61	0xbe4376df	-0.19088314
62	0xbe0d5823	-0.13803153
63	0xbd4835e6	-0.048879527
64	0xbe24dd06	-0.16099939
65	0xbe13f541	-0.14449026
66	0xbd9be026	-0.07611112
67	0xbc2cd014	-0.010547657
68	0xbe320e0a	-0.17388168
69	0x3d935110	0.07193196
70	0x3e297cae	0.16551468
71	0x3c30cd35	0.010791113
72	0xbdc80fdf	-0.09768652
73	0x3d045cb8	0.032314986
74	0x3ca11065	0.019661138
75	0xbd781152	-0.060563393
76	0xbd57167b	-0.052511673
77	0x3d19bb31	0.037532035
78	0x3df1fc73	0.11815729
79	0xbbff3b38	-0.007789042
80	0xbdf4d7a2	-0.11955191
81	0x3e38dff6	0.18054184
82	0x3dbe822f	0.09302174
83	0xbe53cc9a	-0.20683518
84	0x3d2dc337	0.0424225
85	0xbd8fff1c	-0.0703108
86	0x3de33b14	0.11095253
87	0x3d0eb024	0.03483595
88	0x3caa0ef3	0.020759081
89	0x3d834587	0.06409746
90	0xbe1c4d12	-0.15263775
91	0xbd7b68b1	-0.06137914
92	0xbbc2c5e2	-0.0059439996
93	0x3cfc1214	0.03077034
94	0xbe29e58c	-0.16591471
95	0x3da2daa9	0.07951862
96	0x3c453f75	0.012039055
97	0xbe0e7330	-0.13911128
98	0x3d7f570a	0.062338866
99	0x3de5465d	0.11195061
100	0x3de11458	0.109902084
101	0xbd760502	-0.06006337
102	0xbd4ef1a5	-0.05052342
103	0xbe004f8b	-0.12530343
104	0xbe44cc22	-0.19218495
105	0x3d49ab11	0.049235407
106	0xbc69d746	-0.014272517
107	0x3e34a8db	0.17642538
108	0xbd9a906a	-0.07547076
109	0xbb9056e5	-0.00440489
110	0x3c9bacb1	0.019003244
111	0x3e243e21	0.16039325
112	0xbe4662d1	-0.19373633
113	0xbda40252	-0.08008255
114	0x3de6af7a	0.11263938
115	0xbdab5788	-0.08366305
116	0x3c98e451	0.018663557
117	0x3e7a3466	0.24434051
118	0xbe844192	-0.25831276
119	0x3d956c64	0.072960645
120	0xbd3afad1	-0.045649353
121	0xbe176ff0	-0.14788795
122	0x3e041c45	0.12901409
123	0xbd9a4f53	-0.07534661
124	0xbcecae36	-0.028891664
125	0xbdd780b7	-0.10522597
126	0x3dd85ec5	0.10564951
127	0xbdda9241	-0.10672427
128	0xbdb92c9a	-0.0904171
129	0x3e209af1	0.15684105
130	0x3db7b9e8	0.08971006
131	0xbb6b8bcf	-0.0035941487
132	0xbd0f8810	-0.03504187
133	0x3dad3c9a	0.084588245
134	0xbe8d94c6	-0.27652568
135	0x3d838d7e	0.06423472
136	0x3c06dd88	0.008231528
137	0x3c5e4848	0.013567038
138	0x3dd401d9	0.10351915
139	0x3dad69d9	0.084674545
140	0xbd20f64d	-0.03929739
141	0x3d9c1305	0.07620815
142	0x3e0a6d47	0.13518248
143	0xbc8bd799	-0.017070578
144	0x3defe01c	0.11712667
145	0xbe5c8401	-0.2153473
146	0x3c9643a1	0.018342795
147	0xbdd8ead5	-0.10591666
148	0xbd5f44ef	-0.0545091
149	0x3d562af0	0.052287042
150	0xbd00e767	-0.031470682
151	0x3e0e2675	0.13881858
152	0x3daf8ed0	0.08572161
153	0xbdce53a4	-0.10074547
154	0xbdcfa2de	-0.10138486
155	0xbe59623c	-0.2122888
156	0xbe6dbfc6	-0.23217687
157	0x3e13f6f7	0.14449678
158	0x3dfc5fa5	0.1232293
159	0xbd5b273f	-0.053504225
160	0xbdb03dec	-0.08605561
161	0x3e14e989	0.14542212
162	0x3c37dcb6	0.011222055
163	0x3b5a779f	0.003333546
164	0xbe13f7c5	-0.14449985
165	0xbe2dcfaa	-0.16973749
166	0x3d4891e9	0.048967276
167	0x3e409a5d	0.18808885
168	0x3bf05964	0.007334875
169	0xbddc6ac4	-0.107625514
170	0x3ccf378a	0.025295038
171	0x3dcab5d7	0.098979644
172	0x3dec1a95	0.115285076
173	0xbe309158	-0.17242944
174	0x3d41e22b	0.04733483
175	0xbd109242	-0.035295732
176	0xbde8dd87	-0.11370378
177	0xbe4714fc	-0.19441599
178	0x3dd582d1	0.10425342
179	0x3e198e1c	0.14995617
180	0x3c7dd8fc	0.015493628
181	0x3dc6b42e	0.09702335
182	0x3e2e1386	0.16999635
183	0x3e2cca66	0.16874084
184	0xbb4d0deb	-0.0031288813
185	0xbde7c4ff	-0.11316871
186	0xbd52e21f	-0.051485177
187	0xbe47978d	-0.19491406
188	0x3d864f86	0.06558137
189	0x3d8375f6	0.06418984
190	0xbc041d84	-0.008063678
191	0xbd77311b	-0.060349565
192	0xbe3e4361	-0.1858039
193	0x3e436bac	0.19084042
194	0x3d9528fe	0.07283209
195	0xbdb2377c	-0.08701989
196	0x3d3741f5	0.044740636
197	0xbd5bd091	-0.0536657
198	0xbe429f60	-0.19006109
199	0x3de6f92e	0.11277996
200	0xbdd9e5a8	-0.106395066
201	0xbd28748d	-0.041126776
202	0x3e16b369	0.14716877
203	0xbe38e29d	-0.18055196
204	0x3d62fa21	0.055414323
205	0xbe4538c7	-0.1925994
206	0x3e0bde2d	0.13658972
207	0xbcf74b13	-0.030187165
208	0xbc0d60f1	-0.00862907
209	0xbe5d83dc	-0.21632332
210	0x3e32da36	0.17466053
211	0xbe03059a	-0.12795106
212	0x3df0aa42	0.11751224
213	0xbd883254	-0.06650224
214	0x3d8e1627	0.06937819
215	0x3e45a6a0	0.19301844
216	0xbd6050da	-0.054764606
217	0xbd0521b0	-0.03250283
218	0x3e02d910	0.12778115
219	0xbe285470	-0.1643846
220	0xbe35c237	-0.17749868
221	0x3dee5137	0.11636584
222	0xbdcaf67e	-0.09910296
223	0x3d85daee	0.06535898
224	0x3dcb0692	0.099133626
225	0xbdccc90f	-0.099992864
226	0x3e043c20	0.12913561
227	0x3d08db75	0.033412416
228	0xbd84d003	-0.064849876
229	0x3bef41f9	0.0073015657
230	0x3e20f925	0.15720041
231	0x3d036e76	0.032087766
232	0xbdbe6667	-0.092968754
233	0x3db5e9d1	0.088824876
234	0xbdda96f8	-0.10673326
235	0x3e05e789	0.13076605
236	0x3cc54591	0.024081023
237	0x3d29d01f	0.041458245
238	0x3e339fe9	0.1754147
239	0xbc0bdd36	-0.0085366275
240	0xbe19e321	-0.15028049
241	0x3db2ec32	0.08736457
242	0xbe09eb2b	-0.13468616
243	0xbe4343f0	-0.19068885
244	0x3d56b4f6	0.05241867
245	0xbcf08983	-0.029362446
246	0xbd998250	-0.07495558
247	0xbe4a0f4a	-0.19732395
248	0x3df568f0	0.11982906
249	0xbc4002aa	-0.011719385
250	0x3ae3b2c5	0.0017372003
251	0xbd06d7ab	-0.03292052
252	0x3df33ae0	0.11876464
253	0x3cdd7eee	0.027038064
254	0x3dc2e8c5	0.095170535
255	0xbb4723d0	-0.0030386336

actor.0.bias f4 [28]
0	0xbde581ef	-0.112064235
1	0xbc232f73	-0.009960043
2	0x3d80c15d	0.06286881
3	0x3b18d189	0.0023318252
4	0xbc7ca7ec	-0.015420895
5	0x3e169bf8	0.14707935
6	0xbdca015f	-0.09863543
7	0x3d910467	0.07080918
8	0xbe074525	-0.1320997
9	0xbd23bd37	-0.03997537
10	0xbe03a241	-0.12854864
11	0xbd956073	-0.07293787
12	0xbcf8986a	-0.030346114
13	0x3db6b4b3	0.089211844
14	0xbe3c0aec	-0.18363541
15	0x3ba63f88	0.0050734915
16	0xbdd8c907	-0.10585218
17	0xbd74de9d	-0.059782613
18	0x3e390ce2	0.1807132
19	0xbdadc97a	-0.08485694
20	0xbd807123	-0.06271579
21	0x3e1ea724	0.15493447
22	0x3d3025b7	0.043004718
23	0x3e27802f	0.16357492
24	0x3decb2dd	0.11557553
25	0x3e431d24	0.19054085
26	0x3e12f955	0.14352925
27	0x3d78b68b	0.06072096

actor.2.weight f4 [14, 28]
0	0xbe2ddf55	-0.16979726
1	0x3dc60262	0.09668423
2	0x3cff2243	0.031144267
3	0x3e8446b0	0.2583518
4	0x3d976a64	0.07393339
5	0xbd58c32e	-0.052920513
6	0x3cb15b82	0.02165008
7	0xbdff3d7c	-0.12462899
8	0x3d0f8415	0.035038073
9	0xbd9e45e9	-0.07728178
10	0x3e047c9a	0.12938157
11	0xbdaff647	-0.085918956
12	0xbe8c647d	-0.27420416
13	0x3e0e1ab6	0.13877377
14	0x3d160e9f	0.036635038
15	0xbde6c5e7	-0.112682156
16	0x3d48c727	0.04901805
17	0x3dc253a7	0.09488612
18	0x3c8b0ea2	0.01697475
19	0x3e26e82b	0.16299503
20	0xbd93d443	-0.0721822
21	0xbdfe8491	-0.12427629
22	0xbe2b343d	-0.16719146
23	0x3d261a39	0.04055235
24	0xbd4c2cd6	-0.049847446
25	0x3e6546f4	0.22390348
26	0xbdae9796	-0.085250065
27	0xbe0f56c1	-0.13997938
28	0xbdd842f7	-0.105596475
29	0xbdbb0d9b	-0.091334544
30	0xbc96246e	-0.018327918
31	0x3e13fd8a	0.14452186
32	0xbe230ed7	-0.1592363
33	0x3e5bc138	0.21460426
34	0x3ca95ee9	0.02067514
35	0x3db3f7d5	0.087875046
36	0xbe4c7f21	-0.19970371
37	0xbe4fa9ec	-0.20279664
38	0x3dc0cee8	0.09414464
39	0x3d999a43	0.07500126
40	0xbe093d4f	-0.13402294
41	0xbbbe9843	-0.005816491
42	0xbd633d75	-0.055478532
43	0xbe1b7496	-0.15181193
44	0xbd8a3414	-0.06748214
45	0xbc06fff5	-0.008239736
46	0xbdd21d8b	-0.10259541
47	0x3e12169f	0.14266442
48	0xbdb971e4	-0.09054926
49	0xbb8fa8b0	-0.004384123
50	0xbe25d05f	-0.16192769
51	0xbba0bfa8	-0.0049056597
52	0x3e3818c0	0.17978191
53	0x3d7cb9b5	0.06170054
54	0x3d2a11ac	0.04152076
55	0xbd75e01c	-0.06002818
56	0x3d9a859d	0.07545016
57	0xbbaee00d	-0.0053367675
58	0xbdecb3a2	-0.115577
59	0xbd48d3cb	-0.049030107
60	0xbe487c29	-0.19578613
61	0xbe4a0879	-0.19729795
62	0xbe16b245	-0.14716442
63	0x3e38280a	0.17984024
64	0x3e3c637b	0.18397324
65	0xbde029c2	-0.10945465
66	0xbe13ca08	-0.14432538
67	0x3d4dcb19	0.050242517
68	0x3e2d5542	0.16927055
69	0xbd074e64	-0.033033744
70	0xbdb2adaf	-0.08724534
71	0x3e2c87fa	0.16848746
72	0x3e3d67d6	0.18496642
73	0xbd84496b	-0.06459316
74	0xbe0449a7	-0.12918721
75	0x3d8f9211	0.07010282
76	0x3dde2d12	0.1084844
77	0x3cb40144	0.02197326
78	0x3e4c4370	0.199476
79	0xbc15fa88	-0.00915397
80	0xbdc7f23e	-0.09763001
81	0xbc2ed68f	-0.010671272
82	0xbc830142	-0.01599181
83	0x3d2a3b14	0.041560248
84	0xbd83e50d	-0.06440172
85	0xbe34c66c	-0.17653817
86	0x3d72cca8	0.059277207
87	0x3e270474	0.16310292
88	0x3db22166	0.086977765
89	0xbdac892f	-0.08424603
90	0x3d719526	0.05898013
91	0x3d923f04	0.071409255
92	0x3d360a18	0.04444322
93	0xbdf761cd	-0.12079201
94	0xbd8fcf9c	-0.0702202
95	0x3bcd5959	0.0062667546
96	0x3d43244a	0.04764203
97	0x3d1af726	0.037833355
98	0x3dfbe817	0.12300127
99	0xbd7e9ddb	-0.06216226
100	0xbbb2ab6a	-0.005452563
101	0xbdd3baf1	-0.103383906
102	0xbd3e524b	-0.0464652
103	0xbdc39b83	-0.09551146
104	0xbdb2bcb4	-0.087273985
105	0x3e5208f2	0.20511225
106	0x3e3596fe	0.1773338
107	0xbe7173ef	-0.23579381
108	0x3d8f23d0	0.069892526
109	0x3e4a9677	0.1978396
110	0x3ced261e	0.02894884
111	0x3b4c7272	0.0031196144
112	0xbdb3a1c2	-0.08771087
113	0xbe30c8fe	-0.17264172
114	0xbd18d499	-0.037312124
115	0x3e0be7b0	0.136626
116	0xbdaee508	-0.08539778
117	0xbe117152	-0.14203385
118	0x3e2f00d3	0.17090158
119	0x3c892b2d	0.01674422
120	0x3e2ab128	0.16669142
121	0xbdf858fe	-0.12126349
122	0x3e4292da	0.19001332
123	0x3e1be9ab	0.15225856
124	0x3cd02a27	0.025410725
125	0x3d6d24cd	0.057896424
126	0xbe278fd7	-0.16363464
127	0x3e1beb91	0.1522658
128	0x3e3a9640	0.18221378
129	0xbdff85f3	-0.12476721
130	0x3e28f7fa	0.16500846
131	0x3d9ac401	0.07556916
132	0xbe2ccc31	-0.16874768
133	0x3d30d015	0.043167192
134	0xbd52b287	-0.05143979
135	0xbe134316	-0.1438106
136	0x3e067679	0.13131131
137	0xbe226def	-0.15862249
138	0x3da38201	0.07983781
139	0x3cc90237	0.024537189
140	0x3d8fcb31	0.070211776
141	0x3e2fd1a1	0.17169811
142	0xbdbd378a	-0.09239109
143	0x3e07be44	0.13256174
144	0xbd2ca5e2	-0.042150386
145	0xbdd6fe0c	-0.10497674
146	0x3d5728f8	0.052529305
147	0x3e7cee72	0.24700335
148	0x3e35fdd1	0.17772605
149	0xbe7e3f52	-0.24828842
150	0x3e3b9894	0.18319923
151	0xbe089895	-0.13339455
152	0x3d055692	0.032553263
153	0xbe496df4	-0.1967085
154	0xbaf3780b	-0.0018575204
155	0x3cb5ae01	0.022177698
156	0xbd8a18b9	-0.06742997
157	0xbdbdfe98	-0.092770755
158	0xbdb768e0	-0.0895555
159	0x3dc5c12f	0.096559875
160	0x3cc7e92d	0.024403179
161	0x3e522109	0.20520414
162	0xbe1f68d3	-0.15567331
163	0xbe8275e9	-0.25480583
164	0x3dd52c24	0.1040881
165	0xbcfdfc26	-0.031004023
166	0xbe13e9f2	-0.14444712
167	0xbd327230	-0.04356593
168	0xbdbf6aa4	-0.09346512
169	0xbe6bceba	-0.23028079
170	0xbd73a934	-0.059487537
171	0x3df99d8d	0.121882536
172	0xbc9afef4	-0.0189204
173	0x3c6b50ba	0.014362508
174	0x3cc39829	0.023876267
175	0xbe2734d9	-0.16328754
176	0x3e3e4e09	0.18584456
177	0x3e8c86d2	0.2744661
178	0xbdcc0df9	-0.099636026
179	0xbe4afdae	-0.19823334
180	0xbce43c3c	-0.027860753
181	0x3dd6a7e3	0.104812406
182	0xbdbfbb66	-0.09361915
183	0x3e3d349f	0.18477105
184	0x3cdd3887	0.027004493
185	0x3e12c73d	0.14333816
186	0xbe4255fb	-0.18978111
187	0xbdf970fb	-0.121797524
188	0xbc96feb7	-0.018432004
189	0x3dc5cd61	0.096583135
190	0x3e93b186	0.28846377
191	0xbe356518	-0.17714345
192	0xbe28495f	-0.16434239
193	0x3dd3f5ea	0.10349639
194	0x3cacc431	0.021089645
195	0x3dbbece5	0.091760434
196	0x3e4b5833	0.19857864
197	0x3e65fe63	0.22460322
198	0xbda9df21	-0.082945116
199	0x3c98656a	0.018603045
200	0x3d23c029	0.03997818
201	0xbd9c2407	-0.07624059
202	0xbde84c3b	-0.11342665
203	0xba8c0cba	-0.0010684945
204	0xbce812ad	-0.028329218
205	0x3bcfbea2	0.006339864
206	0xbd09dbbd	-0.033656824
207	0xbd71a0ae	-0.058991127
208	0x3e1b5683	0.1516972
209	0xbdeb84f3	-0.114999674
210	0xbe0e4823	-0.13894705
211	0xbe1f14e7	-0.15535317
212	0x3e43a3af	0.19105409
213	0xbddda8a3	-0.108231805
214	0x3df21054	0.118195206
215	0x3e88b86b	0.267032
216	0x3d0fc849	0.035103116
217	0x3d5f80d8	0.054566234
218	0xbdc3ba7d	-0.09557054
219	0x3d80763b	0.06272551
220	0xbc94321b	-0.018090298
221	0x3d1312b5	0.035906512
222	0xbe3f4019	-0.18676795
223	0x3da892e9	0.08231146
224	0xbdbf8462	-0.09351422
225	0x3cc43269	0.023949819
226	0x3e1bcd2b	0.15214984
227	0xbdd2b712	-0.10288824
228	0xbc97e465	-0.018541524
229	0x3de90f19	0.11379833
230	0xbd231b4f	-0.039820965
231	0x3d4322d8	0.04764065
232	0x3e3ac000	0.18237305
233	0x3e32db06	0.17466363
234	0x3e105e6a	0.14098516
235	0x3d3cd8c3	0.046105158
236	0x3e878abb	0.2647303
237	0xbc0bb7b9	-0.00852769
238	0x3d8db17c	0.06918618
239	0x3e69a924	0.22818428
240	0xbc73f06e	-0.014888866
241	0xbd8f70ff	-0.07003974
242	0x3e05695d	0.13028474
243	0xbe40a42f	-0.18812631
244	0xbd0833b7	-0.033252444
245	0x3e4fb8cd	0.2028534
246	0xbde1c275	-0.11023418
247	0xbe28f746	-0.16500577
248	0xbe434350	-0.19068646
249	0xbe1e98b6	-0.15487942
250	0xbdefced0	-0.11709368
251	0x3e017169	0.12640919
252	0xbe6840e8	-0.2268101
253	0x3ded6708	0.11591917
254	0x3d0989de	0.033578746
255	0x3d4e0428	0.050296932

actor.2.bias f4 [14]
0	0x3db1fd51	0.086908944
1	0x3de4d6cf	0.11173784
2	0x3d002752	0.0312875
3	0x3da4223e	0.08014344
4	0xbd95d8c2	-0.07316734
5	0xbe4d5467	-0.20051728
6	0xbd64880c	-0.055793807
7	0xbdaec048	-0.085327685
8	0x3d9d2961	0.07673908
9	0x3d672a85	0.056437034
10	0x3e0b3357	0.13593803
11	0xbe46842b	-0.19386356
12	0x3d1de576	0.03854891
13	0xbe308af4	-0.17240506

actor.4.weight f4 [7, 14]
0	0x3ccfbcee	0.025358643
1	0xbe783a29	-0.24240936
2	0x3e9444bc	0.2895869
3	0x3c2f3a5a	0.010695064
4	0xbe8c0a8d	-0.273518
5	0xbde0b948	-0.109728396
6	0x3ea53302	0.32265478
7	0xbe97fe33	-0.29686126
8	0x3dd1016f	0.102053516
9	0x3e6c113f	0.23053454
10	0xbcf3e87b	-0.029773941
11	0xbe12fb11	-0.14353587
12	0xbddc7842	-0.10765125
13	0xbdbb971d	-0.09159682
14	0x3e959937	0.29218456
15	0x3e68892f	0.22708581
16	0xbdf280e5	-0.11840991
17	0xbd9326c6	-0.0718513
18	0xbe5104ea	-0.20412031
19	0x3dca69cb	0.0988346
20	0x3d9c2c39	0.07625622
21	0x39cc65b6	0.00038985693
22	0xbeb6552e	-0.35611862
23	0xbce7f3d4	-0.028314508
24	0x3cd9ea40	0.026600957
25	0x3da82d25	0.08211736
26	0xbea18e82	-0.31554037
27	0xbe03afde	-0.12860057
28	0x3e750da5	0.23930986
29	0xbca0685f	-0.019581018
30	0xbe8330ae	-0.25623077
31	0x3dca3c33	0.09874763
32	0x3e046236	0.1292809
33	0x3e37cac0	0.17948437
34	0xbd46d417	-0.04854211
35	0xbd8f8838	-0.070084035
36	0x3e426d86	0.18987092
37	0x3e8faa76	0.2805974
38	0x3e8a8c27	0.27060053
39	0xbe25a8e8	-0.16177714
40	0x3d8db0e6	0.06918506
41	0xbdcdd042	-0.10049488
42	0x3d84abfd	0.06478117
43	0xbdffc25c	-0.12488243
44	0xbe858ed7	-0.2608554
45	0x3e3c31df	0.183784
46	0xbe89da4f	-0.2692437
47	0xbe93d217	-0.28871223
48	0x3de296b5	0.11063901
49	0x3c6f1b14	0.014593858
50	0x3dff0dd0	0.124538064
51	0x3dbbd35e	0.091711745
52	0xbce9f915	-0.028561154
53	0xbd9a936c	-0.0754765
54	0x3cc9c85c	0.024631672
55	0xbe0b430c	-0.13599795
56	0x3e6ab537	0.2292069
57	0x3dee9221	0.116489656
58	0xbcc561ec	-0.024094544
59	0xbdd0289e	-0.10163997
60	0x3e745358	0.23859918
61	0xbe074c0e	-0.13212606
62	0xbe11ad26	-0.14226207
63	0xbdc15ee6	-0.094419286
64	0xbe5107c9	-0.20413126
65	0x3d80ceda	0.06289454
66	0x3e4f3dda	0.20238438
67	0xbe09b446	-0.13447675
68	0x3dd84439	0.105598874
69	0x3d2feda3	0.042951237
70	0x3d1e6d96	0.038678728
71	0xbd9ca58b	-0.07648762
72	0xbd0f29de	-0.034952037
73	0xbe4ab6b3	-0.19796257
74	0xbe24de6b	-0.1610047
75	0xbd60199e	-0.05471193
76	0xbe87ee30	-0.2654891
77	0x3cd49742	0.025951032
78	0x3cb205c2	0.021731261
79	0x3e5665a2	0.20937207
80	0xb9c6c4c5	-0.00037912108
81	0x3e57fb03	0.21091847
82	0x3e8c7c57	0.27438614
83	0x3d775dd7	0.060392227
84	0xbe157f72	-0.14599398
85	0x3e886043	0.26635942
86	0xbdbc0a3c	-0.091816396
87	0x3e7a6fb5	0.24456675
88	0xbd95ef17	-0.073209934
89	0xbe6d3a3a	-0.23166743
90	0x3c635d46	0.013877219
91	0x3c376966	0.011194563
92	0xbe6b1af7	-0.22959505
93	0x3d77138c	0.060321376
94	0x3e85c4e2	0.26126772
95	0x3d70a360	0.058749557
96	0xbd9e73c0	-0.07736921
97	0xbd99ba7c	-0.07506272

actor.4.bias f4 [7]
0	0x3e0b0be3	0.13578753
1	0xbdf2b53b	-0.11850973
2	0x3ca93d02	0.020658974
3	0xbe03ae5e	-0.12859485
4	0xbd179d9e	-0.03701555
5	0xbc9ace3e	-0.018897172
6	0x3c5d86d0	0.013520911

critic.0.weight f4 [40, 31]
0	0xbd8737b6	-0.06602423
1	0x3dfaf513	0.122537754
2	0x3d80de5b	0.06292411
3	0x3e46707b	0.19378845
4	0x3c6d79b6	0.01449435
5	0x3e2a205c	0.16613907
6	0xbe0d0715	-0.13772233
7	0xbba29295	-0.0049613216
8	0x3de0912c	0.10965189
9	0xbda0cd83	-0.07851698
10	0xbe285b65	-0.16441114
11	0x3e0f857d	0.14015765
12	0xbcdc747e	-0.026911017
13	0x3d1f3f8a	0.038878955
14	0x3db4f857	0.088364296
15	0xbdd4f4fa	-0.10398288
16	0x3e782b86	0.24235353
17	0xbe6607eb	-0.22463958
18	0xbe10ce45	-0.14141186
19	0xbd7f660e	-0.062353186
20	0x3de1660d	0.11005793
21	0xbd6b5615	-0.05745514
22	0xbe5060c0	-0.20349407
23	0xbc61b988	-0.013777144
24	0xbd4505c1	-0.04810119
25	0x3e485b2d	0.19566031
26	0xbd8b0928	-0.06788856
27	0xbc871de4	-0.016493745
28	0x3bca7291	0.006178208
29	0x3e2066d9	0.15664233
30	0xbdcf8d2d	-0.10134349
31	0x3d736e06	0.0594311
32	0x3b1955fc	0.0023397198
33	0x3d543d1e	0.0518161
34	0x3db4c21f	0.08826088
35	0x3e3e8460	0.18605185
36	0x3db5687d	0.0885782
37	0x3e1d96f2	0.15389612
38	0x3e804756	0.25054425
39	0xbb491f97	-0.0030688995
40	0xbba9ed15	-0.005185733
41	0xbca3eacc	-0.02000942
42	0xbdd97542	-0.10618068
43	0xbc0ae6e4	-0.0084779
44	0x3e5f6c01	0.21818544
45	0x3e091ffb	0.13391106
46	0xbe004ce4	-0.12529331
47	0x3e226143	0.15857415
48	0xbb2d5aeb	-0.0026451896
49	0xbe0f4d4e	-0.13994333
50	0xbdcbe9cb	-0.09956702
51	0xbd454a31	-0.048166458
52	0xbdf298fa	-0.11845584
53	0xbe3695e5	-0.17830618
54	0xbdc29905	-0.095018424
55	0xbd1aee13	-0.0378247
56	0xbd9af7f3	-0.07566824
57	0x39a2d0d8	0.0003105465
58	0x3c8f030f	0.017457513
59	0xbdd9c92c	-0.106340736
60	0x3e30f3e1	0.17280532
61	0x3ce43f46	0.027862202
62	0xbd27c429	-0.040958557
63	0x3c8632b6	0.016381603
64	0x3dd69ec9	0.104795046
65	0x3e10cb29	0.1414
66	0x3b3f6fa9	0.0029210842
67	0x3df9ec5f	0.12203287
68	0xbdcaaa53	-0.09895768
69	0xbdfce548	-0.123484194
70	0x3dd10a2d	0.10207019
71	0xbd2a9ec4	-0.041655317
72	0xbb1604f1	-0.002289113
73	0xbdc7012f	-0.09717023
74	0xbd4d07f9	-0.05005643
75	0xbcf62350	-0.030046135
76	0x3d1defcd	0.03855877
77	0xba0404e6	-0.00050361303
78	0x3e9e0fca	0.3087142
79	0xbe30bec1	-0.17260267
80	0xb9550442	-0.00020314849
81	0xbdb62b39	-0.08894963
82	0xbb2dedbe	-0.002653941
83	0xbe0bda30	-0.1365745
84	0xbd9fea80	-0.07808399
85	0x3c7ea942	0.015543284
86	0xbe2fe4fd	-0.17177196
87	0x3e47c092	0.19507053
88	0x3da75772	0.08170976
89	0x3db05e0e	0.086116895
90	0x3ded5644	0.115887195
91	0x3da84af9	0.08217425
92	0x3de2d207	0.11075216
93	0x3d851900	0.06498909
94	0xbd828759	-0.06373472
95	0x3e396d9f	0.18108223
96	0xbe02db67	-0.12779008
97	0xbe35c1f0	-0.17749763
98	0xbde3e6da	-0.11128016
99	0xbe097ca7	-0.13426457
100	0xbe17b3f0	-0.14814734
101	0xbd833f58	-0.06408566
102	0xbda7f7c6	-0.08201556
103	0xbd988df3	-0.0744895
104	0xbddeef7a	-0.1088552
105	0xbdabfc0b	-0.08397683
106	0x3dca206e	0.09869467
107	0x3e0ac10b	0.13550203
108	0x3e22afff	0.1588745
109	0x3e6554a9	0.22395577
110	0xbdef7e16	-0.11693971
111	0x3dac7a88	0.084218085
112	0xbd3b0bde	-0.045665614
113	0x3e43ae7a	0.19109526
114	0xbe837479	-0.256748
115	0x3d09e833	0.033668708
116	0xbdaf42d6	-0.0855767
117	0x3e31128c	0.17292231
118	0x3de192c1	0.11014319
119	0xbda248ff	-0.07924079
120	0x3e0d3c1b	0.1379246
121	0x3e420421	0.18946888
122	0x3e1aede1	0.15129806
123	0x3e2dfef4	0.16991788
124	0x3e1a96ea	0.15096632
125	0x3d8e8690	0.069592595
126	0xbe53104e	-0.20611688
127	0xbd419bd3	-0.047267746
128	0xbdac98ce	-0.08427583
129	0x3d782c91	0.060589377
130	0xbdd9963b	-0.10624357
131	0x3c1e4ec3	0.009662333
132	0xbdfd54fa	-0.123697236
133	0xbe07ab3c	-0.13248914
134	0x3d4124e5	0.047154326
135	0xbe0be48a	-0.136614
136	0xbd414503	-0.047184955
137	0x3e14f745	0.14547451
138	0xbe4a2445	-0.19740398
139	0x3d4c32ae	0.04985302
140	0xbea97e92	-0.33104378
141	0x3e5a3fb9	0.21313371
142	0x3e0bb7ef	0.13644384
143	0x3dccd379	0.10001273
144	0x3e67530d	0.22590275
145	0x3dc3e13a	0.09564443
146	0x3d2b6cfd	0.041851986
147	0x3d921084	0.07132056
148	0x3e0d1861	0.13778831
149	0xbddd252b	-0.10798105
150	0x3db15cc7	0.08660274
151	0xbd8a38a3	-0.06749084
152	0xbd16a0cc	-0.03677444
153	0x3cd633cd	0.026147747
154	0x3d938b55	0.0720431
155	0xbe01b5b3	-0.12666969
156	0x3db39497	0.08768576
157	0x3e3e597a	0.1858882
158	0x3df97ccf	0.121820085
159	0x3de0455c	0.10950729
160	0x3d807b4f	0.06273519
161	0xbd31bac5	-0.043391008
162	0xbd9151a3	-0.07095649
163	0xbe20f51c	-0.15718502
164	0x3daa8a3c	0.08327147
165	0x3e24f686	0.16109666
166	0xbe456409	-0.19276442
167	0xbb9d7442	-0.004805119
168	0xbdb5dc8d	-0.08879957
169	0x3d481ec2	0.048857458
170	0xbe245ad7	-0.16050278
171	0x3d409441	0.047016386
172	0x3e3559c8	0.1771003
173	0xbe252d81	-0.1613064
174	0x3d41f99d	0.04735719
175	0xbe301506	-0.1719552
176	0x3e4aa404	0.1978913
177	0xbd391844	-0.045189157
178	0x3e354ad0	0.1770432
179	0x3d877a7c	0.06615159
180	0x3ded4575	0.115855135
181	0xbc5a115c	-0.013309803
182	0xbce0b7dd	-0.027431423
183	0xbd732d5b	-0.059369426
184	0xbbe0a5cd	-0.0068557025
185	0x3e39688e	0.1810629
186	0xbd0bd387	-0.034137275
187	0xbe7893f5	-0.24275191
188	0xbdba26ef	-0.09089457
189	0x3badc6aa	0.0053032236
190	0x3dd02a5b	0.10164329
191	0xbe55aa01	-0.20865633
192	0x3e54917f	0.20758627
193	0xbdaf6597	-0.085642986
194	0xbdaada4c	-0.08342418
195	0x3c93ebb0	0.01805672
196	0xbaef94cb	-0.0018278597
197	0x3e123bf3	0.14280681
198	0x3e018087	0.12646686
199	0x3cb2b0d6	0.021812838
200	0xbe7b2801	-0.24526979
201	0xbe274e5d	-0.16338487
202	0xbc4f9de1	-0.012671919
203	0x3e33ad8c	0.17546672
204	0xbdc23d13	-0.09484305
205	0x3df7ebb1	0.121055014
206	0xbdce6add	-0.10078976
207	0x3e8bb275	0.2728459
208	0x3d32c70a	0.04364685
209	0xbd0fc82a	-0.035103
210	0xbdb10c93	-0.086449765
211	0x3ce50eeb	0.027961215
212	0xbdf0fc2e	-0.117668495
213	0xbcd64018	-0.02615361
214	0x3e2bd42c	0.16780156
215	0x3e0cfe36	0.13768849
216	0xbe100d88	-0.14067662
217	0x3ddc153e	0.10746239
218	0xbe32a88c	-0.17447108
219	0xbd90dac7	-0.070729785
220	0x3e5b5102	0.21417621
221	0xbe0bd171	-0.13654114
222	0xbdf8a690	-0.12141144
223	0xbdfe4b80	-0.12416744
224	0x3e39364d	0.1808712
225	0xbd687f35	-0.05676194
226	0x3b0ea5b6	0.0021766252
227	0x3d82bcf1	0.06383694
228	0x3d55cdc7	0.052198198
229	0x3db66e74	0.08907786
230	0x3d9e1275	0.07718364
231	0x3d08fa25	0.03344168
232	0xbdcdef50	-0.10055411
233	0x3e997a2a	0.29976016
234	0xbd16aca6	-0.036785744
235	0xbd694067	-0.056946184
236	0x3ddfdb7c	0.10930535
237	0x3df5a1f0	0.11993778
238	0x3d11dcac	0.03561084
239	0xbe6fef41	-0.23431112
240	0xbe4ed3ce	-0.20197985
241	0x3e25b0a4	0.16180664
242	0x3cd4e8c1	0.025989892
243	0xbdbe3b72	-0.09288682
244	0x3d1e75c4	0.03868653
245	0x3d06f599	0.032949064
246	0x3d11fba2	0.035640366
247	0xbd8a2883	-0.06746008
248	0x3e6a9a1e	0.22910354
249	0xbd1eaff3	-0.038742017
250	0x3e2b767b	0.16744415
251	0xbe43adbc	-0.19109243
252	0x3e197638	0.14986503
253	0xbda5aad1	-0.08089221
254	0xbcae3286	-0.021264326
255	0xbb92a687	-0.004475418

critic.0.bias f4 [40]
0	0xbe10858e	-0.14113447
1	0xbe25a831	-0.16177441
2	0x3c17693d	0.009241399
3	0x3d98eeaa	0.074673966
4	0x3d21d391	0.039508406
5	0x3d8308fc	0.06398198
6	0xbe1e4fa0	-0.15460062
7	0x3b06f11b	0.0020590487
8	0xbd850c1c	-0.0649645
9	0xbdd9f561	-0.106425054
10	0xbcbe4358	-0.023225471
11	0xbdf32115	-0.11871544
12	0xbd8f2dab	-0.06991132
13	0x3da00e5c	0.07815239
14	0xbdcc9969	-0.09990198
15	0xbe4713db	-0.19441168
16	0x3d873d83	0.06603529
17	0x3e370544	0.17873102
18	0x3cf54209	0.029938715
19	0xbe008aa0	-0.12552881
20	0xbd12c83f	-0.0358355
21	0x3df0b157	0.11752575
22	0x3c4df773	0.0125712035
23	0x3d2920f7	0.041291203
24	0xbd13c3f7	-0.03607556
25	0x3dda80c6	0.10669093
26	0xbdf08843	-0.1174474
27	0xbe0183a2	-0.1264787
28	0xbd3fba96	-0.0468088
29	0x3dbe3ff8	0.09289545
30	0x3d4c7374	0.049914792
31	0xbe19ee04	-0.15032202
32	0x3c0da92c	0.008646291
33	0x3e294ec5	0.16533954
34	0x3dece9f4	0.115680605
35	0x3d4e725f	0.05040204
36	0x3af27424	0.0018497747
37	0xbd8927dd	-0.066970564
38	0x3e42a09a	0.19006577
39	0xbe1b0df8	-0.15142047

critic.2.weight f4 [32, 40]
0	0x3b9d779f	0.0048055197
1	0xbd0f8010	-0.03503424
2	0x3e225358	0.15852106
3	0x3e0f2af4	0.13981229
4	0x3bda8f2d	0.0066699
5	0x3c45648e	0.0120479
6	0xbd75fabb	-0.06005357
7	0xbd031393	-0.03200109
8	0x3de5a59d	0.11213229
9	0xbe2e0b28	-0.16996443
10	0xbdc815b1	-0.09769762
11	0xbda21f49	-0.079161234
12	0xbdc3f7d1	-0.095687516
13	0x3d15c79b	0.03656731
14	0xbe25d41f	-0.16194199
15	0x3d52634f	0.05136424
16	0xbddda948	-0.108233035
17	0x3e0012e1	0.12507202
18	0x3e24fbbe	0.16111657
19	0xbdf2cb33	-0.118551634
20	0xbe0d3b01	-0.1379204
21	0xbdce1ca3	-0.10064056
22	0xbdd70c3f	-0.10500383
23	0x3e456f53	0.19280748
24	0xb7b9bcff	-2.2141727e-05
25	0x3d106e25	0.035261292
26	0xbd56f0c8	-0.05247572
27	0xbe51c644	-0.20485789
28	0xbe1757bc	-0.14779562
29	0xbd6f9877	-0.05849501
30	0xbd1c22d0	-0.038119137
31	0xbd4e4d77	-0.050366845
32	0xbbaea68a	-0.0053299116
33	0x3deb52ce	0.11490403
34	0x3e36057c	0.1777553
35	0x3e6e5e5e	0.23278186
36	0x3dd1014b	0.10205325
37	0x3e4f200a	0.20227066
38	0xbc212b2d	-0.009836954
39	0xbc838ed2	-0.016059313
40	0x3c18bd41	0.009322465
41	0x3b3e2d72	0.0029018787
42	0xbe3488fc	-0.1763038
43	0x3d0ebee1	0.034850005
44	0xbe243f05	-0.16039665
45	0xbdbec612	-0.09315123
46	0xbcf6efa2	-0.030143563
47	0xbe47dc24	-0.1951757
48	0xbdd2ddb7	-0.10296195
49	0x3e4304ed	0.19044848
50	0x3d2fddce	0.04293614
51	0xbe17da6d	-0.14829417
52	0x3e2eb44f	0.1706097
53	0xbd68579f	-0.056724187
54	0x3d610263	0.054933917
55	0x3d933a69	0.07188875
56	0x3bf92b72	0.007604056
57	0xbe47cb4b	-0.19511144
58	0xbd9c2727	-0.07624655
59	0xbafb1d72	-0.0019158556
60	0xbd4a42b6	-0.049380027
61	0x3d111b54	0.035426453
62	0x3e4d1b4c	0.20029944
63	0xbe2d30a6	-0.16913089
64	0xbe2f650d	-0.17128392
65	0x3da79292	0.08182253
66	0x3e46e716	0.1942409
67	0xbdedf73b	-0.11619421
68	0xbd371356	-0.044696175
69	0xbe2af78d	-0.16695996
70	0x3cd0aa59	0.025471853
71	0xbd375ea1	-0.04476798
72	0x3de2b2de	0.110692725
73	0xbdfcce5f	-0.1234405
74	0xbdf488af	-0.11940133
75	0x3d90d39c	0.07071611
76	0xbe576704	-0.21035391
77	0x3d47113c	0.04860042
78	0x3c328ff1	0.010898576
79	0x3dc5b62e	0.09653889
80	0xbd936a1c	-0.07197973
81	0x3c20700f	0.009792342
82	0x3d88dbb5	0.06682531
83	0x3deb6126	0.11493139
84	0xbd9f28e1	-0.07771469
85	0xbdaf136a	-0.08548625
86	0xbdf6309c	-0.1202099
87	0x3e1cb56f	0.15303586
88	0x3de90509	0.113779135
89	0xbdffd1d6	-0.12491195
90	0xbc9953cd	-0.018716717
91	0x3e1b810d	0.15185948
92	0xbd8db56f	-0.06919371
93	0xbdec8d31	-0.115503676
94	0x3c595f51	0.013267354
95	0x3d598bb5	0.05311175
96	0x3c4be075	0.012443651
97	0x3cebe280	0.028794527
98	0xbd5e58c2	-0.054283865
99	0x3b0e47d7	0.00217103
100	0x3e082950	0.1329701
101	0xbdcc4840	-0.09974718
102	0xbe2c9496	-0.16853556
103	0xbdece1d4	-0.11566511
104	0x3dbec782	0.09315397
105	0xbe0e4ca0	-0.13896418
106	0xbd345a74	-0.044031575
107	0x3da7d748	0.081953585
108	0x3cd935f0	0.026514977
109	0xbd327226	-0.04356589
110	0xbd8dd9b7	-0.069262914
111	0xbd55fae8	-0.052241236
112	0xbddeb6b7	-0.10874694
113	0x3ccb61a0	0.024826825
114	0xbe3b0ec6	-0.18267354
115	0xbdca5ba0	-0.09880757
116	0xbe12d19d	-0.14337774
117	0x3e222c8f	0.1583731
118	0xbded822f	-0.11597096
119	0x3b070c6a	0.0020606765
120	0xbd7bb56e	-0.06145232
121	0xbd65fefb	-0.05615137
122	0xbe0acf08	-0.13555539
123	0x3d2f6dae	0.042829208
124	0x3dc4b886	0.096055076
125	0xbcfe4f9c	-0.03104382
126	0xbdd6f899	-0.10496635
127	0xbdc92d0a	-0.09823044
128	0xbdeeb31f	-0.116552584
129	0x3d41e830	0.047340572
130	0xbda8b701	-0.0823803
131	0xbd7c3c85	-0.061581153
132	0xbcebb305	-0.028771887
133	0xbd654c25	-0.05598082
134	0x3d84c7bb	0.06483408
135	0xbdbed8c8	-0.093186915
136	0xbe06df83	-0.131712
137	0x3d899828	0.067184746
138	0x3d84023b	0.06445738
139	0xbda2d69a	-0.07951088
140	0x3c6101d0	0.013733342
141	0xbcded1e8	-0.0271997
142	0x3c182259	0.009285533
143	0xbcc184df	-0.023622928
144	0xbd0039f1	-0.031305257
145	0xbe2c3228	-0.16816008
146	0xbb6196c0	-0.003442213
147	0xbbf7935c	-0.0075554084
148	0x3d825cd6	0.06365363
149	0x3c7fcd4a	0.01561291
150	0xbddc7a79	-0.10765547
151	0xbe09cb3b	-0.13456433
152	0xbc6febc8	-0.014643617
153	0x3e130cdd	0.14360376
154	0xbde3e7f0	-0.11128223
155	0x3e557593	0.20845632
156	0x3e8ee754	0.27910864
157	0xbbd9344f	-0.00662855
158	0xbd8a99f9	-0.06767649
159	0x3d15a33a	0.036532618
160	0xbd024145	-0.031800527
161	0xbd2dc5c6	-0.04242494
162	0x3e53849c	0.20656055
163	0xbd700689	-0.058599982
164	0xbe47bea5	-0.19506319
165	0x3d44bc2a	0.04803101
166	0xbc9bca62	-0.019017402
167	0x3c838ee7	0.016059352
168	0xbd95e9c4	-0.07319978
169	0xbe07e494	-0.1327079
170	0x3e26fec9	0.1630813
171	0x3d7a7e95	0.061155874
172	0x3d608eea	0.054823793
173	0x3bdd1b9d	0.0067476765
174	0xbc359786	-0.011083489
175	0xbe26d313	-0.16291456
176	0xbe093ce4	-0.13402134
177	0xbdace3f4	-0.08441916
178	0x3e0cb3aa	0.13740411
179	0x3dbff11e	0.09372161
180	0xbe362d4e	-0.1779072
181	0x3e1e5ee2	0.15465882
182	0xbe366f18	-0.17815816
183	0xbe1989ba	-0.14993945
184	0x3d9bbea3	0.076047204
185	0xbd160573	-0.03662629
186	0xbde178ad	-0.11009345
187	0xbcd77925	-0.026302883
188	0x3e057663	0.13033442
189	0x3e354cec	0.17705125
190	0xbd4ab279	-0.04948661
191	0x3df7f121	0.121065386
192	0x3d6ce812	0.057838507
193	0xbda34119	-0.07971401
194	0xbdc5d99c	-0.09660646
195	0xbdd80626	-0.10548048
196	0xbe14fa83	-0.14548688
197	0xbdbd6bda	-0.09249087
198	0xbdcc533d	-0.09976814
199	0x3dbfd87f	0.09367465
200	0xbb250cda	-0.0025184662
201	0xbe0c6ed4	-0.13714153
202	0xbd835506	-0.06412701
203	0x3d7cb91a	0.061699964
204	0xbb874516	-0.0041281087
205	0xbcaed62b	-0.021342358
206	0x3bbbb4b8	0.0057283305
207	0x3deb9b6b	0.11504253
208	0xbd2614be	-0.040547125
209	0x3e5e3df6	0.21703324
210	0x3d07f57d	0.0331931
211	0xbe2235da	-0.15840855
212	0x3de1662e	0.11005817
213	0xbdfc2f8f	-0.123137586
214	0xbc194a2e	-0.009356065
215	0xbdcc8d7a	-0.09987922
216	0x3e05bfb6	0.13061413
217	0x3ce5bff8	0.02804564
218	0x3dcaedd9	0.09908647
219	0x3dbd0963	0.09230306
220	0x3e1ebc96	0.15501627
221	0x3e4665eb	0.19374816
222	0x3e4a2f0a	0.19744506
223	0xbdb8d4e6	-0.09024982
224	0x3c726c47	0.014796323
225	0x3e0524ba	0.13002291
226	0x3d017f0a	0.031615295
227	0x3da89f3c	0.082334965
228	0x3d9a548f	0.075356595
229	0x390ce378	0.00013436179
230	0x3d65a5a4	0.05606617
231	0xbd7f8220	-0.062379956
232	0x3ca6c6d2	0.020358477
233	0xbb9b7de0	-0.00474523
234	0xbd75e824	-0.06003584
235	0xbe4adad5	-0.1981004
236	0xbdfffe39	-0.12499661
237	0x3e14e646	0.14540967
238	0xbd527f91	-0.051391188
239	0x3ce7ea22	0.028309885
240	0x3c8ff37b	0.017572155
241	0x3c3bd7da	0.011465037
242	0xbd56b92e	-0.052422695
243	0x3dceac20	0.10091424
244	0x3dc46a1b	0.095905505
245	0x3dfa51da	0.12222643
246	0xbdb79fcb	-0.08966025
247	0xbdcf188e	-0.10112105
248	0x3dd1b327	0.10239249
249	0x3cb654a5	0.022257159
250	0xbdfb809b	-0.12280389
251	0x3de6bfea	0.112670735
252	0x3e03c371	0.12867524
253	0x3c55f8b0	0.01305978
254	0xbdd2baeb	-0.10289558
255	0xbde6939d	-0.11258624

critic.2.bias f4 [32]
0	0x3e1abba6	0.15110645
1	0xbccf4cb3	-0.025305128
2	0xbdab2a64	-0.08357695
3	0x3d632fad	0.05546539
4	0x3d524286	0.051332973
5	0xbdfe5391	-0.12418283
6	0xbdedad7e	-0.11605357
7	0xbddff816	-0.109359905
8	0xbdde8598	-0.10865325
9	0x3e10f9b5	0.14157756
10	0x3e058fce	0.13043138
11	0x3db8155c	0.08988449
12	0xbe208ee9	-0.15679516
13	0xbd8b420d	-0.067997076
14	0x3d8eaa07	0.06966024
15	0x3d2a6f86	0.041610263
16	0x3d343be3	0.044002425
17	0x3d6fae22	0.058515675
18	0x3de707c9	0.11280782
19	0xbca04a79	-0.019566761
20	0xbd94843f	-0.072517864
21	0x3de65310	0.11246312
22	0x3e058d57	0.13042198
23	0xbdf2e927	-0.118608765
24	0x3c8f4c88	0.017492548
25	0xbdf81f02	-0.12115289
26	0x3cd05934	0.02543316
27	0x3db7c556	0.08973186
28	0xbd92c01b	-0.071655475
29	0x3d3d4bd7	0.046214905
30	0xbe5a1c03	-0.21299748
31	0xbe04d793	-0.1297286

critic.4.weight f4 [10, 32]
0	0x3d737d27	0.059445526
1	0xbe071e60	-0.13195181
2	0xbc423545	-0.011853521
3	0x3e3249bb	0.17410938
4	0xbc5d5ceb	-0.013510923
5	0xbd10937d	-0.035296906
6	0xbceaf1d4	-0.028679766
7	0x3cff17bf	0.031139253
8	0xbe005e24	-0.12535912
9	0x3ddfc7fd	0.109268166
10	0x3e080adf	0.13285397
11	0x3b6f970b	0.0036558534
12	0x3de4e974	0.1117734
13	0xbc1cf771	-0.009580479
14	0x3baf67cc	0.0053529497
15	0x3db0d279	0.086338945
16	0xbdb4fe07	-0.08837514
17	0x3e399adb	0.18125479
18	0xbcaa89c9	-0.020817654
19	0x3bcbda1c	0.006221069
20	0xbd17f04f	-0.03709441
21	0xbdcaa008	-0.09893805
22	0xbd8d879f	-0.06910633
23	0xbb8197f9	-0.003954884
24	0xbe06a752	-0.13149765
25	0xbdb84d10	-0.089990735
26	0xbc90dec8	-0.017684355
27	0x3d6a93fd	0.05727004
28	0xbdbe2eeb	-0.09286293
29	0x3dec51f5	0.115390696
30	0xbe1851f3	-0.14875011
31	0x3dbb3b89	0.09142215
32	0x3e4ca24f	0.19983791
33	0x3df0a408	0.117500365
34	0xbcd937dd	-0.026515896
35	0x3d4386cb	0.04773597
36	0xbe1e5f22	-0.15465978
37	0xbdcbf767	-0.099592976
38	0xbd451a87	-0.048121
39	0xbe43775b	-0.19088499
40	0x3e2697d0	0.1626885
41	0x3c46971d	0.012120989
42	0x3daa6631	0.08320273
43	0x3d00161f	0.031271096
44	0xbde3774d	-0.11106739
45	0x3dd797a9	0.10526974
46	0x3d735d66	0.059415244
47	0xbbd0a4fe	-0.006367325
48	0xbd5c9b1a	-0.053858854
49	0xbd14eb56	-0.036357246
50	0xbe33a834	-0.17544633
51	0x3e8a27f9	0.26983622
52	0x3e46d495	0.19417031
53	0x3dd83918	0.10557765
54	0xbdb9af69	-0.0906666
55	0xbdbf6fa3	-0.09347465
56	0xbdd76a1c	-0.10518286
57	0x3cb752d9	0.022378372
58	0xbc76846b	-0.015046219
59	0x3dfea445	0.12433676
60	0xbd15cbfb	-0.036571484
61	0x3d0ed5d1	0.03487188
62	0xbdfc4f95	-0.123198666
63	0xbe3c7992	-0.1840575
64	0x3e17cab3	0.14823417
65	0xbe5b7b8e	-0.21433851
66	0xbc8f3d4f	-0.017485289
67	0xbdd5613b	-0.10418936
68	0xbd90250b	-0.070383154
69	0xbd7ff915	-0.062493403
70	0x3dea2ca5	0.114342965
71	0xbe336c56	-0.17521796
72	0x3dc239e5	0.09483699
73	0x3cb49377	0.022042973
74	0xbdc0620f	-0.09393703
75	0xbde3f5ad	-0.11130843
76	0xbda63209	-0.08115012
77	0x3de88e60	0.11355281
78	0x3c4bf99d	0.012449649
79	0xbcefd294	-0.029275216
80	0xbd998a7c	-0.07497117
81	0x3e1815a7	0.1485201
82	0x3e0a49ba	0.13504687
83	0x3d86a826	0.065750405
84	0x3dac8e0e	0.08425532
85	0xbd5d229c	-0.053988084
86	0x3e1cebe3	0.15324359
87	0x3ddaa355	0.10675684
88	0xbdac41f8	-0.0841102
89	0x3e2cdb52	0.16880539
90	0xbda51a14	-0.08061615
91	0xbc8dd49b	-0.017313292
92	0x3dcb1a5f	0.09917139
93	0x3da6e759	0.08149595
94	0xbe20b27a	-0.15693083
95	0x3b6bbd20	0.0035970882
96	0x3da8a4d4	0.082345635
97	0xbe448491	-0.19191195
98	0xbd603c22	-0.054744847
99	0x3e0540eb	0.13013045
100	0xbce160e6	-0.027512025
101	0x3dc784bb	0.09742113
102	0x3c3772a5	0.011196767
103	0xbe1cf7ff	-0.15328978
104	0xbca2ec5a	-0.019888092
105	0x3e25f1e7	0.1620556
106	0xbd1e4ba0	-0.03864634
107	0x3ddc902e	0.107696876
108	0xbe1ace4f	-0.15117763
109	0xbe1fdd6a	-0.15611807
110	0xbc68f1c7	-0.0142178
111	0x3d7f0a63	0.062265765
112	0x3db59251	0.08865798
113	0x3ded6b0c	0.11592683
114	0x3e2da221	0.16956379
115	0xbb6e57f0	-0.0036368333
116	0xbd76e599	-0.060277555
117	0x3e6ba7b4	0.23013192
118	0x3d14fd73	0.03637452
119	0x3e080ac4	0.13285357
120	0xbe0ef24a	-0.13959613
121	0x3dbf9f6f	0.093565814
122	0xbe18dcde	-0.14928004
123	0x3df39f86	0.11895661
124	0xbd549173	-0.051896524
125	0x3dcf42c4	0.101201564
126	0xbe171bc2	-0.14756683
127	0x3c9be43b	0.019029727
128	0xbd4f5be6	-0.05062475
129	0xbe1bb946	-0.15207395
130	0xbd007d38	-0.031369418
131	0xbe09e6cc	-0.13466948
132	0xbdf2ab10	-0.11849034
133	0x3e4ff35a	0.20307675
134	0x3e1effb3	0.15527229
135	0x3e7a680e	0.24453756
136	0x3e18b9da	0.14914647
137	0xbe2aafa0	-0.16668558
138	0xbe1938f9	-0.1496314
139	0x3e0737c1	0.13204862
140	0xbdbabc78	-0.09117979
141	0xbe72f4bd	-0.23726173
142	0x3e332fb4	0.17498666
143	0xbe1bf739	-0.15231027
144	0xbd5e99e5	-0.054345984
145	0xbda7e95d	-0.081988074
146	0xbe4a35cb	-0.19747083
147	0x3ca6f1cb	0.020378968
148	0xbd3efe2e	-0.046629123
149	0xbda36224	-0.07977703
150	0xbdb5e85f	-0.08882212
151	0xbdb33bd6	-0.08751647
152	0x3e7469c5	0.23868473
153	0x3d958378	0.07300466
154	0x3d66e0a0	0.056366563
155	0xbddeafa1	-0.10873342
156	0x3e4265fa	0.18984213
157	0xbd61eaf4	-0.05515571
158	0x3d17463b	0.03693221
159	0x3d5c3dcd	0.053769875
160	0x3aed6bb5	0.0018113764
161	0x3dac0d4d	0.084009744
162	0x3d116517	0.035496797
163	0xbda4a018	-0.08038348
164	0xbcfc304e	-0.030784752
165	0xbdc15b3a	-0.09441228
166	0xbaaf7517	-0.0013386336
167	0x3dc5245a	0.09626074
168	0xbdf7f652	-0.12107529
169	0xbe06df45	-0.13171108
170	0x3d9b6192	0.075869694
171	0x3caa541b	0.020792058
172	0xbd9eecc2	-0.07760002
173	0xbddbfca4	-0.10741547
174	0x3ccc41bb	0.024933686
175	0x3d4dac4e	0.05021315
176	0xbdfe8eb2	-0.12429561
177	0x3e79fa7d	0.2441196
178	0x3dee230f	0.11627781
179	0x3e09d398	0.13459623
180	0xbc22b4c2	-0.009930791
181	0xbe1690c3	-0.1470366
182	0x3d5b8c94	0.053600863
183	0x3e1e87d8	0.15481508
184	0x3df9e71c	0.12202284
185	0x3e0d9b23	0.13828711
186	0xbe1ff69d	-0.15621419
187	0x3e4d4146	0.20044431
188	0x3e0800d5	0.13281567
189	0x3d8bd322	0.0682738
190	0xbddacfd6	-0.10684173
191	0x3d940cbf	0.072289936
192	0xbd88d3f4	-0.06681052
193	0xbe5fecf7	-0.21867739
194	0x3e0ef511	0.13960673
195	0x3df6069b	0.12012979
196	0x3cde214e	0.02711549
197	0xbbb3d51c	-0.005488051
198	0xbd3f12ef	-0.046648916
199	0x3c810ea0	0.015754044
200	0xbd767e9e	-0.060179345
201	0xbdd31b41	-0.10307933
202	0xbdaf5699	-0.08561439
203	0xbe058b02	-0.13041309
204	0xbe162185	-0.14661224
205	0xbe1c6492	-0.1527274
206	0xbda2bd38	-0.07946247
207	0x3df06775	0.11738483
208	0xbd845076	-0.06460659
209	0xbbf995a1	-0.007616714
210	0xbdec47c9	-0.115371294
211	0x3e82c74c	0.25542676
212	0x3e37ca62	0.17948297
213	0x3e3876f9	0.18014134
214	0xbd47604f	-0.04867583
215	0xbdd0b4b7	-0.101907186
216	0x3d794068	0.06085244
217	0xbc7afe53	-0.015319425
218	0x3de5ffb2	0.11230411
219	0x3cff0d97	0.03113441
220	0x3db993b3	0.090613745
221	0x3e4ecd53	0.20195512
222	0xbe325b32	-0.17417601
223	0xbe2412b0	-0.16022754
224	0xbdce69a4	-0.10078743
225	0x3dcb8415	0.09937302
226	0x3d287d6c	0.041135237
227	0xbcde7154	-0.027153648
228	0xbe771636	-0.24129567
229	0xbd70c923	-0.05878557
230	0xbdc777f6	-0.097396776
231	0x3e19bf24	0.1501432
232	0x3b9d6289	0.004803006
233	0xbe8bb3a7	-0.272855
234	0xbeb2749b	-0.34854588
235	0x3e4003b4	0.18751413
236	0xbd250e21	-0.040296678
237	0x3ca29177	0.019844754
238	0x3e73d5d1	0.23812033
239	0x3d3cc61f	0.04608738
240	0x3e246133	0.16052704
241	0x3dbbcced	0.09169946
242	0xbe3f2662	-0.18666986
243	0x3d89eb36	0.06734316
244	0xbd7f1118	-0.06227216
245	0xbd40f324	-0.047106877
246	0xbde381f5	-0.11108772
247	0xbe581c4e	-0.21104547
248	0x3e97aafe	0.29622644
249	0x3e129b76	0.14317116
250	0xbe392dc2	-0.18083861
251	0x3ce25d1c	0.027632289
252	0xbc0cb347	-0.008587665
253	0xbdb15299	-0.086583324
254	0x3e3fa929	0.18716873
255	0x3e819aac	0.25313318

critic.4.bias f4 [10]
0	0xbdc7768d	-0.09739409
1	0x3d418aed	0.04725163
2	0x3e58b3c1	0.2116232
3	0x3dbebe38	0.09313625
4	0x3d2e701a	0.042587377
5	0xbdbb8615	-0.091564335
6	0x3e155972	0.14584902
7	0xbd8f96be	-0.07011174
8	0xbd96a264	-0.07355192
9	0xbe42bb7c	-0.19016832

critic.6.weight f4 [1, 10]
0	0x3e1ac324	0.15113503
1	0x3ea5bd3e	0.32370943
2	0x3e904c45	0.2818319
3	0x3e8a9e82	0.27074057
4	0x3e6b9658	0.2300657
5	0x3e70efb6	0.23528942
6	0x3eac2ac1	0.3362637
7	0x3eb2dadb	0.34932598
8	0xbe64da72	-0.22348955
9	0x3e9ae10b	0.3024982
