Weight/222222/PPO_continuous_log.pth (torch_old, 19759 bytes, 13 tensors)

actor.0.weight f4 [28, 31]
0.098900385 0.026772756 0.029888563 0.17232765 -0.11032178 -0.12683786 0.112832755 0.12519942
-0.078571424 -0.14503624 -0.0926756 -0.13828714 -0.09945393 -0.13298066 0.11202387 -0.09811396
0.17331597 -0.0730688 0.11503142 -0.13420638 -0.1261049 -0.1521582 -0.078551374 -0.0723216
-0.22706676 0.19738069 0.11342762 0.12492043 0.011741283 -0.0040818793 -0.1227252 -0.12520792
0.050022796 -0.03314732 -0.075890325 -0.10069128 -0.00834837 0.11681973 0.041352455 0.039627932
-0.049243122 -0.02880448 0.15892455 -0.0339571 -0.041474365 0.017275628 0.0992838 0.15426148
-0.027309772 -0.061636943 -0.10243786 0.09131059 0.09212911 -0.11864176 -0.056947563 0.18253098
0.11336166 0.0695097 -0.04910154 0.085136026 0.12813604 0.09703117 0.03226751 0.10326292
0.1397893 0.016403424 0.13807036 0.20011632 -0.08448165 -0.038633842 -0.057483003 0.070913374
0.18619566 0.124557726 0.091539346 -0.13071369 0.11775288 -0.11461597 -0.0010575027 0.08817577
0.02238807 0.11567858 0.0054732016 0.034871433 -0.111073464 -0.033850767 -0.02572938 0.07547027
-0.06586143 0.0023033225 0.16214132 -0.046306025 0.18524522 0.072373115 0.08468669 -0.12067033
0.15538777 -0.148565 0.08767395 -0.012695456 -0.044781752 0.16399501 0.11374409 -0.04913524
-0.014373586 -0.028082622 0.102473244 0.10497546 0.1272161 -0.0329404 0.004868645 -0.025876708
0.06436641 -0.06507418 -0.12065962 -0.062766954 0.030337188 0.14639448 -0.06399741 0.1105822
-0.032269277 -0.054359674 -0.019148849 -0.1496069 0.15804976 -0.1747493 0.11347105 0.09412228
0.17058484 -0.05095107 0.00029657115 -0.22124574 0.07241877 0.02051232 -0.15574807 -0.056276772
-0.14081717 0.057553153 -0.021951575 -0.049974523 0.02445699 0.108682655 0.11374962 0.121913955
0.0863182 -0.049397893 0.025041694 0.16109987 0.048116047 -0.13343121 -0.10852289 0.14177118
-0.0095545035 -0.08947714 0.035439894 0.07454858 0.16880906 -0.08930616 0.12555206 0.039613564
0.06051516 0.13939556 0.03031281 -0.09066933 0.12423747 0.128736 0.1785254 0.018831545
0.101340696 -0.06711802 -0.02931494 0.054659456 -0.1915493 0.18669789 -0.10756406 -0.026241073
-0.005284217 -0.02247343 0.0009516339 0.1521212 0.036822807 -0.12999834 0.14972197 -0.052811302
0.11127711 0.16546284 0.09009434 0.0864848 0.136515 0.13444893 0.17451937 0.11262951
0.03254525 0.033638034 0.057478733 -0.07939673 -0.062401854 -0.03660034 0.085560985 0.15330149
-0.09102887 0.0401391 0.007617814 0.13280553 -0.036031485 -0.023884173 0.097816125 0.20020205
0.057876397 0.17236543 -0.26081407 0.017801853 0.045871593 0.035542257 0.078958645 -0.0766154
-0.09473285 0.16513322 -0.07315462 -0.1458571 0.07222964 0.10323834 -0.16190735 0.14969032
-0.0069574406 -0.13614726 -0.032541614 -0.13376302 0.07307207 -0.101198725 0.025632143 0.011928756
0.016832748 -0.09458137 -0.15282024 -0.12892255 -0.1512028 -0.077703394 0.11234691 -0.013777645
0.15414862 0.009921488 0.15486512 0.1300698 0.037154462 0.084020466 -0.0058743125 -0.021046894
-0.0644266 -0.1326058 0.02842458 -0.14897102 0.013106832 -0.13057192 0.025443127 -0.07821188
00000000: 498c ca3d 8a52 db3c dcd8 f43c a976 303e
00000010: 63f0 e1bd c9e1 01be dc14 e73d 4734 003e
00000020: 0eea a0bd 6184 14be b4cc bdbd 259b 0dbe
00000030: 81ae cbbd 152c 08be c56c e53d f9ef c8bd
00000040: be79 313e 18a5 95bd 9895 eb3d 666d 09be
00000050: a521 01be 5ccf 1bbe 8bdf a0bd 591d 94bd
00000060: 3084 68be 2a1e 4a3e bd4c e83d 48d6 ff3d
00000070: 835e 403c 49c1 85bb 5a57 fbbd 8136 00be
00000080: b4e4 4c3d 7cc5 07bd 636c 9bbd 3b37 cebd
00000090: 9ac7 08bc 2f3f ef3d 3161 293d e650 223d
000000a0: 28b3 49bd 5ff7 ebbc 1ebd 223e 9a16 0bbd
000000b0: 06e1 29bd 9e85 8d3c 4e55 cb3d b9f6 1d3e
000000c0: beb8 dfbc 0577 7cbd f1ca d1bd 0c01 bb3d
000000d0: 30ae bc3d 73fa f2bd d941 69bd 67e9 3a3e
000000e0: 282a e83d 1a5b 8e3d b21e 49bd cc5b ae3d
000000f0: 1836 033e 47b8 c63d f02a 043d 837b d33d
00000100: ed24 0f3e 7960 863c 5162 0d3e 4beb 4c3e
00000110: b704 adbd 853e 1ebd 4c73 6bbd 083b 913d
00000120: 13aa 3e3e 1f18 ff3d fb78 bb3d cfd9 05be
00000130: 6c28 f13d c7bb eabd e79b 8aba 8095 b43d
00000140: 3067 b73c e4e8 ec3d 8b58 b33b 59d5 0e3d
00000150: 7c7a e3bd 1aa7 0abd 6cc6 d2bc 2890 9a3d
00000160: 5be2 86bd 57f3 163b 6008 263e 63ab 3dbd
00000170: ecb0 3d3e 5b38 943d 3770 ad3d 0222 f7bd
00000180: f91d 1f3e 6c21 18be 668e b33d 9a00 50bc
00000190: 126d 37bd 4fee 273e a9f2 e83d 0942 49bd
000001a0: 307f 6bbc 870d e6bc 7edd d13d 60fd d63d
000001b0: f044 023e 83ec 06bd 2889 9f3b 64fb d3bc
000001c0: 89d2 833d 9d45 85bd 641c f7bd f68b 80bd
000001d0: b285 f83c 6fe8 153e 1311 83bd ec78 e23d
000001e0: ca2c 04bd 40a8 5ebd 0cde 9cbc 8d32 19be
000001f0: ccd7 213e 7bf1 32be 8363 e83d 2fc3 c03d
00000200: cbad 2e3e 12b2 50bd 1b7d 9b39 3e8e 62be
00000210: 4b50 943d 7409 a83c 6c7c 1fbe 7982 66bd
00000220: 6032 10be dbbc 6b3d cad3 b3bc 16b2 4cbd
00000230: 075a c83c 0395 de3d 90f5 e83d 06ae f93d
00000240: 99c7 b03d 7255 4abd 3d24 cd3c 5df7 243e
00000250: 5515 453d 31a2 08be 4041 debd 772c 113e
00000260: 7e8a 1cbc ca3f b7bd 6c29 113d edac 983d
00000270: 48dc 2c3e 26e6 b6bd b890 003e d541 223d
00000280: bfde 773d b6bd 0e3e 9252 f83c d7b0 b9bd
00000290: 3770 fe3d 5fd3 033e 5dcf 363e 9d44 9a3c
000002a0: b68b cf3d 2c75 89bd e325 f0bc 98e2 5f3d
000002b0: 8025 44be bb2d 3f3e 8c4a dcbd 85f7 d6bc
000002c0: 3a27 adbb 331a b8bc 1277 793a a9c5 1b3e
000002d0: 83d3 163d 491e 05be b750 193e aa50 58bd
000002e0: 41e5 e33d 176f 293e 6283 b83d f11e b13d
000002f0: 97ca 0b3e fbac 093e 35b5 323e 4daa e63d
00000300: 2b4e 053d 09c8 093d d26e 6b3d c19a a2bd
00000310: 1699 7fbd 3dea 15bd 993a af3d 11fb 1c3e
00000320: 586d babd e668 243d db9e f93b 2cfe 073e
00000330: c095 13bd bea8 c3bc d253 c83d c401 4d3e
00000340: cd0f 6d3d 9080 303e 6c89 85be 31d5 913c
00000350: dae3 3b3d c294 113d 12b5 a13d 89e8 9cbd
00000360: 4c03 c2bd af18 293e 17d2 95bd 905b 15be
00000370: 22ed 933d 9f6e d33d 0acb 25be 6b48 193e
00000380: 3efb e3bb 306a 0bbe 5b4a 05bd 2cf9 08be
00000390: cfa6 953d 4741 cfbd 80fa d13c d470 433c
000003a0: d5e4 893c e1b3 c1bd e97c 1cbe 4604 04be
000003b0: e8d4 1abe f522 9fbd 2316 e63d a2bb 61bc
000003c0: 23d9 1d3e bd8d 223c f694 1e3e 0531 053e
000003d0: 472f 183d ec12 ac3d 4e7d c0bb 896a acbc
000003e0: 18f2 83bd d1c9 07be aada e83c dc8b 18be
000003f0: 0abe 563c a5b4 05be 1b6e d03c 8d2d a0bd

actor.0.bias f4 [28]
0.13079265 0.11731031 -0.13132988 -0.05254779 -0.08617376 -0.03881155 -0.05594368 0.08546454
-0.026862249 -0.06357534 -0.104966976 -0.1726414 -0.1491513 -0.00020086036 -0.0314322 0.0071462872
-0.13667645 0.09140583 0.028877372 -0.072511315 -0.14700271 0.14810948 0.0711873 -0.010841894
0.16212247 0.13554394 -0.13639894 0.0049578464
00000000: 82ee 053e 6340 f03d 577b 06be 5a3c 57bd
00000010: de7b b0bd dcf8 1ebd 3325 65bd 0808 af3d
00000020: 380e dcbc ca33 82bd edf8 d6bd e8c8 30be
00000030: 1ebb 18be 0b9e 52b9 0dbf 00bd 672b ea3b
00000040: e9f4 0bbe fb32 bb3d 3d90 ec3c d080 94bd
00000050: e187 16be 03aa 173e a6ca 913d 33a2 31bc
00000060: 6f03 263e 08cc 0a3e 2aac 0bbe 6e75 a23b

actor.2.weight f4 [14, 28]
-0.024526447 -0.08831712 0.015153469 0.01781643 0.2271293 -0.05427816 0.029031562 0.12798516
0.0591702 0.14990953 0.10515991 -0.1326005 -0.08116125 -0.01959617 0.060423207 0.07014499
0.09472384 0.17022085 -0.068722114 -0.17481558 -0.057620272 0.2084463 -0.14634855 -0.09571446
0.022195254 0.120151155 0.20105532 0.019557498 0.18174034 0.09088545 -0.03244761 0.15013285
0.05508153 0.08123153 -0.03341437 0.07865565 -0.1535815 -0.01165717 0.102160424 0.1623622
-0.10087046 -0.14554845 -0.1723404 0.14905664 -0.13588671 -0.007973644 0.18100806 -0.09484245
0.027092589 -0.021685896 0.13791282 0.059660163 -0.0072705685 -0.01449039 -0.08608728 -0.11974685
-0.003630593 0.14777263 0.015769526 0.004350759 -0.020078061 0.14220092 -0.20585817 0.16155389
-0.013752158 0.007375997 0.20255864 0.117420964 -0.07785974 0.05461766 -0.1584792 -0.18122967
-0.016862331 -0.13327077 0.08753661 0.025573626 -0.06175248 -0.16620755 0.11254619 -0.11534794
0.12456719 -0.21083793 0.072298534 -0.11507848 -0.14127286 0.06166726 0.12387284 -0.055541806
-0.19534618 0.07810014 -0.19124281 -0.10314475 -0.03289791 0.21899717 0.016192013 0.037702724
-0.006354546 -0.12681974 0.13613552 -0.16088468 0.20302714 -0.008953044 -0.1814318 0.09036414
-0.05904276 0.058364734 -0.01047668 -0.014594739 -0.13823748 -0.16737705 0.0074121417 -0.07185917
0.16585743 -0.20205308 -0.1771466 -0.08595945 -0.15712187 0.09320645 0.121089645 0.15845174
-0.06346133 0.12703325 -0.21649554 0.041854724 0.21914417 -0.006839846 0.14883439 -0.07753551
-0.11734693 -0.114909336 -0.11154671 0.15752473 -0.11965872 0.013269332 0.09204706 -0.15668897
-0.10768528 0.129395 0.028019167 -0.17243584 -0.10001353 0.019758645 -0.17649497 -0.09125109
0.24715567 0.07612029 -0.11584155 0.014776841 0.19201593 -0.14350085 0.0076212436 -0.12481873
-0.076462135 0.17007868 0.17238382 -0.1091208 -0.018292313 0.08961296 0.12892452 0.010357593
-0.14975849 0.11119145 0.0130209755 -0.0077802488 -0.058410294 -0.080727234 -0.17491046 0.13120927
-0.0059509045 -0.07733873 0.033357598 0.06535733 -0.17847988 -0.045575436 0.124079 0.2213313
0.060470518 0.16528843 -0.09214358 -0.014503999 -0.14042024 0.19076464 -0.10724314 -0.20811959
0.079858534 -0.08032722 -0.049107917 0.22363257 -0.14153032 0.12115113 -0.16427347 -0.12242716
0.001573138 0.14680415 -0.2041016 0.16073555 -0.10951032 0.19907336 -0.120993115 0.102562405
0.03084153 0.10796783 -0.0009110066 0.075595945 0.0322761 -0.13338482 0.16633181 0.07195015
-0.0032507915 0.05990315 -0.13410279 -0.052975986 -0.09282689 -0.12832204 -0.028657759 -0.14738557
0.15265095 -0.1555413 -0.065847546 -0.044314053 -0.14767002 0.018254964 0.20938937 -0.031501807
0.1339976 0.098071 -0.088705786 0.14506172 0.1589989 0.19583732 -0.22161111 0.15683097
0.088488534 -0.018544693 0.08258982 -0.17261791 -0.13167416 -0.1901133 -0.1200879 -0.042220347
-0.013834792 -0.104498096 -0.08805317 0.03434688 -0.15236646 -0.11429858 -0.16536853 -0.058031864
-0.1549839 0.12567744 0.055987485 0.113386445 0.1273627 0.084035866 0.017285932 0.19205298
00000000: b0eb c8bc 9bdf b4bd 4146 783c c3f3 913c
00000010: 9594 683e c752 5ebd 99d3 ed3c 8b0e 033e
00000020: 745c 723d e281 193e 145e d73d 6dc8 07be
00000030: df37 a6bd 2688 a0bc 537e 773d 2da8 8f3d
00000040: 93fe c13d 604e 2e3e 2ebe 8cbd db02 33be
00000050: 3c03 6cbd f272 553e 65dc 15be f105 c4bd
00000060: d2d2 b53c cf11 f63d 72e1 4d3e 0c37 a03c
00000070: 241a 3a3e 2722 ba3d c9e7 04bd 6dbc 193e
00000080: 2c9d 613d b75c a63d 82dd 08bd 3716 a13d
00000090: 7844 1dbe b7fd 3ebc 7c39 d13d 4742 263e
000000a0: 2c95 cebd a70a 15be 007a 30be 4ea2 183e
000000b0: e325 0bbe e3a3 02bc 2d5a 393e c23c c2bd
000000c0: 47f1 dd3c 9fa6 b1bc 0539 0d3e 375e 743d
000000d0: f33d eebb 1a69 6dbc 874e b0bd d63d f5bd
000000e0: 3eef 6dbb b551 173e 182f 813c d090 8e3b
000000f0: bf7a a4bc 1e9d 113e 7ccc 52be 626e 253e
00000100: bb50 61bc 59b2 f13b 886b 4f3e 677a f03d
00000110: ed74 9fbd c4b6 5f3d 5f48 22be 4594 39be
00000120: df22 8abc 2278 08be 6546 b33d c87f d13c
00000130: 2bf0 7cbd 5032 2abe 9e7e e63d 8a3b ecbd
00000140: 151d ff3d e6e5 57be 4111 943d 44ae ebbd
00000150: d5a9 10be cf96 7c3d 0bb1 fd3d ce7f 63bd
00000160: d408 48be f7f2 9f3d 28d5 43be 8e3d d3bd
00000170: f5bf 06bd cb40 603e 1da5 843c 2c6e 1a3d
00000180: cc39 d0bb 09dd 01be 1c67 0b3e f4be 24be
00000190: 59e6 4f3e caaf 12bc 42c9 39be d610 b93d
000001a0: d2d6 71bd dc0f 6f3d 61a6 2bbc c61e 6fbc
000001b0: 208e 0dbe e464 2bbe 8de1 f23b e72a 93bd
000001c0: 88d6 293e 01e7 4ebe eb65 35be 820b b0bd
000001d0: 8ee4 20be 06e3 be3d d9fd f73d 2c41 223e
000001e0: 04f8 81bd 0115 023e 02b1 5dbe dc6f 2b3d
000001f0: 5467 603e c920 e0bb 0b68 183e f0ca 9ebd
00000200: 9653 f0bd 9655 ebbd 9a72 e4bd 2a4e 213e
00000210: a20f f5bd 9d67 593c 2b83 bc3d 1373 20be
00000220: 1a8a dcbd 1f80 043e 7488 e53c 0593 30be
00000230: e5d3 ccbd e2dc a13c 19bb 34be dae1 babd
00000240: 6016 7d3e f4e4 9b3d 563e edbd 901a 723c
00000250: d39f 443e e3f1 12be a0bb f93b f6a0 ffbd
00000260: 2e98 9cbd 1b29 2e3e 6285 303e ba7a dfbd
00000270: c3d9 95bc 0087 b73d ca04 043e e5b2 293c
00000280: 4a5a 19be 58b8 e33d ee55 553c 75f1 febb
00000290: a23f 6fbd 5254 a5bd ba1b 33be b95b 063e
000002a0: ceff c2bb c563 9ebd faa1 083d 10da 853d
000002b0: 6ec3 36be 4fad 3abd 211d fe3d aca4 623e
000002c0: efaf 773d 5f41 293e c6b5 bcbd 2ea2 6dbc
000002d0: 53ca 0fbe ce57 433e 4ba2 dbbd 4d1d 55be
000002e0: df8c a33d 9982 a4bd 6225 49bd f0ff 643e
000002f0: 53ed 10be 151e f83d 4e37 28be 17bb fabd
00000300: c131 ce3a d453 163e 0300 51be dc97 243e
00000310: f246 e0bd e3d9 4b3e 3dcb f7bd 3d0c d23d
00000320: 60a7 fc3c 3d1e dd3d 9ed0 6eba 0cd2 9a3d
00000330: f233 043d 0896 08be e352 2a3e 9a5a 933d
00000340: 3b0b 55bb 015d 753d 3e52 09be 59fd 58bd
00000350: 061c bebd da66 03be adc3 eabc 3eec 16be
00000360: 8850 1c3e 3846 1fbe 14db 86bd a782 35bd
00000370: cf36 17be 6f8b 953c 2b6a 563e 0a08 01bd
00000380: ab36 093e 73d9 c83d 61ab b5bd 0f8b 143e
00000390: 9cd0 223e 9489 483e 06ee 62be 4c98 203e
000003a0: 7a39 b53d 0aeb 97bc da24 a93d c0c2 30be
000003b0: 97d5 06be 10ad 42be a5f0 f5bd 3eef 2cbd
000003c0: 53ab 62bc 1903 d6bd 3855 b4bd 50af 0c3d
000003d0: f405 1cbe 6015 eabd 5e56 29be d2b2 6dbd
000003e0: 19b4 1ebe 96b1 003e 2253 653d 2737 e83d
000003f0: 5e6b 023e ff1a ac3d 3a9b 8d3c 89a9 443e

actor.2.bias f4 [14]
-0.10812233 -0.0018742814 -0.05094366 0.19526193 -0.14058349 -0.09592694 0.008172793 0.11354574
-0.13788523 0.0936899 0.04538929 -0.056688283 0.03313354 -0.12683755
00000000: 3d6f ddbd 73aa f5ba 4daa 50bd bef2 473e
00000010: 1ef5 0fbe 5875 c4bd 2ee7 053c ab8a e83d
00000020: c931 0dbe 7ee0 bf3d 1fea 393d f931 68bd
00000030: 09b7 073d b4e1 01be

actor.4.weight f4 [7, 14]
0.04638988 0.23579182 -0.25978503 -0.2990766 0.23546259 0.26535684 -0.24947584 0.26247823
0.012392335 0.12177209 -0.23275843 -0.17733799 0.22838166 0.21533892 -0.05932391 0.01857773
-0.33243337 0.27808863 0.11202104 -0.24939643 0.03069313 0.068189375 0.14468774 0.067898326
0.25307846 0.1790376 -0.112617865 0.25118047 0.23429047 0.28748256 -0.029675901 -0.16971152
0.02664063 0.10813188 -0.00781287 0.0065904893 0.063453846 0.20942065 -0.22109117 -0.20825687
-0.21277875 -0.18244746 0.28536436 -0.18920512 0.2348599 0.051169652 0.12665465 0.24781069
-0.2274025 0.11147796 0.0831202 0.008639229 0.25110558 0.27230057 -0.1926875 0.081347264
-0.017178684 0.18595567 0.16965458 -0.17334758 0.22426046 0.059499007 -0.18874855 -0.22780898
-0.12021815 0.14841826 -0.20781286 0.16157109 -0.02032385 0.0394661 0.1774078 0.00021405902
-0.13376452 0.0078002177 -0.12884596 0.27022704 0.16466779 -0.01976752 0.26796925 0.16282506
0.028100315 0.084265865 0.23496012 -0.17478587 -0.2581559 0.19252883 -0.03155527 0.11586306
0.1807882 0.12442055 0.16099723 0.20400096 0.06992212 -0.14346237 0.06280246 -0.16581482
-0.22183089 -0.030094566
00000000: 5103 3e3d 6973 713e 8b02 85be 9120 99be
00000010: 1b1d 713e dadc 873e 9876 7fbe 8c63 863e
00000020: 3809 4b3c a563 f93d 3a58 6ebe 1798 35be
00000030: e2dc 693e ce81 5c3e a1fd 72bd 5330 983c
00000040: b534 aabe a261 8e3e 496b e53d c761 7fbe
00000050: 2970 fb3c dfa6 8b3d 0629 143e 470e 8b3d
00000060: 8093 813e a255 373e 32a4 e6bd ba9a 803e
00000070: d7e9 6f3e ea30 933e e01a f3bc dbc8 2dbe
00000080: 733d da3c 3f74 dd3d 8d01 00bc 08f5 d73b
00000090: 17f4 813d 5e72 563e b965 62be 4a41 55be
000000a0: ace2 59be 82d3 3abe 471b 923e fdbe 41be
000000b0: 1d7f 703e 4597 513d c2b1 013e 16c2 7d3e
000000c0: 33dc 68be 8f4e e43d ec3a aa3d 8e8b 0d3c
000000d0: e990 803e fb6a 8b3e df4f 45be 6599 a63d
000000e0: 50ba 8cbc 2a6b 3e3e eeb9 2d3e 0782 31be
000000f0: 89a4 653e 3bb5 733d 4d47 41be c246 69be
00000100: ef34 f6bd f5fa 173e e5cc 54be e472 253e
00000110: 347e a6bc 35a7 213d 64aa 353e 0875 6039
00000120: 91f9 08be f898 ff3b 32f0 03be 335b 8a3e
00000130: ac9e 283e 7eef a1bc 4433 893e 9dbb 263e
00000140: a232 e63c 9593 ac3d 6399 703e 11fb 32be
00000150: 032d 84be 4726 453e 1940 01bd 9d49 ed3d
00000160: 8b20 393e 34d0 fe3d 75dc 243e a1e5 503e
00000170: 5433 8f3d cde7 12be 939e 803d 5ccb 29be
00000180: a327 63be e188 f6bc

actor.4.bias f4 [7]
-0.102219656 -0.09073265 0.20608804 -0.26195717 0.05087292 0.05574356 -0.09969811
00000000: 8a58 d1bd 0ad2 b9bd be08 533e 401f 86be
00000010: 1f60 503d 5c53 643d 862e ccbd

critic.0.weight f4 [40, 31]
0.10213394 -0.22727908 -0.030293077 -0.04584968 0.20705576 -0.16998696 0.022486009 0.031760186
-0.16804945 -0.023970874 0.05524976 -0.10617163 -0.074797906 0.03105874 0.039486963 0.15337226
0.24739267 -0.01763295 0.190295 0.19522466 -0.00060602603 -0.01948281 0.0803927 -0.017760454
-0.12235271 -0.038274333 -0.10756964 0.015503708 0.06932624 0.0042673517 0.1762204 -0.033462096
0.04613933 -0.10554091 0.009827058 0.11788768 -0.09569213 0.020619782 0.06581226 -0.10199192
0.150088 0.025950376 -0.16019686 0.031592358 0.03469272 -0.25194982 0.08034194 0.15588306
0.11688288 0.07311282 -0.13130572 0.008601277 -0.16145195 -0.14893661 -0.02419231 0.010835981
-0.037961125 -0.02530954 0.12497347 0.16267164 0.029237334 -0.015318497 0.15429617 -0.100872345
-0.14618036 0.12675068 0.20123744 0.13050406 0.08127198 -0.012364326 -0.060778935 0.21290271
0.18623206 -0.07165607 -0.06816444 0.031236375 0.14602812 0.07077966 0.03690406 -0.10388098
0.011367727 -0.14818351 -0.1336947 -0.3235405 0.046398014 0.18158177 0.16779293 -0.079303905
0.11519081 -0.066515416 -0.056595128 0.005406352 -0.1270035 0.17775974 -0.15683275 -0.2169962
-0.13983963 0.11258205 0.017947592 -0.078900665 0.112479806 0.2193863 0.13851923 -0.07662112
0.08875998 -0.030448344 0.063376196 -0.0705964 0.12334854 -0.029180588 0.09769223 0.099413484
-0.039950546 -0.18430422 -0.11111741 -0.018533742 0.25809404 0.1288012 0.1374611 0.13293345
-0.059914913 -0.081085145 -0.16624819 -0.030457085 0.029118624 -0.17377055 -0.13796112 -0.14780757
-0.06358578 0.018191077 -0.06361199 -0.04910169 -0.10867769 0.078591056 -0.04649094 0.075916275
0.23188932 -0.1272129 -0.12497137 -0.10276409 0.07135786 -0.08489796 0.21900728 -0.10299237
0.05217571 -0.1395058 0.14746472 0.09887385 0.09213393 0.025406124 -0.17735137 -0.09954258
-0.008596208 0.104985006 -0.07093245 -0.04223429 0.10645767 0.03276009 0.08459634 0.020044792
0.106302686 0.03594316 -0.09153334 0.17553522 0.113427565 -0.01424501 0.20859468 0.08496923
0.033996332 -0.09270498 0.13263392 0.06841564 -0.07772008 0.031835105 -0.10190111 -0.16675624
0.07948548 0.036178917 0.20004718 -0.01176725 -0.1273224 -0.091845706 -0.15490007 -0.14589205
-0.15661532 -0.16458003 -0.042115774 0.033823814 -0.09677121 -0.08529057 -0.122149 0.059956647
0.008520323 -0.17386614 -0.018290289 -0.14940013 -0.023795594 -0.022903536 0.15452832 0.17235266
0.119892776 0.11010716 0.0055211033 0.00047569253 -0.03520686 -0.13590021 -0.078746684 0.061926115
-0.0743129 0.044813734 -0.017707372 0.060819965 -0.07632601 -0.048142795 0.22524345 0.060305048
-0.027949035 -0.20150796 0.14196484 0.10340037 0.010305248 -0.014946588 -0.12181341 0.09914993
0.103750415 0.11301168 -0.033108335 0.06010713 -0.0102137355 -0.058937326 0.03294565 -0.048714872
-0.053558785 -0.037232105 -0.051148087 -0.22906932 0.08488695 0.15738724 -0.18860504 -0.011524618
-0.033053204 0.121386625 -0.02759716 -0.13303435 -0.22782479 0.09960954 0.15985666 0.008911994
-0.16717407 0.15451217 -0.009208044 0.10252829 -0.018213456 0.03899035 -0.20937724 -0.047919586
00000000: 992b d13d d9bb 68be 3029 f8bc e0cc 3bbd
00000010: 6d06 543e 1011 2ebe 9434 b83c f816 023d
00000020: 2815 2cbe 915e c4bc 934d 623d 8370 d9bd
00000030: a52f 99bd e66e fe3c 15bd 213d 9e0d 1d3e
00000040: 8154 7d3e fa72 90bc b1dc 423e f9e8 473e
00000050: b8dd 1eba 6a9a 9fbc eea4 a43d 5f7e 91bc
00000060: 0f94 fabd 8cc5 1cbd 794d dcbd 4403 7e3c
00000070: eafa 8d3d 24d5 8b3b 1f73 343e 8d0f 09bd
00000080: 98fc 3c3d d525 d8bd ab01 213c 196f f13d
00000090: 3cfa c3bd d1ea a83c 94c8 863d 24e1 d0bd
000000a0: abb0 193e e295 d43c a50a 24be fd66 013d
000000b0: f419 0e3d 91ff 80be 518a a43d cf9f 1f3e
000000c0: 4b60 ef3d 2dbc 953d 0275 06be 5fec 0c3c
000000d0: a953 25be d782 18be f42e c6bc 6689 313c
000000e0: 207d 1bbd f455 cfbc 17f2 ff3d 6593 263e
000000f0: 2283 ef3c 6ffa 7abc d1ff 1d3e 2996 cebd
00000100: 4eb0 15be eeca 013e 3011 4e3e dba2 053e
00000110: ed71 a63d be93 4abc 55f3 78bd 2b03 5a3e
00000120: 9eb3 3e3e 6bc0 92bd cc99 8bbd 6de3 ff3c
00000130: 6588 153e edf4 903d b628 173d 8dbf d4bd
00000140: b43f 3a3c 6bbd 17be 43e7 08be 1aa7 a5be
00000150: d80b 3e3d 92f0 393e e9d1 2b3e 166a a2bd
00000160: 29e9 eb3d 3c39 88bd 4bd0 67bd c527 b13b
00000170: 350d 02be a606 363e c498 20be 4034 5ebe
00000180: 1f32 0fbe 6b91 e63d d406 933c ac96 a1bd
00000190: d05b e63d cda6 603e fcd7 0d3e 89eb 9cbd
000001a0: cbc7 b53d ce6e f9bc 61cb 813d d894 90bd
000001b0: 299e fc3d 210c efbc dd12 c83d 4c99 cb3d
000001c0: 2fa3 23bd 3fba 3cbe 8691 e3bd 13d4 97bc
000001d0: e724 843e 76e4 033e 9ac2 0c3e b51f 083e
000001e0: 5769 75bd f80f a6bd f73c 2abe 2381 f9bc
000001f0: 2e8a ee3c e8f0 31be ae45 0dbe de5a 17be
00000200: 4339 82bd 7405 953c 0147 82bd db1e 49bd
00000210: 6992 debd 59f4 a03d 496d 3ebd fe79 9b3d
00000220: 6574 6d3e 1944 02be fdf0 ffbd fb75 d2bd
00000230: 1224 923d fbde adbd 7243 603e aaed d2bd
00000240: 33b6 553d 9cda 0ebe fe00 173e 607e ca3d
00000250: b7b0 bc3d 8120 d03c 999b 35be fbdc cbbd
00000260: 1cd7 0cbc 6102 d73d 0845 91bd ddfd 2cbd
00000270: 7b06 da3d 722f 063d d940 ad3d fa34 a43c
00000280: 39b5 d93d 2339 133d d575 bbbd 81bf 333e
00000290: b64c e83d e763 69bc d899 553e 5904 ae3d
000002a0: bd3f 0b3d 1cdc bdbd 30d1 073e 801d 8c3d
000002b0: b52b 9fbd 8765 023d 87b1 d0bd 26c2 2abe
000002c0: 49c9 a23d 5830 143d 2bd9 4c3e 6ccb 40bc
000002d0: ce60 02be 9a19 bcbd 209e 1ebe ba64 15be
000002e0: c45f 20be ab87 28be 9781 2cbd d78a 0a3d
000002f0: fc2f c6bd d3ac aebd 4129 fabd 1a95 753d
00000300: d398 0b3c f709 32be 84d5 95bc 59fc 18be
00000310: faee c2bc 32a0 bbbc ac3c 1e3e 377d 303e
00000320: 588a f53d dd7f e13d 5fea b43b 5f66 f939
00000330: 1235 10bd 6d29 0bbe f145 a1bd 3da6 7d3d
00000340: 5d31 98bd 9b8e 373d 0d0f 91bc 5b1e 793d
00000350: d050 9cbd 6131 45bd 38a6 663e 6d02 773d
00000360: 60f5 e4bc 1a58 4ebe 3b5f 113e 93c3 d33d
00000370: 58d7 283c 89e2 74bc 4f79 f9bd 1e0f cb3d
00000380: 197b d43d ab72 e73d 9b9c 07bd e532 763d
00000390: 8357 27bc 4468 71bd 05f2 063d 3f89 47bd
000003a0: 7560 5bbd b180 18bd a880 51bd 2691 6abe
000003b0: 36d9 ad3d 1f2a 213e ae21 41be c0d1 3cbc
000003c0: cc62 07bd 8d99 f83d 7013 e2bc 283a 08be
000003d0: e74a 69be 1600 cc3d 77b1 233e 9d03 123c
000003e0: ae2f 2bbe 7038 1e3e 56dd 16bc 5afa d13d
000003f0: 6334 95bc 58b4 1f3d fd66 56be 5447 44bd

critic.0.bias f4 [40]
-0.15066713 0.06675686 0.18900058 -0.20077734 -0.018418683 -0.13441086 0.014186143 0.120652616
0.023246652 -0.19563435 0.10583047 -0.08364447 0.15517539 -0.08109134 -0.110856 0.086269185
0.015415156 -0.16681355 -0.038979452 -0.13993192 -0.11612115 0.08437133 -0.1700711 0.10799033
0.08579108 0.10588813 0.15269306 0.07474125 -0.065330885 0.078492485 -0.020036591 -0.07185403
0.024839222 0.017271299 -0.029418038 0.08255546 -0.08219003 0.03484776 0.14327769 -0.09055668
00000000: 7c48 1abe d2b7 883d 5e89 413e 9398 4dbe
00000010: c7e2 96bc 00a3 09be ff6c 683c b818 f73d
00000020: c36f be3c 5f54 48be a5bd d83d cb4d abbd
00000030: 4ce6 1e3e 3713 a6bd 7808 e3bd e6ad b03d
00000040: da8f 7c3c 2cd1 2abe eba8 1fbd 504a 0fbe
00000050: edd0 edbd e0ca ac3d 1e27 2ebe 092a dd3d
00000060: 3cb3 af3d e0db d83d 925b 1c3e f111 993d
00000070: 33cc 85bd abc0 a03d c723 a4bc 3528 93bd
00000080: a07b cb3c 8a7c 8d3c 19fe f0bc d612 a93d
00000090: 3f53 a8bd 86bc 0e3d 63b7 123e c875 b9bd

critic.2.weight f4 [32, 40]
0.088690005 0.021603286 -0.049964163 0.06716401 0.17099564 0.018685658 0.12413774 0.106080584
0.044735044 0.06103401 -0.01670095 0.14550045 -0.07670096 -0.058665067 0.108960256 0.00994067
-0.11346514 0.011684647 0.10660625 0.058241364 -0.1160512 -0.04207187 0.09185542 -0.0057377825
-0.15270987 -0.1079904 0.0066738343 0.06770374 0.12692824 -0.10299478 -0.037623756 0.048701815
0.0083597135 0.03687189 0.06275342 0.1626561 0.021455059 0.09087791 0.13619484 -0.13902967
0.0324159 -0.06580297 0.18759988 -0.023704147 0.014595849 0.11557166 -0.0025707984 0.0798255
0.1290648 0.07728899 -0.13664708 0.04002041 -0.048588507 -0.06384318 -0.1343416 0.076211914
0.018792843 -0.039662458 -0.021984955 -0.0116224885 0.07520216 0.011181709 0.06650755 -0.083919264
-0.1103679 7.552652e-05 0.08286058 -0.06585499 0.12564841 0.12344548 -0.00038835057 -0.0379764
0.021689234 0.16984099 0.0308208 0.07193785 -0.1275824 0.12567292 0.12178456 0.12833987
-0.22122751 -0.0050247908 -0.026352037 -0.12680048 -0.086073086 0.030897109 0.10814354 0.16673632
0.10213594 -0.053834584 -0.027329974 0.14451629 -0.10571911 0.029495738 0.13370235 -0.09153692
0.016552387 0.009663437 0.04897652 -0.041728154 0.0125941355 -0.1264734 0.085365914 -0.14921403
-0.07669983 -0.07294238 -0.074671134 0.17067403 -0.0135457665 -0.08302767 -0.18182114 0.03348499
0.023756897 0.017210359 0.015489359 -0.006517086 0.13191515 0.026489932 0.013161121 -0.11854563
0.027081598 0.17408353 0.041129082 -0.07550371 0.17065625 -0.090746455 0.03150938 -0.1709791
-0.073005505 0.22003356 -0.13249119 0.106087685 0.08152913 0.11018173 -0.010818574 -0.039720297
0.081980534 -0.031560156 0.113405414 0.043012496 -0.16151232 -0.008497247 -0.122575685 0.13254133
0.09826226 0.08306735 0.07689528 -0.16302942 -0.11479215 0.064726345 0.18381298 0.11953679
0.108729914 -0.09108367 -0.02556213 0.12544641 0.17067155 -0.059332762 0.039804842 0.07862734
0.071595445 -0.13321783 0.14579158 -0.019153561 0.022678226 0.13217127 0.093482085 -0.016120797
-0.030679947 0.09442101 -0.15422094 0.07134676 -0.089439854 0.013688801 -0.11259536 -0.015901715
-0.07090173 0.14584562 0.14850406 -0.08472815 0.047400374 -0.098276034 0.10220054 0.069240995
0.12299719 -0.03357756 0.04972479 -0.085974865 0.15943429 0.079630405 -0.06263126 0.14125256
0.09594195 0.11785359 0.1598093 -0.03335235 0.15109359 0.14042452 -0.013678039 0.06770025
0.00101975 -0.0025491395 -0.1975975 -0.17153864 -0.10133442 0.021741088 -0.096598074 0.11153021
-0.12005485 0.09139 0.14819266 -0.018966509 -0.035923887 -0.12914814 -0.0059476355 0.09922171
0.05687911 -0.18308674 0.027077226 -0.07820942 0.078199945 -0.11100554 -0.08032472 0.10473232
-0.074418925 0.09236227 0.06527707 0.18240024 -0.04526178 -0.12781003 0.047953304 0.1205677
0.081823155 -0.13793042 0.11754647 -0.17343248 0.023091292 0.013254728 -0.031412322 0.006047745
-0.21849397 0.045261066 0.11454467 -0.16100924 -0.089303836 -0.07862735 -0.14542088 0.13515489
-0.042284403 -0.1699112 0.0028281359 0.04714112 0.063705675 -0.14175814 -0.038456615 0.15293169
00000000: 1ba3 b53d 60f9 b03c 39a7 4cbd 498d 893d
00000010: 7b19 2f3e aa12 993c ed3b fe3d c740 d93d
00000020: 183c 373d ccfe 793d 6ed0 88bc 12fe 143e
00000030: 6515 9dbd c84a 70bd 8e26 df3d 31de 223c
00000040: 6960 e8bd f670 3f3c 6154 da3d 7f8e 6e3d
00000050: 40ac edbd 8e53 2cbd b21e bc3d 0204 bcbb
00000060: fa5f 1cbe 122a ddbd 2eb0 da3b 42a8 8a3d
00000070: 7af9 013e edee d2bd 5e1b 1abd 8e7b 473d
00000080: 2ef7 083c fb06 173d dd84 803d 528f 263e
00000090: 85c2 af3c 331e ba3d a976 0b3e cb5d 0ebe
000000a0: 89c6 043d b5c3 86bd 2f1a 403e 332f c2bc
000000b0: 6e23 6f3c d6b0 ec3d d77a 28bb 8d7b a33d
000000c0: 9029 043e b149 9e3d 36ed 0bbe 71ec 233d
000000d0: be04 47bd 37c0 82bd d890 09be fe14 9c3d
000000e0: 73f3 993c 1a75 22bd cb19 b4bc 406c 3ebc
000000f0: 9703 9a3d 7d33 373c 1c35 883d dddd abbd
00000100: 9108 e2bd fe63 9e38 cfb2 a93d fbde 86bd
00000110: faa9 003e fcd0 fc3d 889b cbb9 248d 1bbd
00000120: 9fad b13c ccea 2d3e e77b fc3c 2754 933d
00000130: f6a4 02be 67b0 003e 2f6a f93d 876b 033e
00000140: 7789 62be 00a7 a4bb 3ae0 d7bc fcd7 01be
00000150: 1647 b0bd ef1b fd3c 5c7a dd3d edbc 2a3e
00000160: a62c d13d a781 5cbd 1ce3 dfbc 14fc 133e
00000170: 4383 d8bd 0ca1 f13c 45e9 083e b577 bbbd
00000180: df98 873c 6453 1e3c 9a9b 483d 24eb 2abd
00000190: a257 4e3c 3e82 01be 53d4 ae3d 90cb 18be
000001a0: cd14 9dbd d162 95bd 2eed 98bd 2cc5 2e3e
000001b0: 10ef 5dbc 690a aabd 522f 3abe 8f27 093d
000001c0: d39d c23c bdfc 8c3c 15c7 7d3c 488d d5bb
000001d0: c414 073e 6a01 d93c bea1 573c 0dc8 f2bd
000001e0: 3ada dd3c f442 323e f876 283d b0a1 9abd
000001f0: 83c0 2e3e 47d9 b9bd fb0f 013d 2515 2fbe
00000200: e983 95bd 7a50 613e c5ab 07be 8044 d93d
00000210: bff8 a63d f5a6 e13d 6340 31bc c0b1 22bd
00000220: 69e5 a73d 3945 01bd 1941 e83d df2d 303d
00000230: 7c63 25be 0938 0bbc f608 fbbd eab8 073e
00000240: b93d c93d 371f aa3d 467b 9d3d 2ff1 26be
00000250: 2618 ebbd 3f8f 843d 7839 3c3e b4cf f43d
00000260: caad de3d 138a babd ac67 d1bc 0675 003e
00000270: 86c4 2e3e e906 73bd 670a 233d 5f07 a13d
00000280: a2a0 923d 416a 08be 634a 153e eee7 9cbc
00000290: b0c7 b93c e857 073e 8973 bf3d c30f 84bc
000002a0: 8354 fbbc cd5f c13d 18ec 1dbe 401e 923d
000002b0: 3e2c b7bd fe46 603c 6598 e6bd 5044 82bc
000002c0: ed34 91bd 8e58 153e 7311 183e f485 adbd
000002d0: e526 423d f244 c9bd 844e d13d 39ce 8d3d
000002e0: f3e5 fb3d a088 09bd 39ac 4b3d 9713 b0bd
000002f0: be42 233e 4415 a33d d144 80bd 83a4 103e
00000300: 377d c43d 395d f13d 0da5 233e 799c 08bd
00000310: 47b8 1a3e 72cb 0f3e db19 60bc 6ea6 8a3d
00000320: 22a9 853a 770f 27bb 0057 4abe d3a7 2fbe
00000330: 6c88 cfbd 5e1a b23c 36d5 c5bd f369 e43d
00000340: 51df f5bd ae2a bb3d d1bf 173e a75f 9bbc
00000350: ed24 13bd 693f 04be 62e4 c2bb c034 cb3d
00000360: 12fa 683d 177b 3bbe 0fd1 dd3c 432c a0bd
00000370: 4b27 a03d df56 e3bd 4981 a4bd e67d d63d
00000380: f368 98bd 6e28 bd3d fcaf 853d 21c7 3a3e
00000390: 6b64 39bd a2e0 02be af6a 443d 33ec f63d
000003a0: e692 a73d a23d 0dbe 34bc f03d 4998 31be
000003b0: f329 bd3c 5c2a 593c 35aa 00bd 292c c63b
000003c0: e2bc 5fbe ab63 393d 6596 ea3d 9bdf 24be
000003d0: eee4 b6bd 6007 a1bd 36e9 14be 0b66 0a3e
000003e0: 6932 2dbd 34fd 2dbe 3f58 393b 0c17 413d
000003f0: 1f78 823d 0c29 11be af84 1dbd 209a 1c3e

critic.2.bias f4 [32]
-0.095459394 -0.092009135 -0.024368757 -0.14421727 0.016238043 0.16381234 -0.02209762 0.16465743
0.011250219 -0.1714868 0.11065956 -0.054303084 -0.091501296 -0.14359622 -0.1256132 0.077479266
0.08836294 -0.05634963 0.079197235 0.14065649 -0.033149797 0.036303226 -0.029222675 0.11351922
0.023416298 -0.13359307 0.036330294 -0.100299224 -0.1794828 -0.06547586 -0.058177967 0.031524885
00000000: 3780 c3bd 496f bcbd fda0 c7bc b1ad 13be
00000010: a505 853c 6cbe 273e 1106 b5bc f59b 283e
00000020: d752 383c 3c9a 2fbe 7ba1 e23d e96c 5ebd
00000030: 0865 bbbd e30a 13be bfa0 00be 73ad 9e3d
00000040: a1f7 b43d dfce 66bd 2932 a23d 4108 103e
00000050: 15c8 07bd b1b2 143d 6464 efbc c47c e83d
00000060: 89d3 bf3c 9fcc 08be 13cf 143d ae69 cdbd
00000070: 57ca 37be 3518 86bd 054c 6ebd 3d20 013d

critic.4.weight f4 [10, 32]
0.12437152 0.08508315 -0.018762052 0.014327098 -0.031041782 0.1086822 -0.013110905 -0.1548337
0.082557306 0.13968852 -0.09346412 -0.12852032 -0.17905648 0.18868576 -0.16635656 -0.18019825
0.13438143 -0.03410639 0.058230646 -0.16429426 0.100845575 0.034476243 0.085219696 0.064590074
-0.031050488 0.08154316 -0.0832532 0.070542015 0.18898723 -0.091253564 0.07282716 0.051456597
-0.06103247 0.05433514 0.16675028 -0.09838177 -0.13148132 -0.14716442 0.124999665 0.16007045
-0.0085080145 0.022208868 0.05202155 0.12778193 0.026059717 -0.11387822 0.054644395 0.064708754
0.110235356 0.13352436 0.18014245 -0.015612742 0.16550414 0.037424814 -0.01282534 -0.16812395
0.051457208 -0.048668515 -0.08756793 0.02354308 -0.14387362 -0.12549712 -0.005762042 0.13010962
-0.08345953 0.1568859 -0.07092436 0.16958663 0.04915731 0.09552613 -0.14350808 -0.020242924
-0.14498161 0.21772085 -0.16088308 -0.14553407 0.15481316 0.06522755 -0.07321701 -0.121663675
0.04066053 -0.055295255 0.16618001 0.110004395 -0.0650249 -0.1476218 -0.0012856682 0.16683578
-0.09477791 -0.05129244 0.12739053 -0.06010932 0.15891302 -0.12993336 0.21139283 0.16917689
0.0155287525 0.07941911 -0.111806445 0.10600762 0.028153509 -0.16488113 -0.04959542 -0.18915272
-0.1516429 -0.061447248 0.12911528 -0.16159791 -0.15046154 0.112510115 -0.15281482 -0.026669532
-0.11255052 0.16805188 0.16568707 0.002347676 -0.07781203 -0.18704453 0.11506146 -0.036333095
-0.11430671 0.14450549 -0.050837297 0.12640817 0.2215735 0.13214286 0.21854177 0.14622027
0.08980479 0.029884322 -0.03693293 0.037742425 -0.0009538954 -0.13830651 0.002317957 -0.15668581
0.04624655 -0.11526657 -0.035046544 0.10573395 0.05006292 -0.17215848 0.08902938 0.18174247
0.15372998 -0.08662101 0.050481323 0.093774654 0.06934858 0.03706684 0.14465804 -0.09993915
-0.17058088 -0.040291805 -0.005033396 -0.06900946 -0.006411071 -0.005431816 0.0233132 0.128681
-0.1715594 -0.066970155 -0.04846417 -0.1873638 -0.123806976 0.17755434 0.009834711 0.029883333
0.15841024 -0.19319108 0.1791204 -0.10911399 0.09420637 -0.1028347 0.077287346 0.24370496
-0.12678993 0.035292737 0.09370617 -0.045062415 0.13251868 0.19467817 0.14289814 0.017408488
-0.1510131 -0.23292124 0.14585708 -0.13320717 -0.023096956 0.15577374 -0.009072571 -0.065158844
-0.009813694 -0.012517172 -0.1557727 0.108924314 0.14817482 -0.004934252 0.011467931 0.1271366
-0.1392529 0.10357765 0.110805854 0.06696747 -0.09838782 -0.20759554 0.04688662 0.15533523
0.13855092 0.15517418 -0.036067046 0.23284107 0.061091654 -0.07409861 0.06878107 -0.007282126
0.053049184 -0.17614123 -0.02012431 0.15941119 -0.16594966 0.02220744 0.025517123 -0.082000084
-0.1071674 0.063820295 0.106417745 -0.079770684 -0.14517023 0.20168792 0.040179517 -0.14124367
-0.10580262 0.11108635 -0.10315503 -0.1043555 -0.15458554 0.041469265 -0.16958 -0.03740976
-0.024018588 0.18406837 -0.017456006 0.12649632 -0.11952921 0.048452307 0.17494757 -0.03917851
-0.10415619 0.021167798 0.15808979 0.157518 0.00917839 -0.027491154 -0.033366248 -0.10198536
00000000: 7fb6 fe3d 1340 ae3d e0b2 99bc 34bc 6a3c
00000010: 564b febc c694 de3d 1fcf 56bc ba8c 1ebe
00000020: ce13 a93d 820a 0f3e 1e6a bfbd d59a 03be
00000030: 955a 37be d736 413e 6059 2abe e485 38be
00000040: 499b 093e 24b3 0bbd 4283 6e3d c13c 28be
00000050: 2088 ce3d f636 0d3d aa87 ae3d cd47 843d
00000060: 985d febc 1a00 a73d a780 aabd 5578 903d
00000070: de85 413e 26e3 babd 6826 953d 27c4 523d
00000080: 2ffd 79bd 868e 5e3d 96c0 2a3e 627c c9bd
00000090: 0aa3 06be 45b2 16be d3ff ff3d 82e9 233e
000000a0: 3365 0bbc 5fef b53c 8c14 553d 44d9 023e
000000b0: 307b d53c fc38 e9bd cdd2 5f3d 0686 843d
000000c0: 13c3 e13d 9cba 083e 4377 383e 96cc 7fbc
000000d0: eb79 293e c34a 193d 6021 52bc af28 2cbe
000000e0: cbc4 523d a358 47bd d156 b3bd 6bdd c03c
000000f0: 9b53 13be 5182 00be 83cf bcbb 753b 053e
00000100: d4ec aabd b3a6 203e ca40 91bd 1ea8 2d3e
00000110: 2d59 493d 34a3 c33d c8f3 12be 7dd4 a5bc
00000120: 0f76 14be 37f2 5e3e 89be 24be e206 15be
00000130: 5787 1e3e 0696 853d cdf2 95bd ce2a f9bd
00000140: a88b 263d 477d 62bd 182b 2a3e fc49 e13d
00000150: c62b 85bd 2b2a 17be de83 a8ba 00d7 2a3e
00000160: ec1a c2bd 0618 52bd aa72 023e 3135 76bd
00000170: 18ba 223e 400d 05be 5d77 583e b53c 2d3e
00000180: 4f6c 7e3c 7da6 a23d c7fa e4bd 861a d93d
00000190: 30a2 e63c 99d6 28be 9124 4bbd 40b1 41be
000001a0: 4748 1bbe 1cb0 7bbd cc36 043e ec79 25be
000001b0: 9712 1abe b46b e63d 7d7b 1cbe 107a dabc
000001c0: e380 e6bd cb15 2c3e dfa9 293e 78db 193b
000001d0: ea5b 9fbd 9a88 3fbe 58a5 eb3d 03d2 14bd
000001e0: a319 eabd 3ff9 133e c53a 50bd 2571 013e
000001f0: 2ae4 623e 7550 073e 6ac9 5f3e c4ba 153e
00000200: 93eb b73d f7cf f43c fc46 17bd cd97 1a3d
00000210: d60e 7aba 39a0 0dbe dee8 173b 3f72 20be
00000220: 066d 3d3d e110 ecbd f78c 0fbd 0b8b d83d
00000230: c70e 4d3d 504a 30be 0955 b63d b31a 3a3e
00000240: 646b 1d3e 5b66 b1bd 81c5 4e3d ed0c c03d
00000250: a106 8e3d 66d3 173d 3d21 143e e6ac ccbd
00000260: c1ac 2ebe 0509 25bd 30ef a4bb d554 8dbd
00000270: f613 d2bb 60fd b1bb 53fb be3c f4c4 033e
00000280: 44ad 2fbe a627 89bd 5e82 46bd 4cdc 3fbe
00000290: 838e fdbd ced0 353e c521 213c e4cd f43c
000002a0: 4b36 223e e2d3 45be 576b 373e 2877 dfbd
000002b0: 45ef c03d 009b d2bd d448 9e3d cb8d 793e
000002c0: 38d5 01be 1e8f 103d 05e9 bf3d 5e93 38bd
000002d0: fab2 073e b759 473e e453 123e 3f9c 8e3c
000002e0: 2ea3 1abe e882 6ebe 8f5b 153e 7667 08be
000002f0: d435 bdbc 2783 1f3e 1fa5 14bc 0072 85bd
00000300: 9ec9 20bc d314 4dbc e182 1fbe b613 df3d
00000310: 24bb 173e 81af a1bb fde3 3b3c 1930 023e
00000320: 5098 0ebe 8520 d43d 2eee e23d 3e26 893d
00000330: 8e7f c9bd ed93 54be 2f0c 403d 3310 1f3e
00000340: 4be0 0d3e fbe5 1e3e 0abb 13bd e46d 6e3e
00000350: 3e3b 7a3d 03c1 97bd 17dd 8c3d e79e eebb
00000360: 1a4a 593d 5e5e 34be bddb a4bc b03c 233e
00000370: b5ee 29be 61ec b53c 4909 d13c a9ef a7bd
00000380: 957a dbbd 37b4 823d 8cf1 d93d d05e a3bd
00000390: 81a7 14be 4787 4e3e 4793 243d 2ea2 10be
000003a0: 0baf d8bd 3e81 e33d f242 d3bd 56b8 d5bd
000003b0: ac4b 1ebe addb 293d 61a6 2dbe fa3a 19bd
000003c0: a1c2 c4bc 6b7c 3c3e e6ff 8ebc 4088 013e
000003d0: bbcb f4bd ed75 463d 7525 333e a579 20bd
000003e0: d74f d5bd 1768 ad3c 4ae2 213e 664c 213e
000003f0: f560 163c 2135 e1bc 0cab 08bd b3dd d0bd

critic.4.bias f4 [10]
0.026914593 0.20034797 -0.008161018 -0.12024521 -0.14381866 -0.13658075 0.15226991 0.16966137
-0.100973256 0.119805545
00000000: fe7b dc3c 0528 4d3e cab5 05bc 1f43 f6bd
00000010: 3345 13be d3db 0bbe a5ec 1b3e b6bb 2d3e
00000020: 11cb cebd 9c5c f53d

critic.6.weight f4 [1, 10]
0.29281995 -0.060928922 0.31472534 0.31354827 -0.17804545 -0.26005903 -0.24439299 -0.1301499
0.20678788 0.2522684
00000000: 7fec 953e 9b90 79bd ae23 a13e 6689 a03e
00000010: 8c51 36be 7526 85be 2842 7abe 0446 05be
00000020: 34c0 533e 5329 813e
