Weight/29_5_62_buff10/PPO_continuous_log.pth (torch_old, 131141 bytes, 21 tensors)

actor.0.weight f4 [75, 150]
-0.040659387 -0.0013168595 0.063902915 -0.08445572 0.03887654 0.06680303 0.056716684 0.007870415
0.055846892 -0.0018751359 -0.042546272 -0.08279971 0.0019656639 -0.045689166 0.014509749 -0.0062372377
0.09419196 -0.0034637717 -0.0005335855 0.04656122 0.0047507444 -0.044815287 0.0106070675 0.0792727
0.039424177 0.0016272233 0.052917287 -0.010373449 0.011627238 -0.018849555 0.0584233 -0.083486445
-0.12208261 -0.04216547 -0.058417134 0.0670191 -0.07205374 -0.036770843 -0.03561183 -0.119786024
0.0697744 -0.038273472 -0.03829578 -0.069368936 0.08959962 -0.033676952 -0.053255584 -0.050866347
0.07005438 -0.035695884 0.013733011 0.059973765 -0.08079685 0.03434946 0.073442034 0.08464729
0.08232788 0.02035263 0.07940173 -0.057008963 0.038389295 -0.04949685 -0.032499705 -0.0067333067
-0.044552997 0.017489703 0.027016912 0.021796372 0.00911878 0.011379514 -0.030137038 0.05488093
0.0972643 0.017661715 0.018723775 -0.0530663 -0.077610716 -0.025748292 0.0041305865 -0.044467747
0.043872315 0.041713722 0.029668523 0.00706184 -0.03811411 0.03394481 -0.095257916 0.063888624
0.0772354 0.090295024 0.022790832 0.002364498 -0.065161146 -0.024075901 0.06579318 -0.092152
-0.010254823 -0.09233776 -0.10680552 0.03825595 0.090907946 0.09581905 -0.098234676 0.096716575
-0.0132376505 -0.055475872 0.022040103 0.011780408 0.06728581 0.048993237 0.080044195 0.05889451
-0.05603574 -0.08709761 0.034343537 -0.05126006 0.075141065 0.0019649826 -0.09336383 0.034150448
-0.048247144 0.03129831 -0.006380715 0.016292846 0.07057299 0.029587276 -0.047795672 -0.10472696
-0.0079196235 0.09569882 0.0023965717 0.06446107 0.017752511 0.05220948 0.00896398 0.008216874
0.0795049 0.06148521 0.098182596 -0.024706986 0.020213354 0.03358686 -0.038204156 -0.027167942
0.021312822 0.113275714 -0.027861167 0.05104016 -0.08629242 -0.07693006 0.01469886 -0.059178166
0.031982172 0.048960213 0.043916482 0.08747532 -0.1172619 0.0065619694 -0.055993717 -0.049453974
-0.054980207 0.04018319 -0.04288263 0.0057072556 0.06743168 -0.0058590746 0.0810307 -0.023563474
-0.06968309 -0.036960408 -0.090715215 -0.03466711 -0.078977846 -0.025095835 0.058058526 -0.026805745
0.075877264 0.0075094085 -0.015360228 0.016220832 0.030807007 0.012342696 -0.025299797 0.079527915
-0.025522083 -0.056871895 -0.081903644 0.020558193 0.048218254 -0.01018083 -0.06679593 -0.04838812
-0.06807721 -0.042830415 0.039533168 0.051467948 -0.042860106 0.027058316 0.029225329 -0.031236785
-0.07044383 0.039865144 0.03239207 -0.01863606 0.0068945712 -0.048522424 0.03413365 -0.03266351
-0.009761148 0.042161632 -0.027367348 -0.025727546 0.0636299 -0.03031848 0.031805467 0.01519285
0.012305034 -0.081100374 -0.009899681 -0.030231584 -0.032763645 -0.033460565 0.025732396 -0.042785954
-0.0031609442 0.08047445 -0.08662884 0.07760458 -0.07350905 0.007248661 0.011738192 -0.02643162
0.07020498 -0.023956914 -0.07560644 -0.04947703 0.076108865 -0.012585138 0.053302865 0.057812408
-0.1036173 -0.044536807 -0.04896793 -0.034099277 0.06325587 0.05911684 -0.008346633 -0.11396422
-0.09144745 -0.13615422 0.07867359 0.005700148 0.03404763 -0.0066059176 0.035281334 -0.10629765
00000000: 758a 26bd 799a acba 88df 823d 1ff7 acbd
00000010: 023d 1f3d 07d0 883d c14f 683d eaf2 003c
00000020: b6bf 643d 1fc7 f5ba 0045 2ebd e592 a9bd
00000030: 5ed2 003b 9024 3bbd 4cba 6d3c be61 ccbb
00000040: b7e7 c03d 7200 63bb 51e0 0bba fab6 3e3d
00000050: 22ac 9b3b 3c90 37bd 44c9 2d3c ba59 a23d
00000060: 3f7b 213d 8e48 d53a ccbf 583d 66f5 29bc
00000070: 2c80 3e3c 626a 9abc 454d 6f3d f1fa aabd
00000080: 7306 fabd b3b5 2cbd ce46 6fbd 4f41 893d
00000090: e990 93bd 069d 16bd b6dd 11bd 6052 f5bd
000000a0: e1e5 8e3d a5c4 1cbd 09dc 1cbd 4d11 8ebd
000000b0: 0180 b73d d8f0 09bd 8722 5abd 3b59 50bd
000000c0: ac78 8f3d d935 12bd 6c00 613c 0da7 753d
000000d0: d278 a5bd 05b2 0c3d c768 963d 8f5b ad3d
000000e0: 859b a83d 8fba a63c 609d a23d 3b82 69bd
000000f0: 183e 1d3d 36bd 4abd 691e 05bd 12a3 dcbb
00000100: 347d 36bd 9146 8f3c 9252 dd3c 4e8e b23c
00000110: ef66 153c 2471 3a3c f3e1 f6bc d3ca 603d
00000120: 8132 c73d 4daf 903c 9a62 993c 0c5c 59bd
00000130: 5ef2 9ebd 15ee d2bc df59 873b d023 36bd
00000140: 75b3 333d 02dc 2a3d 670b f33c 0267 e73b
00000150: 8a1d 1cbd b709 0b3d 9516 c3bd 0ad8 823d
00000160: 982d 9e3d 99ec b83d d7b3 ba3c b2f5 1a3b
00000170: 3573 85bd d33a c5bc 93be 863d 30ba bcbd
00000180: d803 28bc 941b bdbd dabc dabd 45b2 1c3d
00000190: f22d ba3d c73c c43d 432f c9bd 5713 c63d
000001a0: bbe2 58bc ab3a 63bd 728d b43c 9d02 413c
000001b0: 25cd 893d 22ad 483d 36ee a33d 5f3b 713d
000001c0: bb85 65bd 3b60 b2bd cfab 0c3d 12f6 51bd
000001d0: 8fe3 993d f0c6 003b 8935 bfbd 57e1 0b3d
000001e0: cc9e 45bd a832 003d 5115 d1bb 9378 853c
000001f0: 9288 903d 0461 f23c 65c5 43bd 177b d6bd
00000200: 4fc1 01bc befd c33d cd0f 1d3b 2a04 843d
00000210: b76d 913c 9cd9 553d a8dd 123c 11a0 063c
00000220: 77d3 a23d ead7 7b3d f513 c93d 4e66 cabc
00000230: 7a96 a53c 6092 093d f67b 1cbd 4e8f debc
00000240: 3a98 ae3c 19fd e73d 1a3d e4bc 7d0f 513d
00000250: 15ba b0bd 828d 9dbd 7dd3 703c ce64 72bd
00000260: bdff 023d 818a 483d c5e1 333d 4326 b33d
00000270: 0227 f0bd ca05 d73b ab59 65bd 4090 4abd
00000280: ed32 61bd 2197 243d b2a5 2fbd ee03 bb3b
00000290: 9f19 8a3d 7bfd bfbb 6cf3 a53d 3008 c1bc
000002a0: 02b6 8ebd cc63 17bd e6c8 b9bd 19ff 0dbd
000002b0: 23bf a1bd c895 cdbc c7ce 6d3d b997 dbbc
000002c0: 8a65 9b3d 7c11 f63b 77a9 7bbc 8de1 843c
000002d0: fa5e fc3c 0539 4a3c 8541 cfbc 88df a23d
000002e0: b013 d1bc 81f2 68bd 19bd a7bd a869 a83c
000002f0: 8180 453d 7fcd 26bc 4ecc 88bd 9f32 46bd
00000300: 106c 8bbd f26e 2fbd 88ed 213d 0ed0 523d
00000310: 148e 2fbd 67a9 dd3c f569 ef3c 49e4 ffbc
00000320: db44 90bd a249 233d 8cad 043d a7aa 98bc
00000330: dbeb e13b 73bf 46bd bacf 0b3d 2cca 05bd
00000340: 39ed 1fbc adb1 2c3d 7d31 e0bc 93c2 d2bc
00000350: 6550 823d 765e f8bc 7346 023d 6eeb 783c
00000360: 0e9b 493c f417 a6bd 4632 22bc 3aa8 f7bc
00000370: 2c33 06bd f20d 09bd bfcc d23c 5340 2fbd
00000380: d827 4fbb cacf a43d 766a b1bd 26ef 9e3d
00000390: ea8b 96bd 2d86 ed3b 8c51 403c 2087 d8bc
000003a0: a1c7 8f3d 4a41 c4bc 8dd7 9abd 6da8 4abd
000003b0: f7de 9b3d e531 4ebc 1b54 5a3d b4cc 6c3d
000003c0: 4f35 d4bd 3a6c 36bd 9992 48bd afab 0bbd
000003d0: 4b8c 813d 8024 723d 51c0 08bc 1366 e9bd
000003e0: cd48 bbbd 036c 0bbe 9f1f a13d 4fc8 ba3b
000003f0: 8775 0b3d 7476 d8bb 2983 103d 95b2 d9bd

actor.0.bias f4 [75]
-0.025720188 0.006019728 0.07105586 -0.074559346 0.13935496 -0.03813331 0.08487608 0.14729016
-0.100475125 0.12041373 0.09340037 -0.007321989 -0.025910746 0.10524365 0.0647231 0.0346711
-0.015366478 0.091937855 0.12615265 -0.0038976183 0.043977074 0.027915299 0.002727193 0.07273059
0.04466933 0.060840424 0.11020602 0.10142319 0.10797512 0.14079884 -0.049652055 0.019007932
0.0973127 0.03523857 0.1405924 0.044270176 -0.030440029 0.15277748 0.050529566 0.044001456
-0.01691268 -0.010260756 0.00040139604 0.05360099 0.058378905 0.019975342 0.116415486 0.034859233
0.09088887 0.0029083856 -0.10360887 0.015871523 -0.0072705913 -0.017749157 0.019826887 0.107352875
-0.12334727 0.14663178 0.022219364 0.046928316 0.02828897 0.032615434 0.07952926 0.0036987609
-0.033326555 0.005033412 0.13692908 0.13697402 0.018982904 -0.04328918 0.019801727 0.14426532
0.028997054 0.07163136 0.101929195
00000000: 25b3 d2bc 2341 c53b bc85 913d 92b2 98bd
00000010: 11b3 0e3e ac31 1cbd 83d3 ad3d 3bd3 163e
00000020: e7c5 cdbd 799b f63d b148 bf3d 4ced efbb
00000030: c642 d4bc fc89 d73d 8b8d 843d 4903 0e3d
00000040: aec3 7bbc ea49 bc3d 292e 013e 2f6f 7fbb
00000050: 4e21 343d a0ae e43c b5ba 323b c7f3 943d
00000060: 30f7 363d cf33 793d b2b3 e13d f6b6 cf3d
00000070: 0f22 dd3d 922d 103e f45f 4bbd 86b6 9b3c
00000080: e14b c73d 5256 103d 74f7 0f3e a554 353d
00000090: 5e5d f9bc b371 1c3e 17f8 4e3d df3a 343d
000000a0: 768c 8abc bb1c 28bc 7772 d239 b68c 5b3d
000000b0: b81e 6f3d 54a3 a33c 3e6b ee3d 8ec8 0e3d
000000c0: f223 ba3d 9d9a 3e3b e330 d4bd ff04 823c
000000d0: 243e eebb ae66 91bc ff6b a23c d3db db3d
000000e0: 7e9d fcbd a426 163e 6205 b63c e837 403d
000000f0: 45be e73c c397 053d 3de0 a23d e966 723b
00000100: 6d81 08bd 52ef a43b 2337 0c3e eb42 0c3e
00000110: 0982 9b3c ff4f 31bd 3b37 a23c 4aba 133e
00000120: 3b8b ed3c 76b3 923d 41c0 d03d

actor.2.weight f4 [40, 75]
-0.11452845 -0.012123195 -0.07985244 -0.098629005 0.145417 -0.09695245 0.10747391 -0.08309646
-0.011987393 0.07621689 -0.031787053 0.14686666 -0.10471139 -0.019441275 -0.03199459 0.04116967
0.02103707 -0.036356017 0.019390827 0.07510479 0.19429037 0.12363368 0.009070118 -0.12227099
-0.09963307 -0.096191935 0.09440061 0.12958159 0.14385787 0.122020535 -0.04471176 0.030388305
0.013376918 -0.026597133 0.027185818 0.056315154 -0.06357961 0.026188139 -0.039333954 0.13982062
-0.018028188 0.08334115 -0.079924025 -0.14874248 0.1166675 0.05986326 -0.017512124 -0.048218418
0.14975096 0.078590095 -0.14908752 0.11836773 0.06685152 -0.116066106 0.016601443 -0.010065791
-0.0088817105 0.1212968 0.03331317 0.01950177 0.069979995 -0.09209145 -0.07824162 0.08763499
-0.015895564 0.05236355 0.12048391 0.03756368 0.122220114 -0.12513953 0.022379944 0.052542433
0.0465989 -0.0031451923 0.10036728 0.01573081 -0.11952012 0.04373919 -0.07808872 -0.043611646
-0.078375526 0.0018966426 0.10752766 -0.041019183 0.1135277 0.08505422 -0.026148226 -0.027462263
0.18207113 0.016788376 -0.08664142 -0.012121904 -0.06360919 0.13376205 0.067137234 0.15940695
0.04397186 0.18850276 -0.15495129 0.15906501 0.09317378 0.108208396 0.1423414 0.094096996
0.16451353 -0.037036475 0.12112277 0.12546389 0.109075174 0.08553706 -0.08131663 0.06852055
0.04647182 0.018912366 -0.009389647 0.04578315 0.11315356 0.09970814 0.0547925 0.19791597
0.077392064 -0.014724511 0.056888524 0.05673966 -0.028018117 -0.13187274 0.00062893966 0.11313337
0.11053292 -0.06805313 0.054671183 -0.021798676 -0.019622188 0.0763675 0.06844816 0.007653201
0.078883804 0.024668017 -0.030157655 -0.1238608 0.018420963 0.058544174 0.029859686 -0.11874552
-0.10730393 0.007961868 0.04641732 0.12539116 0.03631367 0.049151726 -0.058528926 -0.03175413
-0.0935123 -0.026723389 0.042864885 0.047341146 -0.12567416 -0.07542949 -0.053805135 0.030798351
-0.08166198 -0.01701145 -0.103529684 -0.06899874 0.040641543 0.038149532 -0.09833505 0.068359375
-0.13699521 -0.02347917 -0.03248245 0.026953397 -0.12602244 -0.104447305 -0.04638467 -0.0183615
0.081492126 -0.028541312 -0.046958283 -0.020319749 0.041747116 0.051841058 -0.07656607 -0.14747912
-0.096575364 -0.14635356 0.034275707 -0.12358493 -0.08907241 -0.03381919 -0.0049645356 -0.12232158
0.014810357 -0.008319388 0.103479326 0.045627534 -0.103201434 -0.15887117 -0.070958324 -0.040244993
-0.10183433 0.037535828 -0.13958472 0.0006445976 0.00092870573 0.16818464 0.008814021 -0.059919033
0.036402214 -0.04825335 0.099760525 0.081362374 -0.08524957 -0.009915083 0.05971379 -0.07816903
0.004029688 -0.017956467 0.067992695 -0.08971752 -0.04812817 -0.1072597 -0.16288748 0.0213831
-0.097199105 -0.019445637 -0.119036086 0.03829723 -0.13636062 0.020119134 -0.16328517 0.05386381
0.17682758 -0.108465396 0.040383335 0.040883396 0.05300752 -0.1719774 0.16893862 0.035996545
-0.045585945 0.0035364877 -0.23329231 0.09660929 -0.088143386 0.103393 0.23632061 0.040998366
-0.07270017 -0.09091685 -0.11355741 0.096925765 0.23325653 0.14579295 0.13230082 -0.13290274
00000000: e48d eabd 5ea0 46bc ad89 a3bd 01fe c9bd
00000010: 32e8 143e 028f c6bd 481b dc3d 7a2e aabd
00000020: c566 44bc 9a17 9c3d 2433 02bd 3764 163e
00000030: ed72 d6bd 4f43 9fbc c20c 03bd 87a1 283d
00000040: ef55 ac3c 0cea 14bd 83d9 9e3c 8ad0 993d
00000050: 0ef4 463e a833 fd3d d59a 143c 3669 fabd
00000060: 6c0c ccbd 4700 c5bd 1b55 c13d 09b1 043e
00000070: 7a4f 133e e7e5 f93d ae23 37bd e5f0 f83c
00000080: dc2a 5b3c 3be2 d9bc cbb4 de3c b8aa 663d
00000090: 0736 82bd 8288 d63c a41c 21bd 232d 0f3e
000000a0: daaf 93bc c4ae aa3d 35af a3bd f34f 18be
000000b0: 5fef ee3d 2d33 753d 9675 8fbc ad80 45bd
000000c0: 5158 193e d8f3 a03d 66aa 18be c86a f23d
000000d0: 73e9 883d 11b4 edbd c0ff 873c fdea 24bc
000000e0: 9884 11bc 756a f83d 6473 083d 2dc2 9f3c
000000f0: ac51 8f3d 719a bcbd 243d a0bd f979 b33d
00000100: 6a37 82bc 297b 563d 45c0 f63d 60dc 193d
00000110: 8a4e fa3d 9424 00be 2556 b73c bc36 573d
00000120: 7dde 3e3d 921f 4ebb 5c8d cd3d e6dd 803c
00000130: f7c6 f4bd dd27 333d fbec 9fbd 20a2 32bd
00000140: 5983 a0bd c498 f83a 7637 dc3d bb03 28bd
00000150: 3681 e83d e830 ae3d ce34 d6bc 8af8 e0bc
00000160: db70 3a3e c787 893c 0f71 b1bd f39a 46bc
00000170: 8945 82bd ebf8 083e 3f7f 893d 933b 233e
00000180: d61b 343d de06 413e 8dab 1ebe f0e1 223e
00000190: e5d1 be3d 5d9c dd3d f2c1 113e edb5 c03d
000001a0: 3c76 283e 8fb3 17bd 370f f83d 9b79 003e
000001b0: ce62 df3d 0e2e af3d 5589 a6bd 8154 8c3d
000001c0: 3c59 3e3d 1bee 9a3c 09d7 19bc 1d87 3b3d
000001d0: 0ebd e73d c833 cc3d 1a6e 603d 7caa 4a3e
000001e0: bb7f 9e3d 133f 71bc f103 693d d967 683d
000001f0: 4086 e5bc a609 07be 6ddf 243a 78b2 e73d
00000200: 155f e23d 705f 8bbd e4ee 5f3d 2393 b2bc
00000210: b6be a0bc 9066 9c3d 8d2e 8c3d b4c7 fa3b
00000220: d58d a13d 9514 ca3c 300d f7bc bbaa fdbd
00000230: 8fe7 963c 04cc 6f3d 4d9c f43c da30 f3bd
00000240: 2ac2 dbbd 7f72 023c 1620 3e3d 8a66 003e
00000250: a5bd 143d 5253 493d 07bc 6fbd 9e10 02bd
00000260: 6083 bfbd 02eb dabc 1793 2f3d cae8 413d
00000270: bab0 00be c77a 9abd c662 5cbd d34c fc3c
00000280: 653e a7bd 995b 8bbc 5f07 d4bd 364f 8dbd
00000290: bf77 263d af42 1c3d e363 c9bd 0000 8c3d
000002a0: 7948 0cbe 6357 c0bc 510c 05bd 5fcd dc3c
000002b0: 070c 01be 78e8 d5bd dafd 3dbd db6a 96bc
000002c0: 58e5 a63d 78cf e9bc 5457 40bd 9a75 a6bc
000002d0: 06ff 2a3d 4a57 543d acce 9cbd c404 17be
000002e0: 4ec9 c5bd b5dd 15be af64 0c3d 191a fdbd
000002f0: 986b b6bd fe85 0abd 8bad a2bb bd83 fabd
00000300: 24a7 723c 0b4e 08bc f8ec d33d f0e3 3a3d
00000310: 465b d3bd 20af 22be 9952 91bd efd7 24bd
00000320: 848e d0bd 2bbf 193d 4cef 0ebe 36fa 283a
00000330: 6374 733a 9838 2c3e af68 103c a96d 75bd
00000340: 7d1a 153d 4ea5 45bd 3f4f cc3d 51a1 a63d
00000350: 5497 aebd df72 22bc 7296 743d 1617 a0bd
00000360: 790b 843b 7119 93bc c13f 8b3d d2bd b7bd
00000370: 0b22 45bd f9aa dbbd facb 26be 9c2b af3c
00000380: 5310 c7bd 754c 9fbc 31c9 f3bd 8edd 1c3d
00000390: 1ea2 0bbe e2d0 a43c 3a34 27be 4ca0 5c3d
000003a0: 4a12 353e 1b23 debd ff68 253d 5975 273d
000003b0: 6a1e 593d d81a 30be 3ffe 2c3e 1d71 133d
000003c0: 54b8 3abd 6bc4 673b 2ee4 6ebe 17db c53d
000003d0: 8584 b4bd b6bf d33d 08fe 713e e7ed 273d
000003e0: d4e3 94bd 9d32 babd ca90 e8bd 0481 c63d
000003f0: cdda 6e3e bf4a 153e de79 073e a817 08be

actor.2.bias f4 [40]
0.034382053 0.1364076 -0.1336698 -0.023216853 0.054390542 -0.046189845 -0.12677698 -0.05427758
0.023345828 0.11664813 0.05611144 0.14960448 0.13579866 -0.04981016 -0.07736081 0.09741334
0.0577204 0.091561705 0.025532054 -0.09893275 0.12304667 0.008242995 0.14340562 0.03289089
-0.045670893 -0.06502832 0.06002719 -0.07378202 0.090212844 0.009621824 0.05575786 0.0016319854
0.09718918 -0.06876906 0.034968678 -0.13057747 -0.13846336 0.009280636 -0.1425721 0.030320553
00000000: 32d4 0c3d 6fae 0b3e bce0 08be 4531 bebc
00000010: 9ec8 5e3d 9031 3dbd d3d1 01be 2b52 5ebd
00000020: c03f bf3c 37e5 ee3d 1cd5 653d eb31 193e
00000030: ce0e 0b3e bd05 4cbd 586f 9ebd a580 c73d
00000040: 3a6c 6c3d b484 bb3d 9928 d13c 419d cabd
00000050: e4ff fb3d a00d 073c ecd8 123e 99b8 063d
00000060: 6711 3bbd 912d 85bd 12df 753d 071b 97bd
00000070: 83c1 b83d dba4 1d3c 5b62 643d 58e8 d53a
00000080: 1f0b c73d cbd6 8cbd 513b 0f3d 1ab6 05be
00000090: 57c9 0dbe cf0d 183c 6cfe 11be cf62 f83c

actor.4.weight f4 [28, 40]
0.14416051 0.0529224 0.015942855 -0.080197774 0.12143584 0.109577686 0.035533573 0.06706361
-0.06544608 0.14135957 0.07760603 0.2073686 0.19691548 -0.03415158 0.025496708 -0.02054557
0.11877376 -0.1239962 -0.11482175 0.09568856 -0.13203226 0.10324322 0.13469882 0.21364382
0.21029638 -0.0953542 -0.05225448 0.07609743 0.107280344 0.014890609 0.19768097 -0.113901116
-0.06937713 -0.0029520104 0.039908383 -0.107834175 -0.1503635 0.06934351 0.08098293 0.096310765
-0.018921038 0.05563796 0.15676005 -0.18004896 -0.10273789 -0.13110368 0.031296756 -0.123301126
-0.07128689 0.027364256 -0.08253476 0.07202598 -0.0655663 0.043159388 0.01638785 -0.105820194
-0.1169983 0.06130426 -0.10194359 -0.07513238 0.055473916 -0.00084611523 -0.02148578 0.058060877
-0.059202082 0.028531572 0.069703475 -0.06414088 0.06440571 -0.07356192 -0.06635169 -0.08308919
-0.07419321 0.03903992 -0.05426594 -0.07775587 0.034487713 0.031985465 0.059881147 0.030650117
-0.06694869 0.011463456 -0.01819314 -0.13432872 -0.19163623 -0.0002836485 -0.16368781 -0.041454375
-0.09390232 -0.12425043 -0.007025383 -0.051844213 0.05208034 -0.10235413 0.13888423 -0.020560047
0.055035032 0.0062477924 0.13285175 -0.112036444 -0.104573116 0.074591346 -0.09989372 0.039918974
0.13945188 -0.078134246 -0.009435213 0.12293839 -0.07311259 -0.029967206 -0.11802691 -0.038495746
-0.09745624 0.07751826 -0.028105656 -0.09449864 -0.016341694 -0.0057428195 -0.11284708 0.06412163
0.13666324 0.0576457 0.066469535 0.051121492 0.12329976 -0.07215851 -0.059211545 -0.022227606
-0.044501748 -0.0418692 0.028661937 -0.106757395 0.038570363 0.16698258 0.09051739 -0.028864615
0.08185413 0.009304711 0.064421296 -0.11710544 -0.06213621 0.0073971422 -0.14168783 0.03540575
-0.13474536 -0.006896591 0.12415943 0.05962658 0.13443863 -0.059621066 -0.018533573 0.0664286
0.20733324 0.08318679 0.009854244 0.13807333 0.05825311 0.08559864 0.010406017 0.14576802
0.12371298 -0.008848764 -0.19035697 0.15446486 0.026465623 0.11901173 -0.065628216 -0.07795854
-0.053991336 -0.17024994 -0.03112282 0.12412667 -0.24912322 -0.17892854 0.13477942 0.107945435
0.09900719 0.030341366 -0.074012846 0.13955843 -0.0826397 -0.0037425312 0.12538323 0.027900273
-0.16888778 -0.15043092 -0.030247422 -0.08646218 -0.0018331507 0.09775892 0.12061805 0.10484037
-0.11075173 -0.18895693 0.16344413 -0.119934455 0.03510248 0.06656332 -0.049520746 0.1275522
0.04732478 -0.0251923 -0.08188058 -0.14178893 0.09302931 -0.08886259 -0.022788538 0.083113335
-0.09933705 0.004811046 -0.18771844 -0.15006088 -0.12687667 -0.08135789 -0.14114411 0.08911116
0.15320061 0.06654615 -0.078966156 -0.010718621 0.16768958 0.087064065 0.07602251 0.0849802
-0.19606674 0.09416399 0.1876458 0.15497528 -0.18107516 -0.04182603 0.054699518 0.12153434
0.03711203 0.026233548 0.031087609 -0.14613196 -0.10262382 -0.035702765 0.13372158 0.13100882
0.124603875 0.018891495 -0.13281672 0.21771933 -0.05607902 0.17113903 0.15056841 -0.11170742
-0.04800303 -0.062333867 0.2183439 0.18137398 0.15297543 -0.06559599 0.14495265 -0.101715624
00000000: d09e 133e 29c5 583d 979a 823c bb3e a4bd
00000010: 5bb3 f83d 446a e03d a78b 113d a558 893d
00000020: 9808 86bd 90c0 103e e9ef 9e3d 6f58 543e
00000030: 36a4 493e 87e2 0bbd 79de d03c 2f4f a8bc
00000040: a83f f33d b8f1 fdbd aa27 ebbd 5df8 c33d
00000050: 7733 07be 2e71 d33d 7dee 093e 72c5 5a3e
00000060: ef57 573e 1049 c3bd cb08 56bd f8d8 9b3d
00000070: ccb5 db3d bef7 733c e16c 4a3e fd44 e9bd
00000080: 9915 8ebd 8476 41bb f976 233d 2ad8 dcbd
00000090: e4f8 19be f803 8e3d 61da a53d 943e c53d
000000a0: 4b00 9bbc a1e4 633d b585 203e c15e 38be
000000b0: 3e68 d2bd 0b40 06be 0731 003d 4d85 fcbd
000000c0: dcfe 91bd 012b e03c fc07 a9bd 5b82 933d
000000d0: a047 86bd e6c7 303d d03f 863c 42b8 d8bd
000000e0: ce9c efbd 2d1a 7b3d cdc7 d0bd 01df 99bd
000000f0: 9e38 633d d5cd 5dba f202 b0bc 3ed1 6d3d
00000100: e27d 72bd 0bbb e93c b2c0 8e3d 4b5c 83bd
00000110: 24e7 833d a2a7 96bd 65e3 87bd aa2a aabd
00000120: 9cf2 97bd 53e8 1f3d f645 5ebd 783e 9fbd
00000130: fd42 0d3d 3103 033d ef45 753d f415 fb3c
00000140: 651c 89bd 38d1 3b3c c809 95bc 788d 09be
00000150: 4a3c 44be a8b6 94b9 c79d 27be 10cc 29bd
00000160: dc4f c0bd 0277 febd 2f35 e6bb 995a 54bd
00000170: 3252 553d 0b9f d1bd ab37 0e3e 8b6d a8bc
00000180: 6a6c 613d 48ba cc3b 4a0a 083e 5d73 e5bd
00000190: 6e2a d6bd 59c3 983d 1495 ccbd 1482 233d
000001a0: 79cc 0e3e d904 a0bd 2796 1abc 1fc7 fb3d
000001b0: 0ebc 95bd c97d f5bc 18b8 f1bd b7ad 1dbd
000001c0: 2397 c7bd e5c1 9e3d d53d e6bc 8188 c1bd
000001d0: 04df 85bc 432e bcbb 5f1c e7bd 3352 833d
000001e0: 73f1 0b3e e61d 6c3d 2e21 883d c564 513d
000001f0: 9684 fc3d d7c7 93bd ce87 72bd ab16 b6bc
00000200: 7747 36bd 0a7f 2bbd 70cc ea3c 9fa3 dabd
00000210: f5fb 1d3d 7bfd 2a3e 2e61 b93d 7c75 ecbc
00000220: 23a3 a73d c972 183c 50ef 833d fad4 efbd
00000230: 8a82 7ebd ba63 f23b 9d16 11be 9f05 113d
00000240: b0fa 09be ccfc e1bb 4d47 fe3d 003b 743d
00000250: 48aa 093e 3835 74bd b8d3 97bc b80b 883d
00000260: 2a4f 543e d65d aa3d b273 213c 1863 0d3e
00000270: d09a 6e3d 574e af3d 007e 2a3c 3644 153e
00000280: 3b5d fd3d 68fa 10bc f0ec 42be 092c 1e3e
00000290: 6fce d83c 6cbc f33d 1668 86bd baa8 9fbd
000002a0: 0526 5dbd 0056 2ebe 49f5 febc 2036 fe3d
000002b0: 281a 7fbe 0b39 37be 9e03 0a3e 7f12 dd3d
000002c0: 48c4 ca3d 758e f83c 0c94 97bd 68e8 0e3e
000002d0: 013f a9bd 4145 75bb 7664 003e 1d8f e43c
000002e0: ebf0 2cbe 900a 1abe 71c9 f7bc 1513 b1bd
000002f0: 5546 f0ba d435 c83d 9906 f73d 8cb6 d63d
00000300: ced1 e2bd ed7d 41be e65d 273e 32a0 f5bd
00000310: 9ec7 0f3d 5a52 883d 44d6 4abd 0b9d 023e
00000320: a1d7 413d 1560 cebc 01b1 a7bd 1e31 11be
00000330: 2786 be3d 97fd b5bd 07af babc 5337 aa3d
00000340: 3971 cbbd fba5 9d3b 4339 40be 8fa9 19be
00000350: f5eb 01be f79e a6bd 1588 10be e97f b63d
00000360: 9fe0 1c3e 5949 883d 02b9 a1bd 289d 2fbc
00000370: d1b6 2b3e a54e b23d b1b1 9b3d 190a ae3d
00000380: b8c5 48be 0dd9 c03d 3826 403e d7b1 1e3e
00000390: c46b 39be c551 2bbd 9a0c 603d ffe6 f83d
000003a0: c902 183d bde7 d63c 71ab fe3c 9ea3 15be
000003b0: 702c d2bd 103d 12bd 4fee 083e 2d27 063e
000003c0: 5130 ff3d 56c2 9a3c 1b01 08be d1f1 5e3e
000003d0: 1db3 65bd 123f 2f3e 9b2e 1a3e dcc6 e4bd
000003e0: d39e 44bd cc51 7fbd 8b95 5f3e 1aba 393e
000003f0: 97a5 1c3e 3157 86bd 786e 143e 4850 d0bd

actor.4.bias f4 [28]
0.08324625 -0.07999337 0.15051116 0.07567458 -0.05207084 0.07872621 0.12632681 0.11073001
0.13516887 0.12108843 -0.081821255 -0.0988529 -0.019108642 -0.030164106 0.18849494 0.13824235
-0.11121929 0.0025808988 0.10925879 0.09566975 0.08662541 -0.08665712 0.0152251385 0.018115753
-0.026455186 0.09373224 -0.11480647 0.08018772
00000000: 037d aa3d 90d3 a3bd 991f 1a3e 46fb 9a3d
00000010: 3c48 55bd 353b a13d d15b 013e 6ac6 e23d
00000020: b569 0a3e 36fd f73d e791 a7bd 6473 cabd
00000030: ba89 9cbc b71a f7bc d104 413e 678f 0d3e
00000040: f0c6 e3bd 4c24 293b 13c3 df3d 80ee c33d
00000050: aa68 b13d 4a79 b1bd dc72 793c 7d67 943c
00000060: 8cb8 d8bc b0f6 bf3d a81f ebbd 7639 a43d

actor.6.weight f4 [14, 28]
0.05296217 0.098261505 -0.15096553 -0.02204575 0.073545694 -0.09168726 -0.17120142 0.21992347
0.03526358 -0.02312974 0.02633002 0.032910097 -0.16474347 -0.002960674 -0.13231513 0.04688046
0.044978067 0.066359416 0.21384086 -0.02698202 0.12113053 0.16648369 -0.16973811 0.19956589
0.03349164 0.18338037 -0.14789087 -0.01942119 0.1503035 -0.06997242 -0.14968657 0.23862833
0.19978757 -0.1551114 0.097409435 0.17077349 0.109813064 0.19126335 -0.03831699 -0.06814201
-0.016654013 -0.034882564 0.20978871 -0.11437174 0.13213526 -0.012260215 -0.107413486 0.19343677
0.060589492 0.12070902 0.0045115906 0.086594924 0.10544243 0.15950686 0.15446019 0.06873451
0.22917618 0.10707782 0.17267528 -0.12383555 0.119112924 -0.13984802 0.13344754 -0.0037619676
-0.15355442 -0.0043313503 -0.19176653 0.25826207 -0.18973435 -0.0073286835 0.10331277 -0.16885848
-0.25017568 0.101616696 -0.026681151 -0.21619464 0.04024203 0.0222774 0.25078094 0.1581163
0.018227857 -0.024174117 0.15289122 0.026840616 -0.13336304 -0.025155317 -0.080028675 0.14588116
0.11019699 0.02254041 -0.19192955 -0.0086414 -0.09674467 -0.090830475 -0.028394673 0.0024169148
-0.22296862 -0.0066158785 -0.17812607 0.08689946 -0.28296226 0.00087755464 -0.17018667 -0.28414536
0.068342604 -0.15312229 0.22093327 0.108415216 -0.085708745 -0.07276268 0.22378075 0.039633505
-0.09407525 0.107306935 -0.14304718 -0.067519434 -0.1264622 -0.06436784 -0.17676032 -0.01851492
0.15232563 0.013861295 0.09629065 0.11533639 -0.05193983 -0.0011548543 0.100793734 0.06884821
0.03288719 -0.010169779 -0.08757767 -0.13395351 -0.0063552908 -0.12466543 -0.15418607 -0.11834767
-0.013400867 -0.09763513 0.22339138 -0.13192381 0.16457148 0.1827249 -0.08580652 0.17177024
-0.06390966 0.123413175 0.052109335 -0.13302627 0.15819421 -0.039532125 0.19293068 0.04249208
0.12854666 -0.01323633 -0.21035369 0.11653823 0.17436266 -0.13058245 0.21510684 0.17867154
0.154933 0.1840241 -0.12336935 0.045936186 0.12572442 0.16703452 -0.061959535 0.05989717
0.07363537 0.06734076 0.027070493 -0.05782107 0.11383117 0.1777458 -0.14869858 0.11236306
-0.008772452 0.083968826 -0.06274223 -0.25286952 -0.03692409 0.2574365 0.13348152 0.12891161
-0.20223351 -0.1744346 0.13779318 -0.13428827 0.06197015 0.17095888 0.08915833 0.099240854
0.030223751 0.18049349 -0.06937218 0.15137927 0.036843818 0.16684712 0.17709021 -0.09565108
-0.11938385 -0.08172223 -0.12032956 0.03150767 0.008948669 -0.013055605 -0.18122578 -0.041225124
0.20941158 0.08222163 0.1342529 -0.11134343 -0.09265476 0.08000001 0.16570276 0.14577466
-0.04077931 -0.055460174 -0.13815212 -0.2486587 0.05541604 -0.032503683 0.07219599 0.13472383
-0.12676656 0.11950121 0.16144131 0.1442231 -0.044100307 -0.07553987 0.19753867 0.08092109
-0.16028425 -0.05537437 -0.10321589 -0.10416373 0.0590091 -0.03858 -0.013218995 0.11803626
0.21596059 0.07590818 0.17017664 0.16020782 0.21889734 0.0077932742 0.15197186 -0.01311378
-0.16692881 -0.1615399 -0.2344732 -0.022377253 -0.09035001 -0.1021923 -0.04147133 -0.13566871
00000000: dcee 583d 543d c93d b596 1abe 4a99 b4bc
00000010: 209f 963d 88c6 bbbd 6d4f 2fbe 9e33 613e
00000020: 8b70 103d 957a bdbc 0eb2 d73c bdcc 063d
00000030: 83b2 28be de07 42bb 9e7d 07be ba05 403d
00000040: ec3a 383d 72e7 873d 19f9 5a3e 6609 ddbc
00000050: 4913 f83d b37a 2a3e d4cf 2dbe 005b 4c3e
00000060: 882e 093d 10c8 3b3e b470 17be 3019 9fbc
00000070: 29e9 193e b34d 8fbd 7047 19be fc5a 743e
00000080: 1d95 4c3e 86d5 1ebe 997e c73d 3fdf 2e3e
00000090: ace5 e03d 8ada 433e 47f2 1cbd 0a8e 8bbd
000000a0: ff6d 88bc 05e1 0ebd dad2 563e bb3b eabd
000000b0: 774e 073e 12df 48bc 9afb dbbd 4a14 463e
000000c0: b02c 783d 4a36 f73d f7d5 933b ae58 b13d
000000d0: 33f2 d73d c455 233e d02a 1e3e aec4 8c3d
000000e0: 29ad 6a3e 9e4b db3d cad1 303e 7e9d fdbd
000000f0: 7af1 f33d 5234 0fbe 79a6 083e 588b 76bb
00000100: 5f3d 1dbe 00ee 8dbb 725e 44be ed3a 843e
00000110: b949 42be 7425 f0bb a595 d33d 3de9 2cbe
00000120: 0717 80be 6a1c d03d 6e92 dabc 2162 5dbe
00000130: d4d4 243d 187f b63c 5c66 803e 3de9 213e
00000140: 9652 953c cc08 c6bc 848f 1c3e dae0 db3c
00000150: 5290 08be 8612 cebc 13e6 a3bd df61 153e
00000160: f6ae e13d aaa6 b83c 2e89 44be a994 0dbc
00000170: 1222 c6bd 5405 babd f29b e8bc 1a65 1e3b
00000180: e351 64be 03ca d8bb ae66 36be 58f8 b13d
00000190: 6ee0 90be b20b 663a 6a45 2ebe 807b 91be
000001a0: 35f7 8b3d 17cc 1cbe 553c 623e cc08 de3d
000001b0: 1188 afbd 9a04 95bd c826 653e be56 223d
000001c0: 86aa c0bd bdc3 db3d f67a 12be a147 8abd
000001d0: 4f7f 01be 49d3 83bd a800 35be 9aac 97bc
000001e0: 40fb 1b3e 7c1a 633c 0834 c53d 7c35 ec3d
000001f0: dcbe 54bd 7b5e 97ba f26c ce3d 4a00 8d3d
00000200: b8b4 063d 259f 26bc ec5b b3bd 1c2b 09be
00000210: 0b40 d0bb 9750 ffbd f4e2 1dbe 4360 f2bd
00000220: 4f8f 5bbc edf4 c7bd b6c0 643e 0917 07be
00000230: 6d85 283e 3c1c 3b3e 54bb afbd 8ae4 2f3e
00000240: 11e3 82bd 0cc0 fc3d 9970 553d 0a38 08be
00000250: aafd 213e 70ec 21bd 9f8f 453e 2d0c 2e3d
00000260: bca1 033e 31dd 58bc f566 57be 98ab ee3d
00000270: 208c 323e 68b7 05be f844 5c3e acf5 363e
00000280: c2a6 1e3e d070 3c3e 12a9 fcbd 9527 3c3d
00000290: e7bd 003e 190b 2b3e 48c9 7dbd bc56 753d
000002a0: 24ce 963d f4e9 893d f0c2 dd3c c9d5 6cbd
000002b0: 5120 e93d ff02 363e 7144 18be 9b1e e63d
000002c0: 55ba 0fbc d9f7 ab3d 007f 80bd 1d78 81be
000002d0: b73d 17bd b8ce 833e 61af 083e 6801 043e
000002e0: 4d16 4fbe fc9e 32be a819 0d3e dd82 09be
000002f0: 69d4 7d3d d80f 2f3e a498 b63d ca3e cb3d
00000300: cd97 f73c 49d3 383e 0013 8ebd 2b03 1b3e
00000310: 8be9 163d f9d9 2a3e 2357 353e b7e4 c3bd
00000320: 857f f4bd fc5d a7bd 586f f6bd 300e 013d
00000330: 709d 123c 2de7 55bc 4093 39be addb 28bd
00000340: fd6f 563e d063 a83d 9879 093e 0608 e4bd
00000350: c7c1 bdbd 0cd7 a33d fcad 293e f445 153e
00000360: 3508 27bd 352a 63bd c077 0dbe 63a0 7ebe
00000370: eefb 623d 9522 05bd 7edb 933d 0bf5 093e
00000380: 18cf 01be 0dbd f43d df50 253e 38af 133e
00000390: 86a2 34bd a6b4 9abd 9447 4a3e f5b9 a53d
000003a0: 8e21 24be 3cd0 62bd da62 d3bd cb53 d5bd
000003b0: 87b3 713d 1006 1ebd 7c94 58bc ffbc f13d
000003c0: c624 5d3e bf75 9b3d c942 2e3e 850d 243e
000003d0: a026 603e b95e ff3b 839e 1b3e 2edb 56bc
000003e0: 63ef 2abe b76a 25be be19 70be 8050 b7bc
000003f0: 6d09 b9bd 324a d1bd d7dd 29bd bdec 0abe

actor.6.bias f4 [14]
0.17005593 0.07493215 -0.18503046 0.059279796 -0.10886957 -0.07007382 -0.06917571 -0.18322718
0.13228734 0.12385347 0.07457375 0.06463721 0.11577692 -0.050778087
00000000: 2423 2e3e 0776 993d a078 3dbe 5fcf 723d
00000010: 02f7 debd dd82 8fbd ffab 8dbd e89f 3bbe
00000020: 5576 073e e3a6 fd3d 1fba 983d 8360 843d
00000030: 731c ed3d affc 4fbd

actor.8.weight f4 [7, 14]
-0.29808116 0.03832491 0.0383706 0.05962812 -0.23200007 -0.034014 0.03897669 -0.12356379
0.08540726 0.33656946 0.1485472 0.114505015 0.12416603 0.10938286 -0.097042434 0.121680014
0.2752006 0.09236068 0.12744181 -0.17362851 -0.21048492 -0.22227056 -0.11133263 -0.019849647
-0.13576367 0.03840863 -0.31354243 -0.12774079 -0.2584785 0.043347847 -0.21052828 -0.17575781
-0.12583308 0.22682433 0.24784304 0.16663697 0.01003824 -0.25891885 0.16608746 0.2781171
-0.37351263 0.21454625 0.11706457 -0.2746451 0.07211176 0.18503106 0.11925744 0.07158765
0.19678707 0.10094548 0.08968446 -0.08021246 -0.14607319 0.17072754 0.04888356 0.28873572
-0.25638986 -0.09795679 -0.09415896 -0.13312949 -0.19414242 -0.01915077 0.31362063 0.22349145
0.24460705 -0.20218873 -0.19918616 -0.051433682 0.048512302 -0.11871249 -0.2889455 0.07056755
0.0833867 0.16825591 0.25157782 -0.102336474 -0.0614418 0.27345222 -0.24501696 -0.06583161
-0.23481172 0.115169816 0.26506242 0.1609408 -0.198469 -0.020079069 -0.116750486 -0.15291153
0.1203757 0.056384664 -0.1684959 0.32577497 0.06342939 -0.22552301 -0.043426946 0.13378726
-0.27397892 0.20101209
00000000: 189e 98be 95fa 1c3d 7e2a 1d3d 9e3c 743d
00000010: 6d91 6dbe 4452 0bbd 06a6 1f3d 030f fdbd
00000020: 00ea ae3d d552 ac3e c21c 183e 9b81 ea3d
00000030: c24a fe3d 1f04 e03d 2fbe c6bd 5f33 f93d
00000040: 18e7 8c3e 9927 bd3d 1b80 023e accb 31be
00000050: 5c89 57be e59a 63be 5d02 e4bd ba9b a2bc
00000060: a205 0bbe 5e52 1d3d a288 a0be 7bce 02be
00000070: 4b57 84be 838d 313d ba94 57be dbf9 33be
00000080: 63da 00be a344 683e 91ca 7d3e e2a2 2a3e
00000090: 6e77 243c 0391 84be d512 2a3e 5d65 8e3e
000000a0: 0c3d bfbe 03b2 5b3e 8dbf ef3d 489e 8cbe
000000b0: 55af 933d c878 3d3e 3f3d f43d 8c9c 923d
000000c0: 8d82 493e 81bc ce3d 7cac b73d 6e46 a4bd
000000d0: 3694 15be 33d3 2e3e 213a 483d 2bd5 933e
000000e0: 8845 83be 929d c8bd 6ad6 c0bd 1953 08be
000000f0: 45cd 46be 13e2 9cbc e292 a03e f1da 643e
00000100: 457a 7a3e 900a 4fbe 75f7 4bbe 20ac 52bd
00000110: d6b4 463d 891f f3bd aaf0 93be b885 903d
00000120: a5c6 aa3d 474b 2c3e cfce 803e c995 d1bd
00000130: 66aa 7bbd ee01 8c3e bae5 7abe b9d2 86bd
00000140: 7c72 70be 27de eb3d 43b6 873e aacd 243e
00000150: 753b 4bbe dc7c a4bc e11a efbd d794 1cbe
00000160: 8987 f63d 9bf3 663d 308a 2cbe facb a63e
00000170: 45e7 813d 81ef 66be 74e0 31bd 87ff 083e
00000180: f746 8cbe 1dd6 4d3e

actor.8.bias f4 [7]
-0.26135704 0.024614528 -0.09988755 0.21710289 0.12170961 0.1390765 0.21891472
00000000: 97d0 85be 68a4 c93c d891 ccbd 3850 5e3e
00000010: e342 f93d 126a 0e3e 2e2b 603e

critic.0.weight f4 [75, 150]
-0.014405341 -0.040842533 -0.05452914 -0.030783052 -0.050720464 0.016698534 0.09985241 0.011505407
-0.009095346 -0.08104826 0.12620299 -0.033041727 0.032522954 -0.08097897 -0.06673913 -0.12596779
-0.09388801 0.11904509 -0.05475088 0.033591613 -0.15341483 0.019493913 -0.14168511 -0.07210889
0.0025341643 -0.05138392 0.11882558 -0.1368978 -0.001373838 -0.08789157 -0.05304654 0.041417997
-0.11293321 -0.004532489 -0.028568938 -0.042887416 0.0070590186 -0.068193674 0.11194217 -0.0089463005
0.1205046 -0.01704138 -0.1249117 -0.15018159 -0.096062586 0.10694789 -0.109440394 -0.01118798
-0.06292205 0.01220904 -0.0322412 -0.040858146 0.06483373 -0.14107272 0.115115315 -0.02561561
-0.017956408 -0.070102684 -0.10009574 -0.013496309 -0.096014164 0.14429536 -0.09397114 0.00758668
-0.052280027 0.012480779 0.062067892 -0.063168705 0.064262785 -0.004842149 -0.050580904 -0.01927086
0.03310916 0.09357218 0.006548258 -0.00095059996 -0.05790105 -0.106570214 -0.103568204 0.055628303
0.052779626 -0.061870586 0.057898227 -0.09735194 -0.07918738 0.0037006016 -0.044470698 0.13200091
-0.040999074 0.066725336 -0.004027924 -0.06426106 -0.04585623 -0.061949812 0.12492076 -0.07252987
-0.015759623 -0.051283605 -0.13232453 -0.06290632 0.06264636 0.0082731685 0.027521903 0.077182546
-0.04899012 -0.07981979 0.0002747336 -0.06281261 -0.006277372 -0.08819956 0.0813607 0.038929198
-0.017024413 -0.09909004 0.005323885 -0.0072941775 -0.06550368 0.07133624 0.0059920466 -0.011243932
-0.05385855 -0.065424696 0.038871918 0.047990292 0.007386673 -0.0487992 -0.018878711 -0.05294796
-0.05033695 0.110228606 -0.023883266 0.06487033 0.020146547 -0.16307785 -0.08291876 -0.029094072
0.16323112 -0.036920168 0.15382722 0.016870221 -0.11792198 -0.07903588 0.093553096 0.19370767
-0.06229223 0.11444315 -0.11371077 -0.046658903 0.10203991 -0.04351298 -0.04398769 -0.16386557
0.03143257 0.10821173 0.04495067 0.1988888 -0.04358429 -0.05061319 0.027962986 0.0068240003
-0.016147718 0.045923334 0.02273172 0.042475026 0.029948292 -0.090403184 -0.008407781 0.09344624
0.10911709 0.049224414 -0.028684206 -0.093850486 -0.023631457 -0.04585148 -0.00916738 -0.0166732
-0.048131857 0.064403094 0.0013642856 -0.0046360935 -0.040314853 0.033198558 -0.00685648 0.011460156
-0.07589756 0.0022590535 0.044212002 -0.06610108 0.06638727 0.13667719 -0.071579345 -0.04649998
-0.012047282 -0.007968127 0.048540913 0.005446121 0.034055285 -0.04143286 -0.0053985943 -0.037114948
0.015737168 0.07027599 0.048886586 0.076168746 -0.04352734 -0.03421802 0.023639929 -0.065034956
0.024484355 0.03834347 0.1259375 -0.051943053 0.053993598 -0.046504702 -0.09383495 0.025936386
-0.057062425 0.06821229 -0.008399108 0.030678362 -0.04618141 -0.07671592 -0.032995146 -0.058363456
-0.007456754 -0.08761903 0.058988582 0.044220198 -0.021456238 -0.039457075 0.05876281 -0.012922617
0.09477212 0.037064582 0.04818327 -0.022235213 0.11153192 -0.044692494 0.02556482 0.02661655
-0.004401248 0.099622734 -0.05046771 0.09261955 -0.022515047 0.070386395 0.035717715 -0.008463408
0.04042417 0.024768379 0.007877918 -0.010005034 0.040152308 -0.042895485 -0.020433258 -0.07754093
00000000: 6104 6cbc 804a 27bd f359 5fbd bd2c fcbc
00000010: 43c0 4fbd 5dcb 883c 6c7f cc3d 2d81 3c3c
00000020: a504 15bc a1fc a5bd 5b3b 013e c356 07bd
00000030: ca36 053d 4dd8 a5bd 86ae 88bd b3fd 00be
00000040: 5b48 c0bd eacd f33d 7542 60bd 5c97 093d
00000050: c718 1dbe b3b1 9f3c e715 11be d3ad 93bd
00000060: 3914 263b f277 52bd d35a f33d f02e 0cbe
00000070: 5b12 b4ba 7f00 b4bd 5447 59bd eba5 293d
00000080: 8749 e7bd 4685 94bb 6809 eabc b7aa 2fbd
00000090: 574f e73b 20a9 8bbd f041 e53d 8193 12bc
000000a0: 1ecb f63d 5d9a 8bbc b5d1 ffbd 34c9 19be
000000b0: 76bc c4bd 7f07 db3d 4922 e0bd ca4d 37bc
000000c0: 47dd 80bd 6d08 483c 590f 04bd df5a 27bd
000000d0: 8cc7 843d 5e75 10be 94c1 eb3d d4d7 d1bc
000000e0: 5119 93bc ff91 8fbd fffe ccbd 9f1f 5dbc
000000f0: 13a3 c4bd 2ac2 133e f173 c0bd af99 f83b
00000100: 9523 56bd 2e7c 4c3c e73a 7e3d 985e 81bd
00000110: 359c 833d e4aa 9ebb ec2d 4fbd ecdd 9dbc
00000120: 789d 073d c5a2 bf3d c592 d63b af31 79ba
00000130: a729 6dbd 7c41 dabd 911b d4bd 81da 633d
00000140: 732f 583d 036c 7dbd b126 6d3d 7460 c7bd
00000150: fe2c a2bd cb85 723b e826 36bd 3f2b 073e
00000160: a5ee 27bd 4ba7 883d adfc 83bb 4d9b 83bd
00000170: bed3 3bbd 16bf 7dbd 75d6 ff3d 8a8a 94bd
00000180: 531a 81bc c20e 52bd 1580 07be 07d5 80bd
00000190: bc4c 803d 2f8c 073c 9d75 e13c e211 9e3d
000001a0: dda9 48bd 8f78 a3bd 1f0a 9039 e6a3 80bd
000001b0: 6ab2 cdbb f9a1 b4bd 70a0 a63d 3974 1f3d
000001c0: c876 8bbc b8ef cabd fc73 ae3b ff03 efbb
000001d0: cb26 86bd bc18 923d ee58 c43b 7838 38bc
000001e0: c89a 5cbd 62fd 85bd 2938 1f3d 7891 443d
000001f0: e70b f23b ace1 47bd 87a7 9abc f6df 58bd
00000200: 1e2e 4ebd 89bf e13d d7a6 c3bc bcda 843d
00000210: 5f0a a53c e1fd 26be 50d1 a9bd b156 eebc
00000220: 0f26 273e 9a39 17bd e284 1d3e 6b33 8a3c
00000230: 1481 f1bd 90dd a1bd c498 bf3d 4e5b 463e
00000240: 2326 7fbd 2c61 ea3d 31e1 e8bd 681d 3fbd
00000250: 4dfa d03d ab3a 32bd 702c 34bd 60cc 27be
00000260: 70bf 003d 1d9e dd3d 321e 383d 81a9 4b3e
00000270: 7185 32bd c74f 4fbd a212 e53c dd9b df3b
00000280: 3848 84bc 1b1a 3c3d df37 ba3c 4bfa 2d3d
00000290: 1f56 f53c 4e25 b9bd cac0 09bc be60 bf3d
000002a0: c878 df3d 8a9f 493d 24fb eabc af34 c0bd
000002b0: c296 c1bc c3ce 3bbd c732 16bc 3c96 88bc
000002c0: e925 45bd c5e5 833d d4d1 b23a 5fea 97bb
000002d0: 3021 25bd 36fb 073d 53ac e0bb 61c3 3b3c
000002e0: 2e70 9bbd a10c 143b a517 353d 0160 87bd
000002f0: 0df6 873d 1bf5 0b3e 3198 92bd c376 3ebd
00000300: f761 45bc bf8c 02bc d6d2 463d 6075 b23b
00000310: 8e7d 0b3d 81b5 29bd b1e6 b0bb d805 18bd
00000320: 3ceb 803c dcec 8f3d 4d3d 483d 5cfe 9b3d
00000330: b949 32bd 3228 0cbd 86a8 c13c 0c31 85bd
00000340: 6a93 c83c 0b0e 1d3d c3f5 003e 3dc2 54bd
00000350: 6428 5d3d b77b 3ebd 8a2c c0bd 8b78 d43c
00000360: 4aba 69bd e3b2 8b3d 6a9c 09bc 3051 fb3c
00000370: b828 3dbd 3c1d 9dbd eb25 07bd 850e 6fbd
00000380: c957 f4bb 9b71 b3bd 039e 713d 3d20 353d
00000390: fec4 afbc be9d 21bd 46b1 703d 62b9 53bc
000003a0: e317 c23d 08d1 173d d25b 453d 9f26 b6bc
000003b0: d96a e43d 7a0f 37bd 506d d13c f30a da3c
000003c0: 5838 90bb 0107 cc3d 3bb7 4ebd 52af bd3d
000003d0: 7a71 b8bc be26 903d bd4c 123d 1baa 0abc
000003e0: d193 253d 0ee7 ca3c 6212 013c 27ec 23bc
000003f0: bf76 243d 2db3 2fbd a663 a7bc c7cd 9ebd

critic.0.bias f4 [75]
0.06314001 0.011771567 0.10302593 0.0111489715 -0.0714498 0.02269213 -0.1423978 -0.12340881
-0.19754268 0.15728034 -0.07225115 -0.052997522 -0.14455377 0.04719426 -0.09962397 0.07708973
-0.16338749 0.23086217 0.108275965 0.075020224 0.06069728 0.1088251 0.16407852 0.08759271
-0.08858399 0.012125963 0.100603245 0.07070414 0.08082561 0.21802957 0.063590266 0.0048674433
0.13095354 -0.009200614 -0.21075237 -0.20114058 -0.032722317 0.046592027 -0.13165988 -0.061203387
-0.1571399 -0.13066258 -0.20762429 0.09135566 -0.16910405 0.1109983 0.06296569 0.0002070652
-0.12647529 -0.041725863 -0.14566512 -0.041216243 0.104888186 0.048404977 0.14051381 0.17893893
-0.035195958 -0.029444814 0.114497244 -0.062236205 -0.123818226 -0.038280573 0.10809235 0.07535229
-0.121617265 0.0023901938 -0.09885731 0.033611413 0.06430008 0.051531415 0.069151044 0.09158071
0.020335745 0.12892023 0.054864403
00000000: 8d4f 813d 88dd 403c 42ff d23d 2daa 363c
00000010: 4654 92bd d9e4 b93c bbd0 11be c2bd fcbd
00000020: a148 4abe 190e 213e 69f8 93bd ee13 59bd
00000030: e705 14be c54e 413d a707 ccbd 38e1 9d3d
00000040: 0d4f 27be 2267 6c3e cabf dd3d 34a4 993d
00000050: b69d 783d b2df de3d 3304 283e cf63 b33d
00000060: 866b b5bd faab 463c 1309 ce3d 55cd 903d
00000070: e687 a53d 2543 5f3e 9d3b 823d 137f 9f3b
00000080: af18 063e 2cbe 16bc 78cf 57be ccf7 4dbe
00000090: d607 06bd 48d7 3e3d d9d1 06be 67b0 7abd
000000a0: 48e9 20be 69cc 05be 769b 54be ad18 bb3d
000000b0: 9d29 2dbe 1453 e33d 28f4 803d a41f 5939
000000c0: bd82 01be bde8 2abd 3d29 15be 5dd2 28bd
000000d0: 9ecf d63d 4c44 463d dae2 0f3e c43b 373e
000000e0: a329 10bd 4036 f1bc 887d ea3d 64eb 7ebd
000000f0: 6994 fdbd 17cc 1cbd 865f dd3d 4d52 9a3d
00000100: 7912 f9bd cca4 1c3b b475 cabd 1fac 093d
00000110: c3af 833d 9b12 533d 109f 8d3d ab8e bb3d
00000120: 2697 a63c aa03 043e 7fb9 603d

critic.2.weight f4 [40, 75]
-0.02140878 -0.11974162 -0.11606191 0.024321454 0.0078042983 0.112732135 0.1833443 -0.082814015
-0.09056106 -0.02001052 -0.019396473 -0.11967745 0.19469605 0.07559413 0.074541174 0.033024423
-0.11496269 -0.016284734 -0.076815754 -0.17127205 -0.12133445 0.017011147 -0.060790446 0.012565994
0.07439176 0.012677154 0.050106503 -0.09827149 0.057273414 0.086235054 -0.10610408 -0.011151166
-0.07316476 -0.09729718 -0.007975321 0.10377141 -0.022535358 0.01800853 0.046060435 -0.051609896
0.051094312 -0.07212055 -0.03265937 0.17813873 -0.037489746 0.025617052 -0.034433216 -0.0078102886
0.09477362 0.1336507 0.100881174 0.12579252 0.17514355 -0.0021230327 -0.044320837 0.06504677
0.012330075 0.0074325674 -0.006519198 -0.05020152 0.12098013 -0.13018668 0.06370588 0.09128017
0.03818289 0.058616493 -0.0031085925 0.081640854 0.09544807 0.04917375 -0.07784227 -0.10735193
0.16082093 0.04901911 0.006602811 -0.06754438 0.1343791 0.058567874 0.03278029 0.123817064
-0.096186966 0.16748278 -0.0423248 -0.13599746 -0.08086176 -0.0017226988 0.17412683 0.015956914
-0.05013013 0.06809838 -0.010977207 0.07061814 0.09367601 0.06884773 0.086961 -0.08102706
-0.07482345 0.043893937 -0.012364636 0.048675578 -0.12943268 -0.09436318 -0.21784157 0.04903005
-0.11658197 -0.08102792 0.17216717 -0.18171652 -0.012232746 0.14600036 0.0061277812 0.08672926
0.0016548486 0.0019752332 0.1623856 0.17688043 0.006697514 0.018269718 0.33872116 0.042789266
-0.005654234 -0.14793597 -0.06990126 -0.036152236 0.07946573 0.119037285 0.16426754 -0.036998853
0.054594632 -0.0500509 -0.098061435 -0.02903907 -0.03153831 0.046730965 -0.019408997 0.06327664
0.03189198 0.00012205927 -0.1897258 -0.00073688716 0.013086308 0.052371554 0.10815188 -0.044030294
0.07236897 -0.0062984754 0.037432916 0.2534003 -0.08806205 -0.043548197 0.018362315 0.020484006
-0.08968368 -0.15191835 0.04640543 0.022538746 0.030272689 -0.004950492 -0.05075534 -0.053268358
0.123602286 -0.14832273 0.00023821907 0.12568161 0.14743714 -0.1570285 0.033788353 0.0701214
-0.07554922 -0.2046064 -0.07237768 -0.16459866 -0.1539256 -0.29303142 0.14045541 -0.043606754
-0.12959957 -0.025337573 0.06280407 -0.14219259 -0.03596237 0.0067375167 0.08256642 0.013975436
0.025653664 0.15462045 0.03315755 0.09760988 -0.016110834 -0.12210579 0.11473623 0.031444635
0.11551971 0.22416045 -0.079605676 0.041244708 -0.08844465 0.011509917 0.07213477 0.03791809
0.15740389 0.08958083 -0.039559033 0.06483983 -0.015386771 -0.122376524 0.0069996947 0.10600444
0.034800585 -0.0005942476 0.0041099563 -0.1406526 -0.019571241 -0.010133144 0.16081645 0.094064996
-0.011662797 -0.11554431 0.060396153 -0.08826714 0.08291969 -0.034834743 0.13879605 0.050652172
-0.11509958 0.007867824 -0.0013472264 0.07095658 0.01647148 0.09517791 0.012265581 -0.1523505
-0.1140034 0.023550356 -0.03454495 0.006616037 0.14192681 -0.008963115 0.06245281 -0.036999885
0.093433395 -0.14286025 0.15004519 0.046321217 0.13379896 0.18829572 0.12524779 0.0234067
0.1318294 0.031823773 0.006488331 0.10957404 0.08467457 -0.07295513 0.15580226 -0.057775207
00000000: 7761 afbc 183b f5bd deb1 edbd c93d c73c
00000010: 33bb ff3b 1be0 e63d 9cbe 3b3e 659a a9bd
00000020: 1478 b9bd 1aed a3bc 5ae5 9ebc 7319 f5bd
00000030: 675e 473e 18d1 9a3d 0ba9 983d 9e44 073d
00000040: 8f71 ebbd 9067 85bc 9451 9dbd f161 2fbe
00000050: 327e f8bd f65a 8b3c 67ff 78bd 99e1 4d3c
00000060: b55a 983d d6b3 4f3c 7a3c 4d3d 9042 c9bd
00000070: 8797 6a3d 019c b03d 194d d9bd 61b3 36bc
00000080: 68d7 95bd be43 c7bd ecaa 02bc 1b86 d43d
00000090: 129c b8bc a086 933c dea9 3c3d e664 53bd
000000a0: 4548 513d f0b3 93bd d5c5 05bd 006a 363e
000000b0: d98e 19bd dada d13c d809 0dbd 73ed ffbb
000000c0: ac18 c23d bbdb 083e ca9a ce3d c1cf 003e
000000d0: d558 333e 9422 0bbb c489 35bd 3e37 853d
000000e0: 1504 4a3c e58c f33b ff9e d5bb 1ca0 4dbd
000000f0: 6ec4 f73d a84f 05be 3a78 823d 19f1 ba3d
00000100: a965 1c3d d917 703d 87b9 4bbb 5233 a73d
00000110: 477a c33d 6a6a 493d c56b 9fbd 54db dbbd
00000120: 3eae 243e 43c8 483d 655c d83b b554 8abd
00000130: ad9a 093e dee4 6f3d a044 063d cd93 fd3d
00000140: acfd c4bd 9b80 2b3e c55c 2dbd eb42 0bbe
00000150: da9a a5bd 2ecc e1ba 4e4e 323e 13b8 823c
00000160: 4055 4dbd 2a77 8b3d bed9 33bc 3ea0 903d
00000170: 35d9 bf3d 0a00 8d3d 9c18 b23d 84f1 a5bd
00000180: 093d 99bd 21ca 333d 0b95 4abc 0b60 473d
00000190: 008a 04be 7c41 c1bd dc11 5fbe bcd3 483d
000001a0: 87c2 eebd f7f1 a5bd 974c 303e e513 3abe
000001b0: db6b 48bc 1e81 153e 8ecb c83b 1c9f b13d
000001c0: 81e7 d83a ea72 013b 6948 263e 2520 353e
000001d0: d276 db3b 60aa 953c dc6c ad3e cc43 2f3d
000001e0: 2747 b9bb 877c 17be 6428 8fbd 5e14 14bd
000001f0: eebe a23d d2c9 f33d c035 283e 1c8c 17bd
00000200: 9f9e 5f3d 2c02 4dbd 6fd4 c8bd 58e3 edbc
00000210: 512e 01bd f868 3f3d 9eff 9ebc 2f97 813d
00000220: 2aa1 023d 12fa ff38 7b47 42be a92b 41ba
00000230: f467 563c 8e83 563d bc7e dd3d 1c59 34bd
00000240: 2f36 943d 7163 cebb 4253 193d afbd 813e
00000250: e059 b4bd 985f 32bd 916c 963c 13ce a73c
00000260: 14ac b7bd 7c90 1bbe 9f13 3e3d 2da3 b83c
00000270: 6efe f73c bd37 a2bb d5e4 4fbd ec2f 5abd
00000280: 3223 fd3d eae1 17be 72ca 7939 aeb2 003e
00000290: c3f9 163e 14cc 20be a865 0a3d cf9b 8f3d
000002a0: 8db9 9abd 5784 51be c03a 94bd 8d8c 28be
000002b0: ac9e 1dbe 3708 96be 8bd3 0f3e ff9c 32bd
000002c0: c0b5 04be be90 cfbc 6c9f 803d ef9a 11be
000002d0: 474d 13bd 63c6 dc3b 9518 a93d 3af9 643c
000002e0: a227 d23c d354 1e3e 36d0 073d b0e7 c73d
000002f0: defa 83bc 9a12 fabd d4fa ea3d 17cc 003d
00000300: 9995 ec3d 518a 653e 4d08 a3bd 36f0 283d
00000310: 7822 b5bd 1794 3c3c 65bb 933d 0050 1b3d
00000320: 7c2e 213e 2776 b73d a708 22bd bfca 843d
00000330: cc18 7cbc 8ba0 fabd b25d e53b db18 d93d
00000340: 0f8b 0e3d 48c7 1bba d0ac 863b 3c07 10be
00000350: de53 a0bc 7d05 26bc 11ad 243e 26a5 c03d
00000360: 5115 3fbc 7fa2 ecbd f561 773d 67c5 b4bd
00000370: ccd1 a93d e0ae 0ebd 8d20 0e3e a778 4f3d
00000380: 54b9 ebbd 0ce8 003c 6b95 b0ba af51 913d
00000390: 32ef 863c a3ec c23d 93f5 483c c501 1cbe
000003a0: 9d7a e9bd adec c03c 017f 0dbd 57cb d83b
000003b0: 4355 113e 07da 12bc 85ce 7f3d 318d 17bd
000003c0: 025a bf3d f549 12be 72a5 193e 51bb 3d3d
000003d0: 9802 093e 98d0 403e f540 003e 68bf bf3c
000003e0: 49fe 063e a559 023d 119c d43b 5b68 e03d
000003f0: dc69 ad3d 8069 95bd a18a 1f3e b2a5 6cbd

critic.2.bias f4 [40]
-0.08866798 -0.04824073 -0.090806216 0.12204473 -0.09910033 0.0054135867 0.10915133 0.29601574
-0.010306884 0.038380828 0.053249456 0.04161993 -0.133727 0.10986015 0.20492649 0.028077872
0.10435323 0.09299273 -0.11113797 -0.0359039 -0.16256782 -0.14754562 0.037544034 0.16077846
0.0828356 0.17824441 -0.07334488 0.028633095 -0.05176294 0.15021732 -0.057256956 0.067348756
0.15013297 -0.12871851 -0.047050472 0.12309935 0.06027544 -0.022094136 0.02170127 0.147024
00000000: 8f97 b5bd 1298 45bd 9cf8 b9bd 96f2 f93d
00000010: 1df5 cabd 7564 b13b bc8a df3d 608f 973e
00000020: 34de 28bc 3735 1d3d 1a1c 5a3d a979 2a3d
00000030: bbef 08be 5cfe e03d 40d8 513e 9103 e63c
00000040: 25b7 d53d f972 be3d 4e9c e3bd f80f 13bd
00000050: 2e78 26be 3316 17be c6c7 193d 1ca3 243e
00000060: b6a5 a93d b485 363e d735 96bd f48f ea3c
00000070: 6005 54bd 92d2 193e 4586 6abd 25ee 893d
00000080: 75bc 193e c9ce 03be ffb7 40bd 831b fc3d
00000090: 61e3 763d c3fe b4bc ddc6 b13c 768d 163e
