Weight/15_5_62_2/PPO_continuous.pth (torch_old, 43662 bytes, 15 tensors)

actor.0.weight f4 [43, 80]
000000 31 81 78 3c d0 2e fc 3d 17 9b 2a 3e 3f ea 8c bb
       0.01516752 0.12313616 0.16660725 -0.0043003852
000010 d8 32 1c 3d e0 65 f1 3c 54 d2 f9 bd 40 b2 94 bd
       0.038134426 0.029467523 -0.1219832 -0.07260561
000020 1f 2b bb bd da 46 67 3d fe e1 6c bc 07 5f 20 bc
       -0.09139084 0.056464054 -0.014458178 -0.009788281
000030 ca e0 25 be 8f 94 7d 3d 64 6a c1 3d ec 8e 58 3a
       -0.16199031 0.061909255 0.094441205 0.0008261043
000040 4c a8 c8 bc f9 47 9a bd 20 1d 8a bc b3 d2 d3 bd
       -0.024494313 -0.07533259 -0.016859591 -0.10342922
000050 b6 29 a4 3d a4 e4 3b bc c0 45 52 3d a7 97 06 bd
       0.08015768 -0.011468086 0.05133605 -0.03285947
000060 f3 07 8b 3d 99 f2 09 3d 31 53 e0 bd 7a b4 69 bd
       0.067886256 0.033678625 -0.109533675 -0.05705688
000070 9e 47 57 bc eb 03 bf 3d f0 93 37 3d de ca 7c bd
       -0.013139633 0.09326919 0.04481882 -0.061716907
000080 3b 2a 75 3d 31 28 0c be 3e 45 1e bd 01 12 d7 3d
       0.059854727 -0.13687207 -0.038640253 0.10501481
000090 28 24 1d ba 82 0c 9a bd cb 8e 48 bd 7d 13 e7 3c
       -0.00059944624 -0.07521917 -0.048964303 0.028207535
0000a0 52 c1 df bd 8a fc ab 3d f8 e9 1e be 66 88 42 bd
       -0.10925545 0.083977774 -0.1551894 -0.04749336
0000b0 e4 e9 00 be 0b 9c 83 3c 71 d1 0e be e1 24 a2 3e
       -0.12589222 0.016065618 -0.13947083 0.3166876
0000c0 7f 5f 56 3e 8f f8 ff 3c f4 62 fd bd 98 82 9d 3c
       0.20934866 0.031246452 -0.123723894 0.019227311
0000d0 82 90 d3 bd 3a 09 60 bd 91 77 c5 3d 18 0e 04 be
       -0.10330297 -0.0546963 0.09641946 -0.12896001
0000e0 cc ec 82 bd 17 e7 cc bc 13 3b 26 3e fb 52 4f 3c
       -0.06392822 -0.025012536 0.16233473 0.012654061
0000f0 95 af 1d 3d cc a6 d2 3c 71 e9 af bc 09 54 2e be
       0.038497526 0.0257143 -0.021473618 -0.17024244
000100 7f 0a ba ba ca 16 3a 3c b7 1a 0f 3d 4a 32 d2 bc
       -0.0014193802 0.011357972 0.034937587 -0.025658745
000110 82 31 0c bd c3 69 be bd d6 ba d4 bd dd 61 d5 3d
       -0.0342269 -0.09297516 -0.103871986 0.104190566
000120 cc 50 8a 3c 1e 86 31 3d f7 71 82 bc 84 5a d3 3b
       0.01688423 0.043340795 -0.015923483 0.0064499993
000130 da f6 c3 bd 1f ba f7 3d d2 a5 93 bd 7f 72 8a 3d
       -0.095685676 0.12096047 -0.07209362 0.0676012
000140 0f 53 bb bd 18 66 33 3d 0f 83 94 3d 69 01 b8 3d
       -0.091467015 0.043798536 0.0725156 0.08984644
000150 b5 3a 27 3d bc e1 8a 3d 2b 15 80 bd 6c 74 2f 3e
       0.04082747 0.06781337 -0.062540375 0.17134255
000160 5b 4d e5 3d ee 2f a2 3d 9b 33 cb bd a9 4d 15 3e
       0.11196395 0.07919298 -0.09921952 0.14580406
000170 56 e7 27 3d d4 58 73 3e 24 87 aa 3d fd 0d ca 3d
       0.040992104 0.23764354 0.08326557 0.09865949
000180 ec 9c d8 bd 42 1b d7 bd 07 e2 9b 3d b0 51 55 bd
       -0.105768055 -0.10503246 0.07611471 -0.052079856
000190 94 92 39 3e d8 07 3e 3e f8 0f 80 3d e4 66 70 bd
       0.18122321 0.1855768 0.06253046 -0.058691874
0001a0 30 b9 1a be d0 db 17 3e 70 ce 07 be 86 72 af 3e
       -0.15109706 0.14829946 -0.13262343 0.34267062
0001b0 98 69 75 3e 6f d2 ba bd 2b 24 a0 ba 1e 16 31 bd
       0.23966062 -0.09122168 -0.001221781 -0.043233983
0001c0 f3 28 a6 bc 2e 82 fb bd c1 f2 60 3e c3 28 54 3e
       -0.020283198 -0.12280689 0.21967603 0.20718674
0001d0 dc 18 22 bd 8b 5f 75 3c 9a d9 ea bd f1 2e dd 3d
       -0.03957449 0.0149763925 -0.114672855 0.10799969
0001e0 1f c1 ed bd 0b f2 9d 3e 60 7c 4f be 22 14 4b 3d
       -0.116091006 0.30848727 -0.20262289 0.049579747
0001f0 81 a9 25 3c 0c 74 eb bd 0d 0b f5 bd 90 8d c9 bd
       0.010111214 -0.114967436 -0.119649984 -0.09841454
000200 35 f7 03 3e 26 3b 30 3e 3a 71 80 bd a0 52 99 3b
       0.12887271 0.17210063 -0.06271596 0.004679039
000210 3a 4f dc 3d b8 88 c7 3c ac e5 4b bd 8a 20 56 3e
       0.10757299 0.024357185 -0.04977958 0.2091085
000220 8e df b9 3d f0 d4 4c bd 0f cf 5c 3e cd 1b 8a 3d
       0.09075843 -0.05000776 0.21563362 0.06743584
000230 3b fe 00 bc e1 b7 ec bd 03 19 34 3e 6f 20 6c 3e
       -0.007873113 -0.115585096 0.17587666 0.23059247
000240 55 f3 01 3e ab 87 0a be 62 6f 0a be e9 8b 49 bc
       0.1269048 -0.13528316 -0.13519052 -0.012301424
000250 6c dd 50 3c a5 26 6b 3d 44 6f a8 3d 60 d6 47 3d
       0.012748104 0.0574099 0.08224347 0.04878843
000260 be bb c3 bd 51 19 3e be 1c 2a 7f 3d 54 e8 89 3d
       -0.09557293 -0.18564345 0.062296018 0.06733766
000270 91 b6 97 bd 3d d9 34 3d 99 45 da 3d ec 8b 20 3e
       -0.07407869 0.044152487 0.10657806 0.15678376
000280 4d 3a 8b 3d b6 df 0e be 8d c1 6d bc fe 27 5a 3d
       0.06798229 -0.13952526 -0.014511478 0.053260796
000290 5d 44 84 3d b3 13 61 bd d0 74 cf bd c1 bd b1 bd
       0.06458352 -0.054950427 -0.10129702 -0.08678771
0002a0 6e 89 d3 3d 65 61 8d 3c 3e 49 9e bd 2f 34 a6 bd
       0.10328947 0.017258355 -0.077288136 -0.08115422
0002b0 37 38 b0 3b 8a c8 ed bd 33 4f 85 3d b8 b0 84 bd
       0.005377795 -0.116105154 0.06509247 -0.06479019
0002c0 8c 99 a2 3d b5 e2 0e bd 77 cb 81 bd d8 02 e6 3d
       0.07939443 -0.034884173 -0.06337636 0.11231011
0002d0 d5 55 9e bd c3 22 ac bd ea 0c c0 3c 4a 88 87 bd
       -0.07731215 -0.08405068 0.023443658 -0.06617792
0002e0 52 67 e8 3c 51 6d 02 be fd 2d 00 3d 9c 74 5f 3d
       0.02836958 -0.12737013 0.031293858 0.054554567
0002f0 65 6d ce bd e8 37 be 3d 59 6e d9 bd a3 62 5f bc
       -0.10079459 0.09288007 -0.1061675 -0.013634357
000300 66 80 ba bd c3 dd 73 bd ce f5 24 3d 12 cb f9 bd
       -0.09106521 -0.05953766 0.04027348 -0.12196936
000310 df dd c3 bd 56 39 55 3d d7 a8 f0 3c 7a 39 3e 3b
       -0.09563803 0.052056633 0.029377384 0.0029025958
000320 f0 6d a0 bb f7 e3 f2 bd 4d a0 90 bd 70 a3 cc 3e
       -0.004895918 -0.11859887 -0.07061825 0.39968443
000330 25 df 76 3d 24 f4 f9 3d 67 39 2b bc 5c 23 c4 bb
       0.0602714 0.12204769 -0.0104506975 -0.0059856605
000340 bc 98 88 bd f0 1e 72 3d ac f3 86 3e f9 bf 2e bc
       -0.06669757 0.059111536 0.26357782 -0.010665887
000350 c2 88 c3 bc fc e2 7d 3d 2b 65 a4 3d 52 73 20 be
       -0.023868922 0.061984047 0.08027109 -0.15668991
000360 a2 9e ea 3b 2b 51 1d bc 56 41 4b bd 61 fc ba bd
       0.007160024 -0.0096018715 -0.049622856 -0.09130169
000370 92 a2 2c be da 43 99 3d cd b7 bd bd db 40 57 be
       -0.1685889 0.07483645 -0.09263573 -0.21020834
000380 36 fc 79 3b 5f 0a a0 3d da 93 bf bd ab 9e 8b bd
       0.0038144714 0.07814478 -0.09354372 -0.06817373
000390 01 b7 33 bc 26 5a de 3b aa b5 52 be 4f 06 44 3d
       -0.0109689245 0.006785649 -0.20577112 0.04785758
0003a0 40 68 0e 3e a7 2b 87 3d a8 4f ee bd a9 b9 6f 3c
       0.13906956 0.06600123 -0.11636287 0.014631667
0003b0 03 8f 7d be 40 51 70 3d 3d 11 0b 3d a0 bf f4 bd
       -0.24761586 0.058671236 0.033951987 -0.11950612
0003c0 78 91 bc 3d cd 81 0e 3e de 96 cf bd 65 cd 20 3e
       0.092074335 0.13916703 -0.101361975 0.15703352
0003d0 8a 41 bf 3d ba 70 17 bc 84 43 8f bc 66 a0 77 3d
       0.093386725 -0.009243185 -0.017488249 0.060455702
0003e0 d3 13 28 be c4 85 c3 bd bc 25 52 3d 32 70 80 bd
       -0.16413812 -0.09546998 0.051305518 -0.062713996
0003f0 96 04 80 3d 4d b0 e9 bd 0c 85 5f 3d 60 c0 f4 bd
       0.06250875 -0.1141058 0.054570243 -0.11950755

actor.0.bias f4 [43]
000000 9f 0f 79 bd 38 57 23 3e b6 3e 46 3c 7f 21 02 3d
       -0.060805913 0.1595124 0.012099912 0.031770226
000010 d6 07 50 bd 23 a5 b2 3d 49 ea 45 bb 36 28 03 3e
       -0.050788723 0.087229036 -0.003019946 0.12808308
000020 64 2b 1b 3d db ab e5 bd 8c db 39 3d 4e 7f 10 3e
       0.037883177 -0.112144195 0.04537539 0.14111063
000030 4b c4 00 3e de f0 d0 3c a5 12 57 3c a3 8a 9d 3c
       0.1257488 0.02550548 0.013127004 0.019231146
000040 17 e9 07 3e 8e 1e 02 3d 24 34 0c bd ba a5 6c bd
       0.1327251 0.03176742 -0.034229413 -0.057775237
000050 d5 85 8f 3c 9c 47 3c 3c 7e 7a b0 bd 01 11 1e 3d
       0.01751987 0.011491682 -0.086171135 0.038590435
000060 75 a7 97 3c 08 16 e2 3c 9e d4 b4 bc b5 ed a1 3c
       0.018512467 0.027598396 -0.02207404 0.019766668
000070 34 98 97 bc 71 5d 45 3e 1f ee fd bd 87 f7 92 3c
       -0.018505193 0.19273926 -0.123989336 0.017940296
000080 e0 b3 e1 3d ec 74 83 3d 7c 26 7c 3d 05 36 b5 bd
       0.110206366 0.064187855 0.06156014 -0.08848194
000090 9b dd 0b 3e 08 b7 9f 3d 9b a3 50 3c d2 62 89 3c
       0.13658755 0.07798582 0.012734319 0.016770754
0000a0 56 08 ce bd 93 f5 a1 3d 01 c2 f2 3d
       -0.10060184 0.07908168 0.118534096

actor.2.weight f4 [28, 43]
000000 66 c6 cb 3c b6 a0 11 3d fd 14 03 3e 1f 22 76 3e
       0.024874877 0.035553657 0.12800975 0.24036454
000010 e9 4e 7f 3e 6c 62 87 3d 5d ef b3 3d 86 91 6c be
       0.24932446 0.06610569 0.08785889 -0.23102388
000020 cd 1b 61 bd 46 8c 7e 3b 39 8f 2e 3e 96 00 69 3b
       -0.054958154 0.0038840934 0.17046823 0.0035553328
000030 07 76 19 3d 2f 0f 01 3e b3 b0 f5 bd 59 be fa bc
       0.037466075 0.12603448 -0.11996593 -0.030608343
000040 03 62 7f 3c 27 c1 0a 3e 6a ef 7c 3e 18 82 2f bb
       0.015587333 0.13550244 0.24700704 -0.0026780423
000050 a8 f8 47 3d c5 6d 1a 3e a2 a5 fc bd 28 27 53 3d
       0.04882112 0.15080936 -0.123362795 0.051551014
000060 89 b4 4a 3e c6 18 0d bc 10 f6 09 3e b1 bc 34 bd
       0.19795431 -0.0086118635 0.13472772 -0.044125263
000070 2e d9 0c bd 71 22 28 be 31 f9 c0 3c c3 ef 22 be
       -0.034386806 -0.16419388 0.023556324 -0.15911774
000080 49 95 03 3e 17 7b cc 3d 5f 90 00 3e 19 02 2f 3e
       0.12849917 0.09984415 0.12555073 0.17090644
000090 7c 20 44 bd 19 a4 08 bc 77 a9 97 3b 78 25 5b 3e
       -0.047882542 -0.008339905 0.004628356 0.21401012
0000a0 8d 0e ac 3e 89 25 51 3e 17 ab 62 3b a0 45 54 3d
       0.3360485 0.20424475 0.003458684 0.051824212
0000b0 f8 6c 43 3e 0d e6 73 bd 6d 5e a5 ba 0c df b0 3e
       0.19084537 -0.059545565 -0.0012616642 0.3454517
0000c0 25 c9 be 3d 18 6e 2e 3e 90 a9 b9 bc f3 d0 ea 3c
       0.09315709 0.17034185 -0.022663862 0.028664088
0000d0 c4 66 71 ba 11 71 cf bd 2b e7 3f be a3 39 2f 3e
       -0.00092087337 -0.101289876 -0.18740527 0.1711183
0000e0 d5 3b 5e bd 76 04 53 3e c1 70 bb 3d b0 78 98 be
       -0.05425628 0.2060717 0.091523655 -0.29779577
0000f0 3b 5e 03 3e 63 16 9a 3c 9a 28 34 3c fe 32 0d be
       0.12828915 0.018809503 0.010996008 -0.13788983
000100 50 67 81 3d f9 34 6d 3e 45 ef ab 3e 3b 23 ec bd
       0.063185334 0.23164739 0.33580986 -0.11530157
000110 8d 95 3b 3e cf cf 91 bc 69 1b 44 3e 64 8a c7 3e
       0.18318768 -0.017799286 0.19151081 0.3897277
000120 ed a6 a8 3d 9d 94 4c 3d b2 52 04 be 6b 03 cd 3d
       0.082349636 0.049946416 -0.12922171 0.100104176
000130 aa d0 50 be 45 99 03 3d 7b e1 44 bd 45 c1 af 3e
       -0.20392099 0.03212859 -0.048066597 0.3432714
000140 62 85 5b be a8 26 66 bd 73 9a c2 bd 4b a2 14 bd
       -0.214376 -0.05618921 -0.09502115 -0.036287587
000150 23 67 81 bd ac b4 46 3e ea 9a 30 3e 84 50 29 be
       -0.063185 0.19404858 0.17246595 -0.1653462
000160 9a 95 52 bd d8 92 41 3e b0 15 81 3e 23 c8 8f 3d
       -0.051412202 0.18903673 0.2521186 0.07020595
000170 a7 4c 2b 3e 73 bb eb 3b 91 c2 53 be e8 fa c9 bd
       0.1672846 0.0071939765 -0.2067969 -0.0986231
000180 f8 94 1d 3d 46 eb 1b be 57 1d ce 3d cb 74 8a 3e
       0.038472146 -0.15226468 0.1006419 0.2704223
000190 53 96 9a 3d 1f de 2c 3d d7 76 f3 3d 51 f2 9a 3d
       0.07548203 0.04220402 0.11887901 0.075657494
0001a0 9d 71 39 3e 56 bc 78 3e e8 96 9f be 45 99 3d be
       0.18109746 0.24290594 -0.3116982 -0.18515499
0001b0 16 ab 43 3e 5b 3f a1 bc ed 8c 05 bc 61 5e 1c 3e
       0.19108233 -0.01968353 -0.008151275 0.15270378
0001c0 48 e8 ee 3d 63 3c 68 be b8 28 c2 3b 71 2b 86 3e
       0.11665398 -0.22679286 0.005925264 0.26205018
0001d0 f7 a9 7d bd 92 fa 64 bd 05 e4 ef 3d f4 d5 9d bd
       -0.06192967 -0.055903025 0.11713413 -0.07706824
0001e0 88 5c 03 3e e6 1f af 3b ba 95 0f be 97 e9 fc bd
       0.12828267 0.0053443788 -0.1402196 -0.12349241
0001f0 4b c8 ee bc c2 58 70 3d 70 97 83 bd 60 11 30 be
       -0.029148242 0.058678396 -0.06425369 -0.17194128
000200 4c 2d 80 3d 16 83 72 3d 6a 63 c9 bd 44 04 70 be
       0.0625864 0.059207045 -0.09833415 -0.23439127
000210 2e 1b 3e bd 73 8f a4 3d 0e e5 87 3d e5 bc b6 bd
       -0.04641264 0.08035173 0.066354856 -0.089227475
000220 ed 53 1d 3e 00 fb dc bc 80 dd c2 bd d5 e0 6a bd
       0.15364046 -0.026975155 -0.09514904 -0.057343323
000230 d9 47 5b be 2b df c0 3d 70 08 ea 3d 0d 9a 8a bd
       -0.21414126 0.09417566 0.114273906 -0.06767664
000240 42 2a 92 bc 1e d3 25 bd 48 19 0c 3e 3f d4 5e bc
       -0.017842416 -0.04048454 0.13681519 -0.013600408
000250 e1 a3 1a be 12 94 84 3e 88 f0 8f bd 3b 16 a6 3d
       -0.15101577 0.2589422 -0.070282996 0.08109709
000260 f3 9c 73 3d 0c 65 51 3c 3d ac fb 3d 2a db e7 3d
       0.05947585 0.012780439 0.12288711 0.11321099
000270 2f a2 06 3e 03 b9 d9 3e 16 17 43 3d 4e f5 f5 bd
       0.13147806 0.42523965 0.04762944 -0.12009679
000280 5f 3e 3a be 8c 62 e5 bd a3 b9 4c be ab e7 d1 3c
       -0.18187855 -0.11200437 -0.1999269 0.025623163
000290 4c 14 96 be 0c 5c f8 3d 13 15 8f be e2 cf 31 be
       -0.2931236 0.121269315 -0.27945766 -0.17364457
0002a0 85 9f 1c 3e ad 1b b8 3b 84 66 ac 3d 79 d5 25 be
       0.15295227 0.0056185336 0.08417991 -0.16194715
0002b0 5d f8 79 3e f4 b7 8b 3e ae 73 31 bd ba 4d 86 bc
       0.2441115 0.27288783 -0.04332321 -0.016394485
0002c0 e0 b4 46 3c a9 65 00 3e 2a 02 3b be af 7f 34 3e
       0.012128085 0.1253878 -0.18262544 0.17626832
0002d0 93 9c a7 3d c4 42 0e be ec 33 77 3d c3 07 21 3e
       0.08184161 -0.13892657 0.06035225 0.15725617
0002e0 e0 c0 18 be ce 77 1f be fd 4c 7e 3c 88 a5 fa bd
       -0.14917326 -0.15573046 0.015521285 -0.12238604
0002f0 a8 e9 fd 3d bc 7e 33 3d b5 bd dd 3c b3 21 5b 3e
       0.12398082 0.043822035 0.027067998 0.21399574
000300 de 22 16 3e a4 08 e4 bd d2 a8 eb bc 12 dd 86 bd
       0.14661738 -0.111344606 -0.028767023 -0.065851346
000310 d4 90 e7 3d 02 d1 04 3e 6e a8 01 3e 6b 59 82 bd
       0.11306921 0.12970355 0.12661907 -0.063647114
000320 d3 f3 47 3e 09 c4 f7 3d 88 88 8b bc df e3 68 3c
       0.19526605 0.120979376 -0.017032877 0.014214485
000330 e5 60 1d 3d 29 42 4c 3e 22 8e 92 3b e5 e4 07 3d
       0.038422484 0.19947113 0.00447251 0.033177275
000340 8e 4f e7 3c d7 72 89 bd f4 0f 81 3e d4 61 0d bc
       0.028236177 -0.06711357 0.25207484 -0.008629281
000350 b7 4c 8b be a5 37 6e 3e 1d b4 e6 bb 86 81 7f bd
       -0.27206966 0.23263414 -0.007040514 -0.062379383
000360 4c 49 be 3d 29 7d 02 be 2e 6f 46 be d8 0e 43 bd
       0.09291324 -0.12743057 -0.19378349 -0.047621578
000370 a6 fe cf bd c1 c1 05 3e 88 e1 b0 3d 51 b0 d1 3c
       -0.10155992 0.13062192 0.08636767 0.02559677
000380 b3 40 a3 3b 7f df fb bd 31 b9 dd bd 14 0f c7 3d
       0.004982078 -0.12298488 -0.10826338 0.09719673
000390 9f 2b 3d bd 67 e0 65 bd c8 0d 46 bd 9b bb 04 be
       -0.04618418 -0.05612221 -0.048352987 -0.12962191
0003a0 68 c3 4f bd 79 8a d8 bd 7d 2c 3b be 74 95 54 3e
       -0.050723463 -0.105732866 -0.1827869 0.20760137
0003b0 c3 4e ac bd e3 27 73 bd 17 50 90 3d fe 8d 55 be
       -0.0841346 -0.05936421 0.07046526 -0.20854947
0003c0 55 d6 67 3c c4 ea 4a 3d a4 91 2b be e3 b2 9c 3d
       0.014150222 0.049540296 -0.16754776 0.076513074
0003d0 00 32 17 3e bb 59 62 bd f7 05 88 3c 3e 4e 09 be
       0.14765167 -0.055261355 0.016604407 -0.13408753
0003e0 8b 8c 42 3d 79 80 bf 3d e0 65 16 be 75 c6 73 3d
       0.047497313 0.09350676 -0.146873 0.059515435
0003f0 92 c8 14 be bf c9 e4 bd 98 d1 1b be 3c 97 86 3d
       -0.14529637 -0.111712925 -0.15216672 0.065718144

actor.2.bias f4 [28]
000000 5d d6 34 3d c1 ae 27 bd fc 99 e1 bc 8c 2f e3 bd
       0.044149745 -0.040938143 -0.027539246 -0.11093053
000010 ce 0b 8e bd e1 ee d5 bd 52 9f 7a bc ed 90 35 bc
       -0.06935845 -0.10445953 -0.015296774 -0.011081916
000020 57 79 0f be 66 73 02 bd d1 ea 98 bc b7 fd ed bd
       -0.14011131 -0.031848334 -0.018666657 -0.11620658
000030 e4 24 88 bb de 48 2e 3c 46 f0 d9 3d 2d b6 09 3e
       -0.0041547883 0.01063749 0.10641532 0.13448401
000040 f5 f8 aa 3d c6 83 d8 3d e6 20 9b bc e1 a7 07 3e
       0.08348266 0.10572009 -0.018936586 0.13247634
000050 c0 8a 12 3e a9 e1 00 3e fc 3a 95 3c fe 78 10 3e
       0.14310741 0.12586083 0.018216603 0.14108655
000060 72 49 bd bc 2a e8 1d be ea 9b 01 3e f1 b1 bc bd
       -0.02310631 -0.15420595 0.12657133 -0.09213627

actor.4.weight f4 [14, 28]
000000 4f 80 b0 3d 86 6c ef bd d5 f7 eb 3d 27 18 b9 bd
       0.08618223 -0.11690621 0.115218796 -0.0903781
000010 35 e7 5f be 7d 64 bd bd 4c 67 38 3e 1c 96 66 be
       -0.21865542 -0.09247682 0.18008155 -0.225182
000020 91 0d 45 be 10 eb 54 bd d3 4e 24 be f7 6a 12 be
       -0.19243456 -0.051981986 -0.16045694 -0.14298616
000030 fb b0 b3 3d 5e 31 f5 bd 58 54 6d be 0c 31 14 be
       0.08773991 -0.11972307 -0.23176706 -0.14471835
000040 ed 3f b8 3d f1 dd 95 bd 7d 88 ed bd 94 0a a5 bc
       0.08996568 -0.073177226 -0.11598299 -0.020146646
000050 38 80 12 3e 3a 58 2d 3e 7a 26 a4 bd ea 97 03 be
       0.14306724 0.16928187 -0.08015151 -0.1285092
000060 cd 7c e1 bc 6d 2c e5 bc 90 80 4f be c4 5e 17 bd
       -0.02752533 -0.027975285 -0.20263886 -0.03695561
000070 a8 95 f0 3d 18 f7 9c 3e e5 b9 e6 3d 67 ac 2f 3e
       0.11747295 0.30657268 0.11265925 0.1715561
000080 7d d1 41 3b da a2 e4 3b f8 c4 1e be 08 84 6c bd
       0.0029574328 0.006977421 -0.15504825 -0.057743102
000090 94 d1 95 3d 3c 9f 62 3e 33 70 b4 be 71 35 52 3e
       0.073153645 0.22131056 -0.3524185 0.20528199
0000a0 2c e7 07 3e 40 f0 8d bd 51 61 4e 3c db d2 14 be
       0.13271779 -0.0693059 0.012596444 -0.1453356
0000b0 47 e9 94 3e f1 af e5 bd 98 bc 29 be 86 78 b4 3d
       0.29084226 -0.11215199 -0.16575849 0.088120505
0000c0 a6 ba 56 3e 81 06 7c bd 79 26 a6 bd d3 07 b2 bd
       0.20969638 -0.06152964 -0.08112807 -0.086928986
0000d0 47 2b b0 3d c7 8f 93 3e 8e 67 16 3c 88 34 5b 3e
       0.086020045 0.2882063 0.009179963 0.21406758
0000e0 72 f3 b5 3d c0 1e f7 bd ea 2f 99 3e f1 07 a3 be
       0.08884324 -0.12066412 0.29919368 -0.31841996
0000f0 fd 2e ee bd ce d9 b1 3d 87 0d 62 bd a9 57 96 3e
       -0.11630056 0.08684121 -0.055188682 0.29363754
000100 23 d1 a7 bd e6 34 e2 3d dd 2b f4 3c 3c c3 ab 3e
       -0.081941865 0.11045246 0.029806072 0.3354739
000110 08 04 b0 be f9 2f 98 be 6f 19 98 3d 54 af 9b bd
       -0.34378076 -0.297241 0.07426726 -0.076018006
000120 73 31 9e 3e 4c 02 81 3e d3 ec 0a 3e 4a 81 6f bd
       0.30897102 0.25197065 0.13566904 -0.05847291
000130 9d b8 6f 3e 25 29 8b be 06 33 12 3e 1e f8 6a be
       0.23410268 -0.27179828 0.14277276 -0.22946212
000140 a2 1a a4 be be 83 2d 3e ab 39 f8 3d 71 9c 84 3e
       -0.3205157 0.16944787 0.12120374 0.25900605
000150 53 39 7e bd 95 ab a1 3e 6a 0b 93 3d 38 9d 0e 3d
       -0.062066387 0.3157622 0.071799114 0.034817904
000160 a1 b0 24 bd 5e 1a 39 be 7d 8e 77 3e 6a 23 52 3d
       -0.04020751 -0.18076465 0.24175449 0.051303305
000170 2f fb ed bd e8 cb e1 bd 4c f2 3b bd a6 a6 8a be
       -0.11620175 -0.1102522 -0.04588537 -0.27080268
000180 83 8d b8 3c cd cf 54 3c a9 2b 9e bd 9b 40 3d bd
       0.022528416 0.012988997 -0.07723171 -0.04620419
000190 c7 0c 3d 3e 70 e8 66 3d 75 0b 65 be 60 97 05 3d
       0.18461905 0.056374013 -0.22367652 0.032615066
0001a0 93 66 90 3e 61 0c 43 3e a7 11 15 be e5 1e 89 3b
       0.28203258 0.19047691 -0.14557515 0.004184591
0001b0 09 ad c9 3d 61 24 52 3e c1 9c 5a 3d 60 29 39 3e
       0.09847457 0.2052169 0.05337215 0.1808219
0001c0 3a ac d8 3d 75 b2 ae 3d 63 b8 22 3e dc 34 13 3d
       0.105797246 0.08530132 0.1589065 0.035939083
0001d0 90 0e 8b 3e 9c a2 5f 3e e4 7b e1 3c 1f 55 4d be
       0.27159548 0.21839374 0.027524896 -0.20052002
0001e0 a0 35 5d 3e 04 56 59 be 2a ce 8e 3e ab ec 99 3d
       0.21602488 -0.21224219 0.27891666 0.07515844
0001f0 68 b5 2c bd 6b 7a 20 3e 02 cb 7f 3d 2b a5 e5 bd
       -0.04216519 0.15671699 0.062449463 -0.11213144
000200 9f 39 c9 ba 36 85 e0 3d cf 72 8b 3e d2 19 05 3e
       -0.0015352255 0.10962908 0.2723603 0.12998131
000210 84 f6 3b 3e 0a 6a 10 3e f2 66 19 3e 45 4d d9 bd
       0.18355757 0.1410295 0.14980677 -0.10610441
000220 fe 3b 2d be 92 e3 9d be 8c 38 01 3e e9 48 7f bd
       -0.16917416 -0.30837685 0.12619227 -0.062325392
000230 50 53 f0 bd eb 91 27 be 99 8b ea bd e9 71 b9 be
       -0.117346406 -0.16364257 -0.114524074 -0.3621972
000240 ec 7f 4d 3e 35 a5 38 3d 29 9f 6b 3e d5 2b c3 3d
       0.2006833 0.04507943 0.23009934 0.09529845
000250 11 46 5b 3e af 85 92 be 35 3d 5a 3e 97 6c 67 be
       0.21413447 -0.28617617 0.21312411 -0.22600017
000260 e1 79 79 bc 2f f3 78 3d 37 42 ac 3d 22 41 f0 3c
       -0.015226812 0.060778793 0.08411067 0.029327933
000270 27 34 64 bd 4a 90 fb bd 0d e8 b6 3d 73 bb 04 bd
       -0.0557138 -0.1228338 0.08930979 -0.032405328
000280 eb be c0 bd 02 f5 2f 3d 77 85 19 3d f0 4b e4 3d
       -0.09411415 0.042958267 0.037480798 0.111472964
000290 46 90 75 be a4 3a 0e be 4b 29 7f bd c8 9b 87 be
       -0.23980817 -0.13889557 -0.06229524 -0.2648604
0002a0 b2 c0 a6 bd e1 83 b6 3e e8 04 5b 3e 58 0e 97 3e
       -0.081422225 0.3564749 0.2138859 0.2950313
0002b0 35 fd db 3d c4 33 66 be 02 1e 84 bd 93 d9 b6 3e
       0.10741655 -0.22480685 -0.06451036 0.3571287
0002c0 f2 f2 85 3b a0 d6 4f 3e 82 52 16 3e b2 73 a3 3c
       0.004087799 0.20296717 0.14679912 0.019952629
0002d0 7b a7 48 3e 2b 96 9b 3e 9d 55 a7 3d 50 62 66 be
       0.19595139 0.30388007 0.08170626 -0.2249844
0002e0 49 ee 4d bd a8 2a c1 3e 1b 3d 65 be 4b 71 9e 3d
       -0.050276075 0.37727857 -0.22386591 0.07736453
0002f0 f8 22 00 3e 8d b2 c1 bc 3e b9 c5 bd c5 01 8b bc
       0.1251334 -0.02364471 -0.09654473 -0.016968617
000300 21 68 e0 3d d4 18 db 3d 9b f2 f5 bd 7c 88 58 bc
       0.10957361 0.10698095 -0.12009164 -0.013216134
000310 fc 39 b4 3d 91 2c ba bc 7d 85 db 3d ba 19 8a be
       0.08800122 -0.022726329 0.1071882 -0.26972753
000320 e4 a5 f2 bd 2d 7a 4f 3e 73 f7 97 3d 57 c5 36 3c
       -0.118480474 0.2026145 0.07420244 0.011155448
000330 25 2e 56 3d 42 9f f5 3d 1c 73 42 3d e9 86 82 3d
       0.0522901 0.11993267 0.047473058 0.06373388
000340 95 29 0e 3e fa d5 d7 bd 52 a8 e0 3d 32 af 40 3e
       0.1388305 -0.1053886 0.109696046 0.18816832
000350 74 c9 0b 3e d5 14 45 3e 38 3e f5 3d 65 01 68 bd
       0.13651067 0.19246228 0.11974758 -0.056641955
000360 00 bc f0 bd 61 5f 73 be bb eb 9b 3c 7d ab 32 be
       -0.11754608 -0.23766853 0.019033303 -0.1744823
000370 03 1f f1 bd 73 d8 9d be eb 8e 0d 3e 98 f2 4c bd
       -0.11773493 -0.308292 0.1382405 -0.050036043
000380 3e 4a 2b 3e 91 cb 2f 3e 4b 9a af bd 3b 77 3e 3e
       0.1672754 0.17167498 -0.08574351 0.1860017
000390 77 49 8f bc be bc a0 be 22 26 3d be 77 5c 90 3e
       -0.017491085 -0.31394 -0.18471578 0.28195545
0003a0 4f 4a 42 3d 8a 40 20 3e ea 03 ad bd 61 cc 02 3e
       0.047434147 0.1564962 -0.08448012 0.12773277
0003b0 7b c1 ba bc ea e7 09 3e a7 0d c6 3d a4 da 2d be
       -0.022797337 0.13467374 0.09670573 -0.16977936
0003c0 d6 13 40 3d 47 59 7c 3e 66 46 42 3e 73 d7 10 3e
       0.046893917 0.24643432 0.18972167 0.14144687
0003d0 d9 48 c3 bc a9 66 82 be 3d e8 0f 3e 58 4c 1f 3e
       -0.023838447 -0.25468948 0.14053436 0.15556467
0003e0 e0 a1 22 be 96 9a e8 3b ba d4 88 bc 3a de 51 3d
       -0.15882063 0.007098506 -0.016702998 0.051237322
0003f0 d1 7d 1a 3c c2 0f 42 3e 93 58 29 be 03 a0 fc 3d
       0.009429411 0.18951324 -0.16537695 0.12335207

actor.4.bias f4 [14]
000000 5b 13 2a be d8 75 4d 3d 21 40 5c 3e 76 3e 46 3d
       -0.16608946 0.050161213 0.21508838 0.04839941
000010 4d 9a f3 3d 37 05 f9 3d 6b 2f 91 bb 6a f7 82 bd
       0.11894665 0.12159198 -0.0044307015 -0.06394847
000020 19 a5 03 be 17 5e 7c 3b 38 8b 00 3e b7 22 d9 bc
       -0.12855949 0.003850823 0.12553108 -0.026505811
000030 22 12 2d be 78 4c 62 bd
       -0.16901448 -0.055248708

actor.6.weight f4 [7, 14]
000000 b3 19 67 3d 79 0b 1c 3e 1d bd 6f 3e 2c 3a 87 3e
       0.056420993 0.15238751 0.23411985 0.2641157
000010 58 51 bb 3d 7d 94 da bb 7d 17 72 3e 88 3b c8 3c
       0.091463745 -0.006670533 0.23641773 0.02444245
000020 54 84 69 bd 8a a4 16 bd 34 0a b3 3d 2a 66 9d be
       -0.057010964 -0.03677801 0.087421805 -0.30742007
000030 87 11 55 3e 04 81 93 be b7 f0 89 be b4 f0 c7 3d
       0.20807467 -0.2880937 -0.26941463 0.09762707
000040 9e 32 85 3e 8d bb df 3d 87 20 98 be 0d 7d af be
       0.2601518 0.10924444 -0.29712316 -0.34275094
000050 98 fc a3 3c 8c 7f 1a be f1 67 a2 bc 2b ba 4f bd
       0.020017907 -0.15087718 -0.019824954 -0.050714653
000060 4f 09 a5 3e 5f 19 e2 3d f6 d6 16 3d 2f 2f ac be
       0.32233664 0.110399954 0.036826096 -0.33629748
000070 6a 7e 98 3e 24 71 0e be 37 58 9e be f7 03 af 3e
       0.29783946 -0.13910347 -0.30926678 0.34182712
000080 b1 27 6d 3d 55 9e 69 3e b3 89 4d bc a3 d6 bc 3c
       0.05789918 0.22814305 -0.012545037 0.023051566
000090 f8 4d 9d be 70 c1 05 3e d6 1e bf be 03 7d a6 3d
       -0.30723548 0.13062072 -0.37328213 0.08129313
0000a0 04 79 9b bd 11 57 be be 42 cc 9f 3e 6a 96 5c be
       -0.07591441 -0.371758 0.31210524 -0.21541753
0000b0 72 4c 1f 3e 93 f6 90 3d c8 36 4a 3e 4c ea 02 3e
       0.15556505 0.0707828 0.1974746 0.1278469
0000c0 50 37 bc be f8 3c ad 3e 99 12 bd be f5 d3 d6 be
       -0.3676095 0.33835578 -0.3692825 -0.41958585
0000d0 75 7c 46 3e 75 76 1a bd 1a 2a 5d 3e 1f 86 ad 3e
       0.19383414 -0.037710626 0.21598092 0.3389139
0000e0 38 ba 01 3e c2 ba 16 be 98 92 1c be 7e 72 ab 3e
       0.12668693 -0.1471968 -0.15290296 0.33485788
0000f0 02 6f d9 3d 42 33 9b 3e 00 95 46 3e 30 f3 46 3d
       0.10616876 0.30312544 0.19392776 0.048571765
000100 10 ae c7 be bf 3d a1 3c 5c c4 9c 3e ec d8 c4 be
       -0.38999987 0.019682763 0.3061856 -0.38446748
000110 aa 68 83 be 79 59 7d 3e 13 8d 11 3e 44 33 ee 3d
       -0.2566579 0.24741162 0.14213972 0.11630872
000120 40 8f 14 3e 58 02 c3 3c 6b 1d 20 be 68 7e b2 be
       0.1450777 0.023804829 -0.15636222 -0.34862065
000130 8b 08 3d 3d 0d bd 24 3e ea 77 18 be f8 cf 47 be
       0.046150725 0.16087742 -0.14889494 -0.19512928
000140 82 d7 9f bd 00 ed a8 be 3f 95 69 3d 27 82 b4 bc
       -0.07804777 -0.32993317 0.057027098 -0.022034718
000150 c3 ab 35 be 77 aa 21 3e 3d 38 a7 be 2d c2 c7 3e
       -0.17741303 0.15787683 -0.32660094 0.39015332
000160 06 cc 82 be 1b a6 2e be c1 37 b0 bd 23 7e 59 be
       -0.25546283 -0.17055552 -0.08604384 -0.21239524
000170 d0 34 40 be 53 dc 8b be 66 40 0a bd 8a 31 c2 3d
       -0.18770146 -0.27316532 -0.03375282 0.09482105
000180 36 a5 e1 3d d6 17 95 3e
       0.110178396 0.29119748

actor.6.bias f4 [7]
000000 2e da 45 be 4c 51 ca bd ab 58 8f bd 09 67 0b 3e
       -0.1932151 -0.098787874 -0.06999334 0.13613524
000010 72 0b c3 3d 4d de 6c 3e 26 3d 11 3d
       0.095236674 0.23131676 0.035458706

critic.0.weight f4 [43, 80]
000000 ce 02 39 be 5f 0d 5b be 73 77 d2 bd e9 5f e1 3d
       -0.18067476 -0.2139182 -0.102766894 0.110046215
000010 45 ae dc 3c 0a a8 07 3e 8e c4 e2 bb a4 2e 36 bd
       0.026938567 0.13247696 -0.006920404 -0.044478074
000020 a7 2d ac bd 9a ec 7f bd 46 c3 b7 3c 20 f8 f6 3d
       -0.08407145 -0.0624815 0.02243198 0.12059045
000030 2a d5 78 3d 1c 65 24 be 12 b1 12 bd a0 83 63 bd
       0.060750164 -0.16054195 -0.0358134 -0.05554545
000040 45 75 96 bd 5f 7c 72 3d 23 6c 26 bc 6b af e1 3d
       -0.07346586 0.05920064 -0.010157618 0.110197864
000050 41 f2 e5 3c 78 68 f0 bd d1 ca bd bd 33 10 2f b9
       0.028069617 -0.11738676 -0.092672 -0.00016695335
000060 36 77 32 bd e3 f5 e3 3d 37 00 6c bd 8f 7f 98 bd
       -0.04357072 0.111308835 -0.057617392 -0.07446205
000070 23 b2 1f be 92 b9 08 bd 39 c0 35 3d a9 4b 81 bc
       -0.15595298 -0.0333801 0.04437277 -0.015783148
000080 2a df 36 bd dd e2 e7 3d 4d 8b 6b bd ac eb 24 be
       -0.04464642 0.113225676 -0.057505894 -0.16105527
000090 cb 8f b6 bc 13 1f b0 bd 7b 68 04 bd 6a c1 e8 3d
       -0.022285363 -0.08599677 -0.032326203 0.11365016
0000a0 a2 fd 34 bd ba 56 29 be 54 38 9e bd 5a b5 fe bc
       -0.044187196 -0.1653699 -0.077255875 -0.031092335
0000b0 68 32 fe ba 55 b0 07 3e f3 5a 82 3d df 6d 2f bd
       -0.0019393684 0.13250859 0.063650034 -0.04282939
0000c0 d5 c0 05 3d 23 7f 9b bd d0 42 bc bd 39 49 79 bd
       0.032654602 -0.07592609 -0.09192431 -0.060860846
0000d0 14 8d b6 3d 39 41 1c 3e 73 e4 22 3d 88 73 d7 bd
       0.08913627 0.15259255 0.039768647 -0.10520083
0000e0 92 b7 ac bd df 59 89 3d de 9a 61 bd dd 83 ed 3d
       -0.08433451 0.06706595 -0.055079333 0.115974165
0000f0 a7 4e ce 3d 68 62 4c bd f0 49 1c 3d 82 dc d3 3c
       0.100735955 -0.049898535 0.03815645 0.025861982
000100 a5 c2 d6 3b ff d2 0a be 44 ec 47 3e 8a 10 e7 3d
       0.006553965 -0.13557051 0.19523722 0.112824515
000110 bb 6a d6 3d 74 db e9 bc 21 58 f6 bb bb 67 bc bd
       0.10469576 -0.028547026 -0.00751783 -0.091994725
000120 ac c0 56 bd 2c 29 6d 3e 57 4d d8 3d ec b9 98 3c
       -0.05242984 0.23160237 0.105616264 0.018643342
000130 df 6c 9a bc 0a 54 97 bc ae e3 83 bd a8 4b 0f 3c
       -0.018850742 -0.01847269 -0.06439911 0.008746065
000140 74 52 fd bd a7 9d ac bd 19 e4 be bd ba e2 01 3e
       -0.12369242 -0.08428507 -0.0932085 0.12684146
000150 66 70 fe bc cc 75 de bd f4 86 2d bd 25 54 24 be
       -0.031059455 -0.10862312 -0.04236503 -0.16047724
000160 21 42 f7 bd 1f 18 0c bd 92 b4 1e 3e e6 98 7d bd
       -0.1207316 -0.03420269 0.1549857 -0.061913393
000170 57 01 4d bd 05 01 3f bc 1b f3 01 bc 21 25 57 be
       -0.050050106 -0.011657958 -0.007931496 -0.21010257
000180 f9 17 dd bc 93 9f 18 bd 73 3b a1 3d ea 46 94 3d
       -0.02698897 -0.037261557 0.07872667 0.07240088
000190 e1 71 9e 3d 91 5c 14 be c2 12 03 be e5 f9 19 be
       0.077365644 -0.14488436 -0.12800124 -0.15036733
0001a0 4e 83 4b 3d e0 3e 05 3e f7 1d d2 bd cd cf cd 3d
       0.04968577 0.13012266 -0.102596216 0.100494005
0001b0 87 80 12 3c 37 d1 01 be 55 86 d5 bc 9f 5d 45 3d
       0.008941776 -0.12677465 -0.026065031 0.048184987
0001c0 ac ac d4 3d 04 68 1d 3c fb f9 65 bd 46 9c 37 bd
       0.10384497 0.009607319 -0.056146603 -0.04482677
0001d0 e7 98 3a be c2 4d 29 be b3 02 28 3e 65 77 65 bd
       -0.1822239 -0.16533569 0.1640728 -0.056022067
0001e0 fe 09 7e bd 78 84 a5 bd 22 9f 13 bc 2e 20 19 be
       -0.062021248 -0.08081907 -0.009010108 -0.14953682
0001f0 b7 0f 37 bc 36 c9 f9 3c 9a 75 a1 bd 37 5f 13 3d
       -0.01117318 0.030491453 -0.07883759 0.035979476
000200 8a 00 68 be ca ed 19 be ff d4 c4 bd ea 7a 08 be
       -0.22656456 -0.15032116 -0.09610938 -0.13328138
000210 a5 68 30 3e 80 38 b0 3c 4e 05 62 3d 47 5e 87 be
       0.17227419 0.021511316 0.05518084 -0.26439115
000220 c1 13 07 3d 4b 1b 27 be d0 8c b5 bc 38 51 84 3d
       0.032977823 -0.16319005 -0.022161871 0.06460804
000230 55 f6 4d bd 0b 65 8c 3d 2d 64 63 be da 69 81 bd
       -0.05028375 0.0685521 -0.22206183 -0.06319018
000240 e6 fc 96 bc 89 e6 24 3c 73 b5 2d 3e 78 e7 83 ba
       -0.018431138 0.0100647295 0.16963749 -0.001006349
000250 90 1c 2f 3e 60 c1 5b be 94 d9 e0 bc 85 c8 cb bd
       0.1710074 -0.21460485 -0.0274475 -0.099503554
000260 24 ac 1d bd a2 9f 02 3e 22 ee ad bc 16 bf 62 3e
       -0.038494244 0.12756208 -0.021231715 0.22143206
000270 80 6d 36 be 08 c0 1b bd d7 46 f9 bc 29 5d ef 3d
       -0.17815208 -0.038024932 -0.030429287 0.11687691
000280 9c 20 75 3d 2f f5 21 be 83 66 cd bd 12 25 52 3e
       0.05984555 -0.15816186 -0.10029318 0.20521954
000290 70 81 28 bd e4 27 70 3e 72 3f fc bd ce a1 c7 3d
       -0.041139066 0.23452717 -0.12316789 0.09747659
0002a0 cf d8 4e bb 49 d2 ce bd 6c ba 7b 3d f1 c7 19 bd
       -0.0031562333 -0.100987025 0.061457083 -0.037544195
0002b0 76 ad 3a 3d 76 3f d2 bb d8 b7 af 3d 0a 00 89 bd
       0.04557558 -0.0064162565 0.08579987 -0.066894606
0002c0 24 8d c1 bc 41 d4 83 3d 18 73 df 3d 59 bc d7 3d
       -0.023626871 0.064369686 0.10910624 0.10533971
0002d0 57 b4 e8 bc 6e 90 74 bd 00 5b 83 bd fa 4b a3 bc
       -0.028406305 -0.05970805 -0.06413841 -0.01993369
0002e0 b3 9d 47 bc df 09 cf 3d 9e b2 0f 3e 10 e1 85 bd
       -0.0121835945 0.10109305 0.14032981 -0.06537068
0002f0 1f ee 5f bc 72 8c 6c bd 07 99 f6 bd 77 76 23 3e
       -0.013667612 -0.057751127 -0.120409064 0.1596316
000300 8c 10 ca bd c4 6f 03 bd 80 ea e1 3c 16 c8 65 bd
       -0.09866437 -0.03208901 0.027577639 -0.05609902
000310 50 bf 4c be 21 4c 5c 3d e3 4a 9a 3d e7 2d 54 bd
       -0.19994855 0.05378354 0.07533815 -0.05180159
000320 78 2d 0a 3e b6 87 de bd 08 7b d8 ba 5f 77 86 bd
       0.13493907 -0.108657286 -0.0016516158 -0.06565737
000330 67 73 78 3e 8f 43 26 be 5a 8c 80 be e0 1c 62 3d
       0.24262773 -0.16236709 -0.2510708 0.05520332
000340 e0 9d 92 3d 14 39 ab 3d 55 64 16 bd c5 04 8a 3e
       0.071590185 0.08360496 -0.036716778 0.26956764
000350 93 ad 1c 3d ed 75 79 be fe 00 6a 3d 26 43 d2 3d
       0.03825147 -0.24361391 0.057129852 0.10266714
000360 48 94 aa 3d cb 41 9f bd 7d 55 4c 3e 77 eb 80 bd
       0.08329064 -0.07776221 0.19954486 -0.06294911
000370 c1 a6 81 be 30 b6 c8 3d 78 a1 90 3d 8d 79 04 3e
       -0.25322536 0.098003745 0.07062048 0.12936993
000380 ab ab 30 3d 2d 08 73 3e 37 e6 ca bd 0a 0e 94 be
       0.043132465 0.23733588 -0.09907191 -0.2891696
000390 7b a1 ec 3d 20 ca 2f 3e 29 c4 d5 3d 2b 85 1e bd
       0.115542375 0.17166948 0.10437805 -0.038701218
0003a0 26 2a 46 3e 6a de 8f bd b7 7d 69 be d5 45 b9 3d
       0.19352016 -0.07024844 -0.22801863 0.090465225
0003b0 3b 39 8f 3d a5 c4 3f bb a2 ef eb bd de ed 1b be
       0.06993338 -0.0029261496 -0.11520316 -0.15227458
0003c0 82 ad b9 bc 50 ea ac bc c6 35 d7 bc 05 3b 9c 3d
       -0.022665743 -0.021107823 -0.026270758 0.076284446
0003d0 1c 07 8c bd 97 5b 4d 3c b5 d4 ce 3c b1 d4 21 3c
       -0.068372935 0.012534044 0.025247911 0.00987737
0003e0 2f fc 25 3e 9c 13 47 3d 12 cc 17 be 3c 25 86 bd
       0.16209482 0.048602685 -0.1482394 -0.06550071
0003f0 3b 02 38 be e7 f5 ba 3d 1c 13 97 bd 02 ad 84 3e
       -0.17969601 0.091289334 -0.07376692 0.25913244

critic.0.bias f4 [43]
000000 fc d2 9b 3d f3 7b e8 bd f9 ab cb bc 08 f0 84 3e
       0.076086015 -0.113517664 -0.024862276 0.2596438
000010 31 cd 6d 3e 5a b2 1a bd 01 0c 16 3e 2a 71 b2 bc
       0.23222806 -0.037767746 0.14653017 -0.021782476
000020 65 a8 3c be a8 40 bf 3c db 4a bb 3d 9a f3 2c bd
       -0.18423612 0.02334626 0.09145137 -0.042224504
000030 e7 c7 c5 3d 22 ff bb bd 64 a8 02 3e 15 aa 5f 3d
       0.09657269 -0.09179522 0.12759548 0.054605562
000040 8f 3f a0 3d 24 9d ca bc 33 11 19 bd ce a5 84 3e
       0.07824623 -0.024733134 -0.037369918 0.2590775
000050 9d 9b a9 bd 5a e0 ed bc e3 2d 2b 3e 2f 82 0f be
       -0.08281634 -0.029037643 0.16716723 -0.14014505
000060 06 28 05 bd 4d 14 51 3d bb e7 55 3e 0d e2 6e 3b
       -0.032508872 0.05104475 0.2088918 0.0036450655
000070 0e d0 a2 3e 2a 0c d1 3b 97 53 71 3e 10 a6 3d 3e
       0.31799358 0.006379624 0.23567043 0.18520379
000080 86 61 b6 3c 06 2a 04 3e d8 b2 cb 3c cc f2 d4 3d
       0.0222633 0.12906656 0.024865553 0.10397872
000090 e5 e7 d4 3d 7d d6 1e bd 91 25 82 bd 51 7d 43 3d
       0.10395793 -0.03877877 -0.063548215 0.047726933
0000a0 8d 9d eb 3d de 28 7b bc d2 a0 bb bd
       0.1150466 -0.015329568 -0.091615334

critic.2.weight f4 [28, 43]
000000 8d e0 e7 bd 78 22 7c be c3 2d 1f be 5e 40 a3 3e
       -0.113221265 -0.24622524 -0.155448 0.31885046
000010 13 46 74 3e 8a 7e 75 bd 89 6a e8 ba 19 15 0b bc
       0.23854856 -0.05993513 -0.0017731945 -0.008488917
000020 ef 88 bc bd 37 21 a3 bc 77 ab f4 3d 38 c1 54 be
       -0.092058055 -0.019913299 0.11946767 -0.20776832
000030 6a e6 62 bd 74 b3 3c 3d b3 32 81 3e 4c 50 4f be
       -0.05539552 0.046069577 0.25233993 -0.20245475
000040 88 86 e3 3d 86 35 7b bd 86 d4 f4 bd 62 d0 94 3e
       0.11109644 -0.06133034 -0.11954598 0.29065233
000050 67 b0 a8 3c 45 9b 09 3e 77 2a 30 3e 6c 89 20 3e
       0.020591928 0.13438137 0.17203699 0.15677422
000060 06 e5 4e bc 4a 08 4f be 33 82 00 3c 91 ea ea bc
       -0.012627846 -0.20218006 0.007843542 -0.028676303
000070 aa 87 9c 3e ec 40 af 3d de de 81 3e 2d b0 d3 3d
       0.30572253 0.08557305 0.25365347 0.10336337
000080 d8 34 ea 3d 67 26 90 3d 35 5f 33 bc ff 79 bf 3d
       0.114358604 0.07038575 -0.010947992 0.09349441
000090 06 7a f7 3d a1 60 54 3a fc 48 25 bd ea 5c 03 3e
       0.12083821 0.0008101557 -0.040352806 0.12828413
0000a0 6e b9 19 3e 87 75 4a be 57 f0 b1 bd 77 bb 29 3d
       0.15012142 -0.19771396 -0.08688419 0.041438546
0000b0 00 b6 04 be 53 1f 22 3d 20 5b 38 3e 52 f8 d7 3d
       -0.12960052 0.039580654 0.18003511 0.1054541
0000c0 75 b6 2c bb 3d 7e 5d 3d 58 79 82 3e 27 4b 1f be
       -0.002635387 0.05407547 0.25483203 -0.15556012
0000d0 e4 e7 a2 3c 1d 6e 87 3e 9c e7 71 bc e3 7b 36 3e
       0.019885965 0.26451197 -0.014764693 0.17820697
0000e0 7b 8a 08 be 4e bf 33 be dd bd 92 bd ba 67 f5 bd
       -0.13334076 -0.17553446 -0.0716512 -0.11982675
0000f0 71 ac 59 be c6 5d 8b 3d 72 00 e1 bd d0 c8 08 be
       -0.21257187 0.06804995 -0.10986413 -0.13357854
000100 f9 de f5 bc 76 3b c7 3d af 48 11 3c 6d 50 8f bd
       -0.030013548 0.09728138 0.008867427 -0.06997762
000110 a0 58 9f bc 22 8d 4c 3d 31 ce 83 be c8 d7 a0 3d
       -0.01945144 0.049939282 -0.2574325 0.07853657
000120 58 ea ff bd d3 e7 4f 3e 4b 92 00 bc df 1d d5 3d
       -0.124958694 0.20303278 -0.007847379 0.10406088
000130 69 2b 87 3e a6 7d 32 3e 6a 06 00 bd 21 08 9f 3d
       0.26400307 0.17430744 -0.031256117 0.07765222
000140 ee 02 75 3c f6 5e a9 3d 6e 43 48 3d 58 44 9f bd
       0.014954312 0.082700655 0.04889243 -0.077767074
000150 d5 37 31 bd 0d d1 af bd 9d b4 75 3d a9 8a c4 3d
       -0.043266136 -0.08584795 0.0599867 0.0959676
000160 a7 9e db 3d a2 f4 52 3d 3f 33 52 be 7c 6d 7b bc
       0.1072362 0.05150283 -0.20527361 -0.015345927
000170 fd 11 b9 bb d7 e9 df 3c f2 c9 dd 3d 7e c4 68 be
       -0.0056478963 0.027333183 0.10829534 -0.22731206
000180 fe bd c3 bd 71 c4 56 3c 8c 68 15 bd 13 99 fb 3d
       -0.095577225 0.013108359 -0.036476657 0.12285056
000190 16 42 12 be 0f 01 31 3e 1e d2 28 be 8e be b6 3d
       -0.14283022 0.1728556 -0.16486403 0.08923064
0001a0 dc 3a b4 bd d9 26 cc bd 6e 56 b9 3c a0 b1 a5 bd
       -0.08800289 -0.09968347 0.02262422 -0.0809052
0001b0 78 24 65 bd ee 92 a4 bd 2c b3 cf 3d 25 e0 d3 3d
       -0.055942982 -0.08035837 0.10141596 0.103454866
0001c0 73 19 bf bc 5c f2 93 bd d9 eb d5 3d cd 69 bc 3d
       -0.023327565 -0.07223961 0.10445375 0.091998674
0001d0 93 e8 05 3d 9c 1a 6a ba 69 d1 9b 3d 65 54 6c be
       0.032692503 -0.00089303567 0.07608301 -0.23079069
0001e0 6c 38 51 bd c6 c8 9f 3c df b1 0d be cc ed 03 3e
       -0.0510792 0.019504916 -0.13837384 0.12883681
0001f0 02 6f ea bc cd f3 cb 3b d2 ed 04 3e 6d 3e 03 3e
       -0.028617386 0.0062241317 0.12981346 0.12816782
000200 33 46 ee 3d a9 d0 df bd 94 de f4 bd 9b 3b 3e 3d
       0.11634483 -0.10928471 -0.11956516 0.046443563
000210 48 18 6a bd 85 41 42 3d a5 bc 10 be 95 a4 43 3d
       -0.057152063 0.047425766 -0.14134462 0.04776438
000220 7c 91 4b bd b2 24 79 3c bd 66 88 3e 5d 9f 43 3e
       -0.04969929 0.015206503 0.26640883 0.19103761
000230 49 da b7 3a 40 cc e8 3d 71 0e b2 3d a4 02 a9 3e
       0.0014026846 0.113670826 0.08694161 0.33009827
000240 e4 90 04 3e 51 2e 04 3e fe 7f 7a bc 03 e2 85 3c
       0.12945896 0.12908293 -0.015289305 0.016343122
000250 56 9b af bc bc 67 75 3e 67 7b 81 3e 83 03 83 3d
       -0.021436375 0.23965353 0.2528946 0.06397154
000260 ab f4 69 be 12 a7 fa 3b d8 33 61 3e c1 64 e7 3d
       -0.2284724 0.007649311 0.21992433 0.11298514
000270 68 17 ea 3d 16 ff 59 bd 96 75 6f bd e4 ee 24 bc
       0.11430246 -0.053221785 -0.058461748 -0.010066722
000280 38 37 17 3d a4 db fe 3d 0c 4f e4 3c 31 c6 b3 3d
       0.036917895 0.12444237 0.027869724 0.087780364
000290 26 23 14 3e ca de 02 bd 2a 13 66 3d 4c c1 b7 bc
       0.14466533 -0.03195075 0.05617062 -0.022431038
0002a0 fa 02 3f 3d 57 89 7e bc 19 38 b0 3d b4 ba 5a 3e
       0.046633698 -0.015535674 0.0860445 0.21360284
0002b0 91 41 50 3d 63 55 d1 3d 3f bd 33 3d 35 db 34 be
       0.05084378 0.10221364 0.04388165 -0.17661746
0002c0 10 0b c0 bd d8 45 28 3e 33 2f af 3e 64 e5 99 3c
       -0.0937711 0.16432893 0.34215698 0.01878614
0002d0 7b 1e 91 3d 07 51 8f 3d 53 f6 98 be e4 4f 20 3e
       0.07085892 0.069978766 -0.2987543 0.15655476
0002e0 76 1f 53 3e 57 19 e9 bc e1 f6 84 be 41 71 7e 3e
       0.2061747 -0.028454466 -0.25969604 0.2484789
0002f0 51 65 d1 bd b2 a7 1e be 49 48 3d 3e b3 eb 1d be
       -0.10224403 -0.15493658 0.18484606 -0.15421943
000300 76 7c 72 3e 99 2a 00 be 9a e0 58 be 48 32 a9 be
       0.2368029 -0.1251625 -0.21179429 -0.33046174
000310 2d d6 22 3e 9e 49 57 ba 70 0a 7b be a3 28 d2 3d
       0.15902014 -0.0008212569 -0.245157 0.10261657
000320 e2 e5 35 be 02 ac 06 3e d1 b8 9e bc a7 e8 d5 bc
       -0.17763475 0.13151553 -0.019375237 -0.026111914
000330 42 32 38 3d 02 b9 20 3c 33 5f cf bd 3c 9d 06 be
       0.044969805 0.009809734 -0.1012558 -0.13145918
000340 55 20 8a 3d dc 65 14 3d 40 75 90 bb 30 cb 17 3e
       0.06744448 0.036229953 -0.0044085085 0.14823604
000350 88 18 31 3e 05 58 04 be 2f 2a 70 3d 59 f8 ff ba
       0.17294514 -0.12924202 0.05863398 -0.001952897
000360 6e 53 ff 3d 38 8e 2c 3e b2 89 d2 bd 9c 02 54 3e
       0.12467085 0.16851127 -0.102801695 0.2070412
000370 cb b4 46 3d 39 f9 c8 3e 2b 08 a5 3d 30 c8 4f bd
       0.04851226 0.39252642 0.080581985 -0.050728023
000380 be fe 8b 3e 90 c1 ea 3c 2d 94 80 3e 9f 2a f4 3d
       0.2734279 0.02865675 0.2511305 0.11922192
000390 86 aa b5 3d c1 ad 32 bd 2b 8f 2c be 4b 42 55 3d
       0.088704154 -0.043622736 -0.16851489 0.052065175
0003a0 e0 eb 0d bc 43 d8 4a 3d 26 79 42 3d f9 8f 2f 3e
       -0.008662194 0.04952265 0.047478817 0.17144765
0003b0 1a 35 96 3d 64 e4 78 3e cc e9 f2 bd a4 87 13 3e
       0.07334347 0.24305874 -0.118609995 0.14407212
0003c0 4b 61 98 3b 68 21 48 3d 2a 68 1f 3e d5 0a 85 3c
       0.00465027 0.048859984 0.15567079 0.016240517
0003d0 e9 54 05 3b 47 bc 8c 3e b3 da 50 3e 2b 5a 8a 3d
       0.00203448 0.27487394 0.20395927 0.067554794
0003e0 1f c0 2f 3e 89 39 97 3e 54 6f 25 bc 0a ee e9 3d
       0.17163132 0.29536083 -0.0100973435 0.114223555
0003f0 e4 c3 e9 bc 31 e9 76 3a 08 65 07 bd 2c b9 9b 3e
       -0.02853579 0.00094189035 -0.033055335 0.30414712

critic.2.bias f4 [28]
000000 c8 37 62 3e 94 24 72 3e 3c 8b 1d bd 86 8c 0d bc
       0.22091591 0.23646766 -0.038462862 -0.00863946
000010 28 39 f2 bc e6 be 3a 3e d3 6b 55 3e 5e 84 ef bd
       -0.02956827 0.18236884 0.20841913 -0.11695169
000020 f9 56 e3 3d 65 5b c3 3d a7 49 85 3d c8 3c 10 3c
       0.11100573 0.095389165 0.06508189 0.008803554
000030 e8 d3 85 bd 65 31 f4 3c 96 97 03 3c 63 b0 3e bd
       -0.065345585 0.02980871 0.008031746 -0.046554934
000040 81 c1 86 3d a2 29 05 3e 42 b4 0f 3e be 80 0a be
       0.06579877 0.13004163 0.14033607 -0.13525674
000050 8c 12 e8 bd eb 98 39 3e 97 a9 89 bd 63 ed 63 3e
       -0.113316625 0.1812474 -0.067218 0.22258525
000060 36 69 03 3e 2f 98 20 3d 9f b0 c5 3c ba c5 2b 3e
       0.12833104 0.039207634 0.024132071 0.16774645

critic.4.weight f4 [10, 28]
000000 4d ac 58 be b3 c3 7c 3e d8 88 c0 3d a1 3f e4 bd
       -0.21159478 0.24684028 0.09401101 -0.11144949
000010 ef 6a 3c 3e 91 0d 81 bc 33 3c ac 3d ab 0c 21 3e
       0.18400167 -0.01575354 0.084099196 0.15727489
000020 60 c7 d5 bc ea 65 73 3e 21 60 6a be 7e 9e c3 3d
       -0.026096046 0.23769346 -0.22888233 0.09551714
000030 b9 f8 91 be fa 23 4f be 20 f6 5a 3e 80 19 12 3d
       -0.28510073 -0.20228568 0.21382952 0.03566885
000040 f4 eb 0f 3e de 32 09 bd 4a e4 73 3e 35 a7 a4 3d
       0.14054853 -0.033495776 0.23817554 0.08039705
000050 44 d6 94 be b2 65 36 be b9 b7 0a be 9f ec 76 bc
       -0.29069722 -0.17812231 -0.13546647 -0.015071063
000060 ee 24 0c 3d 84 a3 bd bd 22 f3 2d 3e 2d b7 4a be
       0.034214906 -0.09259704 0.16987279 -0.19796439
000070 f0 ba 12 bc 73 6c 9f 3d f9 ca 1e be 20 07 50 3e
       -0.008955702 0.07784357 -0.15507115 0.20315218
000080 e7 5e 8a 3e 7e 0d c7 3d a1 84 43 3b c1 18 05 3e
       0.2702553 0.0971937 0.0029833692 0.12997724
000090 9a a1 39 3d e9 32 80 3e 54 63 40 bc b2 44 00 be
       0.04532013 0.2503884 -0.011742432 -0.12526205
0000a0 1e 70 57 3d 08 48 c8 3d 4e 6e de 3d d3 98 ad bd
       0.052597158 0.09779364 0.10860883 -0.084764145
0000b0 51 7d 25 be 87 34 00 3d 09 2e 9f 3e 75 26 65 be
       -0.16161086 0.031300094 0.3108981 -0.22377951
0000c0 0c 25 2b bd 30 76 b1 3d da e7 4f 3e d4 2a 03 bf
       -0.041783378 0.086651206 0.20303288 -0.51237226
0000d0 88 dd dd bc 42 c7 5b bd e4 18 31 3e 88 3b 77 be
       -0.027083173 -0.053656824 0.17294651 -0.24143803
0000e0 4a 49 00 be 56 b6 7c bd ba 96 54 be 4b 07 11 3c
       -0.12527958 -0.061697327 -0.20760623 0.008851836
0000f0 87 a6 96 bc 1e 31 77 be 28 2c fb bc b6 88 33 bc
       -0.018389953 -0.2413983 -0.030660704 -0.010957887
000100 95 cc cc bd 05 b3 b0 3c af ff 59 3c 92 b3 44 bd
       -0.099999584 0.021569738 0.013305589 -0.048022814
000110 61 f5 88 3d 37 49 f4 bd 58 c0 bf 3d bb 05 84 3e
       0.06687427 -0.11928027 0.093628585 0.25785622
000120 20 ca c4 3d 35 e5 7a 3b db ec 54 3e f0 51 23 3c
       0.09608865 0.003828359 0.20793478 0.009968266
000130 f3 92 4b bd 7b 6e 6f be cc 62 9a be 5c 18 d0 3c
       -0.04970069 -0.23381989 -0.301535 0.02540224
000140 9b 01 e7 3d fb fa 01 3e 1c 16 2d 3e cb 45 dc bd
       0.11279603 0.12693398 0.16902965 -0.107554995
000150 a1 05 b7 bb 09 43 69 bd 5a 25 1f 3e 64 5e e1 bd
       -0.005585388 -0.056948695 0.15541592 -0.11004332
000160 c3 1b e1 3d d2 ad 56 be 81 4b 0a be 16 a3 53 bd
       0.10991623 -0.20964745 -0.13505365 -0.051669203
000170 86 8e b8 bc 77 4e 49 3e 82 38 c0 bc 82 03 03 bd
       -0.022528898 0.19658838 -0.023464445 -0.031985767
000180 9c 3a 05 3e 9c 63 cb bd 8a 3b 0f be cf a3 07 3e
       0.13010639 -0.09931108 -0.13987556 0.13246082
000190 54 7b 22 bd 16 e8 bb bd 1a 96 61 3d b3 9d df bd
       -0.039668396 -0.09175126 0.05507479 -0.109187506
0001a0 31 a7 8e 3d 3e 6c 3f be 70 d7 9d 3c 21 8d d7 bd
       0.06965483 -0.18693635 0.019267768 -0.10524965
0001b0 fa 96 55 be 79 6b 83 be cc ad 8c 3d 01 ea 3f be
       -0.20858374 -0.25667933 0.068690866 -0.18741609
0001c0 3a ca 3f be 9b 32 2f be da 48 2a be 9e 70 0b 3d
       -0.18729487 -0.17109148 -0.16629353 0.034042947
0001d0 e5 ff 3b be 4f 49 de 3d 27 58 08 be 44 55 49 3d
       -0.18359335 0.10853826 -0.13314877 0.04915358
0001e0 80 76 b5 bd c8 1b 66 bd 6a 37 0a 3d 45 84 42 be
       -0.08860493 -0.056178838 0.033744253 -0.1899577
0001f0 cb 93 34 3d 5a 02 0c be 59 46 08 be 10 08 20 3c
       0.04408626 -0.13672772 -0.13308086 0.009767547
000200 ca 4a d2 3d e1 27 24 be a8 dc 17 3e f9 83 e4 3b
       0.10268171 -0.16030838 0.14830267 0.00697374
000210 5d 38 93 bd d9 1e ea 3d 35 a6 5f 3d 6a 0c 15 bc
       -0.07188485 0.11431665 0.054601867 -0.009097198
000220 be 38 f0 3d 89 17 73 bd 47 67 10 bb 4e 66 e3 3d
       0.11729573 -0.059348617 -0.0022034214 0.111034974
000230 fc 47 5b 3e fb 44 22 3e 02 29 f5 bd 90 55 e1 3d
       0.21414179 0.15846626 -0.11970712 0.11002648
000240 f1 5d 3d be 55 53 4c 3d 28 74 32 3d 2f 21 52 be
       -0.18492867 0.04988416 0.043567806 -0.20520471
000250 4b 47 30 3c a7 24 a8 be c4 f6 49 3e f5 b9 8b be
       0.010759185 -0.32840464 0.1972304 -0.2729031
000260 d5 ed 38 be 40 df 83 bd d9 7f 9f bd a8 44 cc 3c
       -0.18059476 -0.06439066 -0.07788057 0.024935082
000270 39 b1 6b 3e d8 8f 3d 3e 01 82 80 be 19 84 c1 bc
       0.23016824 0.18511903 -0.25099185 -0.02362256
000280 84 36 e7 3d a5 c2 17 3e f7 ba c5 bc de 23 b5 3e
       0.11289695 0.14820345 -0.024137003 0.35378927
000290 03 8e 4f 3e e9 98 ab 3e 16 dc 3d be e5 6e c1 3d
       0.20269017 0.335151 -0.18540987 0.094449796
0002a0 fd db b7 3d fd 4c 4f be e5 62 25 3d 52 55 36 be
       0.08977506 -0.20244212 0.040377516 -0.17805985
0002b0 ba 64 02 be af e8 b4 be 71 73 2e be e5 e7 73 3d
       -0.12733737 -0.35333773 -0.17036225 0.059547324
0002c0 82 94 84 be d7 d6 b9 3d 35 3e 7b bd 39 27 19 3e
       -0.25894552 0.090741806 -0.061338622 0.14956369
0002d0 c3 80 29 3e 76 77 e8 bd 07 23 22 be ca c4 4e 3e
       0.16553025 -0.1135091 -0.15833674 0.20192257
0002e0 36 9d 7e 3d bc 65 90 be ca 20 d7 3c 69 d6 27 3e
       0.062161647 -0.28202617 0.026260752 0.16390385
0002f0 00 cc 33 bd 2d 48 53 be 09 d3 11 3e dc 22 84 be
       -0.04389572 -0.20633002 0.1424066 -0.25807846
000300 7a b8 49 bc af 63 f0 bd 36 85 80 bd 34 3c 80 bd
       -0.012312049 -0.11737763 -0.06275408 -0.06261483
000310 f3 62 fb bd 03 26 20 be f6 86 15 3e 26 11 52 3e
       -0.122747324 -0.156395 0.14602265 0.20514354
000320 15 c7 89 bd d2 55 59 be ef fc b4 be 30 ed bc bd
       -0.06727425 -0.21224144 -0.35349223 -0.092249274
000330 09 7d 00 3e 66 76 9e 3e 14 5c 0d 3e b2 2b b7 3e
       0.12547697 0.30949706 0.13804656 0.35775524
000340 ec 0b 4a 3e 58 a2 23 bd f0 bc e0 bd 2c cb 15 3e
       0.1973111 -0.039949745 -0.10973537 0.14628285
000350 58 e9 9a be 4f 87 aa be a7 94 45 3e 00 ce 6d 3d
       -0.30256152 -0.33306357 0.19294988 0.058057785
000360 8c ff c4 3d b5 f1 7d bd fe 08 17 3e 28 6c 35 be
       0.09619054 -0.061998088 0.14749524 -0.1771704
000370 de bc 7f be 3a 17 23 be db bb 29 3e e5 fa ea 3d
       -0.24974391 -0.15926829 0.16575567 0.114736356
000380 91 92 63 be bf dc af bd 02 ed ae 3b e5 75 0f be
       -0.2222388 -0.08587026 0.005338312 -0.14009817
000390 41 4b 41 3e 78 ac 96 3d 14 73 94 bd c9 04 63 3e
       0.18876363 0.073571146 -0.07248512 0.22169794
0003a0 57 03 20 3e 67 41 c0 bd 8e 4c d1 bd 40 b5 7d 3e
       0.15626274 -0.093874745 -0.1021968 0.24776173
0003b0 69 06 cd 3d f2 df 8b 3d ad e3 9a 3d 8b 29 95 3e
       0.10010988 0.068298236 0.07562957 0.29133257
0003c0 c8 b7 86 be 9a b5 3b 3d f8 21 58 3e c8 79 77 be
       -0.2631209 0.045827486 0.21106708 -0.2416755
0003d0 97 0d a6 3b c8 3b b3 bc 77 fc 16 3d a0 33 e1 be
       0.005067538 -0.021879092 0.036861863 -0.439847
0003e0 8f 5d 36 be 00 31 e5 3b 19 7a cd bd fb 05 82 bd
       -0.17809127 0.0069943666 -0.10033054 -0.06348797
0003f0 75 aa 5d 3e 9e 79 07 3e b4 13 54 3e 08 bf af bd
       0.21647055 0.13229987 0.20710641 -0.08581358

critic.4.bias f4 [10]
000000 cb 2d 70 ba 3e 5c 31 3d 9f e5 4e 3d ac b8 8d 3d
       -0.0009162097 0.04330086 0.050511952 0.06919989
000010 e8 4e 80 bd 78 cb 29 3e 2f 9c ee bd c1 9e 2a be
       -0.0626505 0.16581523 -0.116508834 -0.16662122
000020 38 cf d2 3d 17 b8 09 bd
       0.1029343 -0.033622827

critic.6.weight f4 [1, 10]
000000 3d 79 90 3e 41 b6 45 3e 7c de d0 3e 85 f5 65 3e
       0.28217497 0.19307806 0.40794742 0.2245694
000010 1d d6 6a 3e 3b 2e da bd c8 92 93 3e 8f 05 bd 3e
       0.2293324 -0.10653349 0.28822923 0.36918303
000020 f4 64 93 3e 38 4d 97 be
       0.2878796 -0.295511
