Weight/15_5_62_2/PPO_continuous_log.pth (torch_old, 43662 bytes, 15 tensors)

actor.0.weight f4 [43, 80]
0.017562253 0.10463398 0.15393727 0.025969613 0.055651594 0.06144446 -0.1354596 -0.054024693
-0.09144586 0.05298241 -0.027982619 -0.0040653837 -0.16666102 0.06845606 0.113615476 -0.0028444352
-0.027236246 -0.09016791 -0.009398282 -0.10901481 0.087755956 0.008147645 0.0469568 -0.036730606
0.052612327 0.040943358 -0.11650369 -0.048590947 0.007205516 0.086285755 0.04170721 -0.076617785
0.06658441 -0.14305246 -0.030250974 0.12615122 -0.008348894 -0.079633206 -0.06354014 0.035294328
-0.11424265 0.09260195 -0.12957598 -0.026952574 -0.109827764 -0.013986169 -0.12670255 0.32505068
0.22199605 0.05607387 -0.15577586 0.046599846 -0.14845839 -0.023330916 0.07538083 -0.094968334
-0.03874317 -0.040952154 0.13927451 -0.007649886 0.027553702 0.0063172826 0.018631259 -0.1488782
-0.04363892 0.023182087 0.03132081 -0.041113272 -0.01007232 -0.09020456 -0.09448251 0.0910426
-0.0069585536 0.040055167 -0.0016430554 0.036803056 -0.0746344 0.103111595 -0.08642558 0.051972546
-0.048329994 0.047380444 0.07105866 0.06963268 0.035558946 0.046201296 -0.04479395 0.16933694
0.10739612 0.09430741 -0.12192957 0.11862397 0.04158705 0.21856157 0.08302422 0.095019236
-0.0911827 -0.12748036 0.049243197 -0.05000522 0.16305016 0.1877978 0.059267554 -0.043968566
-0.17301586 0.12083242 -0.13022183 0.3257265 0.24395949 -0.09482019 0.013038701 -0.06422191
-0.04846482 -0.11985135 0.20407653 0.21145433 -0.042221364 0.029198118 -0.1355607 0.0785267
-0.112324774 0.29348367 -0.18218702 0.023716306 -0.020116491 -0.10644133 -0.05898495 -0.08509558
0.17119771 0.1875535 -0.037969124 -0.022797324 0.094837196 0.05132259 -0.020894606 0.22574802
0.11498829 -0.040143948 0.20920904 0.060558185 -0.03631868 -0.104598664 0.20002015 0.2565968
0.12982778 -0.16966373 -0.1325415 -0.043634564 0.03481467 0.057258833 0.0911353 0.071200825
-0.11292372 -0.20255186 0.058708787 0.09811602 -0.046628505 0.017251844 0.08122248 0.13073754
0.060220744 -0.12774123 -0.032925237 0.014081107 0.08977792 -0.08353554 -0.06982806 -0.07021203
0.10515739 0.014851421 -0.088785924 -0.084480494 0.006009897 -0.10530867 0.081537955 -0.063625105
0.07704844 -0.046760477 -0.06672574 0.113232754 -0.06641018 -0.06781283 0.025804093 -0.06868281
0.016009763 -0.13091281 0.03251399 0.06557002 -0.08439747 0.09675586 -0.10844833 -0.026091123
-0.09450252 -0.058613423 0.051631313 -0.10483302 -0.09001026 0.049207337 0.016734723 -0.0005201589
-0.003967972 -0.106943175 -0.098026626 0.4039563 0.05045677 0.09049493 -0.024458822 0.0065181586
-0.052081957 0.04373446 0.26327914 0.014382486 -0.07075758 0.063225664 0.106838316 -0.1383875
-0.028889745 0.06745378 -0.060221363 -0.1309205 -0.22395658 0.06802776 -0.08349067 -0.1906055
0.036417402 0.090193115 -0.119152434 -0.08074655 -0.01913487 0.048205044 -0.16232783 0.09057127
0.09601261 0.030476153 -0.13934089 0.034719534 -0.22862127 0.057124387 0.034333337 -0.12393572
0.10485817 0.15025972 -0.09822286 0.14235912 0.08006481 -0.030805945 0.019275947 0.07254962
-0.14900228 -0.1092624 0.034696966 -0.05198643 0.06785781 -0.09849759 0.06677918 -0.10460854
00000000: b7de 8f3c 574a d63d bba1 1d3e 3abe d43c
00000010: edf2 633d 30ad 7b3d ecb5 0abe ff48 5dbd
00000020: f847 bbbd 1504 593d ce3b e5bc e936 85bb
00000030: 30a9 2abe b132 8c3d 3baf e83d b469 3abb
00000040: 8c1e dfbc f4a9 b8bd 40fb 19bc 2843 dfbd
00000050: 65b9 b33d b37d 053c c655 403d d572 16bd
00000060: 0680 573d 39b4 273d 7d99 eebd 4d07 47bd
00000070: 401c ec3b 96b6 b03d 2ed5 2a3d c9e9 9cbd
00000080: 685d 883d 587c 12be e4d0 f7bc c92d 013e
00000090: cdc9 08bc bc16 a3bd 5521 82bd c990 103d
000000a0: 0df8 e9bd 17a6 bd3d 91af 04be a5cb dcbc
000000b0: 61ed e0bd 3f26 65bc 50be 01be 0b6d a63e
000000c0: ef52 633e b7ad 653d b583 1fbe 7bdf 3e3d
000000d0: 7a05 18be 7a20 bfbc 4461 9a3d c27e c2bd
000000e0: 29b1 1ebd 72bd 27bd fa9d 0e3e e5ab fabb
000000f0: 4db8 e13c 3501 cf3b 95a0 983c 8773 18be
00000100: b9be 32bd 5ce8 bd3c 404a 003d 6466 28bd
00000110: 5f06 25bc 2bbd b8bd 0c80 c1bd 8b74 ba3d
00000120: 9404 e4bb e310 243d ca5b d7ba cdbe 163d
00000130: ecd9 98bd 2c2c d33d e5ff b0bd 2ae1 543d
00000140: acf5 45bd ff11 423d 3487 913d 949b 8e3d
00000150: 42a6 113d 923d 3d3d dc79 37bd aa66 2d3e
00000160: 7ff2 db3d 3e24 c13d 36b6 f9bd 20f1 f23d
00000170: 2f57 2a3d 9bce 5f3e 9a08 aa3d 7299 c23d
00000180: ffbd babd 368a 02be 3cb3 493d 46d2 4cbd
00000190: 9ff6 263e 114e 403e 89c2 723d 6218 34bd
000001a0: 122b 31be fd76 f73d df58 05be a0c5 a63e
000001b0: 84d0 793e 1631 c2bd 47a0 553c c786 83bd
000001c0: 0c83 46bd a074 f5bd 70f9 503e 7c87 583e
000001d0: 4ff0 2cbd e430 ef3c 6dd0 0abe 9bd2 a03d
000001e0: 880a e6bd 7e43 963e 3c8f 3abe b348 c23c
000001f0: 57cb a4bc e9fd d9bd 349a 71bd 9746 aebd
00000200: 744e 2f3e 060e 403e 8385 1bbd 74c1 babc
00000210: 013a c23d a337 523d 2a2b abbc 7d2a 673e
00000220: fb7e eb3d fb6d 24bd e53a 563e dc0b 783d
00000230: e5c2 14bd d337 d6bd 15d2 4c3e a860 833e
00000240: 93f1 043e 54bc 2dbe f5b8 07be 28ba 32bd
00000250: d499 0e3d 3d88 6a3d 25a5 ba3d bdd1 913d
00000260: 8d44 e7bd c169 4fbe a078 703d 0df1 c83d
00000270: 88fd 3ebd bd53 8d3c f957 a63d 10e0 053e
00000280: 07aa 763d 99ce 02be 9ddc 06bd 72b4 663c
00000290: 7cdd b73d ae14 abbd 0402 8fbd 53cb 8fbd
000002a0: c25c d73d 6053 733c 65d5 b5bd 1c04 adbd
000002b0: acee c43b 12ac d7bd 5ffd a63d e14d 82bd
000002c0: 93cb 9d3d ea87 3fbd 81a7 88bd 93e6 e73d
000002d0: 0f02 88bd 74e1 8abd 1b63 d33c 93a9 8cbd
000002e0: e826 833c 020e 06be 642d 053d 9349 863d
000002f0: 95d8 acbd f027 c63d 281a debd 0dbd d5bc
00000300: 8a8a c1bd a114 70bd 5b7b 533d b2b2 d6bd
00000310: 4d57 b8bd a28d 493d 4217 893c 465b 08ba
00000320: c305 82bb 0605 dbbd 2fc2 c8bd 5cd3 ce3e
00000330: c2ab 4e3d 6855 b93d de5d c8bc 4796 d53b
00000340: e453 55bd e822 333d 86cc 863e 85a4 6b3c
00000350: 5ae9 90bd 757c 813d 0cce da3d 74b5 0dbe
00000360: 30aa ecbc 3525 8a3d adaa 76bd 0610 06be
00000370: e054 65be 2352 8b3d 28fd aabd 172e 43be
00000380: 6a2a 153d 2bb7 b83d 3106 f4bd 725e a5bd
00000390: bbc0 9cbc a772 453d 4439 26be 6e7d b93d
000003a0: 42a2 c43d 20a9 f93c 61af 0ebe 1236 0e3d
000003b0: b21b 6abe 43fb 693d 1da1 0c3d 03d2 fdbd
000003c0: e1bf d63d afdd 193e 1129 c9bd 97c6 113e
000003d0: 05f9 a33d c05c fcbc 97e8 9d3c e594 943d
000003e0: 0e94 18be f7c4 dfbd 681e 0e3d b9ef 54bd
000003f0: 09f9 8a3d 1bb9 c9bd 86c3 883d 013d d6bd

actor.0.bias f4 [43]
-0.07586045 0.13385487 0.007792318 0.01158304 -0.065194935 0.08257477 -0.014259838 0.1146917
0.04800983 -0.10166783 0.04418797 0.1295241 0.116000436 0.047346678 0.0035299303 0.01612682
0.119060405 0.037706565 -0.03907283 -0.053442203 0.017297434 0.0130286245 -0.0657763 0.053663008
0.039394904 0.023588918 -0.012947214 -0.0042254934 -0.027630521 0.16889212 -0.14110483 0.043268356
0.10103579 0.059504993 0.08578214 -0.08827676 0.093938515 0.07970423 0.004124538 0.0070104385
-0.10174975 0.08797631 0.11516569
00000000: b95c 9bbd 4011 093e b356 ff3b cac6 3d3c
00000010: ec84 85bd f61c a93d 18a2 69bc 7be3 ea3d
00000020: f5a5 443d 3937 d0bd 72fe 343d f7a1 043e
00000030: a391 ed3d 97ee 413d 6756 673b 651c 843c
00000040: f1d5 f33d 3372 1a3d d50a 20bd 36e6 5abd
00000050: 59b3 8d3c 0376 553c bab5 86bd becd 5b3d
00000060: 8d5c 213d 8c3d c13c 8d20 54bc 0276 8abb
00000070: 6759 e2bc 0ef2 2c3e c97d 10be 293a 313d
00000080: daeb ce3d 82bb 733d 8cae af3d 72ca b4bd
00000090: d662 c03d f93b a33d 2227 873b d2b7 e53b
000000a0: 2c62 d0bd ec2c b43d fddb eb3d

actor.2.weight f4 [28, 43]
0.010190959 0.046708927 0.11997284 0.24234334 0.22048596 0.06934363 0.10586954 -0.21600458
-0.058721956 0.04824984 0.15316103 -0.018533679 0.03947368 0.13917443 -0.12062685 -0.032289527
0.002696299 0.16641848 0.2615621 -0.028244503 0.0662759 0.13671778 -0.117903374 0.12642989
0.2243248 -0.013925039 0.12543626 -0.020090608 0.011163073 -0.17379352 -0.021879125 -0.16402763
0.15279208 0.090151645 0.16899326 0.17262389 -0.051095378 -0.02031951 0.0020315715 0.1966471
0.3357546 0.23027427 -0.0056882687 0.060692187 0.16351312 -0.04772866 0.054992042 0.36837554
0.07042758 0.17309535 -0.061583113 0.024337351 0.010914207 -0.099912755 -0.16920483 0.15781847
-0.071134925 0.23728964 0.08318965 -0.27900887 0.14097114 0.023969121 0.054998033 -0.14833978
0.08773233 0.26102427 0.38855708 -0.114182435 0.23562498 -0.005830493 0.22595337 0.38004982
0.078794226 0.004354822 -0.124688804 0.12281923 -0.1725275 0.00653484 -0.04864588 0.32507524
-0.21139842 -0.041797005 -0.081174366 -0.06555015 -0.067666486 0.19997412 0.15145592 -0.15674071
-0.05542138 0.17733523 0.25615826 0.05411439 0.15062533 0.031628557 -0.23110338 -0.14837094
0.041684255 -0.13821192 0.089488246 0.29932925 0.06394133 0.03064493 0.11526957 0.03662035
0.16649042 0.22891971 -0.33419102 -0.19501902 0.1878146 -0.048349626 -0.017890615 0.14527623
0.11678906 -0.2248407 -0.018484864 0.24665534 -0.023215406 -0.09710215 0.087976284 -0.07720055
0.11190336 0.017296448 -0.16168547 -0.109705985 -0.04044382 0.06314632 -0.05589166 -0.20578757
0.07069281 0.048933446 -0.0913533 -0.21044138 -0.026847908 0.10831809 0.07560611 -0.05881829
0.19935888 0.05209071 -0.08258986 -0.037751906 -0.17579406 0.12527628 0.1254987 -0.028852463
0.012859954 -0.020007078 0.18206412 0.0014978998 -0.18144551 0.2786266 -0.035847884 0.12775554
0.05403493 0.026203085 0.18871291 0.16342275 0.22046939 0.4522012 0.072406754 -0.15260877
-0.11890552 -0.10633981 -0.1414523 0.050594963 -0.27022633 0.15801983 -0.25415066 -0.15065172
0.21590059 0.025672587 0.10863596 -0.1835765 0.2494027 0.26715496 -0.051103443 -0.021307917
0.039795376 0.11850917 -0.1910084 0.17169417 0.03145493 -0.23499206 0.066368416 0.17508028
-0.15698706 -0.16515096 -0.00458416 -0.12607917 0.122952804 0.035071723 -0.013832552 0.18488666
0.12803023 -0.11042437 -0.06736497 -0.05208342 0.10533331 0.12991425 0.12137183 -0.076338276
0.16420011 0.10938906 -0.057021998 0.013389937 0.018100861 0.20238957 -0.0028199104 0.028798841
0.0143519025 -0.06955338 0.25848302 0.010099771 -0.303146 0.2132675 -0.006777773 -0.1343874
0.12882046 -0.11865376 -0.14083277 -0.09833107 -0.17263635 0.18672948 0.096879505 0.015996896
0.014731862 -0.09890368 -0.10470134 0.11717016 -0.090185575 -0.0725046 -0.05402908 -0.07147248
-0.038478177 -0.12349156 -0.19036226 0.22949338 -0.06602242 -0.10226185 0.10670627 -0.22603923
0.06751879 0.11077945 -0.16962256 0.048929956 0.118846394 -0.09276323 0.0342307 -0.10769189
0.05695108 0.11099979 -0.19203553 0.07256753 -0.19172819 -0.11398536 -0.16582654 0.10037335
00000000: fbf7 263c dc51 3f3d 52b4 f53d da28 783e
00000010: 12c7 613e 0804 8e3d 21d2 d83d 4e30 5dbe
00000020: 6f86 70bd a0a1 453d 3fd6 1c3e f1d3 97bc
00000030: 27af 213d be83 0e3e 360b f7bd 0642 04bd
00000040: 64b4 303b 9b69 2a3e 78eb 853e 0461 e7bc
00000050: a9bb 873d bfff 0b3e 5377 f1bd d676 013e
00000060: 66b5 653e d925 64bc 5d72 003e 0f95 a4bc
00000070: 52e5 363c eef6 31be da3b b3bc dcf6 27be
00000080: 8775 1c3e 6da1 b83d 920c 2d3e 51c4 303e
00000090: 6349 51bd 1a75 a6bc 1d24 053b db5d 493e
000000a0: 07e8 ab3e 05cd 6b3e a864 babb 5f98 783d
000000b0: fc6f 273e 217f 43bd 563f 613d b89b bc3e
000000c0: 563c 903d e83f 313e 933e 7cbd 205f c73c
000000d0: 81d1 323c 0f9f ccbd 0844 2dbe 2a9b 213e
000000e0: 30af 91bd 0efc 723e 565f aa3d 40da 8ebe
000000f0: bd5a 103e e45a c43c 9e45 613d 62e6 17be
00000100: 02ad b33d f9a4 853e f4f0 c63e 7bd8 e9bd
00000110: ad47 713e b80d bfbb 5260 673e e495 c23e
00000120: de5e a13d e5b2 8e3b d85c ffbd a688 fb3d
00000130: 0dab 30be 3622 d63b e740 47bd 4370 a63e
00000140: d478 58be 5633 2bbd bf3e a6bd 283f 86bd
00000150: ba94 8abd 04c6 4c3e 4317 1b3e a380 20be
00000160: 8701 63bd 5e97 353e 2d27 833e 0da7 5d3d
00000170: 873d 1a3e f28c 013d 5da6 6cbe 8dee 17be
00000180: 1cbd 2a3d 6d87 0dbe 9d45 b73d af41 993e
00000190: acf3 823d 140b fb3c 7412 ec3d 38ff 153d
000001a0: 777c 2a3e ee69 6a3e 161b abbe 11b3 47be
000001b0: 7852 403e 420a 46bd 578f 92bc 4bc3 143e
000001c0: 1a2f ef3d a43c 66be 926d 97bc 3893 7c3e
000001d0: 3c2e bebc 7edd c6bd e92c b43d 521b 9ebd
000001e0: 972d e53d 48b1 8d3c e090 25be 88ad e0bd
000001f0: 6ba8 25bd dc52 813d a7ee 64bd fab9 52be
00000200: 64c7 903d 706e 483d 7017 bbbd f27d 57be
00000210: 25f0 dbbc e0d5 dd3d 60d7 9a3d 72eb 70bd
00000220: bc24 4c3e 115d 553d df24 a9bd bea1 1abd
00000230: 5c03 34be 6d48 003e bb82 003e 005c ecbc
00000240: 8eb2 523c e2e5 a3bc 046f 3a3e 2d55 c43a
00000250: dacc 39be 25a8 8e3e 3bd5 12bd 59d2 023e
00000260: bb53 5d3d daa7 d63c f53d 413e 4b58 273e
00000270: bac2 613e ea86 e73e fe49 943d 7945 1cbe
00000280: bd84 f3bd b0c8 d9bd dfd8 10be aa3c 4f3d
00000290: 1b5b 8abe f3cf 213e 0920 82be 7244 1abe
000002a0: 0b15 5d3e 514f d23c 887c de3d 7afb 3bbe
000002b0: 6c63 7f3e 89c8 883e d851 51bd f18d aebc
000002c0: 7a00 233d f0b4 f23d b597 43be 99d0 2f3e
000002d0: e2d6 003d c2a1 70be 2aec 873d 3f48 333e
000002e0: 37c1 20be 551d 29be b936 96bb e61a 01be
000002f0: aece fb3d 5ea7 0f3d eea1 62bc ee52 3d3e
00000300: 5b1a 033e 2c26 e2bd a5f6 89bd 6d55 55bd
00000310: feb8 d73d 3e08 053e cb91 f83d 3e57 9cbd
00000320: 1324 283e 5f07 e03d e68f 69bd 7761 5b3c
00000330: 4248 943c 363f 4f3e 3fce 38bb 8ceb eb3c
00000340: 3e24 6b3c 0172 8ebd e357 843e 8379 253c
00000350: f435 9bbe cc62 5a3e 1518 debb da9c 09be
00000360: 83e9 033e be00 f3bd 7736 10be cd61 c9bd
00000370: 95c7 30be 0336 3f3e c368 c63d ec0b 833c
00000380: e85d 713c 038e cabd a86d d6bd e9f6 ef3d
00000390: 37b3 b8bd 4b7d 94bd 994d 5dbd 2a60 92bd
000003a0: 4b9b 1dbd 25e9 fcbd 53ee 42be 5000 6b3e
000003b0: c336 87bd a96e d1bd d188 da3d d476 67be
000003c0: 4b47 8a3d 56e0 e23d 89b1 2dbe c76a 483d
000003d0: bd65 f33d a6fa bdbd 7e35 0c3d 918d dcbd
000003e0: 8945 693d dc53 e33d f6a4 44be 499e 943d
000003f0: 6554 44be 2871 e9bd 6fce 29be 8b90 cd3d

actor.2.bias f4 [28]
0.03515949 -0.04465376 -0.036559794 -0.07573765 -0.06771192 -0.063090734 -0.022485612 -0.02939679
-0.14539401 -0.03216545 -0.029893663 -0.09800973 0.022060666 -0.006180183 0.10263076 0.15179695
0.07725175 0.12491851 0.022325318 0.12841912 0.14441098 0.106978066 -0.005966031 0.1317617
-0.028205547 -0.16844118 0.1572181 -0.093785964
00000000: 6603 103d dce6 36bd b9bf 15bd 571c 9bbd
00000010: 8cac 8abd b735 81bd bf33 b8bc 89d1 f0bc
00000020: 2be2 14be ebbf 03bd 8ee3 f4bc 53b9 c8bd
00000030: 92b8 b43c 2283 cabb 1330 d23d a970 1b3e
00000040: 2a36 9e3d 47d5 ff3d 96e3 b63c 4d80 033e
00000050: 79e0 133e 5117 db3d b27e c3bb 8aec 063e
00000060: 520f e7bc d87b 2cbe c8fd 203e db12 c0bd

actor.4.weight f4 [14, 28]
0.08618223 -0.11690621 0.115218796 -0.0903781 -0.21865542 -0.09247682 0.18008155 -0.225182
-0.19243456 -0.051981986 -0.16045694 -0.14298616 0.08773991 -0.11972307 -0.23176706 -0.14471835
0.08996568 -0.073177226 -0.11598299 -0.020146646 0.14306724 0.16928187 -0.08015151 -0.1285092
-0.02752533 -0.027975285 -0.20263886 -0.03695561 0.11284198 0.3448627 0.14006063 0.15565248
-0.017218774 -0.09421158 -0.14994898 -0.019805886 0.05540827 0.23563552 -0.32263473 0.21476352
0.14695513 -0.08296501 0.004029876 -0.1428969 0.33462355 -0.10111564 -0.15650924 0.073446326
0.22499098 -0.037855256 -0.093486965 -0.04898042 0.09907987 0.33534446 -0.03133411 0.24138996
0.08867006 -0.14131461 0.2811081 -0.37867424 -0.163475 0.15137585 -0.05481867 0.28634053
-0.08905229 0.11238059 0.045810238 0.3550711 -0.38103306 -0.30964303 0.073756054 -0.08147038
0.29285133 0.33354896 0.15605065 -0.06445069 0.22627388 -0.27681872 0.13981667 -0.23931709
-0.32942823 0.1788648 0.106101684 0.2636943 -0.05285719 0.29116002 0.092369385 -0.027485771
-0.041996937 -0.26743537 0.20118096 0.058830056 -0.14941701 -0.08622659 -0.06428722 -0.31414297
0.076450706 0.021722184 -0.06309832 -0.05392141 0.20567764 -0.0013533359 -0.29030988 0.04130089
0.2724122 0.1803097 -0.12875995 -0.03603194 0.1102676 0.22781155 0.027620282 0.18023315
0.09570202 0.069225356 0.16866016 0.052621026 0.27994055 0.2905492 0.013332988 -0.20407853
0.21263969 -0.22247082 0.26621294 0.035681516 -0.035989143 0.15278053 0.051812608 -0.13264099
-0.018018035 0.107248016 0.2911324 0.11953073 0.16898869 0.13697654 0.15542284 -0.12251319
-0.18215238 -0.31380162 0.18371764 -0.083635576 -0.13882756 -0.16490309 -0.113208935 -0.3599424
0.19268568 0.13163126 0.21907654 0.0843412 0.20907357 -0.29195789 0.2090242 -0.25610754
-0.038699187 0.049362425 0.066082336 -0.01024591 -0.028729947 -0.12966779 0.09349845 -0.0597083
-0.10385803 0.041530363 0.019441683 0.10462141 -0.25893682 -0.15116176 -0.061976448 -0.26254365
-0.08821799 0.32571635 0.19918773 0.24761973 0.11535105 -0.28680894 -0.09388636 0.3343725
0.0070080888 0.18500972 0.12836334 0.06741215 0.17837265 0.27939686 0.07192786 -0.22732368
-0.071965985 0.39385194 -0.24260105 0.07278631 0.115968734 -0.055458587 -0.096667066 -0.03595775
0.103780866 0.08717171 -0.18961431 -0.028276417 0.08685506 -0.06293448 0.08310199 -0.36228338
-0.12884784 0.2026145 0.06426187 0.0049977624 0.030370964 0.122776106 0.03386862 0.07292756
0.14460033 -0.106599756 0.11589952 0.18247579 0.12053937 0.20169021 0.09354393 -0.058911387
-0.13420855 -0.24686149 0.03212883 -0.1861177 -0.120601654 -0.28010324 0.10358002 -0.0588052
0.1588924 0.20737782 -0.0972513 0.23605405 -0.02833315 -0.31978616 -0.15978387 0.28108025
0.061592612 0.14289477 -0.08239899 0.14896464 -0.041125227 0.12083686 0.08477538 -0.1728763
0.033157066 0.28379425 0.2456009 0.13143961 -0.03311882 -0.24508357 0.13223517 0.19614778
-0.17443937 0.027794676 0.005501709 0.04407588 0.0023612594 0.2290333 -0.17512265 0.18266137
00000000: 4f80 b03d 866c efbd d5f7 eb3d 2718 b9bd
00000010: 35e7 5fbe 7d64 bdbd 4c67 383e 1c96 66be
00000020: 910d 45be 10eb 54bd d34e 24be f76a 12be
00000030: fbb0 b33d 5e31 f5bd 5854 6dbe 0c31 14be
00000040: ed3f b83d f1dd 95bd 7d88 edbd 940a a5bc
00000050: 3880 123e 3a58 2d3e 7a26 a4bd ea97 03be
00000060: cd7c e1bc 6d2c e5bc 9080 4fbe c45e 17bd
00000070: b219 e73d d891 b03e 0e6c 0f3e 5d63 1f3e
00000080: 630e 8dbc 00f2 c0bd 3a8c 19be f43f a2bc
00000090: c8f3 623d 704a 713e 6130 a5be f8ea 5b3e
000000a0: 687b 163e 8fe9 a9bd 0d0d 843b 9153 12be
000000b0: c753 ab3e b715 cfbd f543 20be 076b 963d
000000c0: 0964 663e 1d0e 1bbd 1876 bfbd b19f 48bd
000000d0: 63ea ca3d 45b2 ab3e 3258 00bd ee2e 773e
000000e0: a698 b53d c7b4 10be 67ed 8f3e 97e1 c1be
000000f0: fe65 27be 4502 1b3e 8b89 60bd 3a9b 923e
00000100: 0c61 b6bd cb27 e63d 84a3 3b3d e1cb b53e
00000110: c416 c3be 8889 9ebe 6a0d 973d f1d9 a6bd
00000120: 9cf0 953e eec6 aa3e becb 1f3e b9fe 83bd
00000130: 57b4 673e 2fbb 8dbe 1a2c 0f3e 8a0f 75be
00000140: d1aa a8be 5628 373e d74b d93d f002 873e
00000150: c880 58bd ed12 953e 292c bd3d d729 e1bc
00000160: fb04 2cbd 4aed 88be 6202 4e3e c9f7 703d
00000170: c600 19be 9197 b0bd 05a9 83bd 59d7 a0be
00000180: 3092 9c3d b9f2 b13c b139 81bd b2dc 5cbd
00000190: 299d 523e 6b62 b1ba 7fa3 94be 1f2b 293d
000001a0: 9d79 8b3e 1ba3 383e a6d9 03be 3a96 13bd
000001b0: fbd3 e13d 6e47 693e ee43 e23c 0a8f 383e
000001c0: 6cff c33d 06c6 8d3d 40b5 2c3e 2589 573d
000001d0: 5e54 8f3e ddc2 943e 9b72 5a3c f6f9 50be
000001e0: 38be 593e 64cf 63be 104d 883e c826 123d
000001f0: 5a69 13bd 8072 1c3e 7539 543d 0ad3 07be
00000200: 8f9a 93bc d9a4 db3d 4e0f 953e 87cc f43d
00000210: 5f0b 2d3e 9443 0c3e 2a27 1f3e 32e8 fabd
00000220: 2786 3abe 9baa a0be 7a20 3c3e 2149 abbd
00000230: d028 0ebe 5bdc 28be 16da e7bd 5f4a b8be
00000240: 654f 453e 58ca 063e 9a55 603e 14bb ac3d
00000250: 6217 563e 817b 95be 710a 563e 8720 83be
00000260: 0a83 1ebd 4130 4a3d 2d56 873d 76de 27bc
00000270: 115b ebbc a2c7 04be 1e7c bf3d b190 74bd
00000280: 85b3 d4bd be1b 2a3d 2a44 9f3c c043 d63d
00000290: 5e93 84be 26ca 1abe 04db 7dbd 1f6c 86be
000002a0: a2ab b4bd 4bc4 a63e def7 4b3e 0790 7d3e
000002b0: 2c3d ec3d 9fd8 92be 7e47 c0bd df32 ab3e
000002c0: 1ca4 e53b 3073 3d3e ae71 033e 620f 8a3d
000002d0: 52a7 363e 1b0d 8f3e ea4e 933d 8ac7 68be
000002e0: e762 93bd f6a6 c93e 696c 78be fd10 953d
000002f0: 0481 ed3d 8b28 63bd 62f9 c5bd 6f48 13bd
00000300: 108b d43d 1587 b23d 412a 42be f2a3 e7bc
00000310: 11e1 b13d cbe3 80bd 6031 aa3d 357d b9be
00000320: b0f0 03be 2d7a 4f3e ba9b 833d 45c4 a33b
00000330: 87cc f83c 0a72 fb3d d2b9 0a3d 0b5b 953d
00000340: 1c12 143e f950 dabd ba5c ed3d efda 3a3e
00000350: 58dd f63d e187 4e3e f693 bf3d 114d 71bd
00000360: f76d 09be 42c9 7cbe 8599 033d a395 3ebe
00000370: 00fe f6bd b169 8fbe c321 d43d b9dd 70bd
00000380: b0b4 223e da5a 543e b12b c7bd 27b8 713e
00000390: ec1a e8bc 03bb a3be 629e 23be c0e9 8f3e
000003a0: 8948 7c3d 0253 123e cdc0 a8bd 308a 183e
000003b0: ed72 28bd 5179 f73d b79e ad3d 7c06 31be
000003c0: b4cf 073d 7b4d 913e cd7e 7b3e 1b98 063e
000003d0: 9aa7 07bd 30f7 7abe a868 073e f7da 483e
000003e0: 3ca0 32be a9b1 e33c ae47 b43b e988 343d
000003f0: 5cbf 1a3b b587 6a3e 5a53 33be 950b 3b3e

actor.4.bias f4 [14]
-0.16608946 0.050250184 0.20287442 0.048424114 0.115253925 0.11555114 -0.024977295 -0.06984636
-0.14131534 -0.009587831 0.15024236 -0.017615924 -0.16901448 -0.068087935
00000000: 5b13 2abe 23d3 4d3d 50be 4f3e 5d58 463d
00000010: 400a ec3d 13a6 ec3d 2f9d ccbc 9c0b 8fbd
00000020: f8b4 10be 4716 1dbc 22d9 193e 454f 90bc
00000030: 2212 2dbe b071 8bbd

actor.6.weight f4 [7, 14]
0.056420993 0.13952766 0.21434368 0.24646 0.080850415 -0.031768735 0.23874478 0.01979691
-0.06937984 -0.029094778 0.08075987 -0.30372083 0.20807467 -0.28184205 -0.26941463 0.1327982
0.31556985 0.13452615 -0.29577097 -0.3259364 0.03742903 -0.12524971 0.015768068 -0.06686699
0.3562715 0.12592687 0.036826096 -0.34530082 0.29783946 -0.14208813 -0.34836748 0.329997
0.05031389 0.22854754 0.01328888 0.0054995012 -0.29550198 0.13559668 -0.36898193 0.08830768
-0.07591441 -0.37405002 0.31210524 -0.2057307 0.16954412 0.06172928 0.20311904 0.11286895
-0.35174683 0.35311687 -0.36437437 -0.428917 0.21742687 -0.029670272 0.21598092 0.34371758
0.12668693 -0.15516497 -0.15808578 0.30278948 0.13254791 0.30538425 0.15770261 0.06908979
-0.39511576 0.048038412 0.31066018 -0.36752838 -0.2566579 0.19966817 0.14213972 0.12592946
0.15672314 0.02807116 -0.17426594 -0.39247015 0.038630005 0.16423425 -0.1471984 -0.21762726
-0.08049632 -0.34076208 0.057027098 -0.04555222 -0.17741303 0.17655686 -0.30818585 0.42658597
-0.25109833 -0.16430607 -0.06608407 -0.21592198 -0.17852074 -0.2774716 -0.015859017 0.10008747
0.110178396 0.32197282
00000000: b319 673d 57e0 0e3e e97c 5b3e 0360 7c3e
00000010: e794 a53d ef1f 02bd 8379 743e 212d a23c
00000020: 0417 8ebd 2c58 eebc 6e65 a53d 4c81 9bbe
00000030: 8711 553e 9a4d 90be b7f0 89be 40fc 073e
00000040: 5f92 a13e 39c1 093e 4b6f 97be 23e1 a6be
00000050: 2f4f 193d 7641 00be 092c 813c 8ff1 88bd
00000060: 3869 b63e f9f2 003e f6d6 163d 45cb b0be
00000070: 6a7e 983e 8d7f 11be 395d b2be 5ef5 a83e
00000080: f015 4e3d 5e08 6a3e 9ab9 593c 2935 b43b
00000090: 094c 97be dbd9 0a3e 33eb bcbe a8da b43d
000000a0: 0479 9bbd 7c83 bfbe 42cc 9f3e 12ab 52be
000000b0: f99c 2d3e d7d7 7c3d 70fe 4f3e d627 e73d
000000c0: 2918 b4be bccb b43e 478f babe 029b dbbe
000000d0: 26a5 5e3e 120f f3bc 1a2a 5d3e c0fb af3e
000000e0: 38ba 013e 91e3 1ebe 3de1 21be 3907 9b3e
000000f0: a4ba 073e 535b 9c3e cb7c 213e f37e 8d3d
00000100: 9d4c cabe edc3 443d da0e 9f3e ae2c bcbe
00000110: aa68 83be d075 4c3e 138d 113e a7f3 003e
00000120: 087c 203e 7df5 e53c c572 32be d9f1 c8be
00000130: 7f3a 1e3d 062d 283e 2dbb 16be aed9 5ebe
00000140: 41db a4bd 5e78 aebe 3f95 693d f794 3abd
00000150: c3ab 35be 52cb 343e 89ca 9dbe 7a69 da3e
00000160: f68f 80be da3f 28be 1657 87bd a71a 5dbe
00000170: 24ce 36be c210 8ebe c5ea 81bc a9fa cc3d
00000180: 36a5 e13d 9fd9 a43e

actor.6.bias f4 [7]
-0.21130602 -0.087594084 -0.09438389 0.1562263 0.10145742 0.22549532 0.051218417
00000000: 9b60 58be 8764 b3bd 574c c1bd caf9 1f3e
00000010: e8c8 cf3d 3fe8 663e 67ca 513d

critic.0.weight f4 [43, 80]
-0.23342875 -0.23794949 -0.12517059 0.16816624 0.026260497 0.17704344 -0.026686516 -0.044464268
-0.025277382 -0.03074007 -0.015244743 0.14766014 0.07587914 -0.11258147 -0.03586175 0.0032859019
-0.04293472 0.021282053 0.016891353 0.12500948 0.07619159 -0.11750295 -0.033872113 0.02911773
-0.08172779 0.13837938 -0.043047853 -0.026210863 -0.15614145 0.025439775 0.072414726 -0.05414745
-0.017543038 0.12753505 -0.009140983 -0.16133577 0.036623873 -0.059218705 -0.07081503 0.14078504
-0.030153418 -0.11693382 -0.09907367 0.014892553 -0.06092283 0.109141305 0.054428592 -0.08543391
0.07757001 -0.104261786 -0.044351976 -0.1184956 0.063762404 0.1476112 -0.0056540347 -0.060795892
-0.11507816 0.10641107 -0.11155094 0.09452191 0.099551775 -0.09183702 0.07396159 -0.0063834945
0.041878067 -0.19784409 0.1806107 0.112028904 0.060344934 0.0028697427 -0.04168871 -0.0557665
-0.121478744 0.22938551 0.10713786 -0.022130648 0.0029067665 -0.0140404375 -0.057097077 0.0145676
-0.10830589 -0.108226426 -0.18877964 0.15733328 -0.022040399 -0.11607671 -0.031410664 -0.14661708
-0.061604653 -0.057479415 0.104241185 -0.033482384 -0.06476965 0.048118226 0.0058894237 -0.15152772
-0.049820352 -0.08809036 0.10673407 0.05697046 0.1367737 -0.13106029 -0.070060164 -0.17271353
-0.0011968515 0.15772158 -0.118772864 0.1595644 0.022810565 -0.069396004 -0.04806597 -0.002713501
0.13101158 -0.007475013 0.0025920253 -0.03093612 -0.12523681 -0.18712421 0.11328172 -0.029291922
-0.08026713 -0.022481792 -0.041982546 -0.16143058 0.0057931817 0.03167341 -0.13931994 -0.014473938
-0.24310917 -0.17669827 -0.1332238 -0.11411535 0.1702146 -0.027477179 0.0062269657 -0.2803446
0.010598145 -0.2193898 -0.004429048 0.06329195 -0.09149062 0.018558078 -0.23277736 -0.08165612
-0.06222487 0.007352552 0.1712773 -0.04014266 0.11018905 -0.22304627 -0.04820335 -0.10750564
-0.06397026 0.14344041 -0.051756952 0.14617415 -0.19067034 -0.025686558 -0.009431937 0.13027602
0.03730888 -0.18232739 -0.059427172 0.20909767 -0.01992768 0.24743044 -0.118312046 0.06361591
-0.050190806 -0.13286692 0.0760554 -0.015690023 0.04623409 -0.019975238 0.0517712 -0.113380656
-0.055315666 0.07871553 0.130894 0.10628287 -0.04151751 -0.094017066 -0.110002905 -0.051191498
0.0019341066 0.12279243 0.14162211 -0.07811715 -0.048310515 -0.10307017 -0.15111658 0.17351784
-0.07704296 -0.030353308 0.015170481 -0.09112823 -0.24493216 0.023757163 0.08895851 -0.03026421
0.13745181 -0.120731235 -0.031552263 -0.023930755 0.24069491 -0.17677999 -0.25759718 0.089740746
0.112345584 0.044000834 0.020420495 0.26122496 0.02552668 -0.25518942 0.091641776 0.13814943
0.03353631 -0.008661548 0.20587671 -0.072837465 -0.271037 0.14186704 0.098186575 0.074654415
0.10112853 0.2680142 -0.109458864 -0.3075901 0.16833933 0.19560944 0.044490147 -0.021876894
0.25186804 -0.08459193 -0.25228012 0.16870905 0.09090467 0.0006949167 -0.11359171 -0.14856048
0.062152296 0.009831656 -0.05473564 0.019075958 -0.07363774 -0.034058016 0.09550787 0.036428772
0.15715115 0.088444516 -0.20122896 -0.083263524 -0.14625853 0.07022357 -0.046460148 0.25461057
00000000: f207 6fbe 08a9 73be b82c 00be c533 2c3e
00000010: 4120 d73c e04a 353e ae9d dabc 2a20 36bd
00000020: 8312 cfbc 99d2 fbbc 16c5 79bc 3834 173e
00000030: 8666 9b3d 1d91 e6bd c5e3 12bd 4958 573b
00000040: 51dc 2fbd b357 ae3c bc5f 8a3c 7c02 003e
00000050: 560a 9c3d 63a5 f0bd 7cbd 0abd 4e88 ee3c
00000060: e660 a7bd 53b3 0d3e f252 30bd 2ab8 d6bc
00000070: 8be3 1fbe 1367 d03c 2c4e 943d b7c9 5dbd
00000080: 6bb6 8fbc 8c98 023e 10c4 15bc 3435 25be
00000090: ea02 163d 508f 72bd 7807 91bd f429 103e
000000a0: 4d04 f7bc 007b efbd 23e7 cabd e5ff 733c
000000b0: 388a 79bd 7a85 df3d 84f0 5e3d f9f7 aebd
000000c0: 07dd 9e3d 3487 d5bd 6baa 35bd d2ad f2bd
000000d0: dd95 823d 6427 173e 7b45 b9bb 1d05 79bd
000000e0: 19ae ebbd 0cee d93d d274 e4bd b494 c13d
000000f0: cde1 cb3d 0c15 bcbd 2d79 973d a22c d1bb
00000100: 5688 2b3d a497 4abe 03f2 383e 696f e53d
00000110: 402c 773d 4b12 3c3b c8c1 2abd 6a6b 64bd
00000120: d9c9 f8bd 09e4 6a3e 186b db3d 554b b5bc
00000130: 737f 3e3b dd09 66bc a0de 69bd f1ac 6e3c
00000140: 7acf ddbd d1a5 ddbd 734f 41be fa1b 213e
00000150: 118e b4bc a0b9 edbd 78a8 00bd ca22 16be
00000160: 2955 7cbd 896f 6bbd 677c d53d d324 09bd
00000170: f3a5 84bd 9e17 453d 11fc c03b 152a 1bbe
00000180: 6d10 4cbd b868 b4bd 6497 da3d db59 693d
00000190: 680e 0c3e ab34 06be b47b 8fbd d1db 30be
000001a0: acdf 9cba c481 213e 303f f3bd da64 233e
000001b0: 39dd ba3c 7e1f 8ebd d3e0 44bd fed4 31bb
000001c0: e627 063e f4f0 f4bb f8de 293b bf6d fdbc
000001d0: 143e 00be 7d9d 3fbe 3f00 e83d 9df5 efbc
000001e0: 1863 a4bd bc2b b8bc e4f5 2bbd 0f4e 25be
000001f0: bbd4 bd3b fabb 013d e3a9 0ebe 1924 6dbc
00000200: 9cf1 78be 64f0 34be d26b 08be 4fb5 e9bd
00000210: bc4c 2e3e d217 e1bc 930b cc3b 5489 8fbe
00000220: d8a3 2d3c b8a7 60be 8c21 91bb 369f 813d
00000230: 6f5f bbbd 1c07 983c 305d 6ebe 533b a7bd
00000240: 81df 7ebd aded f03b 5163 2f3e a16c 24bd
00000250: ccaa e13d 3e66 64be e070 45bd eb2b dcbd
00000260: d702 83bd 0be2 123e 19ff 53bd adae 153e
00000270: 163f 43be 9e6c d2bc 6988 1abc 1467 053e
00000280: 32d1 183d 08b4 3abe e869 73bd b31d 563e
00000290: 603f a3bc 685e 7d3e 964d f2bd 0f49 823d
000002a0: e094 4dbd 440e 08be efc2 9b3d 5d88 80bc
000002b0: f55f 3d3d 1ca3 a3bc 0a0e 543d 1e34 e8bd
000002c0: ae92 62bd 9c35 a13d 1409 063e d5aa d93d
000002d0: 440e 2abd 058c c0bd 3449 e1bd 2dae 51bd
000002e0: d981 fd3a 997a fb3d 6305 113e e2fb 9fbd
000002f0: 3fe1 45bd 7416 d3bd 4ebe 1abe a9ae 313e
00000300: b3c8 9dbd 80a7 f8bc 9c8d 783c 70a1 babd
00000310: 7fcf 7abe 629e c23c e12f b63d a6ec f7bc
00000320: 2bc0 0c3e f041 f7bd f23c 01bd 6e0a c4bc
00000330: ba78 763e d005 35be c7e3 83be ffc9 b73d
00000340: 7115 e63d 383a 343d e248 a73c 47bf 853e
00000350: 541d d13c 30a8 82be afae bb3d 0b77 0d3e
00000360: 5f5d 093d 2ae9 0dbc 58d1 523e cf2b 95bd
00000370: 5dc5 8abe 9845 113e 0b16 c93d 6ae4 983d
00000380: 7a1c cf3d 2839 893e f82b e0bd 737c 9dbe
00000390: 2561 2c3e d74d 483e 4d3b 363d 2c37 b3bc
000003a0: d9f4 803e 893e adbd dc2a 81be 11c2 2c3e
000003b0: 3a2c ba3d 122b 363a c5a2 e8bd 3d20 18be
000003c0: 6893 7e3d f414 213c 7a32 60bd 2f45 9c3c
000003d0: 62cf 96bd 6b80 0bbd a199 c33d 5636 153d
000003e0: 3bec 203e 6622 b53d f70e 4ebe 1186 aabd
000003f0: ccc4 15be 60d1 8f3d ff4c 3ebd 515c 823e

critic.0.bias f4 [43]
0.082644485 -0.09842921 -0.021825658 0.22789703 0.20086856 -0.071891166 0.12296393 0.057930138
-0.18930082 0.08139306 0.05501741 -0.01323175 0.098235495 0.0021818008 0.09265425 0.061460666
0.047513608 -0.015404967 0.016334651 0.21937135 -0.08713765 -0.0155492015 0.123651534 -0.14453405
-0.033657975 0.09943909 0.17650403 0.006055594 0.28566208 -0.0037060217 0.20896496 0.15777045
0.059080128 0.112114385 0.0075392057 0.12751451 0.07078613 0.018392576 -0.116742544 0.041884217
0.09031837 -0.07409786 0.004742927
00000000: 8341 a93d 4195 c9bd b9cb b2bc d75d 693e
00000010: 7db0 4d3e ad3b 93bd 83d4 fb3d 2748 6d3d
00000020: 13d8 41be 68b1 a63d f059 613d fbc9 58bc
00000030: b12f c93d 8bfc 0e3b 83c1 bd3d 2ebe 7b3d
00000040: a19d 423d 1d65 7cbc 3fd0 853c e2a2 603e
00000050: 3975 b2bd 14c2 7ebc 043d fd3d bc00 14be
00000060: f2dc 09bd b9a6 cb3d 79bd 343e 016e c63b
00000070: 4d42 923e bae0 72bb e9fa 553e 948e 213e
00000080: 01fe 713d 3a9c e53d 710b f73b 2a93 023e
00000090: 52f8 903d 07ac 963c b716 efbd c98e 2b3d
000000a0: d6f8 b83d 9ec0 97bd 8e6a 9b3b

critic.2.weight f4 [28, 43]
-0.14859715 -0.28671128 -0.22369769 0.3056586 0.21760091 -0.07040283 -0.04396303 -0.035915162
-0.13151331 -0.055163596 0.108336605 -0.21877427 -0.09100695 -0.013568448 0.24615443 -0.24568306
0.0893834 -0.12073356 -0.14741132 0.26563802 -0.040382985 0.10293877 0.15029661 0.124711305
-0.021261862 -0.24736339 -0.0034898347 -0.054954104 0.27421087 0.042139817 0.23911518 0.07966643
0.07899482 0.0528717 -0.036422327 0.04870141 0.10029526 -0.050027892 -0.081973344 0.099446364
0.14002396 -0.23852088 -0.17783822 0.078362174 -0.07153111 0.07786255 0.19861965 0.14210768
0.033159915 0.05316222 0.27566946 -0.121710405 0.08064723 0.26264971 0.041405633 0.20591758
-0.10609386 -0.13457136 -0.049967147 -0.1409941 -0.18509169 0.111598484 -0.1193467 -0.111001946
-0.017497117 0.09573187 0.052784428 -0.019787017 0.03194696 0.04903211 -0.20981312 0.06945167
-0.1450246 0.19400688 0.031838544 0.16142178 0.28588015 0.15502042 0.01787439 0.12976801
0.025574423 0.011735422 0.0929349 -0.04055026 -0.009501638 -0.055412892 0.08092583 0.13949156
0.10634499 0.014240277 -0.23503013 -0.012966997 0.044516556 0.015126502 0.10843445 -0.20744403
-0.16369414 -0.002459914 -0.031891715 0.14403796 -0.13417047 0.17841598 -0.17394614 0.0939845
-0.08071467 -0.11968584 0.07612269 -0.07773404 -0.08003618 -0.08755516 0.12339328 0.121037036
-0.053239007 -0.07129998 0.042068962 0.13466221 0.045928583 0.00029111808 0.07121393 -0.26385912
-0.14317736 0.011729526 -0.14205764 0.124837056 -0.08086091 0.045196578 0.1594303 0.1835878
0.12070185 -0.100640476 -0.14887759 0.057364743 -0.047789924 0.05859603 -0.12813088 0.023868851
-0.07751587 0.030908097 0.26392418 0.21000195 0.0021170012 0.112905815 0.12505157 0.31143835
0.1038182 0.15861523 -0.0044893785 0.0075867707 7.908535e-05 0.19179708 0.24914742 0.08454474
-0.26575044 0.026327616 0.1912282 0.116868585 0.10786559 -0.026297802 -0.028643092 0.0011188886
-0.012618441 0.10066364 0.04910388 0.11757923 0.13161027 -0.033148754 0.003485752 0.06046472
0.011078764 -0.038746066 0.06637297 0.26224232 0.01254356 0.09212065 -0.012308777 -0.14607742
0.006532175 0.1515247 0.327188 0.012803067 0.021785207 0.084351376 -0.2786106 0.16602436
0.2062299 0.13614225 -0.23570842 0.22887161 -0.06341064 -0.2234261 0.15690273 -0.08770278
0.24800621 -0.18927987 -0.1809424 -0.40053436 0.15527146 -0.0058912127 -0.24584416 0.09524446
-0.067813866 0.20965198 -0.008559417 -0.06467332 0.031597137 0.022603424 -0.09515312 -0.037144247
0.038799375 0.018711764 0.072883435 0.23755282 0.18282907 -0.16273451 0.09336366 -0.012042159
0.093774475 0.1729186 -0.08426066 0.23848401 0.05822878 0.40009138 0.10585812 -0.037627988
0.2867243 0.039289743 0.27636582 0.13036367 0.09074028 -0.028895484 -0.16058835 0.0762674
-0.010512042 0.04155541 0.07551972 0.18375267 0.0466347 0.26924795 -0.14749895 0.15109843
-0.008162609 0.05830749 0.16643584 0.05280554 0.017120577 0.28418285 0.17137338 0.068974674
0.1774049 0.33515334 0.03557079 0.10569316 -0.015648458 0.11771847 -0.013050146 0.29390928
00000000: da29 18be d2cb 92be 0211 65be 497f 9c3e
00000010: c6d2 5e3e 5c2f 90bd 9412 34bd c71b 13bd
00000020: 6dab 06be 39f3 61bd 95df dd3d 5d06 60be
00000030: da61 babd 324e 5ebc e80f 7c3e 5794 7bbe
00000040: a50e b73d 2843 f7bd fef2 16be b501 883e
00000050: a168 25bd 90d1 d23d 5be7 193e a468 ff3d
00000060: 5b2d aebc d44c 7dbe b6b5 64bb 8e17 61bd
00000070: 5e65 8c3e cd9a 2c3d 9cda 743e 2728 a33d
00000080: 09c8 a13d ff8f 583d 942f 15bd 217b 473d
00000090: 9a67 cd3d 0cea 4cbd a4e1 a7bd 89aa cb3d
000000a0: 7162 0f3e d13e 74be 391b 36be 597c a03d
000000b0: e77e 92bd 6776 9f3d f362 4b3e ad84 113e
000000c0: b1d2 073d a1c0 593d 8c24 8d3e 4e43 f9bd
000000d0: 602a a53d 067a 863e f498 293d 0fdc 523e
000000e0: bd47 d9bd 13cd 09be 5aaa 4cbd c260 10be
000000f0: ad88 3dbe bf8d e43d 0b6c f4bd fd54 e3bd
00000100: 1d56 8fbc 120f c43d 7c34 583d 6218 a2bc
00000110: d1da 023d e5d5 483d 40d9 56be ad3c 8e3d
00000120: 5481 14be bda9 463e 2269 023d c04b 253e
00000130: e25e 923e acbd 1e3e 506d 923c e8e1 043e
00000140: 7481 d13c ed45 403c a754 be3d 0818 26bd
00000150: c2ac 1bbc a1f8 62bd 71bc a53d e0d6 0e3e
00000160: 67cb d93d 0d50 693c bdab 70be 8773 54bc
00000170: fe56 363d 26d5 773c e212 de3d 356c 54be
00000180: 709f 27be 8236 21bb e3a0 02bd b07e 133e
00000190: fc63 09be aeb2 363e f01e 32be f27a c03d
000001a0: bc4d a5bd da1d f5bd 37e6 9b3d 0633 9fbd
000001b0: 02ea a3bd 1f50 b3bd 9eb5 fc3d 44e2 f73d
000001c0: 2511 5abd b905 92bd 8150 2c3d e4e4 093e
000001d0: 9c1f 3c3d 35a1 9839 9cd8 913d 8b18 87be
000001e0: 169d 12be 332d 403c 8f77 11be 92aa ff3d
000001f0: 689a a5bd 0c20 393d b241 233e 71fe 3b3e
00000200: 8832 f73d 981c cebd 5e73 18be 4bf7 6a3d
00000210: 5ebf 43bd 6402 703d be34 03be 9c88 c33c
00000220: a4c0 9ebd fa32 fd3c 1221 873e c00a 573e
00000230: 63bd 0a3b 2a3b e73d 850d 003e d974 9f3e
00000240: a39e d43d 086c 223e a31b 93bb 729a f83b
00000250: a0da a538 7466 443e 8020 7f3e cb25 ad3d
00000260: 7110 88be 03ad d73c 53d1 433e cc58 ef3d
00000270: a2e8 dc3d 7d6e d7bc eba4 eabc aca7 923a
00000280: 94bd 4ebc bd28 ce3d 2621 493d 61cd f03d
00000290: d8c4 063e fdc6 07bd 3771 643b dba9 773d
000002a0: b483 353c 32b4 1ebd 8dee 873d a044 863e
000002b0: 8183 4d3c c0a9 bc3d c1aa 49bc 5295 15be
000002c0: db0b d63b 4a29 1b3e 2f85 a73e f5c3 513c
000002d0: e476 b23c 6ac0 ac3d 0ca6 8ebe 4a02 2a3e
000002e0: ee2d 533e e068 0b3e 8c5d 71be 525d 6a3e
000002f0: 70dd 81bd d0c9 64be 1cab 203e 849d b3bd
00000300: 57f5 7d3e 95d2 41be f748 39be d712 cdbe
00000310: 7bff 1e3e 130b c1bb 92be 7bbe 870f c33d
00000320: ffe1 8abd 02af 563e cc3c 0cbc 7273 84bd
00000330: 006c 013d d12a b93c a4df c2bd 9124 18bd
00000340: 18ec 1e3d 6a49 993c e943 953d 0c41 733e
00000350: 8b37 3b3e e0a3 26be 7235 bf3d 7a4c 45bc
00000360: d50c c03d 9311 313e da90 acbd 2735 743e
00000370: 4d81 6e3d c7d8 cc3e 24cc d83d ce1f 1abd
00000380: 87cd 923e 48ee 203d d27f 8d3e 0e7e 053e
00000390: 0ad6 b93d 39b6 ecbc 4671 24be 1532 9c3d
000003a0: b33a 2cbc 0136 2a3d 15aa 9a3d a929 3c3e
000003b0: 0704 3f3d deda 893e f709 17be 8cb9 1a3e
000003c0: 77bc 05bc d6d3 6e3d 286e 2a3e 9f4a 583d
000003d0: 7440 8c3c 6a80 913e 817c 2f3e 9842 8d3d
000003e0: a1a9 353e 3899 ab3e adb2 113d a875 d83d
000003f0: 3231 80bc 6216 f13d 48d0 55bc 477b 963e

critic.2.bias f4 [28]
0.19015351 0.24621 -0.030558672 0.0047617294 -0.038244467 0.20241626 0.22002076 -0.031995866
0.08853558 0.09556197 0.038160503 0.026714923 -0.108314395 0.031021655 0.043594297 0.006129488
0.052486766 0.103517495 0.16100097 -0.13189133 -0.16426338 0.14498278 -0.087374516 0.19773057
0.11696268 0.035005 0.05144924 0.16987425
00000000: 9ab7 423e 791e 7c3e 2e56 fabc 4808 9c3b
00000010: 3ba6 1cbd 3546 4f3e 1f4d 613e 190e 03bd
00000020: 2452 b53d feb5 c33d 304e 1c3d 41d9 da3c
00000030: f0d3 ddbd 2021 fe3c ef8f 323d dfd9 c83b
00000040: 5dfc 563d fb00 d43d 70dd 243e 850e 07be
00000050: a934 28be 5e76 143e 69f1 b2bd e279 4a3e
00000060: 218a ef3d 6761 0f3d 70bc 523d 84f3 2d3e

critic.4.weight f4 [10, 28]
-0.13213272 0.25789467 0.09053503 -0.08865712 0.19049688 -0.000107956235 0.088269465 0.2771012
-0.048419576 0.25691146 -0.11436738 0.15770139 -0.29322493 -0.19263119 0.24980587 0.042501662
0.15037999 -0.047568034 0.26532257 -0.025409887 -0.2754603 -0.14539032 -0.13659546 -0.022577118
0.05190146 -0.13293728 0.19320714 -0.2595795 0.0003332895 0.11221567 -0.21806438 0.20163874
0.27448833 0.094780676 -0.0071027037 0.22008057 0.023975402 0.25967482 0.007930318 -0.073609926
0.010986104 0.08716758 0.16769741 -0.11908391 -0.18118834 0.006950604 0.3353472 -0.36066142
0.02862269 0.11413316 0.18326958 -0.48928887 -0.040777963 -0.13014537 0.20151712 -0.30296797
-0.12527958 -0.048951585 -0.20628975 0.010668955 -0.020058341 -0.24088143 0.002398415 -0.010294183
-0.11631826 0.021362502 0.013305589 -0.048529048 0.05893115 -0.11688333 0.093628585 0.25860828
0.11932939 0.018374698 0.21165118 0.017483076 -0.04970069 -0.2339446 -0.3027664 0.023442095
0.11279603 0.12693398 0.17395061 -0.046811998 0.10506125 0.025036898 0.2200012 -0.06528561
0.16970232 -0.14274918 -0.08553212 0.034266878 0.028199011 0.26666567 0.019485272 0.024840994
0.08142107 -0.051923268 -0.122441344 0.026729343 0.014314533 0.014772834 0.1286739 -0.18190396
0.098986186 -0.1159146 0.059878632 -0.2135736 -0.2748917 -0.29992184 0.11136664 -0.21304403
-0.18729487 -0.17109148 -0.17792027 0.022414032 -0.18359335 0.09685239 -0.14479655 0.037514344
-0.100193076 -0.056178838 0.033744253 -0.1899577 0.032552898 -0.14832944 -0.13308086 -0.0018009772
0.09079527 -0.17188838 0.14830267 -0.004600522 -0.07188485 0.10229905 0.043019734 -0.009097198
0.10573259 -0.07084762 -0.0022034214 0.09941734 0.2026245 0.10447677 -0.08527847 0.09435179
-0.24125792 0.013479735 0.0023998634 -0.22043356 -0.022131754 -0.37792453 0.18228056 -0.23975526
-0.17510521 -0.10779922 -0.15434353 -0.018479874 0.19911647 0.16293646 -0.24475192 -0.024188519
0.07653509 0.10869236 -0.052122686 0.33447322 0.17898141 0.3404646 -0.24497765 0.07389239
0.08977506 -0.20244212 0.022638323 -0.1957368 -0.14332467 -0.36620566 -0.17036225 0.04305321
-0.26671693 0.07314271 -0.061338622 0.1303963 0.14728633 -0.13181122 -0.15833674 0.17992643
0.046857513 -0.3002525 0.008714967 0.1424013 -0.04389572 -0.21377227 0.12568554 -0.2671392
-0.012312049 -0.11737763 -0.07894485 -0.06261483 -0.06702145 -0.17855567 0.1456924 0.20055702
-0.085362256 -0.22234689 -0.37283003 0.014743322 0.14134103 0.30534595 0.13523121 0.35377935
0.2091332 -0.037171677 -0.12238226 0.14092174 -0.37702304 -0.3330869 0.18717372 -0.015947834
0.092856355 -0.0895263 0.15006155 -0.20637093 -0.2674678 -0.21188612 0.15929872 0.11171981
-0.12888514 -0.075684816 -0.029914008 -0.13767682 0.18468708 0.060986992 -0.096525565 0.24794213
0.15628299 -0.094859205 -0.08902326 0.30516097 0.0935317 0.057111714 0.06818386 0.2375347
-0.32392308 -0.010967554 0.23653898 -0.3281472 0.013319029 -0.03085881 0.03417168 -0.46829906
-0.24394569 -0.09316491 -0.093195684 -0.11118832 0.2053039 0.1253705 0.24124186 -0.090061106
00000000: cd4d 07be c50a 843e 6e6a b93d dd91 b5bd
00000010: 9d11 433e 9066 e2b8 9fc6 b43d 35e0 8d3e
00000020: 9b53 46bd e689 833e 7239 eabd 797c 213e
00000030: 9421 96be 1c41 45be 1ccd 7f3e 3916 2e3d
00000040: 36fd 193e b3d6 42bd 5cd8 873e 6528 d0bc
00000050: 2209 8dbe 33e1 14be aedf 0bbe a6f3 b8bc
00000060: a096 543d b620 08be 18d8 453e 9be7 84be
00000070: 5cbd ae39 54d1 e53d 454c 5fbe 637a 4e3e
00000080: bc89 8c3e 5f1c c23d ccbd e8bb cd5c 613e
00000090: 1068 c43c 19f4 843e 2aee 013c cdc0 96bd
000000a0: 0fff 333c eb84 b23d dfb8 2b3e 44e2 f3bd
000000b0: 7089 39be e4c1 e33b a1b2 ab3e 9da8 b8be
000000c0: 227a ea3c a5be e93d 05ab 3b3e 1284 fabe
000000d0: cb06 27bd d444 05be 815a 4e3e 9e1e 9bbe
000000e0: 4a49 00be 7581 48bd 9f3d 53be d7cc 2e3c
000000f0: 6451 a4bc 9fa9 76be ba2e 1d3b efa8 28bc
00000100: 4538 eebd 6a00 af3c afff 593c 65c6 46bd
00000110: ca61 713d 8760 efbd 58c0 bf3d 4e68 843e
00000120: f862 f43d 8986 963c 16bb 583e ab38 8f3c
00000130: f392 4bbd 2c8f 6fbe 3304 9bbe a309 c03c
00000140: 9b01 e73d fbfa 013e 1c20 323e f0bd 3fbd
00000150: 5a2a d73d 2e1a cd3c ff47 613e 76b4 85bd
00000160: 72c6 2d3e d72c 12be 772b afbd 6d5b 0c3d
00000170: 9d01 e73c 6788 883e 949f 9f3c 577f cb3c
00000180: 17c0 a63d 7ead 54bd 87c2 fabd 7ff7 da3c
00000190: 8187 6a3c c209 723c 17c3 033e 0845 3abe
000001a0: 45b9 ca3d a264 edbd 4c43 753d 0ab3 5abe
000001b0: 9bbe 8cbe 5b8f 99be 3114 e43d 3728 5abe
000001c0: 3aca 3fbe 9b32 2fbe bb30 36be a29d b73c
000001d0: e5ff 3bbe 8c5a c63d 8c45 14be a4a8 193d
000001e0: 0732 cdbd c81b 66bd 6a37 0a3d 4584 42be
000001f0: 3056 053d ace3 17be 5946 08be c40e ecba
00000200: dff2 b93d 8203 30be a8dc 173e fabf 96bb
00000210: 5d38 93bd 2a82 d13d 7635 303d 6a0c 15bc
00000220: 548a d83d 8f18 91bd 4767 10bb 519b cb3d
00000230: cc7c 4f3e ebf7 d53d 7aa6 aebd 833b c13d
00000240: 510c 77be 1bda 5c3c 0747 1d3b 56b9 61be
00000250: a74d b5bc 537f c1be c1a7 3a3e 6782 75be
00000260: c84e 33be d6c5 dcbd 3b0c 1ebe 1b63 97bc
00000270: 30e5 4b3e d1d8 263e 3fa0 7abe 0027 c6bc
00000280: 6ebe 9c3d 1a9a de3d 997e 55bd 1340 ab3e
00000290: e746 373e 6051 ae3e 6cdb 7abe e554 973d
000002a0: fddb b73d fd4c 4fbe 0174 b93c 3a6f 48be
000002b0: b4c3 12be 4f7f bbbe 7173 2ebe 9058 303d
000002c0: 1f8f 88be d8cb 953d 353e 7bbd 9c86 053e
000002d0: 3ad2 163e 85f9 06be 0723 22be a23e 383e
000002e0: aaed 3f3d b2ba 99be 39c9 0e3c a5d1 113e
000002f0: 00cc 33bd 1ee7 5abe b6b3 003e 78c6 88be
00000300: 7ab8 49bc af63 f0bd d6ad a1bd 343c 80bd
00000310: 8b42 89bd 4cd7 36be 6330 153e d25e 4d3e
00000320: 68d2 aebd e7ae 63be 94e3 bebe f98d 713c
00000330: b4bb 103e 4e56 9c3e 0d7a 0a3e 9122 b53e
00000340: 0327 563e 5441 18bd 8da3 fabd ca4d 103e
00000350: 2a09 c1be 5e8a aabe 78aa 3f3e 08a5 82bc
00000360: 792b be3d 9159 b7bd bca9 193e e752 53be
00000370: 8af1 88be adf8 58be 341f 233e 5bcd e43d
00000380: 77fa 03be a400 9bbd 390e f5bc 27fb 0cbe
00000390: 9c1e 3d3e 7fcd 793d 32af c5bd 8be4 7d3e
000003a0: a608 203e 8b45 c2bd d451 b6bd 0f3e 9c3e
000003b0: 8c8d bf3d f9ed 693d fba3 8b3d 4c3c 733e
000003c0: 3fd9 a5be 41b1 33bc 4637 723e e902 a8be
000003d0: 0e38 5a3c 9dcb fcbc 9bf7 0b3d e5c4 efbe
000003e0: e6cc 79be 3fcd bebd 61dd bebd b4b6 e3bd
000003f0: 303b 523e 2061 003e 1b08 773e f571 b8bd

critic.4.bias f4 [10]
0.01247561 0.045677204 0.05962121 0.13938557 -0.07437547 0.1360107 -0.13598952 -0.16625486
0.08728621 -0.052605666
00000000: 8066 4c3c 0518 3b3d 5f35 743d 17bb 0e3e
00000010: 2b52 98bd 6446 0b3e d640 0bbe b73e 2abe
00000020: 1dc3 b23d 0a79 57bd

critic.6.weight f4 [1, 10]
0.31978005 0.20654473 0.44591185 0.28493172 0.2183919 -0.07745041 0.25901946 0.40316552
0.3111464 -0.2681969
00000000: 36ba a33e 7680 533e 8f4e e43e 92e2 913e
00000010: 20a2 5f3e 529e 9ebd 339e 843e b66b ce3e
00000020: 954e 9f3e 1b51 89be
