Weight/eps0.2/PPO_continuous.pth (torch_old, 19759 bytes, 13 tensors)

actor.0.weight f4 [28, 31]
000000 da b5 3a 3e 4d e8 24 3d 84 a6 0e be 9d ad 94 3d
       0.18233433 0.0402606 -0.13930708 0.072596766
000010 69 6c ec bd 2a ae e5 bd e2 52 3b bd f8 9c de 3d
       -0.11544115 -0.1121486 -0.04573334 0.10869783
000020 b0 2b a2 3b 2e 0d 3d 3e 1c 97 f4 bd ac c4 98 bd
       0.0049490556 0.18462059 -0.11942884 -0.07459387
000030 bb 75 31 be 48 04 af 3d e2 81 47 bd fe 19 4e bd
       -0.17330067 0.085457385 -0.04870785 -0.050317757
000040 6a d8 d9 bc 31 a4 24 bd e3 ca d4 bd 88 d0 8a 3d
       -0.026592452 -0.040195648 -0.1039026 0.067780554
000050 df 4f 3b 3e 4b 4b 56 be 50 10 80 be be e3 ba bd
       0.18292187 -0.2092716 -0.25012445 -0.091254696
000060 84 c6 f8 3d 70 ef 16 3e b6 61 1e 3d f9 b7 ee bc
       0.12147239 0.14739776 0.038667403 -0.02914046
000070 ab 05 58 3c 50 8a 6d 3d 48 e1 92 3d 28 04 0f 3e
       0.013184945 0.057993233 0.07171875 0.13966429
000080 6c 17 98 bd 3d be 4a be d0 30 70 bd 60 e8 c7 bd
       -0.07426342 -0.19799133 -0.0586403 -0.09761119
000090 7f 33 22 be 8c 1d 92 bd b4 2f a8 3d 7e 6a 9b 3d
       -0.15839957 -0.07134542 0.08212224 0.07588671
0000a0 90 d4 9d 3d 6d 30 cd bd 6a 35 a8 3d a2 be c2 be
       0.07706559 -0.10019002 0.08213313 -0.38036066
0000b0 b7 1c 1f 3d 86 52 ca bd a6 06 77 bd e0 03 cb 3c
       0.038845744 -0.09879021 -0.060309075 0.024782121
0000c0 24 4d be bd c4 6e d2 bd 33 9a 8f bd b6 5f f0 bd
       -0.09292057 -0.10275033 -0.07011833 -0.117370054
0000d0 3d 28 36 3e 09 4e ee 3c 16 12 83 bd 50 0c 2c bd
       0.17788787 0.029089944 -0.06399934 -0.04200393
0000e0 d6 f0 69 be 7f f9 c8 3d 32 9c ef bd 3e b7 22 3e
       -0.22845778 0.098132126 -0.11699714 0.15890214
0000f0 b2 d2 5d 3d 48 11 c1 3d ee 08 b5 bd a9 bd 99 bd
       0.054156013 0.09427124 -0.08839594 -0.07506878
000100 4a 06 27 be a2 bb b3 bd a8 8f 9e 3b c8 7b b1 3d
       -0.16310993 -0.087760225 0.0048389025 0.086661875
000110 38 fc 90 3d 37 75 b2 bd 19 28 fb bb 1b 9e 1e 3e
       0.07079357 -0.08713763 -0.007664692 0.1549
000120 90 73 d2 3d 37 eb d4 bd 63 be ae bd b0 37 03 3e
       0.10275948 -0.10396426 -0.08532407 0.12814212
000130 23 5b aa 3c 76 36 c6 3d 84 84 19 be 21 f8 34 3d
       0.02079541 0.09678356 -0.14991957 0.044181947
000140 0a e7 56 bc 62 9f 8c 3d d9 c7 d8 3c da 29 1f bd
       -0.013116607 0.06866337 0.026462482 -0.038858272
000150 bc 1e 3e 3e 38 34 61 3e ea 3d 2e 3c 57 20 e9 bd
       0.18566412 0.21992576 0.010634879 -0.113831215
000160 04 4c 31 be 2b f5 32 bd c0 d1 0a 3c 11 93 51 3d
       -0.17314154 -0.04369084 0.00847286 0.051165644
000170 fe 27 aa 3d 6c 9d 0b 3e 87 46 d6 3c be 9b b0 bd
       0.08308409 0.1363427 0.026156677 -0.086234555
000180 03 e7 f8 bb 6e 07 a6 bb e7 f1 11 bd 1e 58 fa 3b
       -0.007595898 -0.0050668037 -0.035631087 0.007639899
000190 32 e8 d8 3d d2 08 7c 3d 66 99 52 3e 15 e1 24 be
       0.10591163 0.06153185 0.2056633 -0.16101487
0001a0 b0 b7 46 3d 83 53 5d be 03 d3 2c be 89 6e 84 bd
       0.04851502 -0.21613888 -0.1687737 -0.064663954
0001b0 40 96 66 3d a9 98 ea 3d 19 e0 80 3d ac 46 04 3e
       0.056295633 0.11454899 0.06292743 0.12917584
0001c0 e2 e0 eb 3d 60 37 d6 bd f3 08 2c 3e d5 a2 cf 3c
       0.11517502 -0.10459781 0.16800289 0.025346199
0001d0 66 a9 27 3e 1e b3 6b 3d bf 02 8b 3d 82 1e 5a 3e
       0.16373214 0.057543866 0.06787633 0.213007
0001e0 7a 5f 21 3e 75 24 13 bd 0c 6d d0 bc 6a 75 f5 bc
       0.15759078 -0.03592344 -0.025442623 -0.029963214
0001f0 3f 43 99 bc 56 60 ff bd 83 63 fe bc a6 68 ac 3d
       -0.018708823 -0.124695465 -0.03105331 0.084183976
000200 d4 86 07 3e 22 e4 99 bc 34 50 a7 bb 96 3d 17 bd
       0.13235027 -0.01878554 -0.0051059965 -0.036923967
000210 1d 2c c7 bc a7 fc 5d 3e ef cf 46 3d 90 f3 9b 3c
       -0.024313027 0.2167841 0.048538145 0.019037038
000220 1e bf de 3d fa d1 58 3c 25 01 81 3c 06 6e bb bd
       0.108762965 0.013233656 0.015747616 -0.09151845
000230 2c 4a af bd 3a 53 10 be 93 97 8c bd 2b c5 62 be
       -0.08559069 -0.14094248 -0.06864848 -0.22145526
000240 8e f5 0a 3e df 28 f7 bc 29 8c 51 3d 88 f7 be bd
       0.13570234 -0.030170856 0.051159058 -0.093245566
000250 d2 9c 6a 3e 07 b9 b4 bd aa 2d 35 be 9d 64 b8 3d
       0.22911385 -0.08824354 -0.176932 0.090035655
000260 e7 b9 00 be dd c4 ba bd 88 41 f2 bd cc ec 05 bd
       -0.12570916 -0.0911958 -0.11828905 -0.03269653
000270 08 79 da bd e3 bc 16 3d f1 32 24 be d2 2e d4 3a
       -0.10667616 0.03680123 -0.16035058 0.001618827
000280 bd f8 27 3e 37 1c d8 3d 49 3f 6b 3e 57 d9 3a be
       0.1640348 0.105522566 0.2297336 -0.18246971
000290 30 b0 1f 3e ba d0 cb bd e4 b2 25 3e 6d 26 17 3e
       0.15594554 -0.09951921 0.16181523 0.14760752
0002a0 7e 62 0e 3d 7f f4 a6 3d 45 85 6e bd 69 f7 84 3c
       0.0347619 0.08152103 -0.058232564 0.016231256
0002b0 b8 00 ee bd c9 ba 24 3d 42 db 06 be 15 ba 23 3d
       -0.11621231 0.040217195 -0.13169578 0.039972384
0002c0 3e 34 f0 3d 66 e3 3e bd f9 40 c2 3d 79 74 bf 3d
       0.117287144 -0.046603583 0.09485049 0.09348387
0002d0 41 41 61 be 41 a9 6f bd 59 fd 05 be b4 00 39 3e
       -0.21997549 -0.058511022 -0.13084926 0.18066674
0002e0 73 7f 08 3d 60 b7 09 3e 2b 54 d8 3d db a0 71 bd
       0.03332467 0.13448858 0.10562929 -0.058991294
0002f0 c8 4e 17 be e0 82 ad 3d ce 04 1c be d5 3a 2e bd
       -0.14776146 0.08472228 -0.15236208 -0.042536575
000300 1d df 8f 3d 28 d9 28 be 57 dd 39 bd 92 37 10 be
       0.07024977 -0.16489089 -0.0453771 -0.14083698
000310 c8 2d 74 bc 9c 9a 36 be e9 29 e2 bd d1 1a 51 bd
       -0.014903493 -0.17832416 -0.1104315 -0.051050965
000320 1a 2e 93 3d 26 fe c2 bc ba ca fb bd f1 cc 9f bc
       0.071865276 -0.023802828 -0.122945264 -0.019506903
000330 84 44 08 bd 73 dd 1b 3e f7 7b fc bd 2e cb b4 bd
       -0.033268467 0.15221195 -0.12328332 -0.08827816
000340 ef ea 6b 3e 9e cd a0 3d 36 fa 06 3e 0a 55 8b bd
       0.23038839 0.07851718 0.13181385 -0.06803329
000350 fe 65 2a 3d 4d ff 3a 3e be dd 23 3e 06 4c 4e 3e
       0.041601174 0.18261452 0.16002557 0.20146188
000360 d9 95 1c 3e 9f af 20 3e 6e 8a de 3c e2 d4 28 be
       0.15291537 0.15691994 0.027165618 -0.16487458
000370 9c 74 45 3c 6a 1f a9 3d a9 75 0c be b4 d5 d0 3d
       0.012051728 0.08257945 -0.13716759 0.10197011
000380 10 85 90 bd 70 87 e6 3d 5b d6 18 3e 96 c5 b8 3d
       -0.0705663 0.112563014 0.1492552 0.090220615
000390 c8 3a 7d bd 9e 3c ea bd a7 fd e9 3c 39 3f 17 3e
       -0.061823636 -0.11437343 0.028563334 0.14770211
0003a0 7c ec 1d be 24 8b e2 bd 18 16 b3 bd 3a 0c f2 3d
       -0.15422243 -0.11061695 -0.087444484 0.11818738
0003b0 98 29 49 3c 7f 0b a8 3c 3e f2 68 be ad 0d 6f 3e
       0.012277983 0.020513294 -0.22748658 0.2334506
0003c0 13 7f 18 3e 55 54 7c 3e 13 4d 23 3c 0b 41 d7 bc
       0.14892225 0.24641545 0.009967106 -0.026276132
0003d0 58 9c 8b 3e 4c ec 89 bc e0 07 01 3e b8 2a 54 3e
       0.27267718 -0.016836308 0.1260066 0.20719421
0003e0 30 78 93 3d ca 56 9b 3d 0e 0e 5a be ef 8a af 3b
       0.07200658 0.07584913 -0.21294424 0.0053571383
0003f0 6b 83 45 be ee db 3e 3d 8f 71 62 bd 04 5f 7c 3c
       -0.19288413 0.04659646 -0.05528408 0.015403513

actor.0.bias f4 [28]
000000 4b 5c f1 bd e3 66 e2 bd 75 27 83 3c e7 90 c5 bd
       -0.117851816 -0.1105478 0.016010026 -0.096467786
000010 52 6d 74 3d 2d fc d6 3d 1b 60 00 3d ae dd c0 bd
       0.05967457 0.104973175 0.031341653 -0.09417282
000020 b2 ab d6 3d 6e ed 49 bd 44 f2 03 be 83 86 32 be
       0.10481967 -0.049298696 -0.12885386 -0.17434125
000030 ab 07 9d bd 83 4f 1a be bb ef fe bd 61 4f 4c 3c
       -0.07667478 -0.15069394 -0.12448069 0.012470097
000040 47 37 08 3e 52 73 f9 3d df 53 00 be e2 d1 1c 3e
       0.13302337 0.12180199 -0.12531994 0.15314439
000050 eb bc d1 bb 5e f5 4c bd 26 80 59 3e a3 b9 3e bd
       -0.0064006946 -0.050038688 0.21240291 -0.046563756
000060 c7 4b 47 be 19 57 8f 3d b7 2d 2f 3e 2a 30 55 bc
       -0.194625 0.069990344 0.17107283 -0.0130119715

actor.2.weight f4 [14, 28]
000000 1a bd 2a be d2 52 17 be 5c f1 8b bc 34 97 dc bd
       -0.16673699 -0.14777687 -0.017082863 -0.10771027
000010 bf db 1e be d8 88 89 be 0d 20 88 bd 3b b7 ab bd
       -0.15513514 -0.26862216 -0.06646738 -0.08384558
000020 a0 bc 3f be 1e 1b 1c be d3 09 a0 3c 83 ef 83 3e
       -0.18724298 -0.1524472 0.019535935 0.2576867
000030 b4 3b c6 bc 2a 92 37 bd 2c 67 4d bc 15 e2 89 3a
       -0.02419839 -0.044817127 -0.012536805 0.0010519648
000040 fe 34 8d 3d 71 07 00 3e 28 a6 39 be 95 15 4e 3d
       0.06894873 0.12502839 -0.1812979 0.05031355
000050 d0 3c c8 3d 56 9b 2f be e0 a5 cb bd 79 21 1b be
       0.09777224 -0.171491 -0.099437475 -0.15149488
000060 34 2f 1e 3e ad a5 25 3e 4c 04 d5 3c 3c a8 c1 3d
       0.15447694 0.16176482 0.026003025 0.09455916
000070 70 05 c3 bd fe b5 29 3e 56 fb b9 3d e0 1c 60 3e
       -0.095225215 0.16573331 0.09081142 0.21886015
000080 0a fb 98 3d 1c d2 21 be 40 21 70 bd bf f6 c9 bc
       0.07469757 -0.15802807 -0.05862546 -0.02465379
000090 02 82 61 3d a7 99 87 3c c6 76 ce 3d 87 d2 82 3c
       0.055055626 0.01655276 0.10081248 0.015969528
0000a0 ab b4 5c 3e f2 e5 e9 3d e5 2f 29 be 7e e8 67 be
       0.21553294 0.11420812 -0.16522177 -0.22647282
0000b0 9c 65 61 3e 7d e0 53 3e ac 87 1e bc 4c ca 30 3e
       0.22011417 0.20691104 -0.009675901 0.1726467
0000c0 f9 72 89 3e 6e 34 d0 bd 23 6d 7a 3e a8 d4 ca bb
       0.2684553 -0.1016625 0.24455695 -0.0061899014
0000d0 29 4e 08 bb 8b d2 a8 bd 71 f4 c6 3d 81 57 b8 3d
       -0.002079854 -0.08243283 0.09714592 0.09001065
0000e0 87 76 10 be bd ca 5c bc 34 74 05 3e cd 63 b5 3c
       -0.14107715 -0.013476071 0.13032609 0.022142315
0000f0 5f a8 e5 bc 71 ca b9 3d 69 ba 94 3d 35 fd 9f 3d
       -0.028034387 0.09071816 0.072621174 0.07811967
000100 df e6 fa ba a1 b7 bf bd 9e 63 f3 3d 3f e0 aa 3d
       -0.0019142291 -0.09361196 0.11884235 0.08343553
000110 47 c4 95 bd 52 c3 31 be 46 8a b6 bd c8 5c f3 bd
       -0.073128276 -0.17359665 -0.08913092 -0.11882931
000120 79 03 23 3e 5c 23 f0 3d fb 68 15 be cd 9e 40 3e
       0.15919293 0.11725494 -0.14590828 0.18810578
000130 69 9f a0 3e 16 90 1b bd 95 6a 7f 3e ad da 6d 3e
       0.3137162 -0.037979208 0.24943002 0.2322795
000140 89 cb b7 3c 68 91 38 3d 86 a1 3b 3e 50 3b 29 be
       0.02243592 0.045060545 0.18323335 -0.16526532
000150 81 4a 0e be d2 42 ef bd d5 2d b7 3c cd 16 96 bd
       -0.13895608 -0.11682667 0.022360722 -0.07328568
000160 0a ae 4c 3e 45 db 03 3e 20 83 33 be f3 a0 ed 3d
       0.19988266 0.12876613 -0.17530489 0.11602964
000170 96 70 08 bd e6 f8 ee bd ba ae f8 3d 0a 5d 33 be
       -0.033310495 -0.11668567 0.121427014 -0.1751596
000180 b0 a3 97 3d 9b 2e dd 3d 70 4c fb 3d 36 64 c9 3d
       0.07404268 0.10799905 0.12270439 0.09833567
000190 31 15 3d be 71 28 78 bd f0 e1 2b 3d 19 bb 0d be
       -0.18465115 -0.060585443 0.041963518 -0.13840903
0001a0 4d fc fa bd 08 59 7a 3c a5 51 c9 bd c0 e7 99 3b
       -0.12255154 0.015280016 -0.098300256 0.004696816
0001b0 bb b6 0b be 6a 91 90 3b 3f 01 0e 3d 3b 84 5a bd
       -0.13643925 0.004411866 0.034669157 -0.05334876
0001c0 92 6c 01 bd d9 2b 7a bb 16 00 20 3e d9 74 22 bd
       -0.03159768 -0.0038173108 0.15625033 -0.039662216
0001d0 52 22 87 3d 7c cf 8e 3e 0d 43 14 be cf 74 5c bd
       0.06598343 0.27892673 -0.14478703 -0.053822335
0001e0 d2 92 ad 3d 36 55 e1 3d 0d 07 44 be 2d c3 1d bc
       0.084752694 0.11002581 -0.19143315 -0.009629053
0001f0 d9 59 cf 3d 11 ef 43 be 4a 1f 4a be 72 eb 7e bc
       0.10124559 -0.19134165 -0.19738498 -0.015559064
000200 1d 92 4f 3d 58 a5 04 3e e1 87 b6 bd 79 70 cd bc
       0.050676454 0.12953699 -0.089126356 -0.025078045
000210 3f a3 01 3e 7e fd cf bd 81 3b 08 3d 68 1c e2 3d
       0.1265993 -0.10155772 0.033259872 0.11040574
000220 3f 4b 6d 3e 52 51 64 3b 7c a1 3e bb 78 4a 4c 3e
       0.23173235 0.003483851 -0.0029087951 0.19950283
000230 e6 bf d4 3d 7d af da bd ec 31 09 be 29 e3 da 3d
       0.10388164 -0.10678003 -0.1339795 0.106878586
000240 36 72 8b bd 74 20 1e 3e 49 24 10 be bc 75 18 be
       -0.068088934 0.15442067 -0.14076342 -0.14888662
000250 d2 e9 96 3d f2 1e 7a 3d d7 78 89 3e c4 f8 1b 3e
       0.073688164 0.061064668 0.26850006 0.15231615
000260 db d3 b0 3b 22 c8 30 bd e6 f8 a2 bd 15 78 6a bd
       0.005396349 -0.04315961 -0.0795763 -0.057243425
000270 39 a3 12 3d 59 11 2f 3e 64 76 37 3e 72 34 c0 bd
       0.035800193 0.17096461 0.17916256 -0.09385003
000280 7d 75 9d bd 78 91 5f bc 27 c9 66 be ee ed 1d 3e
       -0.07688425 -0.013645522 -0.22537671 0.15422794
000290 37 58 03 be bb e4 f9 3d c5 e1 bc 3d 86 5a 8c bc
       -0.1282662 0.1220183 0.092227496 -0.017133009
0002a0 6c f3 10 be 5c 37 2a 3e e7 1f 2e 3e d3 77 79 bd
       -0.14155358 0.1662268 0.17004357 -0.06090529
0002b0 23 cd 2d be b3 ce dc bd 01 4c 6b bd 72 63 59 be
       -0.16972785 -0.10781612 -0.05744553 -0.21229342
0002c0 e3 fc 2f 3e 92 03 e9 3d a6 c4 97 bd 07 5b 62 3e
       0.17186312 0.11377634 -0.074105546 0.22105037
0002d0 06 57 71 bd 65 65 3f b9 b2 ce cd 3d a1 b6 95 bd
       -0.058920883 -0.00018252952 0.100491896 -0.07310224
0002e0 6e 17 9f 3d c6 2c 05 3e d0 8b fc bd 9b a4 25 3e
       0.07768141 0.13005361 -0.123313546 0.16176073
0002f0 16 d7 e7 bd 03 65 8d be e5 58 2f 3e 90 35 2d bd
       -0.11320321 -0.27616128 0.17123754 -0.04228741
000300 31 d4 f9 bd 23 9a cc bc 1e 4a da bd a0 cd 26 be
       -0.121986754 -0.024975842 -0.10658668 -0.16289377
000310 5e 2c 24 bc 91 44 dd bd bd e5 5a be 9b 02 f3 bc
       -0.010020344 -0.10804094 -0.213767 -0.029664328
000320 a6 f4 b1 bc 1a e0 61 3a 93 65 24 3e a8 5c 74 bd
       -0.021723103 0.00086164626 0.16054372 -0.059658676
000330 0d 9f a5 bd 28 97 12 3e ca 6d 8a 3e c2 7f f6 bd
       -0.08086977 0.14315474 0.27036887 -0.120360866
000340 f7 fa 2a 3e 69 07 2f 3d 89 1f 8f 3a 8e ea 12 be
       0.16697298 0.042731676 0.0010919432 -0.14347288
000350 f5 2f d5 bd ab ee af bd e3 fc 70 3e 86 01 2b be
       -0.10409538 -0.08590444 0.23533969 -0.166998
000360 03 50 81 3e 74 9e 12 3e 38 6b 08 bd 54 4c de 3d
       0.25256357 0.14318258 -0.033305377 0.10854402
000370 47 8c 2f be b9 b3 4d 3e df 65 0b bd e8 b6 01 3c
       -0.17143355 0.2008809 -0.0340327 0.007917143
000380 7c cb b3 3b 00 64 fa 3d a9 2b d1 bd 19 84 1f 3d
       0.0054869037 0.12226105 -0.10213406 0.038944338
000390 0b 77 88 be 45 bb f0 3d ad 08 3a bc 96 22 9a bd
       -0.26653323 0.11754469 -0.0113546075 -0.07526128
0003a0 50 07 44 3e 8c b8 ca bc 1a 55 ee 3c ef 64 86 3e
       0.19143414 -0.024746202 0.029093314 0.2624888
0003b0 ce 9b ba 3d a2 bb 71 3d 18 3b 0b 3e e8 1d e6 bd
       0.09111749 0.05901683 0.13596761 -0.11236173
0003c0 4c 69 39 be 5f 3e 15 3e c7 96 e9 3c 81 f6 0b be
       -0.18106574 0.14574574 0.028514279 -0.13668253
0003d0 0b 2e 7e 3c bc 50 7a 3c 02 08 4a 3e 6a c1 08 3c
       0.015513907 0.015278038 0.19729617 0.008346895
0003e0 5f 80 3d be 39 60 f8 3d 79 09 4b 3d ed 92 19 be
       -0.18506001 0.12127728 0.04956958 -0.14997454
0003f0 32 87 94 bd 23 27 07 be 61 36 d0 bd 0f f2 f7 3d
       -0.07252349 -0.13198523 -0.10166622 0.12106716

actor.2.bias f4 [14]
000000 2a 6b 1e be 24 45 e2 bb 32 45 80 bc af c4 aa bb
       -0.15470567 -0.006905215 -0.015657995 -0.005211435
000010 33 42 c7 bc da 8b ab bd fe 12 0f bd 0b e8 05 be
       -0.024323558 -0.08376284 -0.03493022 -0.13076799
000020 0e 5b 12 be bb 26 48 3d c5 c3 bd bd 3a ca 35 3d
       -0.14292547 0.04886506 -0.09265856 0.04438231
000030 c3 b7 ce bd 02 9a 3b 3c
       -0.100936435 0.011450293

actor.4.weight f4 [7, 14]
000000 9c ac 8c 3e f2 c9 18 3e 45 e6 f6 3d ed 7b dd 3d
       0.2747544 0.14920786 0.12055639 0.108146526
000010 ee 18 77 3d ab 4c 85 be da f6 39 3e 64 68 26 be
       0.06032651 -0.26035056 0.18160573 -0.1625076
000020 7b 27 47 3e dd f1 83 be b6 49 8a be 54 44 8a 3e
       0.19448654 -0.25770465 -0.27009362 0.27005255
000030 cb b6 b8 bd 51 3a 41 3e ed a7 8f be 13 1e 9d 3e
       -0.0901924 0.18869902 -0.28057805 0.30687007
000040 6c f6 71 3e ee 74 83 be f3 ca 44 3e aa c6 3d 3e
       0.23629159 -0.25675148 0.19218044 0.18532816
000050 a3 c3 0f 3e 8e 3e a5 3c 34 dc 0e 3e 2f bc 82 3e
       0.14039473 0.02017143 0.13951188 0.25534198
000060 9a 84 33 3c 3e c0 01 bd 7d 28 1c 3e f3 70 17 bd
       0.010956908 -0.031677477 0.1524982 -0.03697295
000070 85 81 91 3e b1 d6 94 be ae 32 18 be 44 c8 72 3e
       0.28419128 -0.29070047 -0.14863083 0.23709208
000080 d3 83 62 be 8d 00 62 bd 5f df 5f 3e 68 d9 a7 bb
       -0.221206 -0.055176307 0.21862553 -0.0051223524
000090 61 41 59 3d 01 22 0f be 1a fe f8 bd fd 19 ad bc
       0.053040866 -0.13977815 -0.12157841 -0.021130556
0000a0 07 2d a3 3e 31 ec aa 3c 13 3a 04 3e 93 bb c5 be
       0.3187029 0.020864578 0.12912779 -0.3861967
0000b0 79 0d 6a be 59 21 b4 3e bd f9 1e 3e 7c 43 26 3e
       -0.22856702 0.35181692 0.15524955 0.16236681
0000c0 57 b3 c5 bd 57 ea d6 bd 6e 12 c2 3d 04 ef a9 3d
       -0.09653347 -0.104939155 0.094761714 0.08297542
0000d0 2e e8 05 3e 91 bc a7 3e de ff 41 3e fc 87 81 3e
       0.13076851 0.32761052 0.18945262 0.2529906
0000e0 c9 25 c3 3d 64 43 40 3e a9 29 ff 3d ce e2 62 3e
       0.09528691 0.18775707 0.12459118 0.22156832
0000f0 15 0e bc bd 37 ed b5 bd cd 5f ac 3d f3 d6 a4 3d
       -0.091823734 -0.08883136 0.0841671 0.08048811
000100 14 b6 0c 3e ff 2c a4 bc 78 43 ea bc 1c f0 21 3e
       0.13741332 -0.020040987 -0.028596625 0.1581425
000110 68 0a 5b be 4b 0e 95 be c5 fc 3e be a5 09 3b be
       -0.21390688 -0.29112467 -0.18651111 -0.18265398
000120 21 ae 18 3d 2e f8 e7 3d 3d dc 37 3d 12 9f 13 bc
       0.037275437 0.113266334 0.04488777 -0.009010093
000130 05 e6 a9 be c0 a9 38 3e fa 45 84 be 6c 0d f1 b9
       -0.33183303 0.18033504 -0.25834638 -0.00045977102
000140 cd 34 80 be ff 61 86 be be c9 71 be d9 96 50 be
       -0.25040284 -0.2624664 -0.23612115 -0.20370044
000150 d3 eb 54 be 57 ef be 3d 14 81 9c 3c b4 e0 02 be
       -0.20793085 0.09322994 0.019104518 -0.1278103
000160 25 01 88 3e 05 69 d9 be 92 f5 f3 3c ac 49 a7 be
       0.26563373 -0.42462936 0.029780183 -0.32673395
000170 e3 3e 51 be 6e c6 b5 3d d6 b5 3a be 29 12 7d 3e
       -0.20434146 0.08875738 -0.18233427 0.24713959
000180 ae 84 21 3e b5 a5 b9 3d
       0.1577327 0.09064809

actor.4.bias f4 [7]
000000 b4 a1 f9 bc 82 3e de bd 9e d8 77 bd 07 3f 49 be
       -0.030472614 -0.10851766 -0.060509317 -0.1965295
000010 c1 f3 e0 bd db 53 2e bd de ba 73 3e
       -0.10983992 -0.04256044 0.23801753

critic.0.weight f4 [40, 31]
000000 04 0f 1c be 1b 47 6a be 70 cc cd bc 91 a9 4e 3d
       -0.15240103 -0.22878687 -0.025121897 0.05045468
000010 bc 51 24 3e b7 c5 85 bc 9c e6 62 be 4d 4a 07 3e
       0.16046804 -0.01632963 -0.22158283 0.13211937
000020 44 5a cd 3d df e2 05 be 66 e6 a7 bc c8 8d 99 bd
       0.100269824 -0.13074826 -0.020495605 -0.07497746
000030 58 62 f6 3b 27 40 52 bc 44 9b dd bd a3 3b aa 3d
       0.0075190477 -0.012832678 -0.1082063 0.08312156
000040 09 31 1a bd d0 cb a7 bd b3 2d ad 3b 29 00 16 be
       -0.03764442 -0.08193171 0.005284989 -0.14648499
000050 e7 1e 9b 3d d8 d7 fa 3d bd e8 dd 3c e2 cd a6 3d
       0.075742535 0.122482 0.027088517 0.08144738
000060 bf e4 40 3e 18 25 bd 3d 41 d9 35 be 8a 49 a7 3d
       0.1883726 0.09235591 -0.17758657 0.08168323
000070 63 31 c7 3d 20 89 64 bc cb 5d 8d 3d ae 1a 44 be
       0.09726217 -0.013948709 0.06902655 -0.19150802
000080 06 d9 75 be 61 68 f7 3d d4 53 ff 3d 7a f6 b2 bd
       -0.24008569 0.120804556 0.12467161 -0.08738418
000090 d8 e6 95 bd f1 41 14 3d 94 06 8c 3c d4 8e ee bd
       -0.073194206 0.0361957 0.01709298 -0.11648336
0000a0 cb 1f bf 3c e4 1e e2 3c e1 09 5f bd f9 2b 8b bd
       0.02333059 0.02760262 -0.05445278 -0.067954965
0000b0 33 cd a9 3c 09 90 88 be 20 37 71 3e f5 1d a6 3d
       0.02072773 -0.2667239 0.23556185 0.081111826
0000c0 dc 81 4a be b1 e7 02 bd e1 29 de 3d f9 3e b8 bd
       -0.197761 -0.03195924 0.108478315 -0.08996386
0000d0 60 6b 93 bd e1 16 b1 bd 81 1c 8e 3c b5 6a b4 3d
       -0.071982145 -0.08646942 0.017347576 0.08809415
0000e0 92 54 75 3d 97 04 f1 3c 6b 9f 4b 3d eb 67 52 3d
       0.059895106 0.029421134 0.04971258 0.051368635
0000f0 76 c8 32 3e 68 18 4f 3d dc 4e 8b 3c 31 7a 36 be
       0.17459282 0.050560385 0.017005377 -0.1782005
000100 ce 50 8c bd 1a 4c cf 3c 6b bf b9 bd 7d 2f 9d bd
       -0.0685135 0.025304843 -0.09069713 -0.07675073
000110 11 e5 93 3d 86 a9 14 3e 32 46 14 bd 9f f6 b3 bc
       0.07221425 0.14517793 -0.036199756 -0.021968184
000120 4c 4d b6 3b 72 79 87 bc 32 4c 8a 3d e5 05 42 3e
       0.0055634137 -0.016537402 0.06752814 0.18947561
000130 23 60 e5 bd 44 61 9c 3d ed 31 3d bd 3c 87 4d be
       -0.11199977 0.076357394 -0.04619019 -0.20071119
000140 1f ee 3c 3e d9 1f 81 bd d4 1b 71 3d 5a 58 b6 3d
       0.18450211 -0.063049026 0.05886443 0.089035705
000150 e7 01 21 bd 56 cd 20 be 4a 1a 26 be cb 84 90 3d
       -0.039308455 -0.1570333 -0.16220966 0.07056578
000160 a3 ae eb 3d 19 91 8f 3d ff 1f e7 bd 52 fe c5 bd
       0.11507919 0.07010097 -0.112854 -0.096676484
000170 09 84 e8 bd 1d f4 e9 3d 10 0e 10 be c6 6a 15 be
       -0.11353309 0.11423514 -0.14067864 -0.14591512
000180 2b 71 22 3e 13 71 82 bd 5b 4d f0 3d 91 db 2a 3e
       0.15863483 -0.063692234 0.117335044 0.1668532
000190 0e 6b 03 3d 7e 4c 54 bd 64 61 35 3b 16 3c a1 bd
       0.032084517 -0.05183076 0.0027676458 -0.078727886
0001a0 ce d6 c8 3d 10 c8 d4 bd 37 47 2e bc 87 a7 4f 3e
       0.09806596 -0.103897214 -0.010637096 0.2027875
0001b0 cd de a8 bd 68 44 ea 3d 46 b8 88 be 6f dd 0e 3e
       -0.08245621 0.11438829 -0.2670309 0.13951658
0001c0 43 36 00 bc 93 82 86 bd ad f6 67 be 37 aa 6d 3e
       -0.007825437 -0.06567874 -0.22652693 0.23209463
0001d0 23 d9 ee bd 88 f2 06 3e ff 14 8c bd 2e 11 46 be
       -0.11662509 0.13178456 -0.06839942 -0.19342491
0001e0 7f ca 1f 3e ea c7 39 3e 28 94 3e be f3 ce 78 3d
       0.1560459 0.18142667 -0.18611205 0.060744237
0001f0 e3 8d 08 3d e5 65 11 3e 89 f0 0c be 34 97 0b be
       0.03333844 0.14199026 -0.13763632 -0.13631898
000200 80 b9 fb bd f1 35 d9 3d 6f d6 cc 3d 95 36 df 3d
       -0.12291241 0.10605992 0.100018375 0.108990826
000210 60 02 91 3d c4 4e 8e 3d b8 6f 5e 3d d4 ce da 3b
       0.07080531 0.06948617 0.054305762 0.006677488
000220 ee f4 1d 3d 94 0d b1 bd dc c6 ca bb 6f 01 16 be
       0.03856366 -0.08645168 -0.0061882567 -0.14648984
000230 a0 ba 07 bd 27 18 6d 3e f5 d0 2c 3d f0 7d d2 3c
       -0.033136964 0.23153745 0.042191464 0.025694817
000240 13 2a 55 be 06 ce ec bd 15 d9 0d 3d d2 e9 a9 3d
       -0.20816831 -0.11562733 0.034630854 0.08296551
000250 f6 37 71 bc 76 d7 d1 bd 25 e8 ab 3d 6e 69 7a bd
       -0.014722815 -0.10246174 0.083938874 -0.0611357
000260 d0 74 02 3e 7e 3b 73 be 84 70 4e 3d 0f 1e 6d be
       0.12739873 -0.23753163 0.050400272 -0.23155998
000270 bc de d5 3d b7 3e a2 3d 58 3b 57 be 73 c9 e9 3d
       0.10442874 0.07922118 -0.21018732 0.114153765
000280 17 27 84 bc 9f cf ff bc ef bc 58 be 8f 5c 54 3d
       -0.01613192 -0.031226931 -0.21165822 0.051846083
000290 72 22 56 bd 99 8a 35 be a1 ab 43 be a4 6d 1c be
       -0.052278943 -0.17728652 -0.1910844 -0.152762
0002a0 95 99 13 bd db 8c dc bc bf 7e 81 3d 4d fd 44 be
       -0.03603514 -0.026922634 0.06323003 -0.19237252
0002b0 6d 76 7f 3d 50 2b fc 3d 0f 1e c6 bd 04 a8 2f 3e
       0.0623688 0.12312949 -0.09673702 0.17153937
0002c0 f4 1e b8 3e 92 c7 92 3d e9 59 cc 3e 89 87 94 3b
       0.35961115 0.07166971 0.39912346 0.0045327586
0002d0 62 23 8c 3d 9d 63 39 be 4f fb a9 bd 35 d3 fa bd
       0.06842686 -0.18104406 -0.082998864 -0.12247316
0002e0 bb 25 a4 3d be 5e 14 3d ed 2a 45 3e fc b8 d9 bc
       0.08015009 0.036223166 0.19254656 -0.026577465
0002f0 88 0c 7a 3d 3b 14 af 3d 22 99 75 3d 60 13 d3 bc
       0.061047107 0.085487805 0.059960492 -0.025766075
000300 9b 47 b2 3d c1 45 ed ba f9 ef c7 3d 93 de 1a be
       0.08705064 -0.0018102453 0.09762568 -0.15123968
000310 cd 25 a0 bd a4 d3 60 bd 59 da 62 3c 84 86 7d 3d
       -0.0781971 -0.054889336 0.013846003 0.061895862
000320 7f 02 2b 3e 52 3e 9f be 72 c5 1d bc a2 fa 36 3e
       0.16700171 -0.31102234 -0.009629594 0.17869046
000330 01 63 8e bc 86 33 a3 3c b8 75 d4 bd 84 82 12 3d
       -0.017381193 0.01992203 -0.103740156 0.035769
000340 e3 07 1f 3e a0 28 04 3e b1 e7 40 3d e9 38 b2 3a
       0.15530352 0.12906122 0.04709596 0.0013597283
000350 fc 16 86 bd 2a 34 a5 3d c8 7b 5b be 87 26 27 bd
       -0.06547353 0.0806659 -0.21433938 -0.040808227
000360 4d cf d8 3c 35 02 01 be ad 70 75 bb f8 70 66 be
       0.026466036 -0.12598498 -0.0037451193 -0.22504032
000370 de 7f 67 3e 5f 4a f9 bd 3c c5 0a 3d 09 71 28 3d
       0.22607371 -0.12172388 0.033879504 0.041123424
000380 18 6d 5b be a9 3e 9c bd 0e c3 66 bd 6c 09 46 bd
       -0.21428335 -0.07629139 -0.056338362 -0.04834883
000390 09 de 57 3c dd 76 be bc 30 03 93 3c 8e e4 8c be
       0.013175496 -0.023250038 0.017945856 -0.27518123
0003a0 ca b9 94 3d 87 9a 1d be 74 ef d2 bd 57 15 16 3d
       0.07261999 -0.15390979 -0.10299578 0.036641445
0003b0 db 4d 6e bb fe b5 81 3a 66 cc f4 bd d7 47 11 3e
       -0.0036362323 0.0009896157 -0.119530484 0.14187561
0003c0 be e3 13 bd 24 2f 19 be d0 47 2f be 9e dd 10 be
       -0.036105864 -0.14959389 -0.17117238 -0.1414704
0003d0 06 38 d3 3d 3c a7 2c bd 67 61 6d bd aa 9d ee 3d
       0.1031342 -0.042151675 -0.05795422 0.11651166
0003e0 75 aa 88 be 34 43 2c be b9 fd a4 3e d2 fb 82 3e
       -0.26692548 -0.16822511 0.32224825 0.2558275
0003f0 ae bd 0d bc e7 8f 5e 3e 4d 53 8f bd e8 5e 02 3d
       -0.00865118 0.21734582 -0.0699831 0.03182879

critic.0.bias f4 [40]
000000 76 cf a9 bc 29 4b 95 3e 99 1c 56 be cc 21 aa bd
       -0.020728808 0.29158905 -0.20909347 -0.083072275
000010 3c c6 96 3d ca 9e 30 3d f6 2f 6c be 8d f2 64 bd
       0.07362029 0.043120183 -0.2306517 -0.055895377
000020 ff 81 2b 3e 73 ad 87 be ec 6e 40 3d 4a 6f a0 bb
       0.16748808 -0.2649952 0.046980783 -0.004896079
000030 34 74 06 3d d1 fe d1 bc 99 42 e9 bd 95 6a 92 3c
       0.032825664 -0.025634201 -0.113896556 0.017873088
000040 e6 1b 14 bc 93 a6 56 bd 17 71 2e be a0 a5 b1 bd
       -0.009039855 -0.05240495 -0.17035328 -0.086741686
000050 c3 65 0d 3e cd d2 76 be c3 02 aa bd 6e 60 9b 3d
       0.1380835 -0.24103852 -0.08301308 0.07586752
000060 1d dc 79 bd 54 7e eb bc 62 1c 54 3d a7 89 6b 3d
       -0.061000932 -0.028746761 0.05178488 0.057504322
000070 8f b5 f3 3d 2b 5d 6a 3c 7c e4 38 bd 8d 80 a0 3d
       0.11899864 0.01430444 -0.045139775 0.07837019
000080 6c f8 c2 3d 46 7a 16 be 1a c0 ad bd ec f8 db bd
       0.09520039 -0.14695081 -0.08483906 -0.107408375
000090 f1 6d 05 bd 48 dc 89 bd 45 7c 48 3c 29 f3 6e 3e
       -0.03257555 -0.067314684 0.012236659 0.23334946

critic.2.weight f4 [32, 40]
000000 ab ec 0a bc ae a0 87 bd 64 e4 47 3d 3f ca 2f bd
       -0.008479278 -0.06622444 0.048801795 -0.042917486
000010 9b d5 6e 3d dc 32 68 3c 9b 14 df 3d 55 d4 0d bc
       0.05830918 0.014172282 0.10892602 -0.008656581
000020 98 b6 63 bc 3e c3 da 3d 78 b7 2f 3e be 46 85 3c
       -0.013898514 0.10681771 0.17159832 0.016269084
000030 2d 19 7a 3d b0 ce 0f be ab 90 7e 3e 3b ab 7f bc
       0.061059166 -0.14043689 0.24859874 -0.015604789
000040 68 66 f9 bc c1 80 18 bd 24 7e 68 3d fd 5d e2 3d
       -0.030444339 -0.037232164 0.056760922 0.11053083
000050 d5 16 f7 bd d5 c4 a6 3b e6 73 36 bd 52 1c 59 be
       -0.12064902 0.005089382 -0.044544123 -0.2120221
000060 50 94 d3 3c bb 29 d8 3d 78 c3 af 3c 8a 16 bb 3d
       0.025827557 0.105548345 0.021455511 0.09135158
000070 23 84 94 3d 89 c4 fa 3d e4 3c 1e 3e d5 f4 44 be
       0.072517656 0.12244517 0.15452915 -0.19234021
000080 66 f5 e4 bc 75 44 76 3c 81 49 05 3b b8 39 5e bd
       -0.027949046 0.01503097 0.0020338001 -0.054254264
000090 b4 ed a8 3d 11 ed 54 be 85 55 ed 3c eb b7 21 3e
       0.08248463 -0.20793559 0.028971443 0.15792815
0000a0 c3 e7 27 bd 4c 14 a9 3d 7f cb 2f be a1 d5 3d be
       -0.04099251 0.082558244 -0.17167471 -0.18538524
0000b0 f5 27 9b bc 3c 66 2a 3d b7 35 c6 bd 9a 27 07 3c
       -0.018939951 0.041601405 -0.09678214 0.008249188
0000c0 51 ee 1a 3e a2 e8 b5 bd e3 13 98 be b9 50 a5 3d
       0.15129973 -0.08882262 -0.29702672 0.08072037
0000d0 0b 24 1c 3e 2c 21 46 3d f3 e1 9f be 8c 89 6c bd
       0.15248124 0.04837148 -0.31227073 -0.057748362
0000e0 de 93 f9 bd 59 3c 06 3e 31 35 0d be 0c a3 db 3d
       -0.121864066 0.13108958 -0.13789822 0.10724458
0000f0 19 78 2a 3e a6 92 bf bd a8 b3 03 bd 6f b3 8a 3e
       0.16647376 -0.09354143 -0.032153755 0.27090022
000100 ef 17 bc 3d 63 3b 19 be 3c 83 19 bd 6f ba a8 3d
       0.091842525 -0.1496406 -0.03747867 0.082386844
000110 7c 12 c1 bc cd f7 b4 bd aa 73 b2 bd 81 d0 15 3e
       -0.023568384 -0.08836327 -0.087134674 0.14630319
000120 b7 f3 cc bc e6 16 b7 3d 78 74 6a 3c 10 0e d9 3c
       -0.025018556 0.089399144 0.014309995 0.026495963
000130 93 0c 44 3d 39 05 6c 3e a8 bc 74 bc 67 48 6d 3d
       0.047863554 0.23048867 -0.014937557 0.057930376
000140 00 75 96 3d dc 1c 60 bb a6 f0 3e 3d 8d 97 0b 3e
       0.07346535 -0.003419689 0.04661622 0.13632031
000150 82 ad ea 3d 05 83 a4 3d 50 80 d4 bc 44 44 ea bd
       0.11458875 0.080328025 -0.02594009 -0.11438802
000160 cf 36 d0 bd 78 ea 41 3e fe c2 6b 3e d5 be 54 be
       -0.10166704 0.18937099 0.23023602 -0.20775922
000170 36 8e e0 bd a7 e9 b4 bc 81 a6 2e 3e 29 71 3c be
       -0.109646246 -0.02208407 0.17055704 -0.18402542
000180 4d d8 8a bd 85 cd a5 3d e4 09 12 3e 4c dd 0a bd
       -0.06779537 0.0809584 0.14261585 -0.03390245
000190 a9 6d 49 be 73 dc 3f 3e 00 4c 6a be e4 a1 cc bd
       -0.19670738 0.18736438 -0.22880554 -0.09991816
0001a0 eb dc 05 3e 25 4e e1 3d ac 8f bc bd 55 5a b8 bd
       0.13072555 0.11001233 -0.09207091 -0.090016045
0001b0 9f cc fa bd 37 6b 95 3d 13 3a 14 3c 6d c7 50 3c
       -0.122460596 0.0729584 0.009047049 0.012742859
0001c0 f5 95 d6 3c 18 e5 49 3e ed 9f 58 bd 8c 52 10 be
       0.026194552 0.19716299 -0.052886892 -0.14093989
0001d0 3e cc ce bd 41 e3 db bd c3 9b d5 3b 2c 05 d4 3c
       -0.1009755 -0.107367046 0.0065188124 0.025881372
0001e0 2e 73 3a 3e 40 21 5e bb a1 b3 ca 3d 1e 9c 11 be
       0.18208 -0.003389433 0.09897543 -0.1421971
0001f0 78 ef ca bd 46 05 0d 3e af 1c 57 bd 65 62 28 3e
       -0.09908956 0.13771543 -0.05251759 0.16443785
000200 5e 2c dc 3d 5c 82 82 bd 3d 21 87 be 6d 76 07 3e
       0.1075065 -0.0637252 -0.26392546 0.1322877
000210 96 94 16 bd 59 8c 61 3e df fe ba be 90 87 72 bd
       -0.036762796 0.22026195 -0.36522576 -0.059211314
000220 61 05 8a 3d d6 2b 09 3e e5 7c ae 3c 0d 1a af bd
       0.06739307 0.13395628 0.021299789 -0.08549891
000230 5c 6c 4b 3d 30 80 70 3d 42 a2 53 3e ff 01 89 bd
       0.049663886 0.058716 0.20667365 -0.06689834
000240 4c 86 9b 3d b4 b8 41 3d 0f 68 ba 3d f1 89 2a 3e
       0.075939745 0.047295287 0.09101879 0.16654183
000250 75 e5 6e 39 7d 33 da bd 1f 6c 0a 3d 38 32 3d 3e
       0.00022782928 -0.10654352 0.03379452 0.18476188
000260 cf 0c 87 bd 65 3d 19 be 0a fc 93 3d 1c ad 2f 3e
       -0.0659424 -0.14964826 0.07225807 0.1715588
000270 de 7b 31 3d 2e d8 b9 3d 6e cf 35 3d db 00 02 3e
       0.04333102 0.09074436 0.044387273 0.12695639
000280 2a 7f d0 bd 1f 86 94 3c 50 5a 14 3e 8c 6c 98 3e
       -0.101805046 0.01813036 0.14487576 0.29770315
000290 67 c8 20 3e 2d 99 99 3d 41 ba 52 3e 89 83 d7 3d
       0.15701447 0.07499919 0.20578863 0.10523135
0002a0 aa 49 2a be 37 d3 11 3e 4d 2d 55 3e b8 56 b7 bc
       -0.16629663 0.14240728 0.20818062 -0.022380218
0002b0 4f 8e d0 3d 0e 5b 15 be e5 a4 a0 3e 44 1f b4 bb
       0.10183393 -0.14585516 0.31375805 -0.005496891
0002c0 9b e9 78 3d c7 c7 19 be c9 50 0b be 71 4c 32 3e
       0.06076966 -0.15017615 -0.13605036 0.17411973
0002d0 12 7c 2c be 3a 18 39 3c 8f 71 20 be 43 3e 30 be
       -0.16844204 0.01129728 -0.15668319 -0.17211251
0002e0 b4 1a c1 3d 8f 8f cf 3d 71 5e 4b be ec 82 f9 ba
       0.09428921 0.101348035 -0.19860245 -0.001903621
0002f0 d7 bc 5b bc 6b 4a c7 3d e9 33 59 be b2 c3 cd bd
       -0.013411722 0.09730991 -0.21211208 -0.100470915
000300 36 17 59 bc 21 b5 17 bc 99 bb 0c be 4b 9b c5 bd
       -0.013250163 -0.009259493 -0.13743438 -0.096487604
000310 a7 0a 5c be ee 4a a4 3d a9 d4 87 3e e6 59 87 3d
       -0.21488439 0.08022104 0.26529434 0.06608944
000320 a7 8f 3d be dd e6 0f be cc 1b 22 3d e7 af 26 3e
       -0.1851183 -0.14052911 0.03957729 0.16278039
000330 0f eb 98 3d 64 7d 4d bd 77 07 f4 3d 4c e3 0a be
       0.07466709 -0.05016841 0.11915486 -0.1356327
000340 b2 70 0d be 98 40 ac bd af 75 d0 3d 92 7f 93 bd
       -0.13812521 -0.08410758 0.10178696 -0.072020665
000350 aa 88 5d 3d ae 5b 2a be 01 c4 66 3e f1 99 10 be
       0.05408541 -0.16636536 0.22535707 -0.14121224
000360 58 d8 9b 3d eb f7 00 3e e7 17 3a 3e 5b e7 94 bd
       0.07609624 0.12594573 0.1817318 -0.0727069
000370 86 cf a6 bd fd 95 c5 3d 35 b4 fa bc 14 15 b0 bd
       -0.08145051 0.096477486 -0.030603508 -0.0859777
000380 ce c7 c3 3d d7 3d 77 3e 15 4b ff 3d 38 d1 34 bc
       0.09559594 0.24144684 0.12465493 -0.01103621
000390 20 d3 bc bd a2 bc e1 3c f8 4d dc bc cf cf dc bd
       -0.092199564 0.027555767 -0.026892647 -0.10781824
0003a0 d0 6d ae bd 83 f7 37 3d 08 b6 f0 bd d2 07 b8 3d
       -0.08517039 0.04491378 -0.1175347 0.089858666
0003b0 22 a1 69 bc 02 2f ff bd 42 e1 97 bc 13 43 22 be
       -0.014259608 -0.12460138 -0.018540028 -0.158459
0003c0 56 37 14 bd 39 30 8a 3d de 0a 1f 3e e9 57 33 bd
       -0.036185585 0.06747479 0.15531489 -0.04378501
0003d0 19 43 9d bc 79 1b 63 bd c1 00 1d be e3 8f a4 3c
       -0.019197034 -0.05544612 -0.15332319 0.020088142
0003e0 69 dc 3e 3e df 16 aa bd 20 71 0d be ec 83 1e 3e
       0.18638767 -0.083051436 -0.13812685 0.15480012
0003f0 52 1d 08 be 6a 2e c1 3d 04 65 c9 bd 6b 1b 02 3e
       -0.13292435 0.09432681 -0.0983372 0.12705772

critic.2.bias f4 [32]
000000 d6 bc cb bc c8 cc 16 3e 13 a9 72 3c df ba b8 3a
       -0.024870317 0.14726555 0.014810818 0.0014093778
000010 2f fb 1a be 74 35 03 be 99 cd f9 bb 3a 19 f6 bc
       -0.15134881 -0.1281336 -0.007623386 -0.030041326
000020 73 5d 3d bc 34 74 bd bd b9 c9 9d 3d e1 88 04 3c
       -0.011557925 -0.092506796 0.07704491 0.008089275
000030 46 4e 90 bc c4 2c e8 3d 38 40 f9 3d a5 4f 0b bd
       -0.017615449 0.11336663 0.12170452 -0.0340115
000040 bc 93 d1 bc 58 9b 1c 3e 77 ee 07 be 0f 2b 18 bd
       -0.02558314 0.15293634 -0.13274561 -0.03715044
000050 6f 33 22 3e bd a5 c3 bd 09 76 c5 3c 5f fa 70 bc
       0.15839933 -0.095530964 0.024104135 -0.014708131
000060 1a 4d f5 3d 87 f2 38 3e 77 3a 1b 3e 8e 8f b1 3d
       0.119775966 0.18061267 0.15159021 0.08669959
000070 b5 6d 27 3e ea 9d 99 3e 46 88 bf 3d 9c b0 56 be
       0.16350444 0.3000329 0.09352164 -0.20965809

critic.4.weight f4 [10, 32]
000000 8d a4 33 3e 88 41 69 be a7 7c 20 3d be ef 3e be
       0.1754324 -0.22778904 0.039181378 -0.18646142
000010 93 46 17 3e 60 04 0f bd 06 58 5b 3b 23 64 1c 3d
       0.14773016 -0.03491628 0.0033469214 0.038181435
000020 b4 c3 cb 3c 43 66 50 bd 2c ca d8 3d ee e4 18 be
       0.024873592 -0.050878774 0.10585436 -0.1493108
000030 03 40 fe bc 6f d5 72 3d 23 38 e4 3c 9f a0 0f be
       -0.031036383 0.059285577 0.0278588 -0.14026116
000040 8e b1 2a 3e ac 8a 7a 3c 49 7a 42 3e 7d 3d 75 bc
       0.16669294 0.015291851 0.1899196 -0.014968273
000050 82 a0 a1 3d 65 8d 56 3a 8e 32 19 bc e6 6b 65 bd
       0.078919426 0.00081845216 -0.009350432 -0.056011103
000060 2c 1a 80 bd 45 8a 21 3e 06 ac 48 bd 99 07 a4 3d
       -0.06254992 0.15775402 -0.04899218 0.08009262
000070 19 95 d6 bd 8d 14 39 be 32 f8 78 3d fe 97 03 be
       -0.10477657 -0.18074246 0.060783572 -0.12850949
000080 70 66 39 3e ca e6 83 bd 55 6e 1b bc 30 4f 80 be
       0.18105483 -0.06440504 -0.009486754 -0.25060415
000090 f9 4f 26 3e ea a7 d5 bc 39 a9 89 3d ec 09 1c 3d
       0.16241445 -0.026081044 0.0672173 0.0380954
0000a0 0a 9c a8 3c 57 9c 07 3e 26 40 ae 3d eb b8 8a bd
       0.020582218 0.13243233 0.08508329 -0.067735516
0000b0 2c ab 18 be e6 34 e5 3a ce 6b 3d be d2 b6 eb 3a
       -0.14909047 0.0017487078 -0.18498155 0.0017983562
0000c0 a6 b0 b2 3d c4 fa 36 bd 12 a0 51 3c 93 65 9b bd
       0.08725099 -0.044672742 0.012794511 -0.07587733
0000d0 88 f2 ef 3d e3 f2 29 3d cb 8a 00 3e 97 9f 0f bd
       0.11716181 0.0414914 0.12552945 -0.035064306
0000e0 c8 53 a3 bd 6b b6 d9 bd 18 d3 ad 3d 6e 70 24 3e
       -0.079749644 -0.106304966 0.084875286 0.16058514
0000f0 5e 6c de bd 30 de 75 be c9 a3 21 3d bb f5 e1 3d
       -0.10860513 -0.24010539 0.03946284 0.110331975
000100 c7 33 c3 bd 5f 19 c3 3d 65 9c 86 bd d2 5e cb 3b
       -0.0953136 0.095263235 -0.06572799 0.006206372
000110 7e 0c b8 3c fa 9c 5d 3d 1a 2d 09 3e e2 49 cc bd
       0.022466894 0.054104783 0.13396111 -0.099750295
000120 dd ef d1 bc a3 16 60 be ff 23 5d 3e e4 cd 01 3d
       -0.025627071 -0.21883635 0.21595763 0.031690493
000130 65 03 6e bc c4 0a f0 3d 44 f3 2a 3e 9e f5 74 be
       -0.0145271765 0.117208034 0.16694361 -0.2392182
000140 48 6e 20 be 99 af 8c 3c bc 0a a5 bd c2 8d 2f 3e
       -0.15667069 0.017173575 -0.08058688 0.1714392
000150 d9 30 0c 3d 70 35 27 be 61 11 5b bc 82 b5 98 3d
       0.034226272 -0.16328979 -0.013370843 0.07456495
000160 23 86 1b 3e 4c ce 95 bc 3b 3b b3 3b 4b 1b 9a bd
       0.15187888 -0.018286847 0.0054697073 -0.07524737
000170 02 c3 d6 3d 44 e3 d7 bd 8b b1 4e be ea 2c 09 3d
       0.104864135 -0.10541394 -0.20184915 0.0334901
000180 92 6b 99 bd 0c 1a ef 3d 8b 26 db bd 0a 67 5f 3e
       -0.074912205 0.1167489 -0.10700711 0.2181665
000190 ce b8 c5 bd ee 20 61 be 67 23 c0 bc 79 a2 d6 3b
       -0.09654389 -0.21985218 -0.023454381 0.00655013
0001a0 b2 d1 d3 3d 1f 4f 56 bd 9a 1c f6 3d 29 ad f9 bc
       0.103427306 -0.05232155 0.12017174 -0.030478077
0001b0 65 a6 23 bd 45 9e a2 bd 36 1a 8f 3e 16 49 7f be
       -0.039953608 -0.07940344 0.27949685 -0.24930224
0001c0 24 74 62 be 25 84 31 3d 46 f3 ec 3d 15 d4 8c 3e
       -0.22114617 0.043338913 0.11569838 0.27505556
0001d0 81 4f 77 3e e5 09 a6 3d 4d f3 7c 3e 44 2b 05 be
       0.24151422 0.08107356 0.24702187 -0.13004786
0001e0 aa 16 8a 3e 1d 82 df bd 1c 64 10 3e 20 b2 50 be
       0.26970416 -0.10913489 0.14100689 -0.2038045
0001f0 4a 46 c0 bd f5 5d 8a bb aa 58 aa bd 5e c3 55 be
       -0.093884066 -0.0042226263 -0.083176926 -0.20875308
000200 5e 85 87 3d 4b 5d 14 3e 87 42 8c bc f1 ed b7 3d
       0.06617235 0.14488713 -0.017121566 0.089809306
000210 6e 94 cd 3d e0 d0 f1 bd 6a 18 a4 3d 0d b7 13 3e
       0.10038076 -0.11807418 0.08012469 0.14425297
000220 0b 50 e0 bc b6 15 0a be 8f e2 86 3d bd 2c 3d be
       -0.027381917 -0.13484845 0.06586181 -0.18474098
000230 94 e0 93 bd 92 8e 01 3e 63 6f fb 3d 2f 99 93 3d
       -0.07220569 0.12652043 0.12277105 0.07206952
000240 4f 89 a5 bd dc 53 34 be 79 35 45 be 3e 40 0c 3e
       -0.0808283 -0.17610115 -0.1925868 0.13696381
000250 09 32 0c 3e 56 c8 eb bd da a6 3d bc b1 23 b5 3d
       0.13690962 -0.115128204 -0.011575425 0.08844698
000260 bd 97 9b bc e8 87 a1 3d 8b c2 26 3e 73 8e dc bc
       -0.018993253 0.0788725 0.1628515 -0.026923394
000270 72 6e 53 3e e4 d9 fb 3d 6b 1f 96 bd 18 19 6a 3d
       0.206476 0.12297419 -0.07330211 0.057152838
000280 73 f7 0c be b4 77 fa bd 07 f6 e9 3d a7 1c 85 bd
       -0.1376627 -0.12229863 0.11423879 -0.064996056
000290 d8 9f aa 3d 55 64 c9 bd ec d5 28 be f3 f4 86 3a
       0.08331269 -0.0983359 -0.16487855 0.0010296389
0002a0 5c ba 85 3d be 4c 18 3e cc e1 97 bb 72 de e0 3c
       0.06529686 0.14873025 -0.0046350714 0.02744982
0002b0 fd 77 27 3c 10 28 6d 3d 79 f2 09 3d 0a 53 10 be
       0.0102214785 0.057899535 0.033678506 -0.14094177
0002c0 76 31 df bd 7b b2 c3 bd f4 c8 28 bd ac bb dd 3d
       -0.10898106 -0.09555527 -0.04120727 0.10826811
0002d0 60 ed 44 be 62 a8 c3 3d be c9 4c be 83 9d 8a 3d
       -0.19231176 0.09553601 -0.19998834 0.06768324
0002e0 ac 38 09 b8 c7 55 b0 bd 41 04 21 be 79 3e 9d 3d
       -3.2716125e-05 -0.08610111 -0.15724279 0.07677931
0002f0 9b 7d 01 be 93 d7 25 bc de b9 08 3e b7 ef bf 3c
       -0.12645571 -0.010122198 0.13352153 0.023429735
000300 94 e2 50 3c 29 61 f2 bd ef dd ce 3d d5 7f 39 bd
       0.012749333 -0.11834938 0.10100924 -0.045287926
000310 dd 3b 33 3e 2f a8 a6 3d 94 96 91 3c 4d d2 2a be
       0.17503305 0.08137547 0.017771997 -0.16681786
000320 48 5b 32 be e5 2f 47 3e f1 40 a1 3d 8c 12 12 3e
       -0.17417634 0.19451864 0.07873715 0.14264888
000330 9a 80 c2 3d 6d dc c2 bd fb 62 2e bd 67 00 5f bd
       0.09497185 -0.09514699 -0.042574864 -0.054443743
000340 a2 aa b6 bd 08 11 22 bd 45 d8 0c bd 0e b8 05 3e
       -0.089192644 -0.039567024 -0.03438594 0.13058493
000350 f5 f8 75 bc b2 af 82 bd 53 d3 f3 3d 9f 1d 09 3e
       -0.015012969 -0.063811675 0.11905541 0.13390206
000360 3f d5 bb 3d 49 d6 1d 3e c0 15 16 be bf 56 f1 3d
       0.09171533 0.15413775 -0.14656734 0.11784124
000370 69 e3 74 bd 7e 70 74 be f6 4f 1d be 42 9c 30 3c
       -0.059787188 -0.23871037 -0.15362534 0.010779442
000380 1a 01 00 be 43 d2 76 3e 19 0b 95 be 83 da 3a 3e
       -0.1250042 0.24103646 -0.2911003 0.18247418
000390 3e 89 84 be c2 6a 8e be c1 c9 52 3e 9b 9e 94 3e
       -0.25885957 -0.27815825 0.20584776 0.29027256
0003a0 cf f0 3c 3e 35 c4 80 be 3e 43 56 3e f3 b7 54 3e
       0.18451236 -0.25149694 0.20924088 0.20773296
0003b0 37 ad 3a 3d 34 05 76 3e a5 24 80 3e 54 a3 51 be
       0.045575347 0.24025422 0.25027958 -0.20472461
0003c0 19 77 69 be b0 98 7c 3e a4 ab 84 be 64 3e 9f bb
       -0.22799338 0.2466762 -0.259122 -0.0048597325
0003d0 d4 45 a7 3e bd 0e 68 be 0a e2 76 3e af 40 ef ba
       0.32670462 -0.22661872 0.24109665 -0.001825353
0003e0 97 a7 79 3e c5 f3 46 3d 8e 3b d1 3e 2c bb 12 be
       0.24380337 0.04857232 0.4086575 -0.14329213
0003f0 22 85 6a be c5 e8 50 3e b8 c4 27 bd 83 db 82 be
       -0.22902349 0.20401295 -0.04095909 -0.255581

critic.4.bias f4 [10]
000000 9f 74 6a be 82 90 81 be 4a d5 93 ba ab 7d 1d 3d
       -0.2289605 -0.25305563 -0.0011278775 0.038449924
000010 5a 2e bd bc fa 35 95 be 76 b2 21 be 08 a7 69 3e
       -0.023093391 -0.29142743 -0.15790734 0.22817624
000020 0a 9a f8 bd 60 f2 28 3e
       -0.121387556 0.16498709

critic.6.weight f4 [1, 10]
000000 22 b9 00 be 7f b8 a0 be 66 0c 38 be fe 8c 39 be
       -0.12570623 -0.3139076 -0.1797348 -0.1812019
000010 a3 ce 55 3d 4b 14 26 be ff 75 d0 bd 43 59 80 be
       0.052199017 -0.16218679 -0.10178756 -0.250681
000020 7d 5b 20 be 16 ee f3 3d
       -0.156599 0.11910646
