Weight/PPO_continuous.pth (torch_old, 46024 bytes, 17 tensors)

actor.0.weight f4 [40, 94]
0.014448335 0.043231066 0.006641078 0.14559144 -0.016454965 0.072784595 -0.10073422 -0.030862773
0.043899603 -0.05014473 0.14388667 -0.01720062 0.13138442 -0.04110986 -0.030466422 -0.060779076
0.10917988 0.07012357 -0.06367107 0.080768995 -0.10122899 -0.11303181 -0.08698727 0.10177918
-0.02477647 -0.07742497 0.025109466 -0.11631013 -0.10275839 -0.14771044 0.13639824 -0.028538395
0.086076684 0.068423636 -0.08960552 -0.004619839 -0.028925544 0.092764705 0.067887746 -0.019270131
0.079503044 -0.08110693 -0.028194487 0.047978736 0.0748949 0.0069421674 0.072109304 0.07195997
-0.0004610385 -0.08619153 -0.09102281 0.00045336346 0.023107858 0.17541139 0.12614815 -0.0004169726
-0.022566652 0.008408208 0.07154761 -0.023305217 0.0661512 -0.08422306 0.015670052 -0.083130434
0.06532458 -0.009381982 0.13158657 -0.0906479 -0.14565165 -0.08067836 0.0065057008 -0.05684032
0.19216786 0.042207636 -0.0142000215 -0.19620381 -0.10395596 0.11140725 0.09851478 -0.06758826
-0.10480761 -0.11862926 0.047928516 -0.049586724 0.06813712 -0.017796943 0.09369576 -0.11122901
-0.058644965 0.15626761 -0.0067847585 0.021714851 0.09846143 0.11389696 -0.09771919 -0.05432423
0.108702146 -0.045878977 -0.18857045 -0.14923471 -0.04250796 0.063240126 0.027645454 -0.016017383
0.021451531 -0.13074034 -0.11593409 -0.05723479 -0.04896074 -0.031638563 0.16979937 0.03769261
-0.07326097 -0.1060033 -0.058818858 -0.01629536 0.03343801 -0.016466042 0.00039193901 -0.17998113
-0.0008673868 -0.04943983 0.02155664 -0.06401626 0.023853093 -0.009561391 -0.14889556 -0.10355205
0.05558599 -0.008002008 0.0980266 0.08355213 -0.06381523 -0.018287696 -0.06399594 -0.07114465
-0.06938378 -0.089520246 0.053012032 0.032257684 -0.059236307 -0.11877131 0.05835024 -0.04889793
-0.089129746 0.038399175 0.14540748 0.11774401 0.21861689 -0.11238356 0.13467586 -0.030116023
-0.054248076 -0.107878305 -0.059884816 -0.026014322 0.10306099 0.04068955 -0.092082985 -0.06619363
0.28786537 0.017463792 0.10225014 -0.21056652 -0.082399026 -0.07663602 0.090427384 0.08039352
0.022372209 -0.11476189 -0.08961738 -0.11129295 0.011597561 -0.0956854 -0.03350523 -0.043079253
-0.090289496 0.011204611 0.03603575 -0.08346036 -0.02606569 0.031295218 0.08959157 -0.042585075
0.13025916 0.16190231 0.14724211 0.09351125 -0.06051985 -0.025572175 -0.00038613137 0.0073928507
0.057750013 0.11704226 -0.039565194 -0.072024494 -0.03014924 0.00078930083 0.06349876 0.003787449
-0.06745149 -0.05935668 0.042708635 0.007914512 0.0026681256 -0.025993098 -0.08264272 -0.06766353
-0.06269151 -0.014972126 0.0328059 0.057043165 -0.055945143 -0.12072724 0.010001809 0.06895528
-0.035152536 -0.056554966 0.04725337 -0.0038779443 -0.118247144 0.104798175 -0.07622151 -0.0814337
-0.1319944 0.07502112 0.11370775 -0.032920267 -0.045008183 -0.13570191 -0.140484 0.047111806
0.056725796 0.12474004 -0.007378564 0.053120434 -0.03411045 -0.108364455 -0.16172716 -0.014653198
0.036632415 -0.07199965 -0.13104329 -0.04360569 -0.04837927 -0.061652906 -0.05548898 -0.08314453
-0.11816341 0.0628226 -0.06791584 -0.21487337 0.011206363 -0.050572127 -0.07325617 -0.20619276
00000000: b6b8 6c3c 0f13 313d 669d d93b ec15 153e
00000010: 90cc 86bc 1710 953d be4d cebd edd3 fcbc
00000020: 12d0 333d 8f64 4dbd 0757 133e 51e8 8cbc
00000030: a389 063e d062 28bd b894 f9bc 7bf3 78bd
00000040: b399 df3d f29c 8f3d fa65 82bd 376a a53d
00000050: 2551 cfbd 397d e7bd 6226 b2bd 9a71 d03d
00000060: 06f8 cabc fc90 9ebd 5eb2 cd3c 0134 eebd
00000070: fe72 d2bd 6841 17be fbab 0b3e 5ac9 e9bc
00000080: f948 b03d b121 8c3d 1983 b7bd 0562 97bb
00000090: 43f5 ecbc 6cfb bd3d bb08 8b3d 65dc 9dbc
000000a0: 7ed2 a23d 641b a6bd 20f8 e6bc 5a85 443d
000000b0: 7f62 993d 1f7b e33b 0bae 933d c05f 933d
000000c0: 8ab7 f1b9 2f85 b0bd 2b6a babd 6ab1 ed39
000000d0: b14c bd3c 0b9f 333e fb2c 013e 1d9d dab9
000000e0: b3dd b8bc 95c2 093c 8e87 923d 95ea bebc
000000f0: 487a 873d 247d acbd 7b5e 803c 4a40 aabd
00000100: e5c8 853d e2b6 19bc a1be 063e 9ba5 b9bd
00000110: b525 15be b23a a5bd c62d d53b 65d1 68bd
00000120: a7c7 443e eae1 2c3d 35a7 68bc a7e9 48be
00000130: dde6 d4bd 7c29 e43d 1ec2 c93d b76b 8abd
00000140: 5fa5 d6bd e6f3 f2bd b150 443d 731b 4bbd
00000150: 798b 8b3d e5ca 91bc 90e3 bf3d 09cc e3bd
00000160: b435 70bd 9e04 203e ae52 debb 58e3 b13c
00000170: 25a6 c93d cf42 e93d 0021 c8bd 1583 5ebd
00000180: 3b9f de3d 98eb 3bbd 9d18 41be fcd0 18be
00000190: d41c 2ebd 0a84 813d b878 e23c e336 83bc
000001a0: 1fbb af3c cce0 05be da6e edbd 076f 6abd
000001b0: 0f8b 48bd 7097 01bd e3df 2d3e 9163 1a3d
000001c0: d909 96bd 4218 d9bd 0bec 70bd d97d 85bc
000001d0: 4bf6 083d cbe3 86bc 2a7d cd39 f94c 38be
000001e0: 5861 63ba 6b81 4abd 8d97 b03c f51a 83bd
000001f0: 9067 c33c 61a7 1cbc 1478 18be 1913 d4bd
00000200: 23ae 633d db1a 03bc 2cc2 c83d 611d ab3d
00000210: 8fb1 82bd 14d0 95bc 4e10 83bd 49b4 91bd
00000220: 1519 8ebd 6456 b7bd 2523 593d a220 043d
00000230: c5a1 72bd 5f3e f3bd a900 6f3d 3249 48bd
00000240: a889 b6bd 7448 1d3d b3e5 143e c623 f13d
00000250: 1bdd 5f3e 5a29 e6bd 78e8 093e e1b5 f6bc
00000260: 3b33 5ebd 4def dcbd c849 75bd fd1b d5bc
00000270: a411 d33d 16aa 263d 0196 bcbd 8790 87bd
00000280: 1763 933e 3a10 8f3c 8568 d13d c09e 57be
00000290: d2c0 a8bd 58f3 9cbd fe31 b93d 5ca5 a43d
000002a0: ec45 b73c 4808 ebbd 5189 b7bd 8fed e3bd
000002b0: b203 3e3c b5f6 c3bd c83c 09bd df73 30bd
000002c0: b3e9 b8bd 8b93 373c 399a 133d 44ed aabd
000002d0: b787 d5bc 6a2f 003d c97b b73d b06d 2ebd
000002e0: a862 053e b8c9 253e a3c6 163e d482 bf3d
000002f0: aae3 77bd bd7c d1bc ad71 cab9 ba3f f23b
00000300: 478b 6c3d dab3 ef3d 1d0f 22bd 9481 93bd
00000310: 8afb f6bc 15e9 4e3a a30b 823d da36 783b
00000320: 0224 8abd fd1f 73bd 40ef 2e3d dfab 013c
00000330: b8db 2e3b 7aef d4bc 9640 a9bd 2d93 8abd
00000340: 6864 80bd a64d 75bc 7b5f 063d 18a6 693d
00000350: bc26 65bd d83f f7bd a1de 233c 6d38 8d3d
00000360: 1bfc 0fbd 2ea6 67bd c08c 413d 1c25 7ebb
00000370: 8f2b f2bd 6da0 d63d 061a 9cbd b6c6 a6bd
00000380: 8a29 07be aca4 993d 9cdf e83d 67d7 06bd
00000390: 805a 38bd 71f5 0abe 0adb 0fbe 4ff8 403d
000003a0: 4f59 683d b577 ff3d e2c7 f1bb d094 593d
000003b0: 66b7 0bbd 2fee ddbd ce9b 25be f813 70bc
000003c0: df0b 163d 8d74 93bd 3630 06be e19b 32bd
000003d0: 5729 46bd c287 7cbd 6a48 63bd ae47 aabd
000003e0: a8ff f1bd 23a9 803d 7617 8bbd c407 5cbe
000003f0: e59a 373c b824 4fbd 5507 96bd 3224 53be

actor.0.bias f4 [40]
0.015131721 0.012635548 0.10985119 0.028648857 0.15821283 0.040668067 0.11853685 -0.08716096
0.087586656 -0.08566858 -0.06922937 0.13590491 0.052002843 0.0631727 -0.045504823 0.1044812
0.12930289 0.02985606 0.12401296 -0.031685803 -0.05588189 0.051245634 0.12338903 -0.03433192
0.06326526 0.016276231 -0.034429107 0.033478778 -0.06688717 -0.017573461 0.14403722 0.03682633
0.056645542 0.019472938 -0.07754422 -0.08358634 0.06882466 -0.090585165 0.08886233 0.0863185
00000000: 0aeb 773c 5405 4f3c a9f9 e03d 02b1 ea3c
00000010: 8b02 223e 8f93 263d 73c3 f23d 7281 b2bd
00000020: a260 b33d 0273 afbd 21c8 8dbd a82a 0b3e
00000030: ef00 553d b060 813d 4463 3abd 3dfa d53d
00000040: fa67 043e b294 f43c 82fa fd3d f9c8 01bd
00000050: 69e4 64bd f1e6 513d 63b3 fc3d a19f 0cbd
00000060: 3791 813d bb55 853c 8905 0dbd 0b21 093d
00000070: 24fc 88bd 38f6 8fbc 7e7e 133e 35d7 163d
00000080: 2805 683d b685 9f3c 81cf 9ebd 512f abbd
00000090: f1f3 8c3d b784 b9bd 74fd b53d c1c7 b03d

actor.2.weight f4 [28, 40]
0.15277109 -0.35369518 -0.077299625 -0.25943744 0.15093048 -0.22725497 -0.24051237 -0.17893864
0.14731234 0.03560233 0.07902173 0.20247106 -0.008425592 -0.07395142 -0.2067767 -0.06624359
0.07948856 0.0065451353 -0.16885297 -0.09572169 -0.018963518 0.0030152758 -0.05199216 -0.06045708
-0.15746018 -0.07223096 -0.084869586 0.015082298 0.30874392 0.0671549 0.12406621 0.23941456
0.12903085 0.2710198 0.17734823 -0.08859021 -0.099335745 0.09713668 0.0023587397 0.07234626
-0.053763483 -0.021024762 0.14076786 -0.114003256 0.12676968 -0.083867565 -0.15488599 0.022463044
-0.053113848 -0.023136051 0.14557569 0.23326103 0.29269442 0.19677949 -0.18124339 0.007683915
0.028600685 -0.04523128 0.07602818 0.026285717 0.048214514 0.027480919 0.18113372 0.252666
0.08653623 -0.14022797 0.056360763 0.22412662 -0.14961714 -0.0011778902 -0.080124676 -0.043874305
-0.05216107 0.2284889 -0.066364884 -0.09885151 0.044077575 0.17440003 0.22271468 -0.0069357306
0.161852 -0.12252754 0.081718825 0.19801427 0.07175799 -0.015647346 -0.12023167 0.05139178
0.15974654 -0.100851595 0.049311392 -0.16058373 0.08180288 0.07403696 0.13671629 -0.021704538
-0.21234359 0.03635087 -0.15077345 0.10471946 0.09315123 -0.2648551 0.05606323 -0.0063144765
-0.116531506 -0.0687206 -0.080074504 -0.0240381 -0.004692081 0.042265955 0.13289945 -0.005555218
0.020017492 -0.14171094 0.13216716 -0.17224918 0.26905012 -0.068693474 -0.10197538 0.08717352
-0.047953043 -0.017462475 0.21212566 0.15067305 0.20295796 0.09709109 -0.0054819654 -0.027755018
-0.014762219 -0.12487597 -0.036538426 0.152364 -0.2790566 0.010000761 0.09394235 0.11457974
0.054494914 -0.11752333 0.045720678 -0.07603601 -0.095608756 0.30953556 0.14989 -0.17188968
0.12416524 0.19741248 0.06233513 0.14078423 0.146877 0.10745617 0.13909835 -0.11413992
0.004353032 -0.024159027 0.19719833 0.1944857 -0.10420461 -0.0014740281 -0.0012796862 -0.1018952
0.035288356 0.056463927 0.023523048 0.016322773 -0.0940981 0.29367748 0.088226 0.16628475
-0.048030477 0.104563735 0.05942789 0.0489099 -0.08699988 -0.06309771 -0.027002042 0.24476036
0.14392589 0.15995172 0.17885768 0.25444427 0.119048595 0.07189319 0.04312391 0.05540641
-0.12381565 0.13737132 0.07943937 -0.28595966 -0.02569253 -0.18407758 -0.15856045 0.16838783
0.12852979 -0.03757589 0.08253587 0.07964888 0.15542296 -0.058900937 -0.21692166 -0.10551181
0.13990551 0.13632208 -0.057883386 0.10013318 -0.1645436 0.1978539 0.13351141 0.031911697
0.031709332 -0.19560066 -0.07624542 0.08012156 -0.32420126 -0.1822033 0.17277601 0.115339205
0.097972296 -0.20188348 0.1087291 -0.03227152 -0.027342526 0.2647652 -0.18904276 -0.021425126
-0.16453989 0.34779963 0.0404938 -0.07913404 0.10454133 0.16494384 -0.07611608 -0.057269532
0.13870509 -0.08622689 -0.02048316 0.17780766 -0.05789068 -0.06394149 0.055565566 -0.07580213
-0.011828423 0.3001352 -0.08183453 0.14763924 0.10141008 0.16325043 -0.028414838 0.0927252
-0.12790658 0.089118764 0.046984456 0.11934996 -0.12948124 -0.024879172 -0.12129601 0.1084553
00000000: 0670 1c3e 8917 b5be 444f 9ebd fcd4 84be
00000010: 858d 1a3e 87b5 68be e048 76be b13b 37be
00000020: 0cd9 163e c0d3 113d 25d6 a13d 9354 4f3e
00000030: 7f0b 0abc d873 97bd 45bd 53be b8aa 87bd
00000040: e6ca a23d 9378 d63b cbe7 2cbe bc09 c4bd
00000050: 6159 9bbc ef9b 453b bbf5 54bd d8a1 77bd
00000060: 3e3d 21be d3ed 93bd 1bd0 adbd be1b 773c
00000070: af13 9e3e 8288 893d 6d16 fe3d 1729 753e
00000080: aa20 043e 1bc3 8a3e c69a 353e c96e b5bd
00000090: 8a70 cbbd 98ef c63d 1695 1a3b 472a 943d
000000a0: 1937 5cbd 1f3c acbc 7325 103e 8a7a e9bd
000000b0: e9cf 013e c2c2 abbd 6f9a 1ebe 6b04 b83c
000000c0: e88d 59bd d187 bdbc cb11 153e fbdb 6e3e
000000d0: 0bdc 953e 9080 493e de97 39be 5ac9 fb3b
000000e0: fc4b ea3c 6f44 39bd aab4 9b3d 2555 d73c
000000f0: 957c 453d aa1f e13c 1e7b 393e 705d 813e
00000100: e839 b13d ec97 0fbe 8bda 663d 7381 653e
00000110: 3c35 19be 7063 9aba 6818 a4bd 8bb5 33bd
00000120: d9a6 55bd fff8 693e 50ea 87bd a972 cabd
00000130: b08a 343d ec95 323e 510f 643e 2045 e3bb
00000140: 88bc 253e b8ef fabd 335c a73d 41c4 4a3e
00000150: daf5 923d dd2e 80bc 063c f6bd 3080 523d
00000160: 9994 233e 488b cebd befa 493d 1070 24be
00000170: 4588 a73d b1a0 973d 5bff 0b3e b7cd b1bc
00000180: 9970 59be a6e4 143d 5b64 1abe 2877 d63d
00000190: 12c6 be3d 169b 87be 8fa2 653d abe9 cebb
000001a0: 12a8 eebd 63bd 8cbd 1afe a3bd 8deb c4bc
000001b0: 07c0 99bb 111f 2d3d cb16 083e 8c08 b6bb
000001c0: b9fb a33c ac1c 11be d456 073e 1762 30be
000001d0: f0c0 893e 2aaf 8cbd 78d8 d0bd 0888 b23d
000001e0: 696a 44bd 770d 8fbc 7837 593e 094a 1a3e
000001f0: 36d4 4f3e b2d7 c63d 0fa2 b3bb 7e5e e3bc
00000200: 3cdd 71bc f9be ffbd 51a9 15bd 4f05 1c3e
00000210: 82e0 8ebe 3bda 233c d964 c03d c8a8 ea3d
00000220: 0f36 5f3d 12b0 f0bd 9b45 3b3d c5b8 9bbd
00000230: 86ce c3bd 727b 9e3e c47c 193e d903 30be
00000240: 584a fe3d 7f26 4a3e 1f53 7f3d be29 103e
00000250: ed66 163e fb11 dc3d cc6f 0e3e 31c2 e9bd
00000260: e1a3 8e3b 27e9 c5bc 5cee 493e 4227 473e
00000270: 3a69 d5bd 2d34 c1ba 25bb a7ba 6eae d0bd
00000280: 868a 103d b846 673d 68b3 c03c 56b7 853c
00000290: 81b6 c0bd e55c 963e d5af b43d 8d46 2a3e
000002a0: 9bbb 44bd 8325 d63d a96a 733d bf55 483d
000002b0: fe2c b2bd 5f39 81bd 6333 ddbc 76a2 7a3e
000002c0: 4f61 133e 62ca 233e 7826 373e 8546 823e
000002d0: c0cf f33d bd3c 933d b2a2 303d d5f1 623d
000002e0: 0f93 fdbd 11ab 0c3e 1cb1 a23d 4e69 92be
000002f0: 2479 d2bc d57e 3cbe ac5d 22be dc6d 2c3e
00000300: 509d 033e 2de9 19bd 9108 a93d f41e a33d
00000310: 3227 1f3e 1c42 71bd b620 5ebe 9316 d8bd
00000320: 6443 0f3e 0498 0b3e 2117 6dbd a012 cd3d
00000330: 1e7e 28be 369a 4a3e 37b7 083e d7b5 023d
00000340: a5e1 013d 8a4b 48be 8f26 9cbd c616 a43d
00000350: b5fd a5be 8093 3abe 32ec 303e f636 ec3d
00000360: b3a5 c83d 8bba 4ebe 5dad de3d 242f 04bd
00000370: 6ffd dfbc 4e8f 873e 6d94 41be bf83 afbc
00000380: 257d 28be cb12 b23e d4dc 253d 0711 a2bd
00000390: c419 d63d 0ae7 283e bfe2 9bbd 7593 6abd
000003a0: b508 0e3e b997 b0bd 4dcc a7bc 3613 363e
000003b0: c71e 6dbd c2f3 82bd b898 633d 263e 9bbd
000003c0: 00cc 41bc 52ab 993e dd98 a7bd be2e 173e
000003d0: 17b0 cf3d 1f2b 273e 3cc6 e8bc b6e6 bd3d
000003e0: f1f9 02be e683 b63d c672 403d c06d f43d
000003f0: bb96 04be 68cf cbbc 0b6a f8bd d01d de3d

actor.2.bias f4 [28]
0.029483365 -0.089445725 -0.05372526 0.18708332 0.031061476 4.4216944e-05 0.020162813 0.12220309
0.14069939 -0.08401768 0.0655013 -0.13046357 -0.041373115 0.1324476 -0.17365626 -0.0811734
0.14539267 0.21112323 -0.17556468 -0.019697493 -0.0482242 0.12678182 0.09396329 0.11280629
0.13199204 -0.03527195 0.123718865 0.07951532
00000000: 1987 f13c 522f b7bd 050f 5cbd c592 3f3e
00000010: a374 fe3c 9575 3938 7c2c a53c 9d45 fa3d
00000020: 8013 103e 7611 acbd 8c25 863d 3e98 05be
00000030: db76 29bd 58a0 073e f2d2 31be 3d3e a6bd
00000040: d1e1 143e b030 583e 3ac7 33be a35c a1bc
00000050: bd86 45bd 18d3 013e d36f c03d fc06 e73d
00000060: ec28 073e 5279 10bd 5160 fd3d eed8 a23d

actor.4.weight f4 [14, 28]
0.07769055 -0.17842013 -0.1339164 0.17222223 0.049142063 0.287944 0.05751529 0.07518631
0.14948161 0.1970976 0.025711665 -0.17685796 0.068670236 -0.048843987 -0.05672258 0.07504156
0.1803901 0.09003536 -0.15733144 0.22828925 -0.15873522 -0.02076477 -0.17156963 0.2782318
0.25153756 -0.124756634 -0.117601335 0.18042909 0.086035706 -0.16776705 -0.31352255 0.15225545
-0.0743499 0.20846829 -0.12911347 -0.18398233 -0.26891068 0.20453335 0.289985 -0.19915509
0.10725416 -0.19094259 -0.18849608 0.10603421 0.17642815 0.26434657 0.027835637 0.15985335
-0.25331706 0.11130459 -0.11995942 0.048767086 0.23922667 -0.14326914 0.07789731 -0.060491458
0.15146925 0.037607785 -0.03712178 0.16006233 -0.14076172 -0.13664156 0.10062919 -0.15522692
0.036984045 0.16894814 0.025746778 0.12466476 0.15036912 -0.17221956 0.09904036 0.036021512
0.19561048 0.2714706 -0.15298225 0.08747999 0.08727283 0.08821477 0.0468136 0.08254247
-0.047971956 -0.11538751 -0.16924386 0.22753122 0.13220711 -0.121426105 -0.26219183 0.22330682
-0.21603227 0.21995205 -0.20627363 -0.08929118 -0.094353996 0.23927161 0.0052318797 0.0924857
0.080113985 0.28091165 0.1862005 0.12182741 0.37443638 0.17580374 -0.25111878 0.1851604
0.18997428 -0.12874211 -0.17342408 -0.22937442 -0.18517242 0.06077549 0.014608737 -0.12363106
-0.040541157 0.09430711 -0.25533512 0.24370822 -0.11334217 0.055665813 0.00516951 -0.05303549
0.2585052 0.048426192 0.053866573 -0.13141333 0.1468203 0.18595603 0.02642052 -0.065840274
0.32021624 0.35095623 -0.04977256 0.15804212 0.13961485 -0.17268257 -0.053141546 -0.06440685
0.027454674 -0.12190602 -0.09264232 0.0857742 -0.024160754 -0.16149753 0.16932121 -0.15803662
0.15435219 0.16128913 -0.23247845 0.16689833 -0.06586333 -0.1643243 0.3191274 -0.030555623
-0.23229532 0.016781803 -0.026121616 0.14139627 0.32063392 0.2398026 0.017572232 -0.18599485
0.08260251 -0.0264177 0.02635075 0.048985157 -0.030408308 -0.07584629 0.09134546 0.049195446
0.11650586 0.19654523 0.026684806 -0.053941064 -0.07265248 -0.31768042 -0.30178958 0.06734711
0.24593376 -0.19662996 0.02768526 0.205479 -0.1917035 0.12989219 -0.0065165116 -0.16955349
-0.17925982 -0.3998342 0.2931926 0.03021976 0.18453075 0.17696129 0.2081142 0.26469496
0.13343841 -0.25649452 0.20550917 0.17437613 -0.1253535 -0.12703937 0.4258398 0.07390073
0.28528175 0.034448497 0.239711 -0.21793827 0.038716525 0.069739655 0.063282065 0.3224891
-0.035442907 0.07536642 0.06412195 -0.05235028 -0.0025364258 -0.28166735 0.12305315 -0.27381557
0.24286564 0.2946518 -0.15372974 -0.20452535 0.20050748 0.06857928 0.2284468 0.26410738
-0.09677375 -0.2550808 0.17497413 0.13321723 0.32705754 0.17912158 0.13834137 -0.31372055
-0.029790021 0.1488244 0.23179851 -0.11434243 -0.069316365 -0.12286446 -0.20108142 0.032617502
0.09450285 0.10919155 -0.012891382 -0.095948376 -0.02591623 0.18571375 -0.16370161 0.031292047
0.16962925 0.24380086 -0.0709174 0.21592598 -0.21820751 0.06525486 0.2256921 0.093848966
00000000: 391c 9f3d c4b3 36be 6121 09be 065b 303e
00000010: 3049 493d 656d 933e 2795 6b3d 48fb 993d
00000020: b511 193e f4d3 493e 45a1 d23c 411a 35be
00000030: fba2 8c3d a210 48bd f055 68bd 64af 993d
00000040: 2fb8 383e 7564 b83d 7e1b 21be a8c4 693e
00000050: 7c8b 22be e11a aabc f3af 2fbe 6674 8e3e
00000060: 88c9 803e 6880 ffbd f8d8 f0bd 67c2 383e
00000070: 7d33 b03d 20cb 2bbe 0786 a0be dae8 1b3e
00000080: c344 98bd b678 553e 5236 04be dd65 3cbe
00000090: a9ae 89be 3171 513e ea78 943e 50ef 4bbe
000000a0: 12a8 db3d 7486 43be 1e05 41be 7728 d93d
000000b0: 95a9 343e 6f58 873e 9007 e43c 99b0 233e
000000c0: c6b2 81be a9f3 e33d 49ad f5bd ffbf 473d
000000d0: d6f7 743e 25b5 12be a088 9f3d e4c5 77bd
000000e0: c11a 1b3e 9f0a 1a3d 020d 18bd 61e7 233e
000000f0: d723 10be c4eb 0bbe ad16 ce3d cef3 1ebe
00000100: 957c 173d be00 2d3e e8ea d23c 3d50 ff3d
00000110: 5dfa 193e 535a 30be acd5 ca3d 4b8b 133d
00000120: 1d4e 483e 32fe 8a3e 61a7 1cbe b628 b33d
00000130: 19bc b23d f2a9 b43d 9ebf 3f3d 070c a93d
00000140: 3e7e 44bd 4950 ecbd 434e 2dbe f2fd 683e
00000150: 4d61 073e 40ae f8bd 023e 86be 8baa 643e
00000160: 9037 5dbe 1c3b 613e 6539 53be 4bde b6bd
00000170: ab3c c1bd 9e03 753e 3070 ab3b 2569 bd3d
00000180: cd12 a43d a7d3 8f3e 58ab 3e3e a680 f93d
00000190: 20b6 bf3e e505 343e a492 80be b09a 3d3e
000001a0: 9e88 423e f9d4 03be 1596 31be 21e1 6abe
000001b0: d79d 3dbe b8ef 783d 7c59 6f3c 4832 fdbd
000001c0: 7c0e 26bd 1624 c13d 49bb 82be a68e 793e
000001d0: f11f e8bd d601 643d fe64 a93b be3b 59bd
000001e0: cb5a 843e 8b5a 463d 32a3 5c3d 3791 06be
000001f0: 1058 163e 426b 3e3e d96f d83c 44d7 86bd
00000200: 62f3 a33e 89b0 b33e 50de 4bbd cbd5 213e
00000210: 32f7 0e3e b3d3 30be f3aa 59bd bde7 83bd
00000220: a0e8 e03c dda9 f9bd 42bb bdbd 62aa af3d
00000230: c6ec c5bc 9c5f 25be 8a62 2d3e 5ad4 21be
00000240: 800e 1e3e fa28 253e d50e 6ebe 65e7 2a3e
00000250: 5be3 86bd a144 28be ab64 a33e c94f fabc
00000260: d3de 6dbe fe79 893c 00fd d5bc 2fca 103e
00000270: 212a a43e d08e 753e a4f3 8f3c 6f75 3ebe
00000280: 812b a93d ef69 d8bc 87dd d73c a9a4 483d
00000290: d81a f9bc 4d55 9bbd 5413 bb3d 2a81 493d
000002a0: a09a ee3d 2743 493e 189a da3c 4ef1 5cbd
000002b0: d3ca 94bd 02a7 a2be 2a84 9abe 48ed 893d
000002c0: 0fd6 7b3e 5d59 49be 33cc e23c 1669 523e
000002d0: ec4d 44be 7502 053e 7688 d5bb 6e9f 2dbe
000002e0: e38f 37be 11b7 ccbe 571d 963e 6e8f f73c
000002f0: a1f5 3c3e 5735 353e e41b 553e 1986 873e
00000300: 14a4 083e 4053 83be ff70 523e a88f 323e
00000310: ab5c 00be 9c16 02be ad07 da3e 4459 973d
00000320: 7310 923e de19 0d3d cd76 753e 362b 5fbe
00000330: 3895 1e3d aad3 8e3d 079a 813d 4b1d a53e
00000340: 952c 11bd b659 9a3d 5e52 833d 3f6d 56bd
00000350: 2a3a 26bb b436 90be 4a03 fc3d 8e31 8cbe
00000360: c5b1 783e 9adc 963e 546b 1dbe 186f 51be
00000370: d551 4d3e 4b73 8c3d f5ed 693e 1539 873e
00000380: 5131 c6bd f399 82be 6b2c 333e 196a 083e
00000390: 1674 a73e a66b 373e 5ca9 0d3e fb9f a0be
000003a0: 340a f4bc 6c65 183e 975c 6d3e 5d2c eabd
000003b0: bdf5 8dbd 5da0 fbbd 4ae8 4dbe ee99 053d
000003c0: b68a c13d d29f df3d 6036 53bc 9580 c4bd
000003d0: 464e d4bc bf2b 3e3e 65a1 27be 172c 003d
000003e0: 4ab3 2d3e efa6 793e 243d 91bd b31b 5d3e
000003f0: ca71 5fbe 57a4 853d d41b 673e e333 c03d

actor.4.bias f4 [14]
-0.081104346 -0.012788215 -0.17718239 0.10708758 0.07444127 0.13738352 0.16149117 -0.045436352
0.18910325 0.16679254 0.06432726 -0.12072918 -0.1356785 0.10123979
00000000: 091a a6bd a985 51bc 4d6f 35be bc50 db3d
00000010: aa74 983d 44ae 0c3e f15d 253e 781b 3abd
00000020: 48a4 413e aacb 2a3e 03be 833d dc40 f7bd
00000030: 4eef 0abe cf56 cf3d

actor.6.weight f4 [7, 14]
0.42860562 0.2865527 -0.08051905 -0.3315281 -0.38787425 -0.08934267 0.048177246 0.085095815
0.37583023 -0.36734015 0.2672043 0.44286317 -0.39257634 -0.29724303 -0.063185275 0.047678713
0.33681345 0.07304362 0.21771169 0.3584946 0.2686689 -0.27830115 -0.2493636 -0.056792177
0.006610437 0.008611175 0.28427204 0.3229877 -0.18757822 -0.25118187 0.007446368 -0.066224135
0.13387832 0.111492194 0.056681596 0.16267431 0.21311085 0.24733694 -0.123050176 -0.16085406
0.27327248 0.076877 -0.1710753 -0.101300694 0.19416414 -0.31715697 -0.14687227 0.015604936
0.29951954 -0.036886133 -0.21715574 -0.23202714 0.024357079 -0.013666141 -0.24043804 0.32670787
0.28431734 -0.13244836 0.34648022 0.0049167173 0.41683307 -0.08512985 0.023169652 -0.356329
-0.21323365 -0.053112045 0.31894422 -0.19152004 0.02884313 -0.24260017 -0.3187463 -0.20431906
-0.19309871 -0.3913967 -0.2893789 0.026509995 0.18423678 0.19309299 -0.013850561 -0.023211412
-0.069894165 -0.11736727 0.2980901 0.38596913 -0.34115335 -0.443056 -0.30776912 -0.08201299
-0.11495002 -0.3092456 0.28742778 0.08671289 -0.32549116 -0.43456262 0.34591633 0.27425647
0.20637743 0.05514383
00000000: 3272 db3e 09b7 923e 2ce7 a4bd 0dbe a9be
00000010: 7497 c6be 4af9 b6bd 8155 453d b746 ae3d
00000020: d26c c03e 0214 bcbe 01cf 883e f6be e23e
00000030: c4ff c8be 3d30 98be 4867 81bd c14a 433d
00000040: d072 ac3e e597 953d d0ef 5e3e 9b8c b73e
00000050: f88e 893e 7d7d 8ebe 2c59 7fbe ea9e 68bd
00000060: 5d9c d83b e315 0d3c 1b8c 913e a55e a53e
00000070: 8114 40be e99a 80be aa00 f43b 85a0 87bd
00000080: 6617 093e 0556 e43d f62a 683d 1894 263e
00000090: bb39 5a3e e545 7d3e bb01 fcbd edb6 24be
000000a0: 5fea 8b3e b071 9d3d 5d2e 2fbe bd76 cfbd
000000b0: f7d2 463e 6662 a2be af65 16be d8ab 7f3c
000000c0: a05a 993e ea15 17bd 135e 5ebe 8698 6dbe
000000d0: 7f88 c73c f3e7 5fbc 6435 76be 4146 a73e
000000e0: 0b92 913e 8ba0 07be db65 b13e 6a1c a13b
000000f0: 256b d53e 8f58 aebd 48ce bd3c c170 b6be
00000100: ec59 5abe 048c 59bd a84c a33e d41d 44be
00000110: 6e48 ec3c 2e6c 78be b732 a3be 0439 51be
00000120: abbb 45be 2665 c8be 7929 94be 7d2b d93c
00000130: 91a8 3c3e 2bba 453e 77ed 62bc dc25 bebc
00000140: ac24 8fbd 405e f0bd 449f 983e bf9d c53e
00000150: a7ab aebe 3cd8 e2be ea93 9dbe 6df6 a7bd
00000160: eb6a ebbd 7055 9ebe bc29 933e 8796 b13d
00000170: c7a6 a6be fe7e debe f21b b13e 586b 8c3e
00000180: 9b54 533e 7fde 613d

actor.6.bias f4 [7]
0.21587758 0.15256198 -0.10581439 0.28117567 -0.18034364 -0.048030846 0.2364064
00000000: 030f 5d3e 3539 1c3e 37b5 d8bd 42f6 8f3e
00000010: 01ac 38be febb 44bd 8514 723e

critic.0.weight f4 [40, 94]
-0.05970419 -0.11481392 0.008292533 0.0732409 0.052206706 0.1341673 -0.1485983 -0.038898595
-0.083820984 0.008399138 0.06401553 -0.14524436 0.1471266 0.0042730873 0.05324445 -0.10484094
-0.056431495 0.11355655 -0.0075634317 0.04054508 0.028814735 0.05180689 -0.08575346 0.080901965
0.17283997 -0.122813575 0.1012356 -0.14485204 0.011412889 -0.11334175 0.124477975 0.019160243
-0.009610386 -0.02455451 -0.0053207306 0.059409812 -0.11968124 0.07626518 0.21690968 0.021914773
-0.025175827 -0.07584942 0.12527879 -0.06265938 0.05626113 0.12463804 -0.080833465 0.041912436
-0.040925533 0.1361743 0.08125199 -0.014118984 -0.014132879 0.01596341 0.00994651 0.15890689
0.12807587 0.068142846 0.06733465 -0.09465238 0.04834207 -0.07406585 0.03507355 0.0666682
0.15328126 -0.059945825 -0.08124656 0.123654075 -0.11900138 0.08504304 0.14973737 0.010884053
0.03511457 -0.023015747 0.08577649 -0.02618148 0.11005983 0.09658603 0.16434956 0.11046064
-0.08039833 0.070299774 -0.050749708 0.08120683 0.15083739 0.13670027 0.023963528 -0.1528328
0.15374866 0.046364807 0.08535853 0.13933325 0.1592192 0.028976087 -0.03171624 -0.035142764
-0.037650276 -0.037885115 -0.089540094 0.019307038 0.023381248 0.05132715 0.012980942 0.12012875
-0.04043286 -0.08257829 0.04684903 -0.12705615 0.08747058 -0.0010646738 -0.015529033 0.14055198
0.02960823 0.08988163 0.044874158 -0.02857508 0.07767214 0.0368039 0.059296325 0.01658177
-0.07693674 -0.09451895 0.08651017 -0.08428088 0.079182446 0.11248342 -0.103074454 -0.0072676274
-0.03393532 0.06511451 -0.045776166 0.11595661 -0.035695277 0.022915177 0.061668005 -0.07024686
-0.04547751 -0.08388144 0.050842848 0.08638255 -0.056415077 0.08950193 -0.048868444 -0.06439744
-0.025258955 -0.04498269 0.14499274 0.048314545 0.025415646 -0.09483921 -0.021242833 -0.22105986
0.10101659 0.20298871 -0.04011038 0.05104803 -0.080786265 -0.18325195 -0.034271304 0.03150956
0.1269955 -0.026656276 0.06753152 -0.012607224 -0.14948525 -0.12262083 0.008596383 0.17127703
-0.0031009305 0.14952539 -0.15528361 -0.09038352 -0.05655948 0.036886353 0.101710655 -0.047291797
0.19741856 -0.15066274 0.01935037 -0.16247424 0.087390095 0.06997563 -0.0422523 0.102452256
-0.26410624 0.028413476 0.09812055 0.1034014 0.08146112 -0.049370598 0.027579227 -0.11579157
0.08399323 0.017590066 0.06887111 -0.010148568 0.10072565 0.08326795 0.05231121 -0.015307912
-0.08915845 -0.08675391 -0.091580346 0.018788548 -0.048472516 -0.069133 0.036039192 0.08622003
-0.03297721 0.078117184 -0.006727044 0.0035945938 -0.04724182 -0.064205036 0.021543609 -0.008745194
-0.045380436 0.06570412 -0.019234935 -0.103553854 0.027130062 -0.012231415 -0.06561092 -0.07957758
-0.032284595 -0.04875405 0.023453802 -0.01847801 0.04768906 0.040860023 0.01391542 -0.018436827
-0.006999507 -0.010871173 -0.103805006 -0.053975563 0.072168104 0.04707258 0.18110749 0.07518786
-0.18507324 -0.019763382 0.086974844 -0.06873873 0.028209751 -0.058507003 0.086980954 -0.18798818
0.020809747 -0.0354889 -0.1887456 -0.044227585 0.023903292 0.032919914 -0.09898293 0.0659471
00000000: 618c 74bd 8f23 ebbd 68dd 073c 53ff 953d
00000010: b3d6 553d 2763 093e 272a 18be 2254 1fbd
00000020: 56aa abbd 8a9c 093c 931a 833d f0ba 14be
00000030: 5ba8 163e 4105 8c3b da16 5a3d d9b6 d6bd
00000040: b624 67bd 5690 e83d aad6 f7bb 9912 263d
00000050: e10c ec3c 7633 543d 839f afbd eeaf a53d
00000060: f6fc 303e af85 fbbd 9c54 cf3d 1854 14be
00000070: 20fd 3a3c b81f e8bd 4fee fe3d f1f5 9c3c
00000080: e174 1dbc 8a26 c9bc 8659 aebb b457 733d
00000090: 701b f5bd eb30 9c3d 921d 5e3e 9c86 b33c
000000a0: 893d cebc f156 9bbd 1549 003e 9053 80bd
000000b0: 1272 663d 3b42 ff3d 048c a5bd 60ac 2b3d
000000c0: 88a1 27bd 4771 0b3e 7167 a63d 5053 67bc
000000d0: 978d 67bc b2c5 823c b0f6 223c 7db8 223e
000000e0: 5226 033e 7a8e 8b3d c0e6 893d 1bd9 c1bd
000000f0: 5602 463d d6af 97bd 48a9 0f3d 5689 883d
00000100: c3f5 1c3e c189 75bd 9964 a6bd 593e fd3d
00000110: ffb6 f3bd 0c2b ae3d c154 193e 0753 323c
00000120: 4cd4 0f3d 858b bcbc 96ab af3d 8b7a d6bc
00000130: 0c67 e13d e6ce c53d 404b 283e 3039 e23d
00000140: e1a7 a4bd 54f9 8f3d edde 4fbd c44f a63d
00000150: 1e75 1a3e 28fb 0b3e 294f c43c 3480 1cbe
00000160: 4a70 1d3e 06e9 3d3d 74d0 ae3d 60ad 0e3e
00000170: 5c0a 233e 425f ed3c e3e8 01bd dcf1 0fbd
00000180: 2d37 1abd 6c2d 1bbd cc60 b7bd cb29 9e3c
00000190: 088a bf3c 6b3c 523d 04ae 543c 1006 f63d
000001a0: ed9c 25bd ce1e a9bd c5e4 3f3d 021b 02be
000001b0: c723 b33d 868c 8bba 7c6d 7ebc dcec 0f3e
000001c0: f58c f23c dc13 b83d f7cd 373d 4916 eabc
000001d0: 9212 9f3d b0bf 163d b4e0 723d 7ed6 873c
000001e0: 0291 9dbd 2793 c1bd 3e2c b13d 749b acbd
000001f0: 682a a23d b55d e63d b318 d3bd 4725 eebb
00000200: c3ff 0abd c25a 853d ca7f 3bbd a97a ed3d
00000210: 3635 12bd 9cb8 bb3c 9797 7c3d 96dd 8fbd
00000220: a046 3abd 08ca abbd 9740 503d 56e9 b03d
00000230: 7f13 67bd ca4c b73d 472a 48bd cee2 83bd
00000240: deeb cebc c53f 38bd fa78 143e 79e5 453d
00000250: 7934 d03c 0f3b c2bd 7305 aebc 845d 62be
00000260: c9e1 ce3d 46dc 4f3e c84a 24bd bd17 513d
00000270: 4573 a5bd 66a6 3bbe 1160 0cbd 2b10 013d
00000280: 1c0b 023e 435e dabc f74d 8a3d 888e 4ebc
00000290: a912 19be a120 fbbd d8d7 0c3c 3f63 2f3e
000002a0: fb38 4bbb 2f1d 193e ab02 1fbe ff1a b9bd
000002b0: eaaa 67bd 2516 173d ad4d d03d 0bb5 41bd
000002c0: 1728 4a3e 5547 1abe ab84 9e3c a65f 26be
000002d0: 94f9 b23d 624f 8f3d bf10 2dbd 7dd2 d13d
000002e0: ef38 87be 61c3 e83c 6df3 c83d 1dc4 d33d
000002f0: 16d5 a63d d338 4abd d5ed e13c 2124 edbd
00000300: a404 ac3d 0b19 903c 4c0c 8d3d 2e46 26bc
00000310: 4049 ce3d 6388 aa3d 4844 563d 09ce 7abc
00000320: b598 b6bd 09ac b1bd 7a8e bbbd 71ea 993c
00000330: 1e8b 46bd 9a95 8dbd d59d 133d 2194 b03d
00000340: 1c13 07bd e7fb 9f3d 896e dcbb 4793 6b3b
00000350: a380 41bd ee7d 83bd 397c b03c 0148 0fbc
00000360: d6e0 39bd e28f 863d 9592 9dbc 0b14 d4bd
00000370: dd3f de3c 4666 48bc 055f 86bd 92f9 a2bd
00000380: da3c 04bd 54b2 47bd 3022 c03c 325f 97bc
00000390: 9b55 433d d75c 273d 80fd 633c d408 97bc
000003a0: 1f5c e5bb 011d 32bc b897 d4bd 7b15 5dbd
000003b0: dfcc 933d 2dcf 403d 3e74 393e 18fc 993d
000003c0: d783 3dbe d1e6 a1bc de1f b23d e4c6 8cbd
000003d0: 2318 e73c 0aa5 6fbd 1223 b23d f97f 40be
000003e0: 3479 aa3c cf5c 11bd 8746 41be fc27 35bd
000003f0: d6d0 c33c 08d7 063d 90b7 cabd 460f 873d

critic.0.bias f4 [40]
0.09556379 0.11097783 0.12547204 0.19389024 0.020480745 0.08065487 0.06680516 0.17659745
0.1502512 0.12378468 -0.0071276533 -0.10478264 0.05875435 0.0061691278 -0.021936487 -0.08792771
0.15167184 0.105731845 -0.0066419197 0.12918644 -0.0052366564 0.090463854 0.17072223 0.1517938
-0.04760897 0.090327695 -0.026206272 0.14771159 0.17214234 0.07221484 0.06259968 0.16751431
-0.018043289 0.17806406 0.13509783 -0.09792934 -0.026267093 0.043405667 -0.03552768 -0.016303793
00000000: f3b6 c33d 5848 e33d be7b 003e 2a8b 463e
00000010: 3cc7 a73c 612e a53d 25d1 883d f6d5 343e
00000020: 73db 193e d382 fd3d 178f e9bb 4898 d6bd
00000030: 67a8 703d 6526 ca3b 26b4 b3bc 7113 b4bd
00000040: dd4f 1b3e f089 d83d 76a4 d9bb 7349 043e
00000050: 4298 abbb 1d45 b93d cfd1 2e3e d56f 1b3e
00000060: a001 43bd bafd b83d 89ae d6bc b541 173e
00000070: 1546 303e 60e5 933d 4334 803d df88 2b3e
00000080: 85cf 93bc 6d56 363e 1657 0a3e 2e8f c8bd
00000090: 162e d7bc 24ca 313d 7985 11bd 888f 85bc

critic.2.weight f4 [28, 40]
-0.014089812 0.10243328 -0.008445041 0.2022999 -0.093504876 -0.049795803 -0.029948637 -0.075335056
-0.116361916 -0.11452417 -0.11023474 0.1511112 0.08656172 -0.18726379 0.1569339 0.08399604
0.060174577 0.060844395 -0.015566003 0.21577191 -0.17676157 -0.036260854 -0.028199857 -0.08039458
0.08045885 0.085708104 0.12376004 0.1670606 0.13150875 0.05567039 -0.09957808 0.20932305
0.11468566 0.044014253 0.10054841 0.07431883 0.13396747 -0.033871662 0.018205866 -0.07635108
0.013354683 0.07883179 0.0037481827 0.19980468 0.079713404 0.13693956 0.20206171 0.02640864
0.09561309 0.02543405 0.2024361 -0.21016377 -0.014675123 -0.025393158 -0.18692426 -0.11326382
0.19686438 -0.031652544 0.1671607 0.035891876 0.17018132 0.23088866 0.1914536 0.16896696
-0.20542225 0.2221421 -0.24540015 0.0010691624 -0.020792825 -0.09339283 0.22709024 0.15453945
-0.0788937 0.14406554 0.31529275 -0.019514957 -0.18608586 0.14233345 -0.043895297 -0.08058629
-0.07987161 0.20094386 -0.0072871875 0.005059632 0.074083395 0.06625546 0.040519908 0.014686213
0.02340598 -0.051186103 0.025241898 0.18329471 0.049550273 -0.1734057 -0.041186824 -0.048110906
0.1637609 0.19754228 0.062275697 0.20469798 0.07115445 0.06284537 0.2334721 0.14090239
-0.020651506 -0.11034075 -0.045577873 0.074778914 0.28019062 0.073024176 -0.03609921 0.17159009
-0.14667071 0.13584435 0.2014807 0.12950887 -0.08250257 -0.07460786 0.11313008 0.10182684
-0.050168786 0.02262066 0.13170382 0.14346692 -0.07752395 -0.03334722 0.27682102 0.012411744
0.1997698 0.25253916 0.092602946 -0.14722916 0.10158069 0.06749267 -0.17734493 0.036597393
0.10587557 -0.043894395 -0.032312598 0.09685799 0.083903424 0.28521922 0.06397116 0.19862805
-0.0809642 0.17568481 -0.085048325 0.08088628 0.14597858 -0.1060462 0.26062158 0.020830298
-0.04392029 0.15846379 0.12285833 -0.2037242 -0.16183938 0.2104756 -0.09344088 -0.164157
-0.09204758 -0.15145126 -0.18953578 -0.16884947 0.021838892 -0.045513995 0.007600678 -0.078065395
-0.17076339 -0.19897003 -0.20084758 -0.110902004 -0.10529215 -0.111817874 0.07072341 0.113459475
-0.071662605 -0.088021845 -0.12198114 -0.029395845 -0.11499636 -0.14849547 -0.075012445 -0.18336323
-0.14793284 -0.18094055 -0.035172258 -0.2069416 0.0060204775 -0.14478116 0.018768858 -0.2105399
-0.010165621 -0.14844622 -0.12834972 -0.17961526 -0.13630487 -0.2684431 -0.0077985106 0.13125032
0.09139086 0.12660724 0.07163775 0.03444559 -0.13241376 -0.0901054 -0.15481876 -0.022535965
-0.13543738 -0.118472196 0.040518943 0.038401797 0.19731084 -0.21447287 0.21979581 -0.013726502
0.1845188 0.19319639 -0.07175411 -0.074951835 -0.19672126 0.23528926 -0.057771936 -0.006147868
0.17559099 -0.16132587 0.20327105 0.104195535 0.14778976 0.07137559 0.074466646 0.17384836
-0.22791527 0.061995532 0.047054518 0.17794655 0.13129567 -0.12182935 0.11822552 -0.031453874
0.03597462 -0.06294998 0.10449937 0.32162833 0.07329008 0.17305835 0.15642573 -0.12536499
0.02058714 0.12758401 0.2708521 0.005313158 0.28260243 -0.007195125 -0.17891999 -0.17329381
00000000: f4d8 66bc 8ac8 d13d 125d 0abc b427 4f3e
00000010: 7c7f bfbd aff6 4bbd d856 f5bc 4449 9abd
00000020: 284f eebd a68b eabd c0c2 e1bd e5bc 1a3e
00000030: 4547 b13d 14c2 3fbe 48b3 203e 1e06 ac3d
00000040: 9e79 763d f937 793d 8c08 7fbc 50f3 5c3e
00000050: fc00 35be 4386 14bd 6303 e7bc eaa5 a4bd
00000060: 9cc7 a43d bb87 af3d e775 fd3d ef11 2b3e
00000070: 3baa 063e a306 643d 98ef cbbd c858 563e
00000080: 51e0 ea3d 4a48 343d 53ec cd3d 7934 983d
00000090: c52e 093e 03bd 0abd 7824 953c f45d 9cbd
000000a0: 9acd 5a3c 9072 a13d 12a4 753b 9999 4c3e
000000b0: c840 a33d e239 0c3e 44e9 4e3e ef56 d83c
000000c0: ccd0 c33d 125b d03c 694b 4f3e 2c35 57be
000000d0: ed6f 70bc 5005 d0bc 1369 3fbe ddf6 e7bd
000000e0: d196 493e 19a6 01bd 2d2c 2b3e 5c03 133d
000000f0: 0344 2e3e 146e 6c3e 6a0c 443e ad05 2d3e
00000100: 365a 52be 3879 633e 2d4a 7bbe 2323 8c3a
00000110: b755 aabc bd44 bfbd 588a 683e 973f 1e3e
00000120: 0593 a1bd eb85 133e 0d6e a13e d5dd 9fbc
00000130: 4b8d 3ebe dcbf 113e 8ecb 33bd 6d0a a5bd
00000140: ba93 a3bd 3ac4 4d3e 5cc9 eebb 45cb a53b
00000150: 09b9 973d f1b0 873d 34f8 253d 719e 703c
00000160: e6bd bf3c 85a8 51bd 19c8 ce3c 9cb1 3b3e
00000170: 3af5 4a3d 4491 31be 84b3 28bd f10f 45bd
00000180: f0b0 273e 8648 4a3e cd14 7f3d 599c 513e
00000190: 6db9 913d 13b5 803d 4f13 6f3e b748 103e
000001a0: 592d a9bc 55fa e1bd ddaf 3abd b025 993d
000001b0: 2575 8f3e b38d 953d c4dc 13bd 50b5 2f3e
000001c0: d930 16be c81a 0b3e f550 4e3e f99d 043e
000001d0: 1bf7 a8bd 01cc 98bd beb0 e73d 978a d03d
000001e0: c97d 4dbd f64e b93c 5edd 063e fee8 123e
000001f0: e0c4 9ebd 1897 08bd 7cbb 8d3e a15a 4b3c
00000200: 7490 4c3e d04c 813e 9da6 bd3d 3ec3 16be
00000210: 8909 d03d 9939 8a3d e999 35be 26e7 153d
00000220: 4ad5 d83d 9cca 33bd 375a 04bd 7b5d c63d
00000230: 8fd5 ab3d 4108 923e 5003 833d 2765 4b3e
00000240: 8fd0 a5bd b8e6 333e d12d aebd b5a7 a53d
00000250: 697b 153e c02e d9bd 3170 853e 4da4 aa3c
00000260: c3e5 33bd 5544 223e 269d fb3d 149d 50be
00000270: 39b9 25be ea86 573e ef5d bfbd c618 28be
00000280: 7183 bcbd 0a16 1bbe ab15 42be e0e6 2cbe
00000290: 7ae7 b23c e26c 3abd 1c0f f93b c0e0 9fbd
000002a0: 99dc 2ebe cdbe 4bbe fdaa 4dbe 9720 e3bd
000002b0: 69a3 d7bd c500 e5bd 6fd7 903d 715d e83d
000002c0: d8c3 92bd cc44 b4bd 3fd1 f9bd 8ecf f0bc
000002d0: 3683 ebbd 320f 18be 20a0 99bd 92c3 3bbe
000002e0: b57b 17be 7b48 39be c910 10bd 80e8 53be
000002f0: 6d47 c53b 8341 14be 26c1 993c c697 57be
00000300: b48d 26bc 4902 18be 1c6e 03be 10ed 37be
00000310: 8193 0bbe 6071 89be a68a ffbb 7c66 063e
00000320: 222b bb3d 54a5 013e d0b6 923d d216 0d3d
00000330: 7997 07be 2e89 b8bd cf88 1ebe 589d b8bc
00000340: 19b0 0abe 8da1 f2bd 31f7 253d 344b 1d3d
00000350: da0b 4a3e c79e 5bbe 2712 613e 1fe5 60bc
00000360: 7ff2 3c3e 46d5 453e d2f3 92bd 5980 99bd
00000370: 4c71 49be abef 703e 44a2 6cbd 0e74 c9bb
00000380: 20ce 333e 9c32 25be 4926 503e 7864 d53d
00000390: 3356 173e 5e2d 923d f881 983d 4e05 323e
000003a0: 9f62 69be 07ef 7d3d 3dbc 403d 9f37 363e
000003b0: 5f72 063e ab81 f9bd 3920 f23d c7d5 00bd
000003c0: 205a 133d ebeb 80bd c403 d63d 78ac a43e
000003d0: 1c19 963d 3536 313e 112e 203e ae5f 00be
000003e0: 5da6 a83c 62a5 023e 20ad 8a3e 001a ae3b
000003f0: 44b1 903e 15c5 ebbb cd36 37be ef73 31be

critic.2.bias f4 [28]
0.15223072 -0.12121618 -0.054077152 0.010422497 -0.0223209 0.13790008 0.05198081 0.13445999
0.009105991 -0.029433463 -0.08449086 -0.014080652 -0.0036170806 -0.08965438 0.012919037 -0.04537625
-0.09286948 -0.076573394 -0.12399513 -0.06588155 -0.11778379 0.23863938 -0.027993266 0.12664202
-0.079977944 0.08602224 -0.115743645 0.10197944
00000000: 5fe2 1b3e 3040 f8bd 0180 5dbd 1fc3 2a3c
00000010: 52da b6bc ae35 0d3e d4e9 543d e1af 093e
00000020: 4b31 153c 721e f1bc 8b09 adbd 89b2 66bc
00000030: 8b0c 6dbb b79c b7bd 5eaa 533c 72dc 39bd
00000040: 5b32 bebd 83d2 9cbd 29f1 fdbd e8ec 86bd
00000050: a138 f1bd e25d 743e 2252 e5bc 72ae 013e
00000060: 7acb a3bd 6e2c b03d 010b edbd 99da d03d

critic.4.weight f4 [10, 28]
0.15506212 -0.27217865 0.18055879 -0.059438195 -0.15292305 -0.026327912 0.23672818 -0.048602283
0.18394996 0.09664444 -0.054391164 -0.2144177 0.12901868 0.1525064 0.0856843 -0.25869033
0.10530989 0.18561961 0.05174024 -0.11907443 0.082494296 0.17282328 -0.015729817 0.18269657
0.011700221 0.16701 -0.18719289 -0.22996798 0.03359692 0.22087978 0.029562332 0.41813746
0.08624234 0.013812101 0.023274727 -0.1334344 -0.116726786 -0.305716 -0.19256708 0.3757558
0.1954097 -0.090671904 0.13297169 0.31343377 -0.097597815 -0.16957963 -0.005360795 0.0603182
-0.20819175 0.31472722 -0.20762433 0.07631443 0.02548326 0.13154987 0.27737185 0.17435463
0.22170985 -0.077367425 0.049276218 -0.22725026 0.06492063 -0.0046423785 0.14011161 0.23749606
-0.212249 -0.057515603 -0.17577246 -0.17012714 -0.048655845 0.26866424 -0.24949177 -0.15426902
-0.0054261372 0.26112482 0.2301052 -0.11417925 -0.060837515 0.07970213 0.056557767 0.31105253
0.17752685 0.10711549 -0.15604094 -0.24670133 -0.027554234 -0.16617002 0.15098603 -0.15488696
-0.015633097 0.2615355 0.0036485957 0.11772272 -0.01243742 0.20044415 -0.06356781 -0.10898274
0.16409546 0.10187008 -0.101948984 -0.1611726 -0.027654946 0.32716075 0.055887576 -0.3045054
-0.18156785 0.08764853 0.07018974 0.19935642 0.24805157 0.14942807 -0.19821589 0.016534716
0.13669157 -0.20216 0.0829845 -0.06528727 0.019393565 0.16900961 0.19494542 0.23007008
0.0057974677 0.17265466 -0.06627826 -0.22551969 0.17464769 0.07958454 -0.012461944 -0.24503699
0.2918079 0.20398878 0.20955332 -0.35140654 -0.13752967 -0.034974787 0.25117293 -0.07753396
0.07802059 -0.06920135 -0.21105817 -0.010779455 -0.20377116 0.30357546 -0.043096736 0.11824334
-0.041531246 -0.07384016 -0.0016284194 -0.2220237 -0.25960955 -0.06517193 -0.26581478 0.3518042
0.2898258 0.08161542 0.37385884 0.09733325 -0.19357127 0.02582366 -0.13858509 -0.11442432
-0.28761184 0.19297457 -0.21768458 0.20401508 -0.29053536 0.25767395 0.17517596 0.3300316
0.017939588 0.28757358 0.1701854 0.17847535 -0.19134083 -0.13353612 0.20418528 -0.13317533
-0.26951006 -0.18428978 -0.10364324 0.24518824 -0.035885222 -0.14239593 0.37660125 0.14868951
-0.10716596 0.037562214 -0.17755038 -0.14510432 -0.11610199 0.13510829 -0.21508864 0.2920123
-0.13814934 0.13727821 0.2083616 0.25656956 0.009943933 0.022629485 -0.2118884 0.27371708
0.0031648788 0.070329264 0.16280812 -0.21851246 -0.07178922 -0.22007455 -0.12852457 0.26719645
0.12717302 -0.17406517 0.2561391 0.29798406 -0.29130208 0.102857776 0.03124973 -0.008804739
-0.32115185 -0.035864405 -0.007635804 0.039552946 -0.10605641 0.024428057 0.2528067 0.33991626
-0.17807166 0.10154018 0.13343713 0.13615449 -0.0946157 -0.029299676 0.20629229 -0.084553994
-0.22198533 -0.132172 0.13093159 0.1493164 0.21889523 0.027008407 0.16063814 0.21186677
-0.11413337 -0.19997221 -0.20617023 -0.13259378 -0.094562545 -0.10489347 -0.041082714 0.10230375
0.057776477 0.083586164 0.09837425 0.21028534 0.03346625 -0.27670693 -0.07802865 -0.36550474
00000000: 9bc8 1e3e 005b 8bbe 67e4 383e 7775 73bd
00000010: dc97 1cbe a2ad d7bc df68 723e 3013 47bd
00000020: 615d 3c3e 85ed c53d 45c9 5ebd 5090 5bbe
00000030: 791d 043e a32a 1c3e 407b af3d 0f73 84be
00000040: b6ac d73d 1113 3e3e 93ed 533d 4bdd f3bd
00000050: c5f2 a83d 96f8 303e d1db 80bc cf14 3b3e
00000060: 49b2 3f3c ab04 2b3e 7eaf 3fbe ba7c 6bbe
00000070: ed9c 093d 4f2e 623e b42c f23c 1d16 d63e
00000080: d39f b03d 274c 623c a4aa be3c 07a3 08be
00000090: 740e efbd cf86 9cbe 4e30 45be 1063 c03e
000000a0: 7b19 483e 31b2 b9bd bb29 083e 647a a03e
000000b0: 5de1 c7bd 48a6 2dbe 9ca9 afbb 3810 773d
000000c0: 3830 55be ed23 a13e 799b 54be bd4a 9c3d
000000d0: 45c2 d03c 02b5 063e af03 8e3e 058a 323e
000000e0: e807 633e d072 9ebd dcd5 493d 4bb4 68be
000000f0: 1bf5 843d 181f 98bb 6b79 0f3e 2b32 733e
00000100: cd57 59be 7b95 6bbd b2fd 33be cf35 2ebe
00000110: 5a4b 47bd 5c8e 893e c57a 7fbe b3f8 1dbe
00000120: bdcd b1bb 27b2 853e b3a0 6b3e d0d6 e9bd
00000130: c230 79bd df3a a33d 1ea9 673d 4742 9f3e
00000140: 99c9 353e 5e5f db3d 32c9 1fbe 469f 7cbe
00000150: 6bb9 e1bc 7928 2abe 159c 1a3e b09a 1ebe
00000160: fb10 80bc fbe7 853e 471d 6f3b 9c18 f13d
00000170: 52c6 4bbc 3b41 4d3e d72f 82bd 5832 dfbd
00000180: a408 283e 43a1 d03d a1ca d0bd 6e0a 25be
00000190: a08c e2bc 9d81 a73e 5fea 643d 22e8 9bbe
000001a0: ecec 39be 1381 b33d a3bf 8f3d 1724 4c3e
000001b0: 3b01 7e3e ac03 193e 1bf9 4abe d073 873c
000001c0: e0f8 0b3e 0803 4fbe c7f3 a93d 55b5 85bd
000001d0: 41df 9e3c db10 2d3e c69f 473e 7e97 6b3e
000001e0: aff8 bd3b 62cc 303e e5bc 87bd a2ee 66be
000001f0: d8d6 323e 38fd a23d 2e2d 4cbc faea 7abe
00000200: d867 953e 6fe2 503e 2595 563e 8feb b3be
00000210: 94d4 0cbe b941 0fbd bd99 803e 20ca 9ebd
00000220: 42c9 9f3d 70b9 8dbd a21f 58be 509c 30bc
00000230: 63a9 50be 3e6e 9b3e 3486 30bd 9029 f23d
00000240: ab1c 2abd 8339 97bd b070 d5ba 2e5a 63be
00000250: 8beb 84be dc78 85bd e018 88be ae1f b43e
00000260: 0c64 943e fc25 a73d 6d6a bf3e a856 c73d
00000270: 8c37 46be 248c d33c 40e9 0dbe 4c57 eabd
00000280: dc41 93be 209b 453e b5e8 5ebe 54e9 503e
00000290: 0dc1 94be d7ed 833e 5461 333e e7f9 a83e
000002a0: 0bf6 923c d83c 933e 1545 2e3e 3ec2 363e
000002b0: daee 43be b1bd 08be f215 513e 1d5f 08be
000002c0: 39fd 89be 76b6 3cbe e842 d4bd a012 7b3e
000002d0: 62fc 12bd 3dd0 11be e1d1 c03e 1042 183e
000002e0: d479 dbbd d6da 193d c4cf 35be 3a96 14be
000002f0: e1c6 edbd d459 0a3e 3240 5cbe a382 953e
00000300: 0577 0dbe a992 0c3e be5c 553e 165d 833e
00000310: e1eb 223c 7861 b93c 46f9 58be a524 8c3e
00000320: db69 4f3b ca08 903d 2cb7 263e bbc1 5fbe
00000330: 3a06 93bd 395b 61be f29b 03be f9cd 883e
00000340: a539 023e 243e 32be aa24 833e 5e91 983e
00000350: 8c25 95be 19a7 d23d 6fff ff3c c141 10bc
00000360: 046e a4be 8ee6 12bd c435 fabb 4502 223d
00000370: 1a34 d9bd 591d c83c e16f 813e 8109 ae3e
00000380: 6b58 36be 4cf4 cf3d bea3 083e 156c 0b3e
00000390: e0c5 c1bd e005 f0bc 493e 533e a52a adbd
000003a0: 1f50 63be 1958 07be ee12 063e 66e6 183e
000003b0: 1226 603e bc40 dd3c 537e 243e 9af3 583e
000003c0: c2be e9bd 84c5 4cbe 4a1e 53be aac6 07be
000003d0: 02aa c1bd 63d2 d6bd 5946 28bd a184 d13d
000003e0: 07a7 6c3d 392f ab3d 7078 c93d 0a55 573e
000003f0: e813 093d 88ac 8dbe 7ccd 9fbd 7023 bbbe

critic.4.bias f4 [10]
-0.08731243 0.33950832 -0.039308365 0.067632645 0.10593048 0.09777949 -0.06818043 0.19880566
0.10615159 -0.14547014
00000000: dcd0 b2bd 09d4 ad3e cf01 21bd fc82 8a3d
00000010: 14f2 d83d 9d40 c83d 2ea2 8bbd b693 4b3e
00000020: 0166 d93d 20f6 14be

critic.6.weight f4 [5, 10]
0.014210323 -0.05383759 0.35442415 0.3267552 0.2109631 0.015363416 0.07307512 -0.16951963
-0.09407767 0.16077611 0.19711281 0.19269466 0.5065951 0.38013768 0.3314127 -0.21267165
-0.29049212 -0.27995333 -0.3739257 -0.08053834 0.3246945 0.2178266 0.10228367 0.115107246
-0.12796332 -0.21076667 -0.016065491 -0.19597192 0.0122722555 0.22061576 0.2511481 0.012981032
0.021525662 0.15026568 -0.20566593 -0.16529568 -0.4250401 0.12377359 -0.43589705 0.21730213
-0.36939642 0.2886466 -0.084925264 -0.061641663 -0.13242939 0.42725366 0.17572948 0.25253356
0.12098439 -0.48146817
00000000: 6ad2 683c ce84 5cbd 1577 b53e 754c a73e
00000010: b606 583e d6b6 7b3c 69a8 953d 8e96 2dbe
00000020: cbab c0bd 7ea2 243e f1d7 493e c051 453e
00000030: 37b0 013f 68a1 c23e edae a93e 99c6 59be
00000040: 62bb 94be 0b56 8fbe 3073 bfbe 49f1 a4bd
00000050: 5c3e a63e f00d 5f3e 1a7a d13d 59bd eb3d
00000060: d108 03be 38d3 57be c79b 83bc ddac 48be
00000070: 9211 493c 19e9 613e 7c96 803e 65ae 543c
00000080: 9656 b03c 3fdf 193e 179a 52be 4543 29be
00000090: db9e d9be 027d fd3d e62d dfbe 7384 5e3e
000000a0: 8721 bdbe 7dc9 933e 4ced adbd f87b 7cbd
000000b0: 929b 07be fec0 da3e 6ef2 333e 144c 813e
000000c0: aac6 f73d ff82 f6be

critic.6.bias f4 [5]
-0.10551464 0.32883897 0.34127328 -0.28939164 0.12487057
00000000: 0f18 d8bd 955d a83e 5fbb ae3e 242b 94be
00000010: 24bc ff3d

critic.8.weight f4 [1, 5]
0.16672401 0.52103823 0.1627953 0.24501912 -0.34281513
00000000: b3b9 2a3e c362 053f d0b3 263e 4be6 7a3e
00000010: 7785 afbe
