Weight/PPO_continuous_log.pth (torch_old, 46024 bytes, 17 tensors)

actor.0.weight f4 [40, 94]
0.017388662 0.047905304 0.004300499 0.13896327 -0.01978739 0.077004634 -0.102359265 -0.028332151
0.04899567 -0.052939404 0.13729176 -0.021155003 0.13602407 -0.042971697 -0.027622763 -0.05590807
0.10632829 0.06346983 -0.067497656 0.08529121 -0.10283643 -0.11007592 -0.08187293 0.09915515
-0.031476665 -0.081384294 0.02958306 -0.11805581 -0.09969092 -0.14238052 0.13372952 -0.035308767
0.08218849 0.07299149 -0.09136879 -0.0015827899 -0.023755878 0.09049074 0.061107047 -0.023070285
0.08425305 -0.08259985 -0.025071613 0.052993678 0.072650604 0.00013256582 0.06842471 0.076544136
-0.0020888806 -0.095055565 -0.1007322 -0.009785096 0.010136836 0.17300625 0.13442135 -0.004525321
-0.004765322 -0.0017208268 0.06826704 -0.03275782 0.07310421 -0.09174946 0.028468626 -0.075647
0.07733423 -0.0018257742 0.12327124 -0.09867861 -0.14743046 -0.08864369 0.012455568 -0.04659416
0.19105703 0.030640261 -0.0114304265 -0.18838553 -0.10527553 0.1092713 0.09113885 -0.05431851
-0.10823547 -0.11203102 0.06264484 -0.035918057 0.073520675 -0.0244089 0.09466467 -0.11748175
-0.051759984 0.14361064 -0.013036716 0.020333549 0.097571105 0.112412155 -0.09977295 -0.05849408
0.10761646 -0.03921545 -0.18597692 -0.15561877 -0.041251585 0.061916493 0.024362814 -0.016979596
0.027957007 -0.12756836 -0.12248144 -0.05572139 -0.05044155 -0.03429918 0.16884822 0.044101145
-0.06964839 -0.112494715 -0.057417974 -0.018030388 0.030695403 -0.017720355 0.006915666 -0.176317
-0.0071760677 -0.048360884 0.019753765 -0.06713408 0.02257526 -0.003108497 -0.14538367 -0.110070646
0.056645777 -0.00979584 0.09539525 0.082324535 -0.05741191 -0.015020717 -0.07089729 -0.070302464
-0.07096892 -0.09260432 0.051636837 0.03861991 -0.055859033 -0.12564853 0.059255905 -0.044315197
-0.09129235 0.04919357 0.14737135 0.11113648 0.20927112 -0.10889695 0.13093708 -0.0174783
-0.054593407 -0.11431948 -0.04777139 -0.024762908 0.09834051 0.03394373 -0.0939979 -0.07424596
0.29649973 0.020382598 0.10880445 -0.22072574 -0.08378889 -0.083398186 0.08950524 0.077139415
0.018805288 -0.12375685 -0.089999944 -0.11198166 0.02167851 -0.09547508 -0.03640816 -0.049240354
-0.10596197 0.0007496453 0.0409857 -0.09365174 -0.030489279 0.032567825 0.09260633 -0.042501926
0.13297589 0.16476355 0.14977223 0.096842386 -0.06264189 -0.022003207 -0.001353123 0.007086346
0.05575014 0.119980045 -0.038268857 -0.074163005 -0.027383314 -0.00060491695 0.06327015 0.0025677765
-0.06469697 -0.058429442 0.04040842 0.010994631 0.0014835123 -0.026246775 -0.08375799 -0.064668745
-0.06193445 -0.017316464 0.035884403 0.05577461 -0.05617628 -0.121966764 0.013119112 0.069958165
-0.03746019 -0.053533576 0.046058197 -0.004011447 -0.11968565 0.10791687 -0.07518264 -0.083744936
-0.12907556 0.07348427 0.11350002 -0.034538154 -0.04190669 -0.13466817 -0.14288627 0.05013096
0.05528434 0.12451537 -0.009242774 0.056359768 -0.033017237 -0.11495729 -0.14933348 -0.013382825
0.035678085 -0.06870631 -0.12743647 -0.040609557 -0.0579337 -0.04752579 -0.04842754 -0.08543247
-0.11393905 0.07774646 -0.07650704 -0.2183929 0.010451752 -0.05408607 -0.07082133 -0.2124032
00000000: ab72 8e3c 5a38 443d 33eb 8c3b 634c 0e3e
00000010: 2a19 a2bc 9bb4 9d3d bca1 d1bd d418 e8bc
00000020: afaf 483d fdd6 58bd 3696 0c3e 424d adbc
00000030: e549 0b3e 1703 30bd 2249 e2bc dcff 64bd
00000040: a6c2 d93d 78fc 813d 363c 8abd 28ad ae3d
00000050: e89b d2bd 7c6f e1bd ffac a7bd db11 cb3d
00000060: aded 00bd cfac a6bd 2c58 f23c 3fc7 f1bd
00000070: c12a ccbd 33cc 11be 64f0 083e ed9f 10bd
00000080: 7052 a83d 907c 953d 8f1f bbbd 9e75 cfba
00000090: b09b c2bc 3653 b93d 624b 7a3d e5fd bcbc
000000a0: dd8c ac3d 1c2a a9bd fc62 cdbc e60f 593d
000000b0: d7c9 943d 5e01 0b39 4122 8c3d 2cc3 9c3d
000000c0: 9ae5 08bb 7eac c2bd af4c cebd ab51 20bc
000000d0: f914 263c 8d28 313e c0a5 093e 2549 94bb
000000e0: 6b26 9cbb 5e8d e1ba 97cf 8b3d 102d 06bd
000000f0: a9b7 953d 24e7 bbbd 0937 e93c d0ec 9abd
00000100: 6961 9e3d d14e efba a275 fc3d 0318 cabd
00000110: 03f8 16be d38a b5bd 7012 4c3c 85d9 3ebd
00000120: 74a4 433e 4901 fb3c af46 3bbc 23e8 40be
00000130: b29a d7bd a2c9 df3d 01a7 ba3d 167d 5ebd
00000140: 8faa ddbd 8570 e5bd f04b 803d d01e 13bd
00000150: 0292 963d 2cf5 c7bc 8ddf c13d 469a f0bd
00000160: 4702 54bd ab0e 133e f397 55bc 8b92 a63c
00000170: 5cd3 c73d 5838 e63d c355 ccbd 7d97 6fbd
00000180: 0566 dc3d 61a0 20bd bc70 3ebe 875a 1fbe
00000190: 6cf7 28bd 269c 7d3d 8694 c73c cb18 8bbc
000001a0: 1806 e53c 48a1 02be 8dd7 fabd 1d3c 64bd
000001b0: cc9b 4ebd 4c7d 0cbd 8ce6 2c3e 67a3 343d
000001c0: d1a3 8ebd a163 e6bd 1c2f 6bbd 77b4 93bc
000001d0: ed74 fb3c 472a 91bc d09c e23b 728c 34be
000001e0: 3825 ebbb 1016 46bd a6d2 a13c 987d 89bd
000001f0: c0ef b83c edb7 4bbb 75df 14be b86c e1bd
00000200: 6705 683d bb7e 20bc 965e c33d c499 a83d
00000210: c028 6bbd 7419 76bc 9932 91bd bdfa 8fbd
00000220: 2758 91bd 55a7 bdbd 2681 533d e92f 1e3d
00000230: 71cc 64bd 02aa 00be 52b6 723d da83 35bd
00000240: 7cf7 babd 327f 493d 84e8 163e 869b e33d
00000250: 2b4b 563e 5d05 dfbd 5f14 063e a72e 8fbc
00000260: 569d 5fbd 5520 eabd efab 43bd 95db cabc
00000270: c066 c93d 9508 0b3d f981 c0bd 440e 98bd
00000280: d0ce 973e 68f9 a63c ded4 de3d ee05 62be
00000290: 8299 abbd abcc aabd 864e b73d 45fb 9d3d
000002a0: 8c0d 9a3c 3b74 fdbd e451 b8bd a456 e5bd
000002b0: 2197 b13c 7088 c3bd b920 15bd 41b0 49bd
000002c0: 9702 d9bd d883 443a 9fe0 273d 7ccc bfbd
000002d0: a7c4 f9bc d765 053d 63a8 bd3d 8016 2ebd
000002e0: d52a 083e c7b7 283e e45d 193e 4d55 c63d
000002f0: 644a 80bd 1240 b4bc 465b b1ba 9434 e83b
00000300: 425a 643d 19b8 f53d cebf 1cbd c6e2 97bd
00000310: f952 e0bc 4a93 1eba c893 813d 2448 283b
00000320: d87f 84bd b653 6fbd 4d83 253d d322 343c
00000330: 6a72 c23a 7a03 d7bc 4f89 abbd 0c71 84bd
00000340: faae 7dbd 42db 8dbc 86fb 123d eb73 643d
00000350: 1919 66bd b6c9 f9bd 8bf1 563c 3a46 8f3d
00000360: db6f 19bd 0646 5bbd 85a7 3c3d 7572 83bb
00000370: c01d f5bd 8503 dd3d 5bf9 99bd 7782 abbd
00000380: 622c 04be ec7e 963d b372 e83d e177 0dbd
00000390: 59a6 2bbd 74e6 09be c750 12be 1f56 4d3d
000003a0: d571 623d ea01 ff3d 016f 17bc 80d9 663d
000003b0: 153d 07bd ba6e ebbd e0ea 18be a343 5bbc
000003c0: 2f23 123d e5b5 8cbd b57e 02be 3556 26bd
000003d0: e34b 6dbd 67aa 42bd f55b 46bd 38f7 aebd
000003e0: e058 e9bd 8939 9f3d b9af 9cbd 63a2 5fbe
000003f0: d33d 2b3c 5b89 5dbd c60a 91bd 3980 59be

actor.0.bias f4 [40]
0.01381844 0.015972316 0.106255114 0.028008047 0.15330005 0.042952735 0.116210885 -0.09256766
0.08893646 -0.08474045 -0.06980207 0.13029295 0.057213064 0.06366542 -0.05153886 0.10139174
0.131011 0.031316143 0.11754588 -0.03140685 -0.05678691 0.04849404 0.114455014 -0.03809366
0.06358602 0.013553757 -0.035141196 0.02561644 -0.06894685 -0.021276018 0.13640895 0.039276984
0.05547972 0.018248497 -0.08079231 -0.08494816 0.07242574 -0.087897226 0.08269665 0.083267644
00000000: bd66 623c 60d8 823c 489c d93d 2271 e53c
00000010: b0fa 1c3e 35ef 2f3d f9ff ed3d 1d94 bdbd
00000020: 5224 b63d 678c adbd 63f4 8ebd 846b 053e
00000030: 3f58 6a3d 0463 823d 691a 53bd 79a6 cf3d
00000040: bf27 063e 5b45 003d e5bb f03d 78a4 00bd
00000050: 6499 68bd b0a1 463d 6467 ea3d 1908 1cbd
00000060: 6339 823d 9410 5e3c 37f0 0fbd 92d9 d13c
00000070: 0234 8dbd 0b4b aebc caae 0b3e e7e0 203d
00000080: b43e 633d df7d 953c 7076 a5bd 4df9 adbd
00000090: f253 943d 7603 b4bd dc5c a93d 3a88 aa3d

actor.2.weight f4 [28, 40]
0.14828825 -0.36392257 -0.080015846 -0.25925186 0.14618026 -0.22614038 -0.2392711 -0.18594263
0.14763473 0.039125122 0.0793067 0.19206738 -0.010714858 -0.07763296 -0.20658717 -0.06890755
0.07610861 0.0059886714 -0.17371279 -0.10339404 -0.023365952 -0.006383639 -0.054615825 -0.062141817
-0.1638337 -0.07468775 -0.08897387 0.0003586921 0.30348915 0.06550178 0.12019057 0.23817432
0.12573472 0.26661724 0.17108598 -0.09679944 -0.09071709 0.08808171 -0.00987106 0.063035436
-0.05723012 -0.01869887 0.13976645 -0.11366888 0.12913127 -0.07889659 -0.15361886 0.0218391
-0.06563649 -0.030784734 0.14094178 0.23684761 0.2996563 0.18729824 -0.18066907 0.0059777047
0.02639977 -0.049827613 0.07188377 0.025245477 0.049800035 0.029486835 0.1799153 0.24938345
0.08732749 -0.13144644 0.05215918 0.21312505 -0.1476774 0.006716154 -0.08171108 -0.031667884
-0.056003455 0.2271563 -0.061771914 -0.104226865 0.05054763 0.17189905 0.22704004 -0.008620114
0.16105166 -0.12222131 0.078203656 0.1980292 0.07415193 -0.013764125 -0.122308016 0.05000483
0.15652809 -0.106558695 0.046605375 -0.15407841 0.08626718 0.07139646 0.13401368 -0.03049476
-0.21232863 0.036846425 -0.15257323 0.10535968 0.0942072 -0.26670983 0.055092167 -0.014202075
-0.11596607 -0.070439495 -0.081982166 -0.018519562 -0.0072036264 0.042767953 0.13170174 -0.004436158
0.018511849 -0.13972059 0.13570754 -0.1695522 0.2681384 -0.066645235 -0.10268328 0.08977086
-0.048744824 -0.024169084 0.21039382 0.15160732 0.19233118 0.08948496 -0.0104785 -0.026257379
-0.008964088 -0.12017954 -0.03554738 0.1453665 -0.28485116 0.011225518 0.09229521 0.11592291
0.05371375 -0.11662427 0.048831794 -0.07605248 -0.10233374 0.30725527 0.14705183 -0.16910347
0.118569806 0.19119093 0.0635614 0.13725507 0.15104102 0.09585753 0.13651507 -0.11844246
0.0046101566 -0.02912017 0.1933303 0.1937931 -0.10986785 -0.003937259 -0.0067720325 -0.10473806
0.03518792 0.059631236 0.021684078 0.014568898 -0.08586559 0.29279467 0.09036296 0.16324319
-0.039911207 0.10611692 0.062169496 0.051882118 -0.08817778 -0.05553442 -0.02728253 0.24020644
0.14363334 0.16706043 0.17303187 0.25271866 0.12515526 0.06871759 0.04739878 0.050861515
-0.117237404 0.13690111 0.07874768 -0.2695194 -0.028710252 -0.18424354 -0.15730208 0.16304512
0.12711628 -0.03503543 0.080195576 0.08332055 0.148154 -0.052592807 -0.2150819 -0.09779831
0.13975008 0.13382055 -0.058028974 0.09991481 -0.17039904 0.19221166 0.13027248 0.03329359
0.037394885 -0.19210295 -0.074389294 0.079031825 -0.32663897 -0.17515656 0.17307858 0.11631723
0.09734864 -0.20067482 0.11068201 -0.030994099 -0.031513784 0.2617545 -0.18985403 -0.019896246
-0.16725504 0.34543413 0.042425502 -0.07783117 0.104978554 0.1578481 -0.07659705 -0.0639304
0.13967721 -0.08925495 -0.02277728 0.18147384 -0.06313134 -0.06307798 0.054797724 -0.07340898
-0.01772595 0.30384883 -0.083573624 0.14328441 0.1019176 0.16221829 -0.021480054 0.091565795
-0.12646323 0.09178484 0.039487857 0.11624859 -0.12765789 -0.017475031 -0.12305952 0.10931541
00000000: e0d8 173e 0f54 babe 59df a3bd a9bc 84be
00000010: 47b0 153e 5891 67be 7c03 75be bf67 3ebe
00000020: 8f2d 173e aa41 203d 8d6b a23d 50ad 443e
00000030: 5f8d 2fbc 08fe 9ebd 968b 53be 671f 8dbd
00000040: d5de 9b3d 9e3c c43b c4e1 31be 41c0 d3bd
00000050: f469 bfbc d82d d1bb d8b4 5fbd 6b88 7ebd
00000060: 05c4 27be e4f5 98bd ef37 b6bd d70e bc39
00000070: ee62 9b3e cc25 863d 7926 f63d f8e3 733e
00000080: 9ac0 003e 0e82 883e 2a31 2f3e c93e c6bd
00000090: e2c9 b9bd 2f64 b43d 3aba 21bc b918 813d
000000a0: 216a 6abd 5f2e 99bc f01e 0f3e 3bcb e8bd
000000b0: fd3a 043e 8994 a1bd 434e 1dbe eae7 b23c
000000c0: 6d6c 86bd 4430 fcbc 0b53 103e 2e88 723e
000000d0: 8d6c 993e 1ccb 3f3e 5001 39be 9fe0 c33b
000000e0: 5544 d83c 0a18 4cbd cc37 933d 9acf ce3c
000000f0: 1ffb 4b3d 608e f13c b73b 383e 605e 7f3e
00000100: c1d8 b23d e599 06be dda4 553d 743d 5a3e
00000110: bf38 17be 2f13 dc3b 2458 a7bd 2fb6 01bd
00000120: e163 65bd a99b 683e 8c04 7dbd e574 d5bd
00000130: 080b 4f3d 4e06 303e 2f7d 683e 613b 0dbc
00000140: baea 243e 2b4f fabd 3d29 a03d 2bc8 4a3e
00000150: f8dc 973d ed82 61bc a07c fabd ddd1 4c3d
00000160: e648 203e 723b dabd 47e5 3e3d bbc6 1dbe
00000170: d9ac b03d 4f38 923d e23a 093e 26d0 f9bc
00000180: ad6c 59be 47ec 163d 283c 1cbe d1c6 d73d
00000190: b4ef c03d 318e 88be 53a8 613d d2af 68bc
000001a0: 9e7f edbd 9542 90bd 44e6 a7bd 56b6 97bc
000001b0: 660c ecbb 732d 2f3d d2dc 063e 315d 91bb
000001c0: 29a6 973c ea12 0fbe ebf6 0a3e 189f 2dbe
000001d0: 7049 893e 4c7d 88bd 9d4b d2bd c9d9 b73d
000001e0: a7a8 47bd 3efe c5bc 7a71 573e f33e 1b3e
000001f0: 77f2 443e e443 b73d 04ae 2bbc b719 d7bc
00000200: 1cde 12bc b120 f6bd 219a 11bd f5da 143e
00000210: 03d8 91be 3ceb 373c 4505 bd3d fe68 ed3d
00000220: f302 5c3d b5d8 eebd d903 483d 67c1 9bbd
00000230: 5a94 d1bd 9050 9d3e c194 163e 7629 2dbe
00000240: bad4 f23d 8ec7 433e 7b2c 823d 988c 0c3e
00000250: 7faa 1a3e f450 c43d 9bca 0b3e f691 f2bd
00000260: cc10 973b 6c8d eebc 61f8 453e b371 463e
00000270: 6502 e1bd 1f04 81bb ede7 ddbb e880 d6bd
00000280: 3521 103d e23f 743d cfa2 b13c 63b2 6e3c
00000290: 4cda afbd 2fe9 953e 3710 b93d 3929 273e
000002a0: ef79 23bd d453 d93d 71a5 7e3d 5882 543d
000002b0: 8d96 b4bd 0f78 63bd 9d7f dfbc adf8 753e
000002c0: 9e14 133e e411 2b3e 442f 313e 5764 813e
000002d0: b328 003e cfbb 8c3d 3925 423d 2a54 503d
000002e0: 2a1a f0bd ce2f 0c3e 7746 a13d 72fe 89be
000002f0: c331 ebbc 57aa 3cbe cc13 21be 4df5 263e
00000300: c52a 023e 5081 0fbd 943d a43d f7a3 aa3d
00000310: afb5 173e 8e6b 57bd 6e3e 5cbe 7b4a c8bd
00000320: a51a 0f3e 4108 093e caaf 6dbd 23a0 cc3d
00000330: 167d 2ebe 22d3 443e 2666 053e dc5e 083d
00000340: 612b 193d a3b6 44be 6a59 98bd 70db a13d
00000350: 393d a7be 3e5c 33be 833b 313e ba37 ee3d
00000360: b95e c73d b37d 4dbe 40ad e23d 56e7 fdbc
00000370: 9914 01bd b004 863e 1869 42be 74fd a2bc
00000380: e844 2bbe bedc b03e 5dc6 2d3d f365 9fbd
00000390: fffe d63d efa2 213e eade 9cbd f1ed 82bd
000003a0: 8b07 0f3e 4dcb b6bd 6b97 babc 47d4 393e
000003b0: 014b 81bd 072f 81bd 9473 603d 7357 96bd
000003c0: 0336 91bc 1392 9b3e a628 abbd 26b9 123e
000003d0: 2dba d03d 8d1c 263e f0f6 afbc d986 bb3d
000003e0: 947f 01be b1f9 bb3d 05be 213d be13 ee3d
000003f0: c0b8 02be cc27 8fbc a106 fcbd c2e0 df3d

actor.2.bias f4 [28]
0.024589224 -0.0901501 -0.051192343 0.17988312 0.036337618 -0.0042943917 0.024521785 0.12591577
0.13240384 -0.08443191 0.06000111 -0.12791647 -0.04504646 0.12973398 -0.17464878 -0.081712954
0.13910982 0.20883848 -0.1774849 -0.025304414 -0.051293463 0.127797 0.09187617 0.10778468
0.13033004 -0.03280404 0.12503809 0.07093974
00000000: 576f c93c 9ea0 b8bd 10af 51bd 4833 383e
00000010: c1d6 143d f8b7 8cbb e9e1 c83c 10f0 003e
00000020: df94 073e a3ea acbd b9c3 753d 89fc 02be
00000030: a382 38bd fcd8 043e 21d7 32be 1f59 a7bd
00000040: ce72 0e3e c1d9 553e 9abe 35be 344b cfbc
00000050: 1819 52bd 37dd 023e 9329 bc3d 37be dc3d
00000060: 3d75 053e 875d 06bd fc09 003e db48 913d

actor.4.weight f4 [14, 28]
0.07660939 -0.18588114 -0.1367875 0.16663788 0.0479102 0.28797275 0.041654848 0.075678125
0.14502533 0.19320422 0.024238965 -0.1770887 0.06259698 -0.05423228 -0.05390114 0.0823184
0.17821547 0.087044224 -0.1707189 0.21635349 -0.16057584 -0.02351204 -0.17540985 0.2714509
0.2477387 -0.12897798 -0.12019805 0.1782868 0.08627724 -0.16732211 -0.31137648 0.14967254
-0.07658394 0.20353316 -0.14293067 -0.18287809 -0.26417726 0.2021817 0.289933 -0.1986857
0.10473183 -0.19104587 -0.188585 0.105251454 0.1716757 0.26250362 0.01450485 0.1536267
-0.2511937 0.111721486 -0.11785202 0.04698474 0.23954734 -0.14715566 0.078650825 -0.05858476
0.14218868 0.029209951 -0.041615378 0.1499229 -0.14576912 -0.1405513 0.0967646 -0.16317505
0.028564548 0.15984936 0.018657677 0.12020623 0.13980477 -0.17683151 0.10907033 0.040289015
0.18883799 0.2628793 -0.1611042 0.0783108 0.079978704 0.081696235 0.037963632 0.07464773
-0.05818123 -0.12242723 -0.17818458 0.21747702 0.12960687 -0.12229191 -0.25229374 0.22619882
-0.21167158 0.21934706 -0.21315472 -0.090970166 -0.08929272 0.24164742 0.011412963 0.09678549
0.082445495 0.28564656 0.181923 0.11876511 0.37378544 0.17966737 -0.2339554 0.18662052
0.19498223 -0.12458198 -0.16838168 -0.24134254 -0.18046431 0.063714005 0.02105698 -0.11530936
-0.045896098 0.08728579 -0.25418073 0.23663723 -0.11044179 0.055526283 0.0018174206 -0.0623228
0.25175312 0.045209 0.052791875 -0.13455492 0.1413932 0.1817299 0.030799005 -0.060327973
0.31435716 0.3462012 -0.045435145 0.14959927 0.13620868 -0.1746601 -0.059284635 -0.07089707
0.024413107 -0.12560077 -0.09623368 0.084373176 -0.022082742 -0.15876535 0.17590334 -0.15644066
0.15360305 0.15838702 -0.23376024 0.16051316 -0.06013415 -0.16098581 0.31783244 -0.028556343
-0.22815932 0.023776922 -0.02580696 0.13214193 0.31783634 0.23915485 0.011710799 -0.18207283
0.08561398 -0.024030713 0.029998602 0.051543936 -0.028960088 -0.07598286 0.09349766 0.05205471
0.11468374 0.19228494 0.024377052 -0.055083558 -0.07455329 -0.31961298 -0.30135933 0.06592404
0.24154653 -0.19805412 0.023604399 0.20048675 -0.1931986 0.12710002 -0.0025695488 -0.1663786
-0.17849903 -0.39853886 0.27841666 0.026437992 0.1800153 0.1706582 0.20292355 0.263524
0.13078119 -0.26067626 0.20204946 0.17003544 -0.12056575 -0.12529205 0.42641202 0.07663011
0.28262344 0.030406294 0.24130048 -0.21794431 0.042846475 0.07112752 0.06405335 0.3236225
-0.03330653 0.07783631 0.06186837 -0.06247447 -0.001829717 -0.28105515 0.12400215 -0.2697479
0.24562788 0.29627267 -0.14910059 -0.19855729 0.20400952 0.070225544 0.23002732 0.26590914
-0.08926704 -0.2557798 0.17225654 0.13100097 0.32210657 0.17610794 0.13216898 -0.30707154
-0.026572108 0.14582825 0.23037687 -0.11380499 -0.071235426 -0.12327318 -0.19904009 0.03065585
0.09348136 0.107037485 -0.022949027 -0.09987308 -0.023851134 0.18474141 -0.16146044 0.03649919
0.16963603 0.24075036 -0.07348078 0.21408999 -0.21144669 0.06415322 0.22683258 0.08709319
00000000: 62e5 9c3d a057 3ebe 0612 0cbe 1fa3 2a3e
00000010: 7c3d 443d 2a71 933e 469e 2a3d 22fd 9a3d
00000020: 8581 143e 54d7 453e cb90 c63c bd56 35be
00000030: d832 803d ab22 5ebd 71c7 5cbd 8d96 a83d
00000040: 1e7e 363e 3e44 b23d efd0 2ebe c58b 5d3e
00000050: fe6d 24be 529c c0bc a49e 33be 9dfb 8a3e
00000060: 37af 7d3e ce12 04be 652a f6bd d190 363e
00000070: 1fb2 b03d 7d56 2bbe bd6c 9fbe c243 193e
00000080: 0ad8 9cbd ff6a 503e 6b5c 12be 6544 3bbe
00000090: 3e42 87be b808 4f3e 1972 943e 4474 4bbe
000000a0: a47d d63d 87a1 43be 6d1c 41be 138e d73d
000000b0: c1cb 2f3e e066 863e c0a5 6d3c 5150 1d3e
000000c0: 769c 80be 3cce e43d 665c f1bd 1273 403d
000000d0: e64b 753e f9af 16be af13 a13d 93f6 6fbd
000000e0: e999 113e b549 ef3c e374 2abd 6485 193e
000000f0: 8044 15be aeec 0fbe 852c c63d 5c17 27be
00000100: 3300 ea3c 8daf 233e fcd7 983c af2e f63d
00000110: fb28 0f3e 5213 35be 4460 df3d 1806 253d
00000120: bf5e 413e 1e98 863e 80f8 24be 6a61 a03d
00000130: e0cb a33d 5b50 a73d c17f 1b3d e9e0 983d
00000140: 714f 6ebd 21bb fabd 0576 36be 4cb2 5e3e
00000150: aab7 043e 2e74 fabd a52c 81be aaa0 673e
00000160: 6fc0 58be 849c 603e 3b45 5abe 914e babd
00000170: 1adf b6bd 6c72 773e 70fd 3a3c 7937 c63d
00000180: 2fd9 a83d 4440 923e 064a 3a3e 1f3b f33d
00000190: ce60 bf3e b9fa 373e 0192 6fbe 7319 3f3e
000001a0: 6ca9 473e d624 ffbd 3f6c 2cbe 8022 77be
000001b0: a3cb 38be 7d7c 823d b07f ac3c 5027 ecbd
000001c0: 8cfd 3bbd e4c2 b23d fa23 82be 0851 723e
000001d0: 4e2f e2bd 876f 633d 8436 ee3a 3146 7fbd
000001e0: c9e5 803e 132d 393d 4b3c 583d c4c8 09be
000001f0: 61c9 103e 6717 3a3e 324e fc3c 771a 77bd
00000200: 6cf3 a03e 4941 b13e 341a 3abd 8d30 193e
00000210: 4a7a 0b3e 19da 32be 72d4 72bd 7c32 91bd
00000220: fffd c73c 7d9d 00be 2a16 c5bd d8cb ac3d
00000230: dee6 b4bc 6293 22be 0120 343e fb31 20be
00000240: 1e4a 1d3e 3530 223e d85e 6fbe 905d 243e
00000250: 3a4f 76bd 77d9 24be efba a23e feee e9bc
00000260: 99a2 69be d2c7 c23c 1e69 d3bc 3750 073e
00000270: 72bb a23e 02e5 743e a7de 3f3c 4d71 3abe
00000280: 6256 af3d 0fdc c4bc a1bf f53c bc1f 533d
00000290: b53d edbc e79c 9bbd b37b bf3d 5237 553d
000002a0: 4fdf ea3d 58e6 443e 62b2 c73c 4c9f 61bd
000002b0: 65af 98bd 50a4 a3be c54b 9abe 2f03 873d
000002c0: f957 773e b3ce 4abe 035e c13c 664c 4d3e
000002d0: dbd5 45be 8226 023e e065 28bb 275f 2abe
000002e0: 73c8 36be 490d ccbe a18c 8e3e 7d94 d83c
000002f0: ee55 383e 06c1 2e3e 31cb 4f3e 9eec 863e
00000300: 81eb 053e 5c77 85be 0ee6 4e3e c51d 2e3e
00000310: 2deb f6bd 8f4c 00be ad52 da3e 3ff0 9c3d
00000320: 05b4 903e 9f16 f93c 7917 773e cb2c 5fbe
00000330: c97f 2f3d 4eab 913d 672e 833d d9b1 a53e
00000340: 6e6c 08bd a568 9f3d b069 7d3d 3be5 7fbd
00000350: 1dd3 efba 76e6 8fbe d7f4 fd3d 661c 8abe
00000360: e085 7b3e 0db1 973e d3ad 18be 9a52 4bbe
00000370: dfe7 503e 69d2 8f3d 488c 6b3e 3e25 883e
00000380: a3d1 b6bd 92f5 82be 0564 303e 1e25 063e
00000390: 27eb a43e a455 343e 4e57 073e 7b38 9dbe
000003a0: c0ad d9bc 0054 153e eae7 6b3e 9712 e9bd
000003b0: e1e3 91bd a676 fcbd 2ad1 4bbe fa21 fb3c
000003c0: 2873 bf3d 7836 db3d 99ff bbbc 428a ccbd
000003d0: 7463 c3bc da2c 3d3e e355 25be 2d80 153d
000003e0: 11b5 2d3e 4387 763e 177d 96bd 683a 5b3e
000003f0: 7b85 58be c362 833d cd46 683e ea5d b23d

actor.4.bias f4 [14]
-0.08669511 -0.01635435 -0.18534021 0.10589919 0.06576761 0.13816105 0.15826333 -0.04295113
0.18926114 0.16153242 0.060942832 -0.118719466 -0.13718662 0.09822646
00000000: 358d b1bd 8ff9 85bc d3c9 3dbe ade1 d83d
00000010: 2bb1 863d 177a 0d3e c80f 223e 86ed 2fbd
00000020: accd 413e c168 253e 319f 793d 3123 f3bd
00000030: a67a 0cbe f42a c93d

actor.6.weight f4 [7, 14]
0.42698643 0.2913718 -0.08176228 -0.32531497 -0.38563064 -0.08286334 0.043030415 0.083213516
0.37669715 -0.36382803 0.26268703 0.43978593 -0.39142534 -0.29957184 -0.061300606 0.05567753
0.3417733 0.080597356 0.22094508 0.3636194 0.26010424 -0.27267587 -0.24392572 -0.050171565
0.0023606268 0.011988508 0.28814343 0.31566948 -0.1875392 -0.25049403 0.004265487 -0.06635868
0.13153857 0.11106724 0.056555804 0.1576542 0.21050131 0.24442472 -0.12259583 -0.16062412
0.26890817 0.074749 -0.17801447 -0.10968524 0.18630168 -0.32081395 -0.1482347 0.007565521
0.30053562 -0.044685625 -0.2233557 -0.23707306 0.02522069 -0.021086162 -0.24464571 0.32975888
0.2791909 -0.13296786 0.33413285 -0.002968814 0.40444964 -0.088108465 0.012398481 -0.36612862
-0.22059359 -0.062874675 0.3089167 -0.19588192 0.016055357 -0.2535446 -0.31415626 -0.20172425
-0.19361989 -0.39344493 -0.29113552 0.022808611 0.17901349 0.18564358 -0.017501943 -0.028777163
-0.070661806 -0.11672431 0.2894754 0.3757887 -0.331206 -0.4308084 -0.3009146 -0.07243622
-0.10538513 -0.301082 0.28467098 0.09455985 -0.31584287 -0.42467397 0.34819052 0.27493754
0.21197061 0.05139734
00000000: f79d da3e af2e 953e fb72 a7bd af8f a6be
00000010: 6171 c5be 41b4 a9bd a940 303d d96b aa3d
00000020: 73de c03e ab47 babe ea7e 863e 9f2b e13e
00000030: e768 c8be 7b61 99be 5816 7bbd 1f0e 643d
00000040: e9fc ae3e 3a10 a53d 6d3f 623e 522c ba3e
00000050: 622c 853e 2c9c 8bbe aac7 79be b380 4dbd
00000060: bfb4 1a3b 726b 443c 8987 933e 6e9f a13e
00000070: 470a 40be c140 80be 80c5 8b3b 0fe7 87bd
00000080: 0cb2 063e 3977 e33d 0fa7 673d 1a70 213e
00000090: a88d 573e 794a 7a3e 8613 fbbd a67a 24be
000000a0: 55ae 893e 0116 993d 6d49 36be a8a2 e0bd
000000b0: dec5 3e3e ba41 a4be d6ca 17be 31e8 f73b
000000c0: cedf 993e 4608 37bd 5bb7 64be 48c3 72be
000000d0: 9f9b ce3c e3bc acbc 6884 7abe 28d6 a83e
000000e0: 1cf2 8e3e ba28 08be 7613 ab3e 6f90 42bb
000000f0: 0614 cf3e 3672 b4bd 0023 4b3c 3675 bbbe
00000100: 49e3 61be 70c4 80bd 542a 9e3e 4595 48be
00000110: 8686 833c 99d0 81be 17d9 a0be cd90 4ebe
00000120: 4b44 46be 9d71 c9be b70f 95be 20d9 ba3c
00000130: 504f 373e 5a19 3e3e 3c60 8fbc 16be ebbc
00000140: 23b7 90bd 280d efbd 1f36 943e 6067 c03e
00000150: d593 a9be eb92 dcbe 7a11 9abe 7159 94bd
00000160: 29d4 d7bd 6b27 9abe 65c0 913e 98a8 c13d
00000170: 28b6 a1be de6e d9be 0746 b23e 9dc4 8c3e
00000180: d30e 593e 0486 523d

actor.6.bias f4 [7]
0.2160356 0.15004632 -0.10685201 0.28571096 -0.19084476 -0.05156579 0.24248095
00000000: 7038 5d3e bea5 193e 3ad5 dabd b548 923e
00000010: cf6c 43be a636 53bd ed4c 783e

critic.0.weight f4 [40, 94]
-0.054079063 -0.120714284 0.0036957697 0.07501268 0.054857112 0.12958297 -0.14062811 -0.032774
-0.089176685 0.004180317 0.06567142 -0.1428591 0.14287636 0.012505612 0.05933688 -0.11021589
-0.06067259 0.11523645 -0.0051755835 0.03631587 0.037071742 0.057855997 -0.09115892 0.076657474
0.1745424 -0.120433226 0.09701906 -0.13657445 0.017417243 -0.11877545 0.120227754 0.020884054
-0.0072190184 -0.028758671 0.002981011 0.06537433 -0.12515135 0.071998924 0.21865636 0.024308352
-0.029358663 -0.067531675 0.1312082 -0.06816835 0.051987432 0.12640584 -0.07843621 0.037756987
-0.032592215 0.12968734 0.07211651 -0.017640779 -0.0076984363 0.014209068 0.012115587 0.16589306
0.12467992 0.060613047 0.057762627 -0.08684498 0.05061142 -0.071470596 0.044461492 0.060578972
0.14394185 -0.06396904 -0.073982365 0.12296228 -0.11836099 0.0939531 0.1429675 0.0019567993
0.030170016 -0.015988065 0.09024979 -0.02573496 0.11965494 0.09124909 0.1534912 0.10266545
-0.07283545 0.0724007 -0.047809634 0.08906094 0.14629023 0.12550205 0.018488986 -0.14576569
0.15610783 0.05105762 0.09302051 0.13445848 0.15814419 0.029670522 -0.02803134 -0.036087412
-0.038450964 -0.032446597 -0.077480935 0.014013646 0.017098354 0.055043165 0.01279389 0.11953072
-0.034646265 -0.07036419 0.041485433 -0.13264625 0.091181114 -0.0012844503 -0.0161252 0.14630948
0.041801807 0.08458177 0.03923913 -0.024861746 0.07741665 0.036209963 0.06502856 0.028758114
-0.08217969 -0.10018445 0.09021883 -0.08457977 0.07858871 0.11819166 -0.09092628 -0.012462552
-0.03962933 0.06880678 -0.046124585 0.11536877 -0.030010428 0.03503891 0.056523964 -0.07597959
-0.041790888 -0.08428417 0.050259944 0.09204071 -0.044320654 0.08441723 -0.054644022 -0.06348068
-0.02807432 -0.041980557 0.13958643 0.048072673 0.040816683 -0.10661621 -0.020580083 -0.2265288
0.101269506 0.19876878 -0.038228188 0.06340135 -0.09360683 -0.18072784 -0.04033762 0.031724606
0.1236544 -0.02424343 0.07848568 -0.022596963 -0.14870964 -0.12975469 0.0083793085 0.16841626
-0.0026888056 0.15812331 -0.16485351 -0.091957025 -0.06436342 0.038020577 0.09897211 -0.046335112
0.20642532 -0.16250595 0.020100152 -0.17089252 0.08833164 0.06611175 -0.042281274 0.11393232
-0.27647457 0.025575172 0.09888585 0.105258055 0.07022184 -0.044357922 0.0323851 -0.11220749
0.08255291 0.019498857 0.06518999 -0.021940453 0.10552468 0.08787795 0.056111395 -0.016417433
-0.08788561 -0.090671875 -0.10335366 0.023567623 -0.043854862 -0.06535134 0.034911208 0.087516725
-0.036917116 0.06636503 -0.0019503786 0.008224223 -0.043483928 -0.065355495 0.022834117 -0.012711898
-0.0571146 0.07048154 -0.014597159 -0.099823885 0.02596385 -0.010917398 -0.06960081 -0.09127866
-0.027533444 -0.044103105 0.02715535 -0.019666139 0.049031284 0.036837805 0.0022682045 -0.013702645
-0.0023356576 -0.0071921283 -0.105018936 -0.05263884 0.06811404 0.044638176 0.18155256 0.08140121
-0.18458506 -0.02244507 0.0853219 -0.077341974 0.025529932 -0.059437305 0.09270887 -0.1910451
0.014385721 -0.028577073 -0.19587396 -0.04649068 0.026402531 0.040389445 -0.103035994 0.058452077
00000000: 0282 5dbd 0d39 f7bd ba34 723b 3fa0 993d
00000010: dab1 603d 66b1 043e d100 10be 083e 06bd
00000020: 44a2 b6bd 0afb 883b bd7e 863d a849 12be
00000030: 2e4e 123e 57e4 4c3c 3a0b 733d deb8 e1bd
00000040: d283 78bd 1701 ec3d f197 a9bb f3bf 143d
00000050: 8ad8 173d 69fa 6c3d 87b1 babd 98fe 9c3d
00000060: 3ebb 323e b2a5 f6bd eeb1 c63d 2cda 0bbe
00000070: 9bae 8e3c 8b40 f3bd f839 f63d 0915 ab3c
00000080: 848d ecbb 4e97 ebbc 115d 433b fae2 853d
00000090: ad27 00be 2c74 933d 74e7 5f3e 4f22 c73c
000000a0: 9481 f0bc 0c4e 8abd 715b 063e d99b 8bbd
000000b0: c6f0 543d 8870 013e 2aa3 a0bd 12a7 1a3d
000000c0: 6a7f 05bd c2cc 043e d2b1 933d 6583 90bc
000000d0: 2a43 fcbb 27cd 683c 7480 463c dfdf 293e
000000e0: 3058 ff3d 6345 783d 8198 6c3d c8db b1bd
000000f0: ec4d 4f3d 2d5f 92bd 411d 363d a821 783d
00000100: 7e65 133e 3302 83bd 1184 97bd a6d3 fb3d
00000110: 3f67 f2bd 7c6a c03d 1366 123e a53d 003b
00000120: 1c27 f73c 67f9 82bc e2d4 b83d 1fd2 d2bc
00000130: a60d f53d cee0 ba3d cc2c 1d3e 4342 d23d
00000140: c12a 95bd d146 943d 09d4 43bd 9565 b63d
00000150: 1bcd 153e 9c83 003e 3776 973c 9a43 15be
00000160: bbda 1f3e cc21 513d 8a81 be3d 7caf 093e
00000170: 8df0 213e 980f f33c fba1 e5bc 65d0 13bd
00000180: c27e 1dbd b9e6 04bd 53ae 9ebd 7e99 653c
00000190: d911 8c3c f174 613d 779d 513c 86cc f43d
000001a0: 3ee9 0dbd 1a1b 90bd a1ec 293d 6bd4 07be
000001b0: 2abd ba3d 005b a8ba ff18 84bc 27d2 153e
000001c0: 5f38 2b3d 3539 ad3d 36b9 203d dcaa cbbc
000001d0: 9f8c 9e3d e650 143d b22d 853d 2396 eb3c
000001e0: d34d a8bd 812d cdbd a6c4 b83d 2938 adbd
000001f0: 1ef3 a03d 780e f23d 8f37 babd bb2f 4cbc
00000200: 5d52 22bd 92ea 8c3d 22ed 3cbd 7646 ec3d
00000210: 6ed8 f5bc f684 0f3d ac85 673d 309b 9bbd
00000220: ec2c 2bbd 2e9d acbd 5fdd 4d3d d77f bc3d
00000230: 9389 35bd f1e2 ac3d 69d2 5fbd 2902 82bd
00000240: 1efc e5bc cef3 2bbd bfef 0e3e dae7 443d
00000250: 652f 273d 9959 dabd 9097 a8bc 2af7 67be
00000260: 6366 cf3d 0b8a 4b3e 2995 1cbd 91d8 813d
00000270: f0b4 bfbd b810 39be 0f39 25bd a9f1 013d
00000280: 853e fd3d 289a c6bc 1abd a03d 441d b9bc
00000290: 5747 18be 6ade 04be 5e49 093c 5075 2c3e
000002a0: ac36 30bb 14eb 213e 5ccf 28be f753 bcbd
000002b0: f8d0 83bd 77bb 1b3d e4b1 ca3d e3c9 3dbd
000002c0: 2961 533e f667 26be 13a9 a43c 73fe 2ebe
000002d0: 38e7 b43d 9965 873d 212f 2dbd 5955 e93d
000002e0: 138e 8dbe 0683 d13c aa84 ca3d 8991 d73d
000002f0: 78d0 8f3d a7b0 35bd 3da6 043d 0acd e5bd
00000300: 8011 a93d 11bc 9f3c 5482 853d 77bc b3bc
00000310: 531d d83d 5bf9 b33d 10d5 653d da7d 86bc
00000320: 5ffd b3bd 2db2 b9bd 15ab d3bd e310 c13c
00000330: 28a1 33bd ecd6 85bd 0eff 0e3d f83b b33d
00000340: 6736 17bd 64ea 873d d9a3 ffba e4be 063c
00000350: 341c 32bd 1ad9 85bd 9d0e bb3c 9145 50bc
00000360: 00f1 69bd a058 903d ec28 6fbc 7770 ccbd
00000370: 24b2 d43c e3de 32bc df8a 8ebd 4ef0 babd
00000380: d18d e1bc 75a5 34bd e674 de3c e21a a1bc
00000390: 07d5 483d 3de3 163d 28a6 143b 0f81 60bc
000003a0: d511 19bb f2ab ebbb 2b14 d7bd d39b 57bd
000003b0: 607f 8b3d 85d6 363d eae8 393e adb5 a63d
000003c0: de03 3dbe b9de b7bc 40bd ae3d 7865 9ebd
000003d0: 2624 d13c 8874 73bd 26de bd3d 54a1 43be
000003e0: 16b2 6b3c 771a eabc 2f93 48be 036d 3ebd
000003f0: 1f4a d83c 676f 253d 8904 d3bd 726b 6f3d

critic.0.bias f4 [40]
0.096273385 0.11290911 0.12782204 0.19567832 0.017448045 0.078227244 0.06709178 0.17503184
0.15243842 0.12214428 -0.005826225 -0.10910895 0.061777044 0.004000327 -0.02449291 -0.09257217
0.1559008 0.106864706 -0.008879961 0.12762944 -0.0036955897 0.088736236 0.17218317 0.15242748
-0.048658192 0.089388445 -0.021458529 0.1430008 0.17316738 0.07318518 0.062133342 0.16875072
-0.019151319 0.17859155 0.13897534 -0.095002815 -0.031965163 0.041074384 -0.036495708 -0.02364786
00000000: fb2a c53d e43c e73d c8e3 023e e65f 483e
00000010: 34ef 8e3c 9b35 a03d 6a67 893d 8c3b 333e
00000020: d118 1c3e c826 fa3d ebe9 bebb 8374 dfbd
00000030: ed09 7d3d 2d15 833b 5ba5 c8bc 7a96 bdbd
00000040: 76a4 1f3e e2db da3d 427d 11bc 4bb1 023e
00000050: b531 72bb 58bb b53d c950 303e f315 1c3e
00000060: d04d 47bd 4a11 b73d ccc9 afbc cd6e 123e
00000070: ca52 313e 1de2 953d 887f 7e3d fdcc 2c3e
00000080: 3ae3 9cbc b4e0 363e 8d4f 0e3e d690 c2bd
00000090: e7ed 02bd 9d3d 283d 867c 15bd 28b9 c1bc

critic.2.weight f4 [28, 40]
-0.01367126 0.1044183 -0.011697452 0.20243773 -0.092017494 -0.050165206 -0.03203963 -0.0779601
-0.12207984 -0.11166738 -0.11153537 0.14091504 0.08190271 -0.18894462 0.1508871 0.0775464
0.06189657 0.062968865 -0.016048754 0.21474433 -0.17871168 -0.035586428 -0.03138813 -0.0827388
0.078875236 0.08716174 0.12318602 0.16711436 0.13353288 0.061435502 -0.098103575 0.20880945
0.11339291 0.04760804 0.09535055 0.0797625 0.1270721 -0.034335084 0.022907931 -0.08286001
0.012371624 0.07703498 0.005484693 0.19915213 0.07835649 0.13748983 0.20227855 0.027843757
0.09749723 0.023537185 0.20380627 -0.1989997 -0.012777898 -0.025093375 -0.1817812 -0.11032996
0.1949467 -0.03362073 0.1662506 0.03546075 0.1721472 0.22824559 0.19179581 0.16956595
-0.20656407 0.21971747 -0.24417734 -0.0010927797 -0.023144277 -0.09783468 0.225368 0.15526955
-0.078830115 0.14109154 0.3178815 -0.024335323 -0.18437327 0.14190741 -0.046824373 -0.07342811
-0.076100804 0.20484525 -0.008161183 0.0058850627 0.078297 0.06667174 0.03975557 0.013738474
0.019773366 -0.047124323 0.024337659 0.17485829 0.046208296 -0.1726959 -0.044191875 -0.05121049
0.16599771 0.20133582 0.064588726 0.20536745 0.070431754 0.06473609 0.23229638 0.14046891
-0.01807833 -0.10641129 -0.04247835 0.07775531 0.28383482 0.08006029 -0.032972395 0.17308794
-0.14491089 0.14155269 0.1982651 0.1368806 -0.08484404 -0.07237897 0.11889552 0.10016629
-0.050309077 0.021560933 0.13556711 0.14351895 -0.07735531 -0.031740155 0.2791605 0.016618975
0.20555882 0.2512741 0.09497606 -0.13490088 0.106770754 0.06978891 -0.17059442 0.045559477
0.104314335 -0.04393372 -0.030714935 0.09793766 0.08803732 0.28562176 0.06691345 0.20151083
-0.07968817 0.17542686 -0.08232501 0.07954385 0.14449762 -0.10924701 0.2593543 0.021519156
-0.04145348 0.15679325 0.12872216 -0.20704857 -0.15474874 0.21236977 -0.09357162 -0.1502572
-0.095741294 -0.15261562 -0.19788925 -0.16953702 0.018007249 -0.047398712 0.00324681 -0.08491316
-0.17906396 -0.19885352 -0.20283969 -0.12326629 -0.11189821 -0.11741009 0.061930712 0.10422499
-0.07148504 -0.088326365 -0.12752914 -0.03216643 -0.11976099 -0.15064697 -0.08508531 -0.19656233
-0.14962275 -0.18339454 -0.03899826 -0.20918478 0.0063215173 -0.14173098 0.01878331 -0.21671037
-0.016839359 -0.14797635 -0.1409934 -0.17786235 -0.14481193 -0.27318263 -0.0077044605 0.1106258
0.09186561 0.12938797 0.06832676 0.03490475 -0.13042817 -0.09021149 -0.1570109 -0.025188042
-0.1422081 -0.114478864 0.039837327 0.030398728 0.19278935 -0.21651357 0.21574184 -0.018723778
0.18630145 0.19662578 -0.07205244 -0.07654 -0.1978599 0.23622097 -0.06256671 -0.010026642
0.17513156 -0.15918551 0.20388098 0.10301403 0.15016049 0.079011574 0.07658129 0.17266044
-0.22889987 0.066852435 0.04124932 0.18448295 0.12511557 -0.12190346 0.12484419 -0.034433078
0.037981108 -0.057506986 0.109482706 0.32446566 0.078168884 0.17581242 0.1566103 -0.12432558
0.015849402 0.13757871 0.2742145 0.0071621537 0.28172326 -0.0070447167 -0.17719544 -0.17357442
00000000: 6cfd 5fbc 43d9 d53d aba6 3fbc d64b 4f3e
00000010: ab73 bcbd 087a 4dbd fd3b 03bd 8ba9 9fbd
00000020: ff04 fabd deb1 e4bd a86c e4bd 084c 103e
00000030: 9cbc a73d b37a 41be 2682 1a3e a6d0 9e3d
00000040: 4287 7d3d d2f5 803d ad78 83bc f0e5 5b3e
00000050: 3200 37be 13c3 11bd d790 00bd f672 a9bd
00000060: 5789 a13d db81 b23d f448 fc3d 0720 2b3e
00000070: d8bc 083e cba3 7b3d 87ea c8bd 25d2 553e
00000080: 8b3a e83d a600 433d 2647 c33d 865a a33d
00000090: 301f 023e f2a2 0cbd 6aa9 bb3c 82b2 a9bd
000000a0: 5ab2 4a3c 84c4 9d3d f1b8 b33b 89ee 4b3e
000000b0: 5e79 a03d 22ca 0c3e 1c22 4f3e 9718 e43c
000000c0: a1ac c73d 0ed1 c03c 97b2 503e 94c6 4bbe
000000d0: 645a 51bc 9f90 cdbc da24 3abe adf4 e1bd
000000e0: 1ca0 473e e4b5 09bd 993d 2a3e 4b3f 113d
000000f0: 5b47 303e 36b9 693e 1f66 443e b2a2 2d3e
00000100: 8885 53be 9efd 603e a009 7abe 9a3b 8fba
00000110: 1199 bdbc 8c5d c8bd dec6 663e fbfe 1e3e
00000120: af71 a1bd 4d7a 103e 5dc1 a23e df5a c7bc
00000130: 59cc 3cbe 2d50 113e eaca 3fbd 7a61 96bd
00000140: bdda 9bbd f4c2 513e 7cb6 05bc 7cd7 c03b
00000150: 2d5a a03d 318b 883d bdd6 223d 5617 613c
00000160: c1fb a13c 6f05 41bd c55f c73c 0d0e 333e
00000170: e944 3d3d 32d7 30be 8a02 35bd 17c2 51bd
00000180: 4efb 293e fa2a 4e3e 1847 843d d84b 523e
00000190: 863e 903d 5b94 843d 1adf 6d3e 15d7 0f3e
000001a0: 0219 94bc 2aee d9bd c7fd 2dbd 2d3e 9f3d
000001b0: cc52 913e a6f6 a33d 100e 07bd f73d 313e
000001c0: 8563 14be 30f3 103e 0206 4b3e 6e2a 0c3e
000001d0: b6c2 adbd 6d3b 94bd 7f7f f33d fc23 cd3d
000001e0: e410 4ebd 8ea0 b03c 1bd2 0a3e a2f6 123e
000001f0: 766c 9ebd f701 02bd 20ee 8e3e 8424 883c
00000200: 037e 523e 00a7 803e cf82 c23d 7523 0abe
00000210: a0aa da3d 7ded 8e3d 4eb0 2ebe 939c 3a3d
00000220: c1a2 d53d d8f3 33bd e39d fbbc 8a93 c83d
00000230: e94c b43d 043d 923e eb09 893d db58 4e3e
00000240: 8d33 a3bd 19a3 333e 049a a8bd e3e7 a23d
00000250: 2ff7 133e e5bc dfbd 16ca 843e f148 b03c
00000260: 20cb 29bd 698e 203e becf 033e 8a04 54be
00000270: 7476 1ebe 7677 593e 7aa2 bfbd 06dd 19be
00000280: 0314 c4bd 4547 1cbe 7ba3 4abe 1d9b 2dbe
00000290: f083 933c 2725 42bd 6fc8 543b f3e6 adbd
000002a0: 8b5c 37be 42a0 4bbe 35b5 4fbe 0973 fcbd
000002b0: e42a e5bd b474 f0bd 0fab 7d3d e973 d53d
000002c0: c066 92bd 74e4 b4bd 0097 02be f2c0 03bd
000002d0: 4045 f5bd 3343 1abe 3541 aebd a347 49be
000002e0: b536 19be c7cb 3bbe a4bc 1fbd 8934 56be
000002f0: bb24 cf3b ed21 11be 75df 993c 53e9 5dbe
00000300: b2f2 89bc 1d87 17be 9360 10be 8c21 36be
00000310: 9449 14be 98de 8bbe b375 fcbb c88f e23d
00000320: 0924 bc3d 487e 043e e6ee 8b3d 48f8 0e3d
00000330: f68e 05be cdc0 b8bd 77c7 20be 2757 cebc
00000340: 009f 11be e573 eabd 772c 233d c106 f93c
00000350: 926a 453e bcb5 5dbe 6eeb 5c3e 9c62 99bc
00000360: cfc5 3e3e 4558 493e 3b90 93bd 01c1 9cbd
00000370: c99b 4abe e9e3 713e fa22 80bd c946 24bc
00000380: b055 333e 8701 23be 2dc6 503e 05f9 d23d
00000390: acc3 193e d2d0 a13d a7d6 9c3d e6cd 303e
000003a0: ba64 6abe eee9 883d 0cf5 283d 19e9 3c3e
000003b0: 4c1e 003e 85a8 f9bd 50ae ff3d b309 0dbd
000003c0: 1492 1b3d 728c 6bbd 7838 e03d 5d20 a63e
000003d0: 0217 a03d 2c08 343e 735e 203e 699e febd
000003e0: 9bd6 813c 6fe1 0c3e d865 8c3e 80b0 ea3b
000003f0: 083e 903e 5ed7 e6bb b972 35be 7ebd 31be

critic.2.bias f4 [28]
0.15190509 -0.12291531 -0.051517356 0.010841252 -0.026961174 0.13719508 0.053653903 0.13369557
0.008453991 -0.029025052 -0.079776354 -0.014073718 -0.0038448863 -0.08983538 0.014107793 -0.04296813
-0.09285484 -0.0761091 -0.12254292 -0.06244053 -0.12041502 0.23836675 -0.028850922 0.12722094
-0.07829053 0.08649891 -0.116021134 0.10236996
00000000: 028d 1b3e 06bb fbbd dd03 53bd 829f 313c
00000010: aedd dcbc de7c 0c3e 32c4 5b3d 7ee7 083e
00000020: 9c82 0a3c f2c5 edbc c961 a3bd 7495 66bc
00000030: 7dfa 7bbb 9dfb b7bd 5f24 673c 5aff 2fbd
00000040: ae2a bebd 16df 9bbd c8f7 fabd a4c1 7fbd
00000050: 269c f6bd 6a16 743e c558 ecbc 3546 023e
00000060: c956 a0bd 5726 b13d 7d9c edbd 57a7 d13d

critic.4.weight f4 [10, 28]
0.15692589 -0.26826307 0.18497925 -0.056761365 -0.155593 -0.022773251 0.23969764 -0.045953035
0.18780404 0.100912414 -0.046224304 -0.2121248 0.13051938 0.15473686 0.08844122 -0.25521028
0.104417205 0.18905385 0.056227718 -0.11734081 0.086278036 0.17516588 -0.0088906195 0.1862606
0.018812688 0.16902025 -0.18473092 -0.22700791 0.034480046 0.21945195 0.036012497 0.41706738
0.086716905 0.018677501 0.024604997 -0.13006692 -0.11473888 -0.29718095 -0.19563176 0.37294695
0.19413555 -0.08960551 0.12826303 0.30796504 -0.09135181 -0.16285558 0.0077718757 0.056875464
-0.21154737 0.31386897 -0.19475654 0.07735624 0.038663626 0.12812036 0.27342245 0.17101426
0.22150286 -0.075006135 0.054041397 -0.22675738 0.064243756 -0.0018603529 0.1421586 0.23902327
-0.20966737 -0.054368872 -0.17269859 -0.17072408 -0.04910882 0.2693389 -0.25092235 -0.1551152
-0.0051292367 0.2654472 0.23676255 -0.11414044 -0.061242454 0.07997725 0.06437239 0.3131174
0.1860822 0.105656505 -0.15731336 -0.24655633 -0.02620574 -0.1632835 0.15670401 -0.15378527
-0.01744277 0.26573056 0.0064100157 0.12078581 -0.008618121 0.20590547 -0.05662498 -0.109000176
0.16407448 0.103841536 -0.102706246 -0.16143385 -0.027124157 0.33193782 0.06336639 -0.3041909
-0.17908129 0.08873721 0.07922983 0.20231675 0.25741372 0.14846325 -0.19806139 0.017230459
0.13468423 -0.20174271 0.084487155 -0.06663834 0.02012386 0.1696907 0.1945447 0.22950636
0.007516134 0.17360444 -0.059885684 -0.22755377 0.17236358 0.07824553 -0.014864936 -0.24632576
0.2909254 0.20657264 0.21313582 -0.35016727 -0.13629796 -0.036903802 0.25604826 -0.07771489
0.08344487 -0.07203287 -0.2126097 -0.011739539 -0.20170179 0.30095208 -0.041785076 0.11660375
-0.042681158 -0.07195775 -0.001841663 -0.21888658 -0.25728872 -0.061751444 -0.2604929 0.3501901
0.28953868 0.08350038 0.37133393 0.09379686 -0.19082004 0.02483143 -0.13808437 -0.1119769
-0.27767298 0.1930297 -0.2169297 0.20313841 -0.29120377 0.25620058 0.17551605 0.32753757
0.018684521 0.28490958 0.16935404 0.17713396 -0.19139472 -0.13437937 0.20315099 -0.13285889
-0.27022803 -0.18443447 -0.10089738 0.24427482 -0.03583274 -0.14168525 0.37573725 0.14705583
-0.10711395 0.033681866 -0.18053313 -0.14239895 -0.110027865 0.13520133 -0.21867125 0.29056492
-0.14273895 0.13705921 0.20862201 0.25497988 0.01154776 0.02060638 -0.21110435 0.27262685
0.0020892809 0.07079743 0.16251612 -0.2167862 -0.07081939 -0.21905445 -0.12432493 0.26645824
0.12741245 -0.1724922 0.25481555 0.29546866 -0.29023394 0.100639746 0.029798388 -0.007101548
-0.31306872 -0.03535036 -0.009489988 0.038668368 -0.10804352 0.024122532 0.25358942 0.3380565
-0.17662172 0.09955308 0.13301457 0.13572732 -0.095229656 -0.029515553 0.20619527 -0.08357805
-0.22262669 -0.13179685 0.13151374 0.1495042 0.21976405 0.028242454 0.16136448 0.2118784
-0.11401384 -0.20323901 -0.20893048 -0.13052143 -0.09038207 -0.10387813 -0.044197116 0.10180599
0.053325437 0.084565125 0.09942236 0.2099212 0.032308232 -0.2783312 -0.07555702 -0.36545387
00000000: 2eb1 203e c759 89be 336b 3d3e 9b7e 68bd
00000010: c553 1fbe f88e babc 4c73 753e 4039 3cbd
00000020: b44f 403e 2bab ce3d b255 3dbd 3e37 59be
00000030: dfa6 053e 5773 1e3e ac20 b53d ecaa 82be
00000040: b0d8 d53d 5597 413e 094f 663d 6150 f0bd
00000050: 8ab2 b03d af5e 333e f6a9 11bc 19bb 3e3e
00000060: 111d 9a3c a513 2d3e 1a2a 3dbe c374 68be
00000070: f33a 0d3d 03b8 603e d781 133d db89 d53e
00000080: a298 b13d 8f01 993c 6b90 c93c 4330 05be
00000090: 38fc eabd 1a28 98be b153 48be e7f2 be3e
000000a0: 78cb 463e 1883 b7bd 6257 033e 98ad 9d3e
000000b0: a816 bbbd 9dc3 26be 38ab fe3b 3ff6 683d
000000c0: e09f 58be 6fb3 a03e 426e 47be f36c 9e3d
000000d0: c05d 1e3d fc31 033e 07fe 8b3e 5d1e 2f3e
000000e0: a5d1 623e d19c 99bd 835a 5d3d 1633 68be
000000f0: 3b92 833d 16d7 f3ba 0692 113e 84c2 743e
00000100: 0bb3 56be e5b1 5ebd e6d7 30be 4bd2 2ebe
00000110: 5426 49bd cae6 893e e578 80be 85d6 1ebe
00000120: 2813 a8bb b2e8 873e e271 723e 77c2 e9bd
00000130: 5ed9 7abd 1dcb a33d acd5 833d ed50 a03e
00000140: 558c 3e3e 7062 d83d c116 21be 4379 7cbe
00000150: 6cad d6bc ca33 27be 0477 203e e379 1dbe
00000160: 24e4 8ebc d60d 883e 1c0b d23b 8d5e f73d
00000170: 0533 0dbc e2d8 523e 98ef 67bd 7c3b dfbd
00000180: 2403 283e dfaa d43d a757 d2bd ea4e 25be
00000190: 7b33 debc c1f3 a93e 3dc6 813d e9be 9bbe
000001a0: 1661 37be dbbb b53d 4043 a23d 1f2c 4f3e
000001b0: bbcb 833e c006 183e 9bd0 4abe e426 8d3c
000001c0: aaea 093e a495 4ebe 9a07 ad3d af79 88bd
000001d0: cbda a43c 66c3 2d3e ba36 473e b703 6b3e
000001e0: e749 f63b 5dc5 313e b14a 75bd db03 69be
000001f0: 1480 303e 313f a03d 0f8c 73bc d23c 7cbe
00000200: 2df4 943e c787 533e 4740 5a3e 2049 b3be
00000210: b191 0bbe 7128 17bd c218 833e fc28 9fbd
00000220: 25e5 aa3d f885 93bd 5bb6 59be 3257 40bc
00000230: ea8a 4ebe 6416 9a3e d426 2bbd f2cd ee3d
00000240: 70d2 2ebd 965e 93bd f563 f1ba ce23 60be
00000250: 59bb 83be 15ef 7cbd 535f 85be 1e4c b33e
00000260: 6a3e 943e 3f02 ab3d 7b1f be3e 9118 c03d
00000270: 5466 43be 486b cb3c fd65 0dbe 2554 e5bd
00000280: 272b 8ebe 94a9 453e d222 5ebe 8403 503e
00000290: a918 95be b92c 833e 7bba 333e 01b3 a73e
000002a0: 4810 993c abdf 913e 256b 2d3e 9b62 353e
000002b0: fafc 43be bf9a 09be d006 503e 290c 08be
000002c0: 545b 8abe 64dc 3cbe 49a3 cebd 2e23 7a3e
000002d0: 5ac5 12bd f015 11be a260 c03e ce95 163e
000002e0: 8f5e dbbd fff5 093d addd 38be 08d1 11be
000002f0: 4a56 e1bd 3872 0a3e 5beb 5fbe edc4 943e
00000300: 292a 12be 4059 0c3e 02a1 553e b98c 823e
00000310: d132 3d3c b6ce a83c bd2b 58be bf95 8b3e
00000320: 51ec 083b 3efe 903d a06a 263e 34fd 5dbe
00000330: c209 91bd cf4f 60be 129e febd 376d 883e
00000340: 6978 023e cca1 30be 2f77 823e ab47 973e
00000350: 8b99 94be 361c ce3d c01b f43c 1ab4 e8bb
00000360: 8b4a a0be 8acb 10bd e57b 1bbc b962 1e3d
00000370: ec45 ddbd 9e9c c53c 79d6 813e be15 ad3e
00000380: 53dc 34be 7ce2 cb3d f934 083e 1afc 0a3e
00000390: c407 c3bd 9aca f1bc da24 533e f82a abbd
000003a0: 40f8 63be c1f5 06be 8aab 063e a117 193e
000003b0: d409 613e b85c e73c bb3c 253e a7f6 583e
000003c0: 1780 e9bd e31d 50be dff1 55be 69a7 05be
000003d0: 3c1a b9bd 0fbe d4bd 0908 35bd a97f d03d
000003e0: c66b 5a3d 7b30 ad3d f39d cb3d 95f5 563e
000003f0: a355 043d 6d81 8ebe a4bd 9abd c51c bbbe

critic.4.bias f4 [10]
-0.08469878 0.3357752 -0.040499117 0.067717455 0.10347609 0.09750308 -0.06806473 0.1988118
0.107429236 -0.149109
00000000: 8e76 adbd baea ab3e 67e2 25bd 73af 8a3d
00000010: 46eb d33d b2af c73d 8565 8bbd 5295 4b3e
00000020: dc03 dc3d 08b0 18be

critic.6.weight f4 [5, 10]
0.018042553 -0.054979935 0.35944355 0.3309403 0.21635178 0.014120913 0.072196245 -0.16925938
-0.09525697 0.1710651 0.2006392 0.18996435 0.5116178 0.38407075 0.3367214 -0.21592124
-0.2932381 -0.28110087 -0.3771541 -0.07019308 0.32945892 0.2215567 0.107582025 0.120522946
-0.1224657 -0.20656496 -0.011792426 -0.19138895 0.016383931 0.2307432 0.26699388 0.024655221
0.039311286 0.16750348 -0.18815108 -0.1515222 -0.41042536 0.138115 -0.4249881 0.22986372
-0.366064 0.28613356 -0.07909 -0.059296884 -0.12581205 0.42370248 0.17232195 0.24903475
0.11751323 -0.47425628
00000000: facd 933c a432 61bd fc08 b83e 0271 a93e
00000010: 528b 5d3e 675b 673c a0db 933d 5552 2dbe
00000020: 1616 c3bd b12b 2f3e 5d74 4d3e 0486 423e
00000030: 62f9 023f eca4 c43e bf66 ac3e 751a 5dbe
00000040: 4e23 96be 74ec 8fbe 581a c1be 64c1 8fbd
00000050: d7ae a83e c2df 623e f753 dc3d bcd4 f63d
00000060: 4ccf fabd c485 53be 0535 41bc 77fb 43be
00000070: 9837 863c f247 6c3e 6cb3 883e bff9 c93c
00000080: df04 213d 0886 2b3e adaa 40be a328 1bbe
00000090: 4623 d2be 056e 0d3e 0a98 d9be 6561 6b3e
000000a0: be6c bbbe 1980 923e f0f9 a1bd 4ae1 72bd
000000b0: e0d4 00be 88ef d83e 2a75 303e f702 7f3e
000000c0: c7aa f03d b8d1 f2be

critic.6.bias f4 [5]
-0.105167925 0.32826993 0.345526 -0.2768638 0.12350472
00000000: 4862 d7bd ff12 a83e c9e8 b03e 18c1 8dbe
00000010: 0bf0 fc3d

critic.8.weight f4 [1, 5]
0.17456149 0.5269994 0.16724193 0.25730067 -0.3383492
00000000: 3fc0 323e 6fe9 063f 7841 2b3e eabc 833e
00000010: 1b3c adbe
