Weight/PPO_continuous.pth (torch_old, 19759 bytes, 13 tensors)

actor.0.weight f4 [28, 31]
000000 9d 1b 0a bc 7c 8e 8e 3e 3e 86 40 be ca ba d4 3d
       -0.008429435 0.27843082 -0.1880121 0.1038719
000010 cd 19 2d 3d f2 11 c5 3d 25 a1 21 be 9f a2 f2 3d
       0.042260934 0.096225634 -0.15784128 0.11847424
000020 5f 5b 57 3e 13 04 55 be 42 0f f9 3c fa 26 fb 3d
       0.21030949 -0.20802335 0.030402783 0.122632936
000030 4e f0 62 3d ca cb e0 3c 69 2b 2a be 01 8e 01 3e
       0.055404954 0.027440924 -0.16618122 0.12651826
000040 37 37 26 3e 67 8e af 3d d2 c8 93 bd 1f e6 b7 bd
       0.16232 0.08572083 -0.07216038 -0.08979439
000050 b5 19 fc 3d 6d b0 7e be db e1 85 bd bb c1 08 be
       0.12309591 -0.24871989 -0.06537219 -0.13355152
000060 f2 88 8e be 1f 23 52 3e 12 c6 53 be 21 44 e1 3d
       -0.27838856 0.2052121 -0.20681027 0.10999323
000070 84 ad b1 bd 57 50 92 bc 18 0e de bd 12 e6 32 be
       -0.086756736 -0.017860575 -0.10842532 -0.17470577
000080 f0 9f a8 3d ee d6 f4 3d 25 22 9b 3d ef 13 85 be
       0.08233631 0.11955057 0.07574872 -0.2599177
000090 85 89 15 3e 78 98 96 bd 28 50 5d 3e 7c e6 8e bd
       0.14603241 -0.073533 0.21612608 -0.06977555
0000a0 35 b3 c6 bd d4 19 eb bc 2b 12 4b 3e 18 8d 63 3e
       -0.0970215 -0.02869884 0.1983115 0.22221792
0000b0 9f b6 26 bd 06 fb 2f 3e 7d 0d 3c 3c 23 ab d7 3d
       -0.040701505 0.17185602 0.011477825 0.105306886
0000c0 77 de 9d bd 47 e9 e7 3d a9 e5 ba bd 7f e2 2d be
       -0.077084474 0.11323791 -0.091258354 -0.16980933
0000d0 4e 25 64 bc a7 43 5e 3e 7e 52 c9 bd 30 c8 ab bc
       -0.01392491 0.21705495 -0.09830187 -0.02096948
0000e0 03 92 b9 3c b8 90 09 3e fe d1 7e bd 60 ec ce bd
       0.022652632 0.13434112 -0.062211983 -0.10103679
0000f0 4b 19 fb bc b7 92 f2 bd 47 12 d9 bd f6 dc 10 bd
       -0.030651709 -0.1184439 -0.10599189 -0.035366975
000100 f5 5e 30 3d 3e 2c 55 be 8a c5 a4 3e 2c 99 d2 bd
       0.043059308 -0.20817658 0.3218196 -0.102831215
000110 6e 28 01 3e 5f 71 50 3e d5 1d 0e 3d cf bc 7b bd
       0.12613079 0.20355748 0.03469642 -0.06145936
000120 dc 4e 1d 3e 26 59 a9 bd 8f f7 b8 3d 4b b1 fe bd
       0.15362114 -0.08268957 0.09031593 -0.1243616
000130 8f 4a 3b 3d dd e4 85 bb 85 ed b3 3d 37 07 df bd
       0.0457254 -0.0040861205 0.08785538 -0.10890048
000140 11 0d a0 3d 84 60 69 bd 2f 10 c1 bd cb 6e c7 3d
       0.07814992 -0.05697681 -0.09426915 0.09737929
000150 33 41 ae bd f7 f7 ca bd d5 94 11 be a4 e6 68 3a
       -0.085085295 -0.09910577 -0.14216931 0.0008884466
000160 1d 78 35 3e 77 fb ea bd e8 99 20 3e 23 96 b6 bd
       0.17721601 -0.11473744 0.1568371 -0.08915355
000170 cb e8 03 3d 23 cf 2f 3e e5 ed 52 bb a2 f4 2b 3b
       0.03220443 0.1716886 -0.0032185253 0.0026238342
000180 ac 61 56 be 12 b9 46 be 65 5f 33 3d 3e 54 81 bd
       -0.20935696 -0.19406536 0.043792147 -0.06314896
000190 1e da 03 3e 59 f8 04 be a5 80 68 be 62 2c 96 bd
       0.12876174 -0.12985362 -0.22705324 -0.07332684
0001a0 e7 33 24 be f6 2f 1c bd cd 2f 11 3e 79 dd f5 3c
       -0.16035424 -0.038131677 0.14178391 0.030012833
0001b0 e4 17 8b 3d 03 61 c0 3d e3 80 cf 3d 8e 63 d2 bc
       0.06791666 0.093935035 0.10132005 -0.025682237
0001c0 b6 fd 03 be f7 6d cc bd da 8a 8a ba 61 0f 89 3e
       -0.12889752 -0.09981912 -0.0010569945 0.26769546
0001d0 20 40 af bd 45 57 47 be a2 f9 81 3e 2b af c0 3c
       -0.08557153 -0.19466884 0.25385767 0.023521027
0001e0 59 7a 86 3d 2f 25 be bd c7 6d be ba d1 b1 de 3d
       0.06566305 -0.09284436 -0.0014528566 0.108737595
0001f0 3b 5a 9b bd f0 a8 4d 3d 4c 5c 11 bc 6d 45 84 3d
       -0.075855695 0.05020994 -0.008872103 0.064585544
000200 83 3e 5b 3d d5 19 30 be 39 85 62 3e 04 9e d0 bd
       0.053526413 -0.17197354 0.22121133 -0.10186389
000210 4c df 2c be fa 8e 04 be 20 2e 51 3e 1a 89 0b 3e
       -0.16882056 -0.12945166 0.20427752 0.13626519
000220 d5 eb 2a be 2b ae aa bd 09 5a 35 3c 88 72 45 3e
       -0.16691525 -0.08334001 0.011068829 0.19281971
000230 9b 0d 0a be 8b 19 92 bd 36 a3 b1 3d aa e7 a2 bd
       -0.13481753 -0.07133778 0.08673708 -0.07954343
000240 0d 29 00 be d9 d7 ce 3d e8 33 10 3e 58 1b a9 3d
       -0.1251566 0.100997634 0.140823 0.082571685
000250 a1 cc 28 bd c4 80 e1 bd 2c ae 94 be c7 db cb bb
       -0.041210774 -0.11010888 -0.29039133 -0.006221268
000260 d5 58 15 be 06 96 03 3e b9 52 0a 3e c6 99 c1 3d
       -0.14584668 0.12850198 0.13508119 0.09453158
000270 29 2d 30 3e 75 82 8f be fa 3f 38 3e b8 25 8d bc
       0.17204727 -0.28029218 0.17993155 -0.0172299
000280 ad d5 81 bc 1b ab 14 3d 35 53 d0 bd 0e b9 de bd
       -0.015848959 0.03629599 -0.101721205 -0.1087514
000290 b0 ab 6c 3d 46 51 10 3e a2 37 0c 3b 43 1c 8d bd
       0.05778092 0.14093503 0.0021395464 -0.06890156
0002a0 60 88 d4 3b c1 a8 dd 3b cd fa 2a 3e 53 a9 81 3d
       0.0064859837 0.006764502 0.16697235 0.06331124
0002b0 42 42 d0 bb 35 b7 c3 3c c4 8a 74 be 9e 19 26 3e
       -0.006355555 0.02389107 -0.2388106 0.1622071
0002c0 95 e2 87 3e 3d e5 19 be ee 8c 54 3d 16 32 80 3e
       0.26540056 -0.15028854 0.051892214 0.25038213
0002d0 1d 64 fa bc 42 e6 99 bd d3 a0 64 3e b2 84 39 3e
       -0.030565316 -0.07514621 0.22326975 0.18117025
0002e0 77 6b ea 3c 24 66 ca bd 9e f3 7f 3c 22 fc 2e 3e
       0.028615696 -0.09882763 0.015622048 0.17088369
0002f0 78 0f 50 3c ea 77 04 3e 2d df 15 3d 14 83 b6 bd
       0.012699001 0.12936369 0.03658979 -0.0891172
000300 cd a7 20 3d e8 ea 09 3e 42 74 10 3d d2 62 65 be
       0.039222527 0.13468516 0.035267122 -0.22400978
000310 92 36 fe bd 0f 54 4f bd c0 fe 49 3c 00 be 73 bc
       -0.12412752 -0.050617274 0.012328804 -0.0148768425
000320 ed 63 1f bd a2 90 22 3d 92 b8 d7 bc c4 9e 30 bd
       -0.038913656 0.039688714 -0.026333127 -0.04312016
000330 9e ed 30 3e 6c 61 a1 3d e6 a2 05 be 1f 6e 47 3e
       0.17278144 0.0787991 -0.13050422 0.19475602
000340 f9 16 94 bd 5d a6 a3 3d c5 c7 5b 3c 5a 9d e8 bd
       -0.07230944 0.07990716 0.013414328 -0.113581374
000350 b8 65 db 3c 0f 41 24 3e 08 01 8d bd ce 3d e1 3c
       0.026781902 0.16040443 -0.06884962 0.027495291
000360 63 da 2e 3e 05 87 f3 bb 75 b0 45 3e 8b 57 2b 3e
       0.17075495 -0.007431867 0.19305594 0.16732614
000370 1b 8e 00 3d e6 b8 46 3e 6f 32 06 be 52 5a 3b bb
       0.031385522 0.1940647 -0.13105176 -0.002858777
000380 d2 34 f4 3d fc 9c 3a be 1d 46 3e be 13 e7 01 be
       0.11924137 -0.18223947 -0.18581434 -0.12685804
000390 e5 a9 ac 3b ca 2a b6 3d e3 16 00 3e b3 df 9c bd
       0.0052692764 0.0889488 0.1250873 -0.07659855
0003a0 62 b4 50 3d 27 9c 9a ba d3 68 00 3d c8 da 50 3c
       0.050953276 -0.0011795805 0.03134997 0.012747474
0003b0 a4 33 6d 3c 0e 9f 0d be 4a 23 64 bd fd 32 a0 ba
       0.014477644 -0.13830206 -0.055697717 -0.0012222227
0003c0 f4 8e 2e 3c b6 d1 f5 3c d7 40 c1 bd 5b 66 eb 3d
       0.0106542 0.030007225 -0.09436195 0.11494132
0003d0 cf c3 75 3d 0d 44 89 bb 4f d1 e9 bd 1d 28 4f bd
       0.06000119 -0.0041890205 -0.114168756 -0.050575364
0003e0 fd 74 ac bd 49 31 ef 3d cc a2 a9 3d 29 a0 b7 3d
       -0.08420751 0.11679322 0.08283004 0.08966095
0003f0 04 07 78 3e f3 0d eb bc b4 fc 3e 3e ee 95 a0 bd
       0.24221426 -0.028693175 0.18651086 -0.07841097

actor.0.bias f4 [28]
000000 80 25 ca bd e1 04 82 bd 5f 03 31 3e 4e 82 1e 3d
       -0.09870434 -0.06348587 0.17286442 0.038698487
000010 f4 c9 09 3b 15 ef f7 bd eb 5e 29 3d 2c 8b 98 bd
       0.0021024914 -0.12106148 0.041350286 -0.0744842
000020 5f 6a 07 be b2 f9 99 bd 27 27 16 3e a7 87 06 3e
       -0.13224171 -0.07518329 0.14663373 0.13137685
000030 5b 6f 54 3d dc 54 2e 3d 43 23 c6 3d cb 6c 7a bc
       0.05186401 0.042561397 0.096746944 -0.015284727
000040 a4 77 12 3d 89 f5 0a be 93 a0 e7 3d 91 d4 02 3e
       0.03575863 -0.13570227 0.11309924 0.127764
000050 6e 46 a6 3c d6 43 ab bd 38 d9 24 be 62 c3 8d 3d
       0.020297255 -0.08362548 -0.16098487 0.06922032
000060 3f d3 99 bd b3 46 54 3d df 25 e1 3d f7 cf 4c be
       -0.07510995 0.051825237 0.109935515 -0.20001207

actor.2.weight f4 [14, 28]
000000 28 92 32 be c8 fe 10 be 7d 41 66 bc 61 a4 d8 3d
       -0.17438567 -0.14159691 -0.0140537 0.10578228
000010 29 c0 28 be 03 a6 30 be 5f bf 18 be 36 d5 9b bc
       -0.16479553 -0.17250828 -0.14916752 -0.019022565
000020 20 74 03 3e 6f 34 72 3e 9c 4e 48 3c ef 4e 21 be
       0.12837267 0.23652814 0.012225773 -0.15752767
000030 d5 46 f1 3d 81 5a 1e 3e 59 3d 59 3c 58 72 9b bd
       0.11781088 0.15464212 0.013259255 -0.07590169
000040 6d 0f 98 bd 2c ed 45 3e be 0e e9 3c 16 ae 11 3e
       -0.07424817 0.19328755 0.028449412 0.14226565
000050 f4 7a 73 3e 03 a2 04 3d 31 8b 8e 3d e5 5b 74 3e
       0.23777372 0.03238107 0.069601424 0.2386318
000060 38 ca 05 ba 53 a3 65 3e 26 82 30 be 04 c3 81 3e
       -0.00051036803 0.22425584 -0.17237148 0.25344098
000070 a9 fe 08 3e 6d 79 12 3e ed 14 63 be 0b 29 8d 3e
       0.13378395 0.14304133 -0.22175951 0.27570376
000080 53 4e 11 be e8 69 c6 bd 74 46 ed bd 7b 49 21 be
       -0.14190035 -0.09688169 -0.115857035 -0.15750687
000090 fe ce 57 be 73 11 2b 3d 8a 42 eb 3c ac fe 06 be
       -0.21075055 0.041764688 0.028718252 -0.13183087
0000a0 f3 e4 57 be da ba fa 3d 34 f1 1f be ed 82 06 be
       -0.21083431 0.1224267 -0.15619355 -0.13135882
0000b0 a1 f5 80 3d f1 d4 c4 3d bd 1c 02 bd c8 06 87 bc
       0.0629685 0.09610928 -0.03176569 -0.016482726
0000c0 ca 17 9b bc ea a9 3c 3e dd 1b 8a bd 84 73 dd 3d
       -0.018932242 0.18424192 -0.06743596 0.108130485
0000d0 e6 ac c3 3d 02 47 1e 3d 94 e0 5c bd d8 5e df bd
       0.09554462 0.038641937 -0.053925112 -0.10906762
0000e0 01 b7 ec 3d ad ff 47 be 02 48 81 bd aa 16 50 3c
       0.11558343 -0.19531126 -0.063125625 0.012700716
0000f0 b4 1b fc 3d be 54 2c bc 17 93 89 bd 27 f4 0c 3e
       0.123099715 -0.010518251 -0.06717508 0.13765012
000100 59 aa 04 3e 47 46 00 3e 96 e3 5f be eb 97 89 bd
       0.12955607 0.12526809 -0.21864161 -0.06718429
000110 92 e7 47 be c4 af 27 be bb 6a 95 bc 82 5e 42 be
       -0.19521931 -0.16375643 -0.01823937 -0.18981364
000120 16 3d 98 3d 8c e1 6e be 65 d4 50 be 9e b9 6e 3e
       0.07433526 -0.23328227 -0.20393522 0.23312995
000130 4c ce 24 3e a9 ab 24 3c 94 87 2f be 37 47 38 be
       0.16094321 0.010050693 -0.17141563 -0.17995916
000140 4c 17 dd bd 02 2f 92 3d 08 58 f8 bd 8c 69 86 3d
       -0.10795459 0.07137872 -0.12126166 0.065631
000150 1e b9 1a be fa 0c 65 3e 3c 3f e9 bc d0 52 ed bc
       -0.15109679 0.22368231 -0.028472535 -0.028970152
000160 b6 56 d7 3d 1a f0 e4 3d 2c 49 07 3e 16 f9 8b 3d
       0.10514586 0.11178608 0.13211507 0.06834619
000170 fe fb ba bd 9a 21 43 be 25 a6 d9 3d ad 03 d1 bd
       -0.09130095 -0.19055787 0.10627393 -0.10205779
000180 6b ab ee 3d 34 24 3e 3e 0e 51 fc 3c 5a 3a b1 bb
       0.11653789 0.18568498 0.030800369 -0.0054085674
000190 26 e5 28 3e a8 db 74 be 18 ed 05 be e3 b1 dd bd
       0.16493663 -0.23911917 -0.13078725 -0.10824945
0001a0 6b e9 fe 3d 00 2b 5d 3e 87 0d 1f be 09 eb 58 bb
       0.12446865 0.21598434 -0.15532504 -0.0033099076
0001b0 e7 87 80 3c 28 ea 18 3e 81 ab 70 3d e9 65 f0 bd
       0.015689803 0.14933074 0.05875731 -0.11738188
0001c0 bf 4b d6 bd 1c 12 ae bb 04 07 45 3d 7b 3a 17 3d
       -0.10463666 -0.0053122174 0.048102394 0.036921006
0001d0 03 1d e9 bc c2 bb 7b 3e 89 9b bb 3d ac 76 4a be
       -0.028456217 0.24583343 0.09160525 -0.19771832
0001e0 c0 9a 7e bb 3b 0b 55 bc 7a c9 7a bc 62 3f 36 3e
       -0.0038849562 -0.013003166 -0.015306825 0.17797616
0001f0 1c 3c ac 3c 4d 6e 29 3e d9 27 53 3e e9 61 62 bd
       0.021024756 0.16545983 0.2062067 -0.055269156
000200 01 c2 2f 3e 0b f2 96 be 9a 22 9c be 59 9d 90 bd
       0.1716385 -0.2948154 -0.3049515 -0.07061262
000210 39 48 a9 bd 0a c8 01 3e 5a e5 b8 3d da 33 19 be
       -0.082657285 0.12673965 0.0902812 -0.14961186
000220 f2 d5 d3 3c c3 88 11 3e c9 0b 2f 3e e1 c2 c9 bd
       0.025858853 0.14212327 0.1709434 -0.09851623
000230 5f b2 d5 3c 61 bf 4a be 18 00 fa bd 0a 11 8a bd
       0.02608603 -0.19799568 -0.12207049 -0.06741531
000240 04 6b 97 3d 1f d9 8b 3d b1 61 9a 3e f9 9b c8 bc
       0.073934585 0.06828522 0.30152658 -0.024488436
000250 97 dc 48 3e 91 71 d9 bd 63 30 12 3e f7 fc db 3d
       0.19615398 -0.10617364 0.1427627 0.107416086
000260 6a 50 7e 3c 2d 93 4c be 1f 27 4c 3e 7c 98 43 3e
       0.015522102 -0.19978018 0.19936799 0.19101137
000270 8b 1f 8a 3d 3e 26 0c be 5d 24 fc bd e3 3e 76 be
       0.067442976 -0.13686463 -0.12311623 -0.24047427
000280 80 d0 35 be 33 62 49 bd da 05 43 be 7e 92 78 bb
       -0.17755318 -0.049165916 -0.19045201 -0.0037929113
000290 9a 3d 2b be ca e7 20 be e7 0e 50 be 8f 80 2c 3e
       -0.16722718 -0.1571342 -0.20318185 0.16845916
0002a0 a2 5a dd 3d 50 b5 82 be c9 e0 80 3d b6 46 5e be
       0.108083025 -0.25528955 0.06292874 -0.21706662
0002b0 b5 23 49 bd 84 6e 38 bd f1 b3 40 3e ce 7f cd 3d
       -0.04910632 -0.04502727 0.18818642 0.100341424
0002c0 53 bf 94 3d fe 44 60 3d 8a b1 91 bd d4 a3 a9 bd
       0.07263055 0.054753296 -0.07113941 -0.08283201
0002d0 bf 27 39 3e 5b 74 b3 3d 30 a5 12 be 2a 8b 58 be
       0.18081568 0.087624274 -0.14320827 -0.21146837
0002e0 ec bd 4d be 7b d6 ed bd 41 b8 77 bd 55 ca 1b 3e
       -0.2009198 -0.116131745 -0.060478453 0.15213902
0002f0 29 bb 3d be a1 07 44 be 18 1d 4c bd e6 7d 01 3e
       -0.18528427 -0.19143535 -0.049832433 0.12645683
000300 32 46 63 3d da a8 20 be 16 bf 66 be 2d f3 50 be
       0.055486865 -0.15689412 -0.22533831 -0.20405264
000310 39 44 0b be 15 d8 34 bd 64 8e 50 be 5a f7 f8 3c
       -0.13600244 -0.044151384 -0.20366818 0.030391384
000320 2f ba 52 3e 01 33 82 3e dc 18 f9 bc 23 e6 50 be
       0.20578836 0.25429538 -0.030407362 -0.2040029
000330 5c c9 63 bd 96 0a 65 be 1d a0 80 be 2e 4c a6 3d
       -0.055611953 -0.2236732 -0.25122157 0.08119999
000340 92 0a 4f 3d 6d 15 cc 3c 25 aa 86 be 56 3a ae bd
       0.05054719 0.02491256 -0.26301685 -0.085072204
000350 2b 4b 86 3d 0e b9 03 3e ea ae 5a 3b 8d 33 a8 3d
       0.06557306 0.12863562 0.0033368417 0.082129575
000360 94 b3 63 be 63 bd da 3d d5 ef 39 3e a5 81 4e 3e
       -0.22236472 0.10680654 0.18157895 0.20166643
000370 e1 df e8 3c 47 86 61 be 76 c8 01 3e 75 5f 99 be
       0.028427066 -0.22023879 0.12674126 -0.2995564
000380 5c 83 80 bb ef 0d 61 3d d3 b3 24 be f3 f9 4f be
       -0.0039219093 0.05494493 -0.16084222 -0.20310192
000390 1b a8 0a bd 74 4f 79 3e 8e 3d 63 bd 40 90 eb bc
       -0.033851724 0.24346715 -0.055478625 -0.028755307
0003a0 6c f9 44 3d 7a 47 18 3e b4 96 04 3d 19 8d 0b bc
       0.04808943 0.14871016 0.032370284 -0.008517527
0003b0 e6 f1 b4 3d 47 45 04 be ef 97 d9 bd 26 74 0a bd
       0.08835201 -0.12917052 -0.10624682 -0.033802174
0003c0 af 8b a3 bd 18 b1 38 be 24 74 6c be 49 e0 4e bc
       -0.07985627 -0.18036306 -0.23091179 -0.012626716
0003d0 ad b9 1a 3e af a0 a7 bd ec 61 4d 3e b0 fb 6b 3e
       0.15109892 -0.08184945 0.20056885 0.2304523
0003e0 67 40 e6 bc 0c 49 86 bc 28 7c e8 3d 11 19 e2 bd
       -0.028106881 -0.016392253 0.11351806 -0.11039937
0003f0 34 7f 34 3e 9e 0b b5 bd b6 0e 36 be 68 b0 11 3e
       0.17626649 -0.088401064 -0.1777905 0.1422745

actor.2.bias f4 [14]
000000 a1 a5 eb 3c f4 b4 68 3c 57 08 1f be 1a e1 92 3d
       0.028765501 0.014203299 -0.15530525 0.07171841
000010 b2 e9 c6 bc 97 80 0d bd 0d 34 36 3e b6 ff 27 3e
       -0.024281356 -0.03454646 0.17793293 0.1640614
000020 cb 8f 67 bd d1 97 b5 bc ff 8e 32 3e a1 56 0f bd
       -0.056533616 -0.022167118 0.17437361 -0.034994725
000030 64 cd 3f bd fc 57 0f 3e
       -0.046826735 0.13998407

actor.4.weight f4 [7, 14]
000000 aa b8 93 be 63 9d 99 be 70 a5 07 3e ae 23 0d be
       -0.28851825 -0.3000289 0.13246703 -0.13783142
000010 6d 53 c4 bd f6 8a 8c 3e ce b5 33 3e a1 39 35 3c
       -0.09586225 0.2744977 0.17549822 0.011061103
000020 6d 4c 84 be 9c 2b ac be 86 c8 06 3c 06 20 76 be
       -0.25839558 -0.3362702 0.008226519 -0.24035653
000030 d6 55 46 3e 4c ab 17 bd 5e 18 8f be a1 e8 41 be
       0.19368681 -0.037028596 -0.27948278 -0.18936397
000040 ed fa 33 be ae 29 85 3e 7c f9 c3 3d ca a3 54 3d
       -0.1757619 0.26008362 0.0956907 0.051914014
000050 9f d2 72 be 27 01 2c be 76 b4 d3 bc 1c 4b 00 be
       -0.23713158 -0.16797315 -0.025842886 -0.12528652
000060 60 a6 40 be b0 83 54 3e c2 ac 76 3d 2e ad 14 be
       -0.18813467 0.2075336 0.06022335 -0.14519188
000070 6c 07 3e 3d 6e 11 65 3a 76 26 d8 3d fe 4d db 3d
       0.046393797 0.0008738254 0.10554211 0.10708235
000080 de ac ce 3b 78 53 39 3e 6e c3 06 bd 5c 14 bf be
       0.0063072285 0.18098247 -0.03290122 -0.3732022
000090 2f 02 0f bd f2 80 53 be 86 1a a1 3d d2 d3 c6 3d
       -0.03491419 -0.20654657 0.07866387 0.0970837
0000a0 72 5d 6f 3e 5d 56 2e 3e fd 4a 8a 3e 25 db 9d bd
       0.2337549 0.17025132 0.27010337 -0.07707814
0000b0 5c 75 a8 be 95 1b 6c 3c 4d d8 23 3e 12 9d 95 3e
       -0.32902038 0.014410873 0.16000481 0.29221398
0000c0 bb 38 1e bd 89 9e 92 bd 77 72 2a 3e 75 2c 64 be
       -0.03862832 -0.071591444 0.16645227 -0.22282584
0000d0 81 23 11 be cf b4 74 be 87 52 1a be 8f 1a 12 3d
       -0.141737 -0.23897098 -0.15070544 0.03566986
0000e0 ad 38 ab 3e cf d2 0d bd 79 b5 83 3e aa 70 9c be
       0.33441678 -0.03462487 0.2572439 -0.30554706
0000f0 ea 27 92 be 65 8a 9c bd 6b ce c0 bc f6 d9 a7 be
       -0.28546077 -0.07643584 -0.023535928 -0.32783478
000100 f0 75 28 be 7d d8 b3 bc 20 ca 22 be 72 f7 a0 3d
       -0.1645124 -0.021953816 -0.15897417 0.078596964
000110 70 e5 26 bc 33 9e d4 bc a9 f1 47 3e 96 40 9b be
       -0.010186538 -0.025954342 0.1952578 -0.30322713
000120 b0 e0 b6 3c 5e 6e a0 be 60 32 12 be ca 60 90 bc
       0.022323936 -0.31334203 -0.14277029 -0.017624278
000130 e0 8a 9f 3e cb d7 9a 3e 8c c7 5e 3e 6d 4d 7a 3e
       0.3116064 0.30242762 0.21755809 0.24443598
000140 46 6f 78 3d b2 66 01 3d 9a eb 2e be 23 a5 a8 bb
       0.060652994 0.03159208 -0.17082062 -0.005146639
000150 13 6c 8e be f0 dc 4f be b3 11 9e 3e 11 48 99 bd
       -0.2781683 -0.20299125 0.30872878 -0.07484449
000160 28 0f 9c 3e ae c4 66 3e ba 8d f4 3b 17 74 dd 3d
       0.30480313 0.22535965 0.007463184 0.10813158
000170 7a f5 83 3e ed f5 11 bd ab 62 92 be 69 15 19 be
       0.2577322 -0.035634924 -0.28590903 -0.14949574
000180 96 aa 39 3e b3 72 4d be
       0.1813148 -0.20063286

actor.4.bias f4 [7]
000000 20 10 2a be 78 41 39 3e fb c4 39 3e 97 3c 3b bd
       -0.16607714 0.1809138 0.18141548 -0.04571208
000010 ed c1 28 be e8 31 01 3e c7 4d a1 3d
       -0.16480227 0.12616694 0.07876163

critic.0.weight f4 [40, 31]
000000 33 34 eb 3c 0a 7a c0 bc 72 9c 78 3d 14 16 b4 bd
       0.028711414 -0.023495693 0.060696073 -0.087932736
000010 7f 20 02 3e e4 41 8e bc bd b3 f6 bd 42 46 84 3d
       0.12707709 -0.017365403 -0.12046001 0.06458713
000020 d6 52 a5 3d 42 8f 6d bd 55 1e bb bd cd e1 3c bd
       0.0807244 -0.05799795 -0.09136645 -0.046113778
000030 a6 f2 8e 3d 59 08 2f bc ec 81 fa 3d 59 f5 fd bd
       0.06979875 -0.010683143 0.12231812 -0.12400312
000040 67 05 76 be a9 74 47 3d c7 62 1f 3e 44 82 f1 bd
       -0.24025498 0.04869524 0.15565024 -0.11792424
000050 dc 98 89 bd d1 39 73 3d 8b 1b 68 bd 6c b4 e7 bd
       -0.06718609 0.05938131 -0.056666892 -0.113137096
000060 e4 2c f7 bd 12 5b 08 3e 74 4e d3 3d 94 0f 99 bd
       -0.12069109 0.1331599 0.10317698 -0.074736744
000070 d7 b5 54 3d 99 5e 3c 3e 98 05 2d 3e c9 f8 9d 3c
       0.05193123 0.18395461 0.16896665 0.01928367
000080 4d 2a 9a 3d ce f9 45 be 58 1e b7 bd b3 10 7a 3d
       0.075275995 -0.19333574 -0.089413345 0.061051082
000090 e5 09 b6 bd 71 76 bb 3d 62 11 2b be 75 2e 3e 3e
       -0.08888606 0.0915345 -0.1670585 0.1857241
0000a0 c3 fb 3e be c3 21 53 3d 8e d6 0e bd 24 02 25 3d
       -0.18650727 0.05154587 -0.034872584 0.040285245
0000b0 47 32 12 3e 79 be e0 3d 25 36 d5 3d 62 7e 97 3d
       0.14276992 0.1097383 0.10410718 0.073971525
0000c0 04 a9 c8 bd d5 06 c1 3c 12 48 41 be e3 f9 52 bd
       -0.09797862 0.023562828 -0.18875149 -0.05150784
0000d0 3e 83 08 3e 32 28 13 3e f3 ce e8 bd 93 9d a1 3d
       0.13331315 0.14370802 -0.113675974 0.07891383
0000e0 d9 3c 32 be 21 bf a0 bd 11 3d 1f bd 98 1b 03 bd
       -0.17406024 -0.07848955 -0.038876597 -0.032008737
0000f0 fd ea 75 be 58 c5 65 be 11 c0 9d 3d 74 c5 3d 3e
       -0.24015422 -0.22438562 0.077026494 0.18532354
000100 82 f1 09 be a8 be ef 3c fa ad 8a 3d ea 1f 3b be
       -0.13471034 0.029265717 0.06771465 -0.18273893
000110 c3 d4 0d be e6 47 75 bd 26 2f 8f bd 8d da 04 3d
       -0.13850693 -0.05988302 -0.06991415 0.03243499
000120 97 cf 2c bd ce 0e 2e be 6b 51 85 bc 62 52 69 3d
       -0.04219016 -0.16997835 -0.016274175 0.056963332
000130 20 dc b6 3d d7 81 a6 bd 98 ee 13 be 5d a6 86 bc
       0.08928704 -0.08130234 -0.14446485 -0.01643675
000140 43 7a 99 3e 3f 8e ca 39 93 48 07 be 20 c1 60 bd
       0.2997609 0.00038634424 -0.13211279 -0.05487168
000150 79 64 ae bc 2a 2e b2 3d 8d 4f c2 3d 9c 21 7d be
       -0.021288143 0.08700211 0.09487829 -0.24719852
000160 f6 29 19 be 10 c8 17 3d aa f7 7c 3d 27 82 d6 bd
       -0.14957413 0.03705603 0.06175963 -0.10474043
000170 df 94 e3 3d d0 16 48 3d 7c 3f 21 be 63 38 a1 3d
       0.11112379 0.04884988 -0.15746874 0.07872083
000180 a0 b1 f7 bd 39 af 0d bd 71 a4 96 3d 7d c2 8c bb
       -0.12094426 -0.034590933 0.073555835 -0.0042956457
000190 05 c2 42 3e d0 dc 8e bb c8 c1 13 3d 34 fe 19 be
       0.19019325 -0.004359819 0.036073476 -0.15038377
0001a0 c9 61 aa bd 11 99 f1 3b 41 a7 8a bd e9 65 1a be
       -0.08319432 0.0073729833 -0.067701824 -0.15077938
0001b0 e8 71 87 bd 69 8d f2 bd 70 d1 0f bd 8b ee 7e be
       -0.06613523 -0.11843378 -0.035111845 -0.24895684
0001c0 84 3b 11 3e 49 bd 6b bd 5c 40 63 be c5 74 b0 bd
       0.1418286 -0.057553563 -0.2219252 -0.08616022
0001d0 64 48 7d 3e 42 26 df bb 5f 91 65 bd a7 d4 20 3e
       0.24734646 -0.0068099806 -0.05604684 0.1570612
0001e0 51 dd 71 be cf 1c 45 3d fb 74 83 bd b3 e8 cc 3d
       -0.23619582 0.048123177 -0.06418797 0.10005321
0001f0 96 21 95 3c e2 4b 85 bd 08 08 b3 3d 61 c7 fd bc
       0.018204492 -0.06508614 0.08741766 -0.03097886
000200 a7 f4 e4 bc df c9 e9 bd 44 30 7b 3c e1 d1 a9 bd
       -0.02794869 -0.11415457 0.015331332 -0.08291984
000210 5c a9 bf bd c8 09 a4 bb c9 3c 00 3e 0c 44 c5 3c
       -0.093584746 -0.005006049 0.12523188 0.024080299
000220 b8 ca 6f bc 4d b4 25 3d 20 70 0f be 0c 1d 13 be
       -0.014635734 0.04045515 -0.14007616 -0.14366549
000230 52 00 e3 3c a5 bb bf 3c 71 c9 67 bd 59 41 87 3d
       0.027710114 0.023404906 -0.056588594 0.06604261
000240 18 91 4c be 59 39 de bc 3f da 58 3d 39 3a 19 3a
       -0.19977224 -0.027126955 0.05294251 0.00058451627
000250 cd e5 39 be f8 1e e5 3d 65 b1 dc 3d f0 ca 33 bd
       -0.18154068 0.111875474 0.10776023 -0.04389471
000260 fb 95 e3 bd 87 8b 56 be 31 bc a4 bd 55 2b db 3c
       -0.11112591 -0.20951663 -0.08043707 0.02675406
000270 64 95 50 bd 6d 2f 63 bd 49 fd be bd f9 05 6b 3d
       -0.05092372 -0.05546515 -0.09325654 0.057378743
000280 a0 49 0f 3d d4 88 a8 bd 9c 42 87 3c 13 8a 28 bc
       0.034982324 -0.08229223 0.016511254 -0.010286826
000290 93 2e c8 3c f4 a1 0f 3d 8a 67 4d bc b9 68 21 bd
       0.02443627 0.03506656 -0.012536893 -0.039406512
0002a0 a9 b9 30 bb 8f a1 8b 3e 8f 96 1b be 3c 0f 1c be
       -0.002696613 0.27271697 -0.15194152 -0.15240186
0002b0 23 95 81 be ac 8e 5f 3e d8 12 a0 3d 14 62 53 3e
       -0.25309095 0.21831769 0.07816094 0.20642883
0002c0 37 c6 ee bc 7e ef 7a bb 10 85 79 3d a4 ee cd bd
       -0.02914725 -0.003828972 0.060917914 -0.10055283
0002d0 53 c8 e4 3d a3 36 17 3d 6b 21 b6 bd 65 b0 63 3e
       0.11171021 0.03691734 -0.08893093 0.22235258
0002e0 a2 21 61 3e 64 47 8d 3e f4 92 60 be d2 95 1d bd
       0.21985486 0.2759353 -0.21931058 -0.038472958
0002f0 86 62 a5 3b 80 18 d8 bd 6d 09 18 3d ac 83 0e 3d
       0.0050471453 -0.10551548 0.037118364 0.03479354
000300 cd 31 6d 3d 61 ca 19 3d b6 3e 8e 3b d3 ca ea bd
       0.05790882 0.03754652 0.004340972 -0.11464467
000310 42 07 c3 3d 15 68 98 3d da 30 aa bd e0 66 25 bd
       0.09522869 0.07441727 -0.08310099 -0.040381312
000320 20 9e 8b 3e 13 68 04 3e 30 17 0e be c1 23 b7 bd
       0.27269077 0.12930326 -0.13876033 -0.089423664
000330 62 00 77 3e 1b 6e 15 be 0a 30 42 be 83 af 20 bd
       0.2412124 -0.14592783 -0.18963638 -0.03922988
000340 3d 8c 07 be 80 23 13 be ba c2 73 3e a5 c1 b6 ba
       -0.1323709 -0.14369011 0.23804751 -0.0013943209
000350 19 cf 7f 3d 32 3e fa bd e1 37 86 3e 8d 7c 24 be
       0.062453363 -0.12218894 0.26214507 -0.16063137
000360 f7 ff e8 3c 2f cb 5e b6 24 39 ef ba 22 0a eb bc
       0.028442366 -3.3198846e-06 -0.0018251282 -0.028691355
000370 ea 8f 16 3d 36 79 86 3d 30 6a 85 be c8 35 0f bd
       0.03675834 0.06566088 -0.26057577 -0.0349634
000380 27 1d 78 bd 88 24 d8 3d 21 cf 94 bd 4e ef 7c 3b
       -0.060574677 0.10553843 -0.07266069 0.0038594785
000390 06 b9 85 be 66 9e 34 3e c5 43 b0 bd 52 08 9a 3d
       -0.26117724 0.17638549 -0.08606676 0.07521118
0003a0 3a 0f 15 bd c0 e9 6d 3d 3c a9 a2 bd d4 c1 15 be
       -0.036391474 0.05808425 -0.07942435 -0.14624721
0003b0 11 4c 8a 3e 6f 3f a1 3c a0 10 12 3d f1 9e 0f be
       0.2701116 0.019683568 0.035660386 -0.14025475
0003c0 63 b8 cf bd b9 cf 1e be 7a 6e af bd fb cb 60 bd
       -0.10142591 -0.15508927 -0.085659936 -0.05488203
0003d0 b7 3c 2b 3e 7b 96 22 bd 3f 35 82 be 0b 04 af be
       0.1672238 -0.03969429 -0.2543125 -0.34182772
0003e0 d2 c6 aa 3c 85 13 b8 3d ab 9c 92 bd ec 2c 3f 3e
       0.020846758 0.08988098 -0.07158788 0.1866948
0003f0 d6 0d 2a be 74 82 72 3c 49 bb da 3c 1f fc 84 bd
       -0.1660684 0.01480161 0.026700633 -0.06493401

critic.0.bias f4 [40]
000000 7c c5 da 3d 9a 09 88 3d f4 e9 91 3e 7a ce 8b bd
       0.106821984 0.06642456 0.28498805 -0.06826492
000010 d1 a2 65 be 0e e7 75 3e 68 49 87 3e b0 27 7a be
       -0.22425391 0.24013922 0.26423192 -0.24429202
000020 15 0a fc 3d b5 c0 bf bd b3 12 0a be 13 6a aa 3c
       0.123066105 -0.09362928 -0.13483696 0.020802533
000030 b0 a8 f3 bd b1 23 b5 bc 89 c9 f2 3c 35 13 d2 bd
       -0.11897409 -0.022111746 0.029637115 -0.1025757
000040 a3 90 b3 bc 53 19 59 3e cc f9 1e bb d0 a5 57 3e
       -0.021919554 0.21201067 -0.0024257777 0.21059346
000050 45 da c8 3c 4d 59 6a 3e 4b c6 32 3e 6e eb 76 3e
       0.024518142 0.22885628 0.17458455 0.24113247
000060 f6 1e 62 be ef 8c cc bd f2 21 e0 3c 51 6f 42 be
       -0.22082123 -0.099878184 0.027359936 -0.18987776
000070 46 8e 81 3d 7b 16 8c 3e 22 69 55 3d 54 4c 71 be
       0.06325965 0.273609 0.052102216 -0.23564273
000080 6c 5d 2e 3d 5c a6 61 3d 7f e1 37 3c 5f 25 23 3e
       0.042569563 0.055090293 0.011223196 0.15932225
000090 e4 db e6 bd ff 2a 19 be f9 b0 41 38 5b dc 09 3e
       -0.112724096 -0.14957808 4.6179604e-05 0.13462965

critic.2.weight f4 [32, 40]
000000 c7 6f 2f 3e 06 17 76 3c 55 a1 67 bc a9 dd 32 3e
       0.17132483 0.015020138 -0.014137586 0.17467369
000010 51 b2 55 3c cc ad 38 3e e2 ae 83 bd 7d 45 fe 3c
       0.013043002 0.18035048 -0.064298406 0.031038994
000020 4f 23 bc 3d 20 ed 06 3e 6e d9 1e be 84 39 47 3d
       0.09186422 0.13176394 -0.1551263 0.048638836
000030 55 09 51 be 5b 9b db 3b 3a b1 6b 3d 20 7d d9 bd
       -0.20413716 0.0067018694 0.057542063 -0.10619569
000040 a7 6c 37 bc 1a 8b 9b ba fb 2a 1a be aa e5 d5 3b
       -0.011195338 -0.0011867017 -0.15055458 0.006527622
000050 7d ed 6d 3c dd 0a 23 3e d7 03 bd 3d 44 4e 6d 3d
       0.014521954 0.15922113 0.09229248 0.057935968
000060 47 54 e3 bd 67 7a 4d be a7 6c f5 bc c3 f0 90 3d
       -0.11100059 -0.20066224 -0.029959036 0.07077172
000070 90 52 8d bd b7 7c 32 3e 8f 8d 15 3c b1 62 d2 bd
       -0.06900513 0.17430387 0.0091279885 -0.1027273
000080 9b 62 05 3e 56 b6 b0 bc 77 35 bd 3d 0d f2 9b 3c
       0.13025896 -0.02157132 0.09238713 0.019036317
000090 9c 81 21 3b c7 38 bc 3d 58 0d 8a bd 8a 97 d2 3d
       0.0024643904 0.09190517 -0.06740826 0.1028281
0000a0 d3 a2 c9 bd 88 81 02 be 75 f4 2d be fd 88 81 3d
       -0.098455094 -0.12744725 -0.16987784 0.063249566
0000b0 36 71 fa 3d 06 1c 85 bd 7d ad b8 bd 92 68 c9 3c
       0.122286245 -0.06499486 -0.09017465 0.024585996
0000c0 c5 ff 79 be 39 67 f4 bd 6e 26 e8 bd 12 fc 0a be
       -0.24413975 -0.11933751 -0.11335455 -0.1357272
0000d0 18 cf 39 3e e6 78 c2 3d 15 87 41 3d de ca d0 3d
       0.18145406 0.09495716 0.047247965 0.10194944
0000e0 8e 4f 4b 3d 14 b7 8a 3d 34 05 db 3d e8 88 ca 3d
       0.049636416 0.06773201 0.10694352 0.09889394
0000f0 d5 91 ee bd d0 ca f0 bd 8f 51 d0 bd 1b eb 1b 3d
       -0.11648909 -0.117574334 -0.10171806 0.03806601
000100 35 69 07 3e 31 9d 5a bb d7 d2 95 bd dd aa cc 3d
       0.13223727 -0.0033357854 -0.07315605 0.09993527
000110 b7 f3 a9 bd d5 f4 53 bb cb fb 6d bc 27 ea 24 bb
       -0.08298438 -0.0032341976 -0.014525364 -0.002516398
000120 32 ae 07 be 30 8e 01 3c 74 26 75 3c 05 21 63 be
       -0.13250044 0.007907435 0.014962781 -0.22180565
000130 30 23 ce bd a0 9a 2e 3d 07 63 ae 3d 7d 64 ac bc
       -0.10065305 0.04262793 0.08514982 -0.02104401
000140 08 5f 50 be 6b 7d 5a bd 7b b1 f9 bc 18 60 3d 3e
       -0.20348752 -0.053342264 -0.030480137 0.18493688
000150 4b da 3c 3e d2 df 21 be a7 c6 55 bd ec ba e6 bc
       0.18442647 -0.15808037 -0.052191403 -0.028165303
000160 d0 4c 75 be a1 57 13 bc 40 7e 74 bc 57 7e 6c bd
       -0.23955083 -0.00899306 -0.0149226785 -0.057737675
000170 a3 62 c3 bc 66 75 bf 3d f0 bb fc 3d 03 e3 bc 3d
       -0.023850745 0.09348564 0.12340534 0.092229865
000180 c6 6a 27 bb e2 d2 de 3c 3b 4c d9 3d fa 88 0f be
       -0.002554582 0.027200166 0.10610243 -0.14017096
000190 02 f8 60 bd 57 37 7d be 15 41 46 be bc 97 01 bd
       -0.05492402 -0.24728142 -0.19360764 -0.031638846
0001a0 64 87 4a 3c 2e 93 4a 3e 36 a9 8f 3d 83 f8 a3 bd
       0.012361381 0.19782707 0.07014696 -0.08006384
0001b0 e2 90 c7 3d 1a 3c 19 bd cd 8b 2f be 55 ee 12 bd
       0.09744431 -0.037410833 -0.17143174 -0.035871822
0001c0 91 cb 8a bc 44 85 a9 3d 6b 62 69 bd 39 33 46 3d
       -0.016942771 0.082773715 -0.056978624 0.048388693
0001d0 29 8a db 3c 77 96 78 3c a6 99 55 be 7d dc ee 3c
       0.026799278 0.015172592 -0.20859393 0.029157871
0001e0 fd 1e 80 3d 63 ab 35 be 7b 1b 74 be 39 35 60 3d
       0.062559105 -0.1774116 -0.23838608 0.054738257
0001f0 d7 aa 0c 3e e5 a7 27 be e3 06 59 be ac 5c af 3c
       0.13737045 -0.1637264 -0.21194033 0.021406494
000200 c2 90 71 be 59 82 5f bd 66 59 c9 3b 90 58 d2 bd
       -0.23590377 -0.05456767 0.0061446903 -0.10270798
000210 43 8b c3 bd fb eb 8b 3d 57 e6 44 3e c7 29 46 be
       -0.095480464 0.06832119 0.19228493 -0.19351874
000220 33 20 66 3e ff c4 99 bc 79 19 be 3d 18 90 55 bd
       0.2247322 -0.018770693 0.09282202 -0.05213937
000230 d3 2b 39 3c ab 8b 56 be 8e f7 7f 3b f0 2e 01 bd
       0.011301952 -0.20951717 0.0039057466 -0.031538904
000240 43 ca 14 bb 3b 4a 67 3e 2b cf 59 bd 2f e8 a9 bc
       -0.0022703565 0.2258691 -0.053176086 -0.020740597
000250 9e f5 82 bd 0b 57 a0 bc c5 f4 2e be 4b 36 6e bb
       -0.06394504 -0.019572755 -0.1708556 -0.003634828
000260 54 32 ea bd 3b f3 6e bd 35 55 d4 3d 39 6c 0d 3d
       -0.114353806 -0.05833743 0.103678145 0.034527037
000270 40 68 3a be 65 5f da 3d e9 10 07 bd 93 3a 17 3e
       -0.1820383 0.10662726 -0.03297511 0.14768438
000280 04 5b 38 3d 91 ed 75 3e 4c 32 2d be f9 b7 40 be
       0.045008674 0.24016406 -0.16913718 -0.1882018
000290 8c 25 38 3e 78 9f c8 bd c3 9a dc 3d 74 70 60 3e
       0.17983073 -0.09796041 0.10771706 0.21917897
0002a0 da 80 8c bc 6d f2 97 bd 09 9f 18 3e 52 c7 52 3d
       -0.017151285 -0.07419286 0.14904417 0.051459618
0002b0 2a 48 87 3d 7c ac fa 3d d2 2e c0 3b 96 22 dc 3d
       0.06605561 0.1223993 0.0058649564 0.10748784
0002c0 69 9c 2f 3d 71 c4 45 be 3f d2 bf bb 58 63 d6 bd
       0.042873774 -0.19313218 -0.0058539207 -0.10468167
0002d0 9b 76 db bd ba 7b 96 bc 2c 14 95 3d 2b 9a 22 be
       -0.107159816 -0.018369544 0.07279238 -0.15879123
0002e0 97 61 21 3d 57 bf e7 3d 43 a2 f0 3c 79 f3 01 3e
       0.03939971 0.11315792 0.029374247 0.12690534
0002f0 0c 4c e9 3d 5b 92 17 be e0 07 cc 3d 4d e2 c6 3d
       0.11391458 -0.14801924 0.099624395 0.09711132
000300 a3 28 03 3d 50 b7 b0 3c 1e 0a a1 bd 28 b9 c4 3d
       0.032021176 0.021571785 -0.07863258 0.09605628
000310 77 c7 8d bc 63 9c a8 3d fc 20 55 be f5 b3 80 bd
       -0.017307026 0.082329534 -0.20813364 -0.06284324
000320 38 58 05 3e 59 b5 28 bc 08 70 7c 3e 20 6a c0 3d
       0.13021934 -0.010297143 0.24652112 0.09395242
000330 1d a2 e7 3c c2 ef ff 3b ba 93 cd 3e 55 c6 86 be
       0.028275544 0.007810564 0.4015177 -0.2632319
000340 d7 8e 44 3e 3d 28 02 3e e5 df 2c bd 4e 68 38 bc
       0.19195114 0.12710662 -0.04220571 -0.011255337
000350 d0 9b 5a bd f9 09 0a bd 23 21 75 3d 7c 7f 39 bb
       -0.05337125 -0.033700917 0.059846055 -0.0028304746
000360 ed e9 06 bc fa f8 46 3e 26 50 8d bd 8e d9 0b 3d
       -0.008234483 0.19430915 -0.06900053 0.034143023
000370 25 f4 48 3e 42 25 06 3e 82 ac b9 bb 60 e6 6f bd
       0.19624384 0.1310015 -0.0056663165 -0.058569312
000380 56 35 52 be eb 08 90 be 14 48 99 3e c0 96 3a bd
       -0.20528159 -0.28131804 0.29937804 -0.045553923
000390 bf f6 cc 3d 27 7b 1d 3d 1a 48 b3 bd 56 1b 1d 3c
       0.100080006 0.038447525 -0.08753987 0.009589037
0003a0 6c 2a 82 3e 89 7f c9 3d 14 98 2b bd 80 6e ed 3c
       0.2542299 0.098387785 -0.04189308 0.028983355
0003b0 f0 34 42 3b 00 4a 9f 3d 1a 09 9b bc 88 c8 11 3e
       0.0029633604 0.07777786 -0.018925238 0.14236653
0003c0 73 67 c3 3c ce 6b 26 3e 74 29 0e 3e 3d 25 2c be
       0.02385304 0.16252062 0.13883 -0.1681108
0003d0 6e 52 b0 bd ce a9 d8 3d 75 d7 35 3d 7f c3 ad 39
       -0.08609472 0.10579263 0.04439493 0.00033142787
0003e0 58 8f dd 3d 24 52 b2 3d 25 30 b9 3d 18 da 1e 3e
       0.10818356 0.08707073 0.09042386 0.15512884
0003f0 a2 e2 d2 3c 7d 48 de 3d 69 8a 1a be fd be 66 b9
       0.025742833 0.1085367 -0.15091862 -0.00022005658

critic.2.bias f4 [32]
000000 a6 8f 2f 3e a2 50 eb bd 3c c5 42 bd a8 5f 36 bc
       0.17144641 -0.11489989 -0.04755138 -0.011131205
000010 50 fa 82 bd 8c d6 ca b8 f3 de 63 3d ab 14 3b bc
       -0.063953996 -9.672073e-05 0.055632543 -0.011418502
000020 37 04 e1 3d 86 99 d5 3a 56 26 15 3c 3d 78 21 be
       0.10987132 0.0016296364 0.009103378 -0.15768524
000030 7e bd 8a 3c 81 68 6f 3b 7c 7f 4d 3d 57 2a a2 3d
       0.01693606 0.0036530795 0.050170407 0.07918232
000040 fb b3 c8 bd d8 f5 ab 3d f6 0e 32 3e ca 85 e4 bd
       -0.097999536 0.083965 0.1738852 -0.11158331
000050 25 fd b4 3d 90 05 2c be cf 24 f5 3d 55 eb e1 bd
       0.08837346 -0.16798997 0.11969911 -0.11031214
000060 d0 fa 87 bd 1c 2f 3d 3d e0 4a 64 bd 48 72 65 3d
       -0.066396356 0.046187505 -0.05573547 0.05601719
000070 8b 38 37 3c 13 2b 6d bd 1c 3e aa 3d 18 f7 b8 3d
       0.0111829145 -0.057902407 0.08312628 0.090315044

critic.4.weight f4 [10, 32]
000000 ec 6a 21 3e 9e 5b 00 be eb c3 00 be 5e f3 6d bd
       0.15763444 -0.12534949 -0.12574737 -0.05809342
000010 88 dc 7b be 53 9f 0a 3e 75 1d c0 3c 1e 34 4e be
       -0.24595845 0.1353734 0.023451546 -0.20137069
000020 b4 ef 86 bd 4c 42 ca bc 5d c8 0c be c3 03 ac bc
       -0.065886885 -0.024689816 -0.13748308 -0.020997887
000030 6a a6 68 bd 17 d6 f1 3d a7 6a 79 bc 83 af 76 bc
       -0.05679933 0.118084125 -0.015223182 -0.015056494
000040 5f 4d 89 be 0d bd d9 bc 63 51 23 3e 03 97 3d be
       -0.26816842 -0.026579404 0.15949015 -0.18514638
000050 d7 69 be 3c 01 b2 a2 bc 4c 79 3f 3d 90 51 83 bd
       0.023243828 -0.01986027 0.046746537 -0.06412041
000060 a4 b2 e6 3d 71 2f 2b 3e fd 5b 04 be 9a ad 99 bd
       0.11264542 0.16717316 -0.12925716 -0.07503815
000070 23 77 a7 3d f6 66 74 bd 10 bd 9c bd 93 24 2e 3e
       0.081770204 -0.059668504 -0.07653248 0.1700614
000080 a7 f4 52 3e 09 a4 e8 bd 2d 19 5f be 74 37 01 be
       0.2060114 -0.11359412 -0.21786948 -0.1261881
000090 43 89 b3 bd e7 fd 10 3e 72 f5 2a 3e cf ba 36 be
       -0.08766415 0.14159356 0.16695192 -0.178447
0000a0 05 6c cb 3d 4a 90 03 be 04 ee 7a 3e 90 d8 59 be
       0.099327125 -0.1284801 0.24504858 -0.21274018
0000b0 5d 84 92 bc 7e fc 7e 3e da 1e 5a be 6b 46 45 be
       -0.017885381 0.24901006 -0.21300831 -0.19265144
0000c0 b1 6e 58 3c 34 1d 8b 3d e5 2b f3 3d 8b 1f 73 3d
       0.013209985 0.067926794 0.118736066 0.059356254
0000d0 a7 1d 08 3e 95 32 f0 3b b6 4a 47 bc 31 53 13 be
       0.13292561 0.0073302486 -0.012163809 -0.14387204
0000e0 76 02 5e be 2d d4 d1 3d c1 6b 17 3c b7 b4 20 3e
       -0.21680626 0.102455474 0.009241999 0.15693937
0000f0 02 c7 80 3d 9b 8d 3e bd 8a e7 23 be 75 50 c5 3d
       0.06287958 -0.046521764 -0.16006294 0.096344866
000100 3d f4 ed 3d ac 09 6b be fb 2a 28 be 65 2c 1e be
       0.116188504 -0.22952908 -0.16422646 -0.15446623
000110 4e 84 32 3d c6 6a a5 3c d6 6b 76 bd 00 45 17 be
       0.043583207 0.020192515 -0.060161434 -0.14772415
000120 15 16 99 3e 7f 80 df bd eb 2d 40 3e f3 57 34 be
       0.2989966 -0.109131806 0.18767516 -0.17611675
000130 07 0d 6d 3b 13 38 16 bd 71 97 b5 3d 78 44 ca 3c
       0.0036171095 -0.03667457 0.08866776 0.024690852
000140 9e 9c 67 bc a2 f6 42 be 94 59 9e 3d 1e 6a 14 3e
       -0.014136462 -0.19039395 0.077319294 0.14493605
000150 80 46 a5 3d fa 40 87 bd 09 99 83 be 17 1b 53 be
       0.080700874 -0.0660419 -0.25702694 -0.20615803
000160 d2 51 10 be ad 4f 52 3e 3d 99 c9 3d b9 a2 2b 3e
       -0.14093712 0.20538206 0.09843681 0.16761293
000170 1c 59 78 3e 80 66 43 bd f8 be 8e be df d8 51 3d
       0.24252743 -0.047705173 -0.27880073 0.051232215
000180 e6 78 61 3d 3c e5 22 3e 08 d2 08 be 97 35 cf 3d
       0.05504694 0.15907758 -0.1336137 0.10117643
000190 91 3d 47 3d bd 2f 02 bd 0a 34 8a bd 3f cc 9d 3d
       0.0486427 -0.031783808 -0.06748207 0.077049725
0001a0 a2 1c 72 be b7 7b 3e 3d dc a6 ea 3d ce ef b3 3c
       -0.23643735 0.046504702 0.11457607 0.021964934
0001b0 53 30 52 3d a0 0f d1 bd 88 77 98 3d cf 3b 85 bd
       0.051315617 -0.10208058 0.07444674 -0.06505548
0001c0 48 ff 8c bd 0e fe d6 bc 28 41 29 3e 67 4b 72 bd
       -0.068846285 -0.02624419 0.16528761 -0.05915394
0001d0 50 a2 92 3c d6 81 1b 3b e7 11 d4 3d 73 60 8f bd
       0.017899662 0.0023728511 0.10354977 -0.07000818
0001e0 36 5b f0 bd 01 76 f8 bd 76 2b 63 be fd 5f de bd
       -0.11736147 -0.121318825 -0.22184548 -0.10858152
0001f0 88 fe 4c be 61 85 03 3d 4e 7b 43 3e 6d fd db bc
       -0.20018971 0.032109622 0.19090006 -0.026854241
000200 8e 74 ac 3d 3f 73 1a 3c fa ec 82 3d 67 d4 56 3e
       0.084206685 0.009426891 0.06392856 0.20979463
000210 68 9f 3c be 26 c0 6b 3d 69 d3 df bd a2 c6 2e be
       -0.18420184 0.057556294 -0.10928995 -0.1706796
000220 09 06 14 be 82 d7 e2 3d d2 fd 02 be fa de 7f be
       -0.14455427 0.11076261 -0.12792137 -0.24987403
000230 6c 19 7f 3e 37 03 c1 bc 7f 67 ad 3c 3e 17 71 3e
       0.24912041 -0.023561103 0.021167515 0.23544022
000240 9d 22 9f be 1b b7 8a 3d 6e 86 bb bc f1 ed 77 bd
       -0.31081095 0.06773206 -0.02289125 -0.060529653
000250 93 c7 81 3d c9 69 3c be bd ba 98 bd f1 26 1c be
       0.06336894 -0.18399729 -0.074574925 -0.1524923
000260 40 5c 95 bd 37 b6 52 3e e9 04 1c be ca 5f 3c bd
       -0.07292986 0.20577322 -0.15236248 -0.04598979
000270 97 cb f2 bc 6c 36 24 be 3a ee 9e bd b9 e5 e0 bc
       -0.029638095 -0.16036385 -0.07760282 -0.02745329
000280 a7 90 a3 3c 6d b7 26 be db be 86 3b 4d 3f 3c be
       0.019966437 -0.16280909 0.004112107 -0.18383522
000290 d6 04 a3 3d fc 35 17 ba e3 fc a6 bd 47 bc ea 3c
       0.07959907 -0.0005768237 -0.08153703 0.02865423
0002a0 dd 44 f8 3d 36 d6 37 be 05 64 17 3e 80 b9 77 be
       0.1212251 -0.17952809 0.14784248 -0.24191856
0002b0 b8 99 16 3e ea 9d 28 3e 2c 4d 38 be 6c 86 a1 3c
       0.14707077 0.1646649 -0.17998189 0.019717418
0002c0 f7 eb 88 3d 0d 4a 61 be 98 6f bf 3c fe cc 15 3e
       0.06685632 -0.22000904 0.023368642 0.1462898
0002d0 b5 ff 0f 3b 8d 83 8a 3d 97 4a 44 be 44 eb e5 bc
       0.0021972482 0.067633726 -0.19169079 -0.028066285
0002e0 10 a4 7f be 02 ab 72 3e 3b c0 83 bc 76 d3 5f 3e
       -0.24964929 0.23698047 -0.016082874 0.2185801
0002f0 93 13 96 3e ce b7 7a be 60 83 50 be f7 c4 8f 3e
       0.2931181 -0.24484178 -0.20362616 0.2807996
000300 47 ed 1f be 03 08 17 3e 0f 54 b8 3d 9d 88 19 bd
       -0.15617858 0.1474915 0.09000408 -0.0374838
000310 11 2d aa 3e e8 a8 eb 3d 0c 5a 47 bd ee d5 d3 3d
       0.33237508 0.11506826 -0.04866986 0.10343538
000320 0c a0 aa bd 61 e5 60 3d 42 dc eb bd 0c d5 23 3e
       -0.08331308 0.054906253 -0.1151662 0.1599924
000330 25 b8 18 be e9 65 8d bc 60 eb a6 3c c8 d0 74 be
       -0.14913996 -0.017260509 0.020375907 -0.23907769
000340 0c 5f 80 3e 90 f3 80 3c da 0b 72 bd e1 cc 60 3e
       0.25072515 0.01574114 -0.059093334 0.21953155
000350 5a 72 3a be 66 e0 46 3e b2 57 95 be f3 b8 4d 3e
       -0.18207684 0.19421539 -0.2916847 0.20090084
000360 74 07 f2 3d c0 ec 2a be 06 25 0f 3e db 2e cb bd
       0.11817828 -0.16691875 0.13978967 -0.09921046
000370 31 6a 48 bd 63 f3 e2 3c 36 f0 8d bd 6c a4 2e be
       -0.048929397 0.027703946 -0.06930582 -0.1705491
000380 05 3e ef 3d 65 e6 c8 3c be 05 b6 3d a0 e5 f2 3d
       0.11681751 0.024523923 0.08887814 0.11860204
000390 86 92 a8 3d 63 d6 40 be 3d 81 84 bd 18 f6 46 3e
       0.08231072 -0.18831782 -0.06469963 0.19429815
0003a0 54 90 80 bc 0a a4 33 3e 5d 13 e4 3a a1 d9 d5 3c
       -0.015693821 0.17543045 0.001740079 0.02610475
0003b0 3f 5a 1c be 6d c4 23 be d3 96 a7 bc f5 ab 79 3e
       -0.15268801 -0.15992899 -0.02045766 0.24382003
0003c0 af e5 fc bd a3 65 18 3e 90 6e b6 bc 9f e9 be bc
       -0.12348496 0.14882521 -0.022269517 -0.023304759
0003d0 7f 65 e1 bd da b4 bf bc 5e 9a 0c 3e ed 1c d8 3d
       -0.11005687 -0.023401666 0.13730761 0.10552392
0003e0 23 de 06 3e 09 07 aa b9 74 eb d4 bd c4 36 44 be
       0.13170676 -0.00032430168 -0.103964716 -0.19161516
0003f0 7c 7a b0 bd 51 89 b0 3d bc f0 ba bd b0 61 3a be
       -0.08617112 0.08619941 -0.09127948 -0.18201327

critic.4.bias f4 [10]
000000 96 67 a8 3c 89 29 2e be ab 02 2e be b8 35 6e bd
       0.020557206 -0.17008032 -0.16993205 -0.0581567
000010 38 45 50 bc 1d 74 4b 3c fa 46 28 be 7b d0 87 bd
       -0.012711816 0.01241782 -0.16433325 -0.06631561
000020 4a 78 15 be 60 48 8c 3d
       -0.14596668 0.06849742

critic.6.weight f4 [1, 10]
000000 9d 9e a0 3b 42 a5 88 be 4a 0e 5a be 85 c5 27 3e
       0.0049017207 -0.26688582 -0.21294513 0.16383941
000010 2d d5 4d 3e 65 93 3d be 3d 3f 96 bc d5 f9 1a 3e
       0.20100851 -0.18513258 -0.018340701 0.15134366
000020 8d 64 47 be c9 c1 eb 3d
       -0.19471951 0.11511571
