Weight/PPO_continuous.pth (torch_old, 46024 bytes, 17 tensors)

actor.0.weight f4 [40, 94]
0.017778216 0.04795487 0.0069942223 0.13890368 -0.020143937 0.077559136 -0.10119345 -0.028075684
0.04912924 -0.05017854 0.1373049 -0.021286646 0.13661028 -0.041785985 -0.027398853 -0.055816956
0.10905328 0.06347174 -0.06763492 0.08583587 -0.10167199 -0.109762564 -0.08190772 0.101891264
-0.031479288 -0.08158084 0.030095149 -0.11695398 -0.09937573 -0.1423923 0.13637729 -0.035308756
0.08197693 0.073545985 -0.09018659 -0.0012363114 -0.023757897 0.093073525 0.061092075 -0.023296705
0.08479266 -0.081446365 -0.024721455 0.053077973 0.075232245 8.474035e-05 0.06813116 0.07705539
-0.00096318295 -0.09519624 -0.09725797 -0.0037847552 0.008117566 0.17003018 0.13208732 -0.008592349
-0.0068107303 -0.0045227273 0.067423224 -0.03428567 0.07262308 -0.09535365 0.027376067 -0.06931699
0.070255324 -0.0012985027 0.1226036 -0.10254466 -0.15027627 -0.092171304 0.01261676 -0.04521331
0.18715464 0.031108217 -0.012356022 -0.1847468 -0.1010088 0.11148663 0.091732726 -0.056639347
-0.11002242 -0.1130497 0.061190043 -0.03749872 0.07410853 -0.019803297 0.09507975 -0.12261766
-0.056799512 0.14099762 -0.01432682 0.018834164 0.09738242 0.111617096 -0.10011276 -0.059326276
0.10952435 -0.040723737 -0.18672426 -0.15486155 -0.042662904 0.061706785 0.02357519 -0.015346668
0.026804008 -0.12823045 -0.12165966 -0.057023257 -0.050556768 -0.03534413 0.17039911 0.042962007
-0.07028024 -0.11161431 -0.05870297 -0.018337283 0.02989833 -0.016043194 0.005603378 -0.17689395
-0.006359515 -0.049486894 0.019373449 -0.068056114 0.02433365 -0.004414466 -0.14617813 -0.10927686
0.055338163 -0.010103871 0.09455859 0.08418993 -0.058667425 -0.015586146 -0.06997679 -0.07153966
-0.071154274 -0.09373071 0.053658612 0.037384085 -0.056476574 -0.12469476 0.05794216 -0.04617705
-0.094497524 0.045483176 0.13677967 0.11025513 0.21558464 -0.11477981 0.1333766 -0.022894071
-0.056487765 -0.11336484 -0.0464928 -0.022092862 0.09876137 0.028597219 -0.08870741 -0.07063322
0.28508475 0.022210652 0.10576174 -0.21409163 -0.08550932 -0.08610025 0.092048384 0.07718043
0.012276216 -0.12458845 -0.09739728 -0.11029801 0.02362772 -0.09264938 -0.03285284 -0.041983265
-0.099507324 0.004416725 0.044058327 -0.10051365 -0.02598164 0.03356529 0.09105704 -0.042170465
0.12938887 0.1632161 0.14850917 0.09461264 -0.061628066 -0.021914247 -0.0017210774 0.0066221273
0.055144172 0.11948533 -0.038095538 -0.073192745 -0.027413556 -0.0011963965 0.06271835 0.0016440264
-0.06517512 -0.058215845 0.041385654 0.010967571 0.0009238707 -0.02676417 -0.08465382 -0.0651163
-0.061747313 -0.01639854 0.036001228 0.05522432 -0.056694474 -0.122786485 0.012667245 0.0702057
-0.036500264 -0.053433944 0.045578204 -0.004561885 -0.120467104 0.107458286 -0.07503388 -0.08271233
-0.12893467 0.07308701 0.11298818 -0.03518168 -0.042314902 -0.13450791 -0.14187728 0.05012704
0.0547754 0.12398939 -0.00978847 0.05598933 -0.032827917 -0.11181251 -0.1523514 -0.017435065
0.036083125 -0.06695489 -0.12907705 -0.04295454 -0.057399195 -0.04697143 -0.047269095 -0.08192144
-0.11268051 0.07998673 -0.078240044 -0.22207575 0.018643577 -0.0537818 -0.071033135 -0.20887569
00000000: 9fa3 913c 536c 443d ca2f e53b c43c 0e3e
00000010: e604 a5bc 53d7 9e3d 833e cfbd fafe e5bc
00000020: be3b 493d 0388 4dbd a899 0c3e 5561 aebc
00000030: 91e3 0b3e c827 2bbd 8f73 e0bc 52a0 64bd
00000040: 5357 df3d 79fd 813d 2d84 8abd b7ca af3d
00000050: 6739 d0bd 32cb e0bd 3cbf a7bd 5eac d03d
00000060: 6df0 00bd db13 a7bd 1a8a f63c 9185 efbd
00000070: 8185 cbbd 49cf 11be 7da6 0b3e ea9f 10bd
00000080: 85e3 a73d 479f 963d bfb3 b8bd ba0b a2ba
00000090: ec9f c2bc 559d be3d af3b 7a3d bbd8 bebc
000000a0: c6a7 ad3d 5acd a6bd a684 cabc 4a68 593d
000000b0: 5d13 9a3d a1b6 b138 5a88 8b3d 37cf 9d3d
000000c0: 1d7e 7cba 3ff6 c2bd 302f c7bd a809 78bb
000000d0: 8aff 043c 641c 2e3e e641 073e ecc6 0cbc
000000e0: 8c2c dfbb 6333 94bb 3015 8a3d 216f 0cbd
000000f0: 69bb 943d c648 c3bd c643 e03c 11f6 8dbd
00000100: 06e2 8f3d 8532 aaba 9917 fb3d ef02 d2bd
00000110: 06e2 19be 4fc4 bcbd 87b6 4e3c 9731 39bd
00000120: 77a5 3f3e a9d6 fe3c ea70 4abc 442e 3dbe
00000130: b4dd cebd 1a53 e43d 5ede bb3d a9fe 67bd
00000140: 6f53 e1bd 9a86 e7bd 69a2 7a3d 4298 19bd
00000150: 37c6 973d 863a a2bc 2cb9 c23d f81e fbbd
00000160: 9ba6 68bd ae61 103e 0abb 6abc 1b4a 9a3c
00000170: 6f70 c73d 8197 e43d eb07 cdbd 1c00 73bd
00000180: 4d4e e03d efcd 26bd a534 3fbe 0794 1ebe
00000190: 4cbf 2ebd 41c0 7c3d c220 c13c 9770 7bbc
000001a0: 1494 db3c d84e 03be b328 f9bd 3891 69bd
000001b0: 9d14 4fbd 02c5 10bd 1b7d 2e3e eef8 2f3d
000001c0: 16ef 8fbd 0b96 e4bd 8772 70bd 1238 96bc
000001d0: 58ed f43c 046d 83bc 8b9c b73b b023 35be
000001e0: 7a63 d0bb c5b2 4abd 11b5 9e3c 0161 8bbd
000001f0: 5d57 c73c 3aa7 90bb b8af 15be 8ccc dfbd
00000200: 45aa 623d b58a 25bc efa7 c13d c56b ac3d
00000210: 414d 70bd 095d 7fbc fe4f 8fbd 6383 92bd
00000220: 55b9 91bd e3f5 bfbd 22c9 5b3d 0e20 193d
00000230: fb53 67bd f75f ffbd c254 6d3d 2524 3dbd
00000240: eb87 c1bd 914c 3a3d f80f 0c3e 71cd e13d
00000250: 38c2 5c3e ad11 ebbd e093 083e 598c bbbc
00000260: b75f 67bd d32b e8bd 3c6f 3ebd 17fc b4bc
00000270: 6743 ca3d b744 ea3c 3bac b5bd 26a8 90bd
00000280: a1f6 913e 1df3 b53c 9c99 d83d d63a 5bbe
00000290: 831f afbd 5455 b0bd dd83 bc3d c610 9e3d
000002a0: 2f22 493c 3b28 ffbd 3a78 c7bd ece3 e1bd
000002b0: ec8e c13c f5be bdbd b390 06bd a5f6 2bbd
000002c0: 7fca cbbd 2dba 903b 8176 343d 1ada cdbd
000002d0: 73d7 d4bc c27b 093d 1d7c ba3d f0ba 2cbd
000002e0: 847e 043e 1f22 273e ca12 183e 46c4 c13d
000002f0: b66d 7cbd 8285 b3bc c695 e1ba 6efe d83b
00000300: dbde 613d bab4 f43d 110a 1cbd 14e6 95bd
00000310: 6592 e0bc 68d0 9cba 7a72 803d 5f7c d73a
00000320: 897a 85bd bd73 6ebd 0184 293d 54b1 333c
00000330: ea2f 723a 8840 dbbc fb5e adbd b25b 85bd
00000340: c0ea 7cbd 3b56 86bc 0676 133d e632 623d
00000350: 7738 68bd 7b77 fbbd 478a 4f3c 02c8 8f3d
00000360: 4d81 15bd 8ddd 5abd 36b0 3a3d dd7b 95bb
00000370: 75b7 f6bd 1713 dc3d 5dab 99bd 1565 a9bd
00000380: 7307 04be a4ae 953d 5966 e73d aa1a 10bd
00000390: 6452 2dbd 71bc 09be 4748 11be 0352 4d3d
000003a0: 2b5c 603d 26ee fd3d d25f 20bc 1155 653d
000003b0: 9176 06bd f5fd e4bd 0102 1cbe fbd3 8ebc
000003c0: e6cb 133d a51f 89bd c62c 04be 1af1 2fbd
000003d0: 6b1b 6bbd 1d65 40bd 3d9d 41bd 6ec6 a7bd
000003e0: 0ac5 e6bd 15d0 a33d 513c a0bd d367 63be
000003f0: 6aba 983c 4e4a 5cbd d279 91bd 82e3 55be

actor.0.bias f4 [40]
0.012983513 0.013633436 0.10618122 0.026931321 0.15359113 0.041695382 0.11629613 -0.09019587
0.088767394 -0.082955025 -0.070420414 0.12835552 0.056980256 0.06740613 -0.052785963 0.099069014
0.12974867 0.03139159 0.117348954 -0.028441118 -0.057378404 0.047865942 0.11637603 -0.03596757
0.064791396 0.013064385 -0.03629977 0.028529592 -0.07133057 -0.020017754 0.13903618 0.036269054
0.054091975 0.01916688 -0.08041714 -0.08464621 0.07048626 -0.08900225 0.08539578 0.085989475
00000000: cdb8 543c c65e 5f3c 8a75 d93d 139f dc3c
00000010: fe46 1d3e c7c8 2a3d aa2c ee3d 9db8 b8bd
00000020: aecb b53d 53e4 a9bd 9438 90bd a16f 033e
00000030: 2164 693d 3a0c 8a3d 1836 58bd b2e4 ca3d
00000040: d6dc 043e 7894 003d a654 f03d 59fd e8bc
00000050: 9e05 6bbd 140f 443d 8e56 ee3d bb52 13bd
00000060: 5ab1 843d 010c 563c 11af 14bd e4b6 e93c
00000070: c315 92bd 46fc a3bc 805f 0e3e dc8e 143d
00000080: 8c8f 5d3d dc03 9d3c beb1 a4bd fe5a adbd
00000090: 1a5b 903d d046 b6bd fce3 ae3d 401b b03d

actor.2.weight f4 [28, 40]
0.1491443 -0.36178592 -0.07679565 -0.25643262 0.14730982 -0.22582269 -0.23411004 -0.18846783
0.14902252 0.039789937 0.081521824 0.18829551 -0.010470993 -0.08069773 -0.20375477 -0.06958084
0.07781778 0.0043755947 -0.17680635 -0.10379296 -0.02242397 -0.00248901 -0.052762415 -0.061597787
-0.16255264 -0.07287164 -0.08785552 -0.0014875145 0.30755037 0.06625207 0.12168732 0.23881108
0.12681492 0.27104452 0.17294146 -0.094743304 -0.08784393 0.09163302 -0.012549544 0.059491698
-0.05589466 -0.0161883 0.14108583 -0.113347225 0.13230155 -0.075317204 -0.14975335 0.023136538
-0.06314417 -0.029957497 0.14214794 0.23629238 0.30247772 0.1866303 -0.1781465 0.0065836413
0.02853363 -0.04893504 0.072920516 0.025236996 0.05201261 0.029905004 0.18198559 0.24999851
0.0896635 -0.12823403 0.05451027 0.21356918 -0.14326407 0.008710464 -0.079884805 -0.03203385
-0.054320797 0.23041254 -0.061808053 -0.103577234 0.05307307 0.17301965 0.22889043 -0.007853573
0.16054094 -0.12285772 0.077697515 0.19779162 0.07261961 -0.01688527 -0.12361566 0.049922585
0.15663907 -0.10633307 0.045917068 -0.15146497 0.08394964 0.073005244 0.13364196 -0.029284706
-0.2124757 0.037561286 -0.15183024 0.10539659 0.09265541 -0.26642978 0.053394128 -0.014690902
-0.11578156 -0.07224214 -0.08154064 -0.013472811 -0.009007373 0.041705728 0.13156071 -0.0019686352
0.018609073 -0.1388983 0.13404325 -0.16999699 0.26815164 -0.067557625 -0.10396264 0.091057666
-0.04896409 -0.025717624 0.21036783 0.15105453 0.191262 0.09003702 -0.011935781 -0.025379132
-0.01007158 -0.120869 -0.035551533 0.14706212 -0.28200525 0.0099645825 0.0920905 0.114991136
0.053206123 -0.11750687 0.0487641 -0.07577476 -0.10324882 0.30648422 0.14709319 -0.16974182
0.11743043 0.1920846 0.06310114 0.13665316 0.14905167 0.094687454 0.13605224 -0.119787015
0.004382926 -0.02991105 0.1943825 0.19439721 -0.11221242 -0.004169952 -0.0064248815 -0.10456079
0.03527628 0.05950104 0.021086266 0.014640271 -0.08624586 0.29010084 0.08797617 0.16198644
-0.041144416 0.10630608 0.06244475 0.051975418 -0.09184378 -0.05578619 -0.029361803 0.2404739
0.14284505 0.16870025 0.17168704 0.25244305 0.12628941 0.07065789 0.045401726 0.05249675
-0.11586725 0.13502859 0.07880055 -0.2669497 -0.031594925 -0.18278274 -0.1574263 0.16149318
0.12655644 -0.038513765 0.07877963 0.07909108 0.1463968 -0.05260824 -0.21582806 -0.09651905
0.14001821 0.12963463 -0.058093384 0.10005065 -0.17153779 0.19216289 0.12832424 0.033914246
0.036902927 -0.1921107 -0.07392585 0.079189904 -0.3275469 -0.17486827 0.17235008 0.11606512
0.09728376 -0.2004686 0.11027582 -0.031085867 -0.031909008 0.26124528 -0.1903505 -0.019481804
-0.1678763 0.3433755 0.04178563 -0.07847632 0.10762838 0.15695728 -0.07694063 -0.06671126
0.13983127 -0.09134477 -0.022264656 0.1806456 -0.06794057 -0.063568376 0.05362274 -0.07472987
-0.017114246 0.3052093 -0.08262231 0.1457769 0.10243495 0.15996209 -0.020856522 0.08955754
-0.1265433 0.09135153 0.038315885 0.11559602 -0.12920362 -0.018337363 -0.12212569 0.10843022
00000000: 49b9 183e 013c b9be 0a47 9dbd 234b 83be
00000010: 63d8 163e 103e 67be 8bba 6fbe b6fd 40be
00000020: 5c99 183e c6fa 223d eaf4 a63d 8ad0 403e
00000030: 878e 2bbc da44 a5bd 17a5 50be 6680 8ebd
00000040: ee5e 9f3d 2661 8f3b b90c 35be 6791 d4bd
00000050: 79b2 b7bc a91e 23bb 671d 58bd f64d 7cbd
00000060: 3374 26be ba3d 95bd 98ed b3bd b4f8 c2ba
00000070: 3e77 9d3e 2aaf 873d 3437 f93d e48a 743e
00000080: c5db 013e 59c6 8a3e 9117 313e c708 c2bd
00000090: 85e7 b3bd 18aa bb3d 9a9c 4dbc 91ad 733d
000000a0: cdf1 64bd 539d 84bc ce78 103e 9722 e8bd
000000b0: 0f7a 073e e83f 9abd f158 19be d688 bd3c
000000c0: bb51 81bd 6d69 f5bc 3b8f 113e a1f6 713e
000000d0: 5cde 9a3e 031c 3f3e 096c 36be 96bb d73b
000000e0: 5cbf e93c 1c70 48bd 5a57 953d d1bd ce3c
000000f0: 2d0b 553d 57fb f43c 6e5a 3a3e 9cff 7f3e
00000100: 7fa1 b73d c84f 03be 2946 5f3d e1b1 5a3e
00000110: d1b3 12be 56b6 0e3c a59a a3bd ed35 03bd
00000120: 7c7f 5ebd 44f1 6b3e 712a 7dbd 4d20 d4bd
00000130: 2663 593d 102c 313e 4162 6a3e 46ac 00bc
00000140: d864 243e d49c fbbd e01f 9f3d e389 4a3e
00000150: 97b9 943d fa52 8abc 352a fdbd a07b 4c3d
00000160: fe65 203e 27c5 d9bd 8913 3c3d a219 1bbe
00000170: caed ab3d c683 953d 70d9 083e 7be6 efbc
00000180: 3b93 59be ddd9 193d 6379 1bbe 2bda d73d
00000190: 1fc2 bd3d 7c69 88be cdb3 5a3d 1cb2 70bc
000001a0: e21e edbd b0f3 93bd c7fe a6bd 11bd 5cbc
000001b0: a993 13bc a0d3 2a3d dab7 063e 3804 01bb
000001c0: 0e72 983c 5b3b 0ebe a242 093e b113 2ebe
000001d0: 2c4b 893e a75b 8abd 5dea d4bd 717c ba3d
000001e0: 928e 48bd c4ad d2bc aa6a 573e 0aae 1a3e
000001f0: 30da 433e 5465 b83d 4b8e 43bc e6e7 cfbc
00000200: 4503 25bc 2b8a f7bd 7c9e 11bd 7497 163e
00000210: fe62 90be 7d42 233c f299 bc3d 7980 eb3d
00000220: aaee 593d 71a7 f0bd ddbc 473d cc2f 9bbd
00000230: 1e74 d3bd 80eb 9c3e 999f 163e cdd0 2dbe
00000240: 5e7f f03d d3b1 443e 2c3b 813d ceee 0b3e
00000250: 00a1 183e 7feb c13d 4751 0b3e e552 f5bd
00000260: a69e 8f3b 0508 f5bc 350c 473e 1010 473e
00000270: a0cf e5bd 18a4 88bb d087 d2bb f823 d6bd
00000280: dc7d 103d 5db7 733d 1bbd ac3c bfdd 6f3c
00000290: aba1 b0bd 1988 943e da2c b43d c6df 253e
000002a0: 0c87 28bd 01b7 d93d 11c6 7f3d 2de4 543d
000002b0: 9718 bcbd 0f80 64bd 2a88 f0bc ca3e 763e
000002c0: f945 123e c2bf 2c3e bace 2f3e 3740 813e
000002d0: 0352 013e 15b5 903d 29f7 393d d506 573d
000002e0: cf4b edbd ef44 0a3e 2f62 a13d a2ad 88be
000002f0: ae69 01bd 662b 3bbe 5c34 21be 785e 253e
00000300: 0398 013e 9cc0 1dbd 3757 a13d 81fa a13d
00000310: 0be9 153e bd7b 57bd 0802 5dbe c8ab c5bd
00000320: ef60 0f3e f1be 043e 54f3 6dbd 5be7 cc3d
00000330: 9aa7 2fbe 59c6 443e 6e67 033e aae9 0a3d
00000340: 8627 173d abb8 44be 7066 97bd 512e a23d
00000350: 3ab4 a7be ab10 33be 8a7c 303e 8db3 ed3d
00000360: b53c c73d a447 4dbe 4ad8 e13d caa7 febc
00000370: 05b3 02bd f1c1 853e 3eeb 42be 4e98 9fbc
00000380: c4e7 2bbe eace af3e 6927 2b3d 31b8 a0bd
00000390: 456c dc3d 69b9 203e 0d93 9dbd ea9f 88bd
000003a0: ee2f 0f3e f712 bbbd 5e64 b6bc 29fb 383e
000003b0: 6d24 8bbd 2330 82bd 85a3 5b3d f90b 99bd
000003c0: 2d33 8cbc 6544 9c3e e335 a9bd 8a46 153e
000003d0: 6ac9 d13d 1acd 233e 4cdb aabc f269 b73d
000003e0: 9194 01be 8316 bb3d 1ef1 1c3d 9bbd ec3d
000003f0: f44d 04be 3d38 96bc 091d fabd aa10 de3d

actor.2.bias f4 [28]
0.02565128 -0.08589738 -0.052127838 0.17934039 0.03263792 -0.0068894527 0.023224695 0.11922584
0.13278972 -0.0869165 0.061324507 -0.12662111 -0.043219205 0.12953378 -0.17183755 -0.084794655
0.14067288 0.21031103 -0.17461176 -0.025303444 -0.05080279 0.12543394 0.09534351 0.10629982
0.12996493 -0.03979384 0.1250348 0.07110306
00000000: a222 d23c f7ea afbd 0084 55bd 02a5 373e
00000010: 57af 053d ebc0 e1bb b741 be3c ad2c f43d
00000020: 07fa 073e 4701 b2bd 682f 7b3d f7a8 01be
00000030: 9f06 31bd 81a4 043e 2ff6 2fbe d2a8 adbd
00000040: 8d0c 103e c65b 573e 6dcd 32be 2b49 cfbc
00000050: 9616 50bd c171 003e 7543 c33d b8b3 d93d
00000060: 8715 053e defe 22bd 1f09 003e 7b9e 913d

actor.4.weight f4 [14, 28]
0.07666524 -0.18437338 -0.13677998 0.16666478 0.047619775 0.2885697 0.039910395 0.07338838
0.14368531 0.19389457 0.024375502 -0.17713912 0.06290154 -0.053942006 -0.053149614 0.08178859
0.17828089 0.08720631 -0.1706563 0.21737878 -0.16101842 -0.02408788 -0.17641741 0.26961502
0.24762473 -0.12864162 -0.120583706 0.17794411 0.0858264 -0.16658835 -0.31132647 0.14898357
-0.077601336 0.20306346 -0.14454427 -0.18231438 -0.26476946 0.20178258 0.28898263 -0.19892381
0.10510883 -0.19009626 -0.1870118 0.10528852 0.17163044 0.2625083 0.015348368 0.15379587
-0.2519069 0.11023671 -0.11907861 0.046906188 0.23991075 -0.14808679 0.07769676 -0.059761073
0.14184466 0.030650282 -0.041250363 0.15175404 -0.14555596 -0.1397591 0.09739025 -0.16550082
0.029014831 0.16221881 0.02004666 0.120744616 0.13994128 -0.17597938 0.10733048 0.03821969
0.18881033 0.26566273 -0.16104293 0.08259694 0.08178448 0.08348436 0.03947406 0.073962495
-0.057325657 -0.12100692 -0.17647822 0.21857066 0.1282239 -0.121854916 -0.2522663 0.22499017
-0.21342747 0.21830468 -0.21914728 -0.088132896 -0.08893303 0.23930913 0.010167752 0.09572032
0.08207526 0.28628907 0.18361548 0.11965583 0.37494648 0.17952071 -0.23335251 0.18409637
0.19489609 -0.1284168 -0.16915482 -0.24373156 -0.1829922 0.062449824 0.019998977 -0.117381565
-0.045919523 0.08913875 -0.25206125 0.23861872 -0.10866597 0.05645194 0.00318212 -0.062429562
0.25262812 0.046028346 0.054155465 -0.13431141 0.1426404 0.18415232 0.028026944 -0.060420565
0.31640488 0.34785137 -0.04834889 0.15162715 0.13854489 -0.17300786 -0.05764278 -0.07173056
0.024187256 -0.12354749 -0.094156615 0.08532009 -0.023683207 -0.15925308 0.17492831 -0.15720999
0.15123367 0.1562691 -0.23307428 0.15836267 -0.06011275 -0.16170785 0.31591126 -0.029611405
-0.22890058 0.02450372 -0.02457673 0.13287506 0.31682387 0.23936549 0.009957801 -0.18018977
0.08457894 -0.025309354 0.03010132 0.051087145 -0.029238438 -0.07781417 0.09329198 0.051382665
0.11569321 0.19077018 0.02508366 -0.052953027 -0.0735982 -0.31667826 -0.29825082 0.061995547
0.24217777 -0.1963686 0.02504185 0.20111066 -0.1921184 0.12662528 -0.0050377212 -0.16733669
-0.17575675 -0.39495745 0.28147113 0.029720692 0.18141758 0.17271337 0.20401567 0.26441276
0.13379961 -0.25930882 0.20275892 0.17176586 -0.11955465 -0.12373068 0.42543817 0.0727144
0.2809987 0.027861468 0.24128799 -0.2086992 0.04630819 0.06769746 0.061682913 0.32533938
-0.03744442 0.0778241 0.063752 -0.062128123 -0.005460253 -0.2855676 0.13137722 -0.27573204
0.24483958 0.2958079 -0.148002 -0.19398616 0.2013391 0.067400716 0.22950403 0.26516372
-0.086556934 -0.25811863 0.17050537 0.12974438 0.3200915 0.17593485 0.130505 -0.2994209
-0.027960856 0.14612152 0.22860491 -0.11402146 -0.07067111 -0.12617512 -0.19745456 0.030014636
0.09230558 0.10583372 -0.022963494 -0.10187502 -0.0257889 0.18262118 -0.16337188 0.0356567
0.16908109 0.2386985 -0.0751004 0.21322714 -0.21090436 0.06528819 0.22557753 0.08856015
00000000: aa02 9d3d 60cc 3cbe 0d10 0cbe 2caa 2a3e
00000010: f40c 433d 68bf 933e 1579 233d a64c 963d
00000020: 3e22 133e 4c8c 463e 22af c73c f563 35be
00000030: 86d2 803d 4bf2 5cbd 69b3 59bd c780 a73d
00000040: 448f 363e 3999 b23d 86c0 2ebe 8b98 5e3e
00000050: 03e2 24be f253 c5bc c4a6 34be fb0a 8a3e
00000060: 5691 7d3e a1ba 03be 97f4 f6bd fb36 363e
00000070: c0c5 af3d 2396 2abe 2f66 9fbe 268f 183e
00000080: 73ed 9ebd deef 4f3e 6a03 14be 9fb0 3abe
00000090: dd8f 87be 18a0 4e3e 88f5 933e afb2 4bbe
000000a0: 4c43 d73d 98a8 42be 0580 3fbe 82a1 d73d
000000b0: e4bf 2f3e 7d67 863e b977 7b3c aa7c 1d3e
000000c0: f1f9 80be c9c3 e13d 7cdf f3bd b420 403d
000000d0: 2aab 753e 10a4 17be 7b1f 9f3d 07c8 74bd
000000e0: ba3f 113e 4d16 fb3c 24f6 28bd 6965 1b3e
000000f0: 9f0c 15be 021d 0fbe 8a74 c73d 0c79 29be
00000100: 83b0 ed3c b01c 263e e538 a43c f448 f73d
00000110: c44c 0f3e f033 34be 15d0 db3d 408c 1c3d
00000120: 7f57 413e f204 883e 70e8 24be 9628 a93d
00000130: 9f7e a73d d9f9 aa3d 8daf 213d a679 973d
00000140: 4fce 6abd 7ad2 f7bd b5b6 34be fdd0 5f3e
00000150: 204d 033e 128f f9bd 0c29 81be d363 663e
00000160: bb8c 5abe 438b 5f3e 2568 60be 057f b4bd
00000170: 8522 b6bd 740d 753e a596 263c 0409 c43d
00000180: 1317 a83d 7b94 923e b205 3c3e 1e0e f53d
00000190: fcf8 bf3e 47d4 373e f6f3 6ebe c283 3c3e
000001a0: d792 473e b27f 03be ec36 2dbe c494 79be
000001b0: 4f62 3bbe 63cb 7f3d e5d4 a33c bf65 f0bd
000001c0: 1c16 3cbd 618e b63d 2c0e 81be 7758 743e
000001d0: 448c debd 263a 673d 1d8b 503b 24b6 7fbd
000001e0: 7958 813e 3888 3c3d 1fd2 5d3d ee88 09be
000001f0: 5310 123e 6d92 3c3e c398 e53c 8e7b 77bd
00000200: d2ff a13e 9319 b23e 7c09 46bd 2644 1b3e
00000210: b6de 0d3e f928 31be d61a 6cbd 79e7 92bd
00000220: 5a24 c63c 7706 fdbd 2fd5 c0bd 4dbc ae3d
00000230: 4903 c2bc 3d13 23be 6820 333e a8fb 20be
00000240: 00dd 1a3e 0205 203e 06ab 6ebe d329 223e
00000250: c938 76bd be96 25be 1fbf a13e 9e93 f2bc
00000260: ea64 6abe 07bc c83c 2355 c9bc 6610 083e
00000270: bd36 a23e 3a1c 753e 0b26 233c ab83 38be
00000280: b937 ad3d 9055 cfbc 0b97 f63c c140 513d
00000290: 7385 efbc 095d 9fbd de0f bf3d a176 523d
000002a0: 90f0 ec3d 4259 433e 3f7c cd3c 46e5 58bd
000002b0: a7ba 96bd a723 a2be 55b4 98be 0bef 7d3d
000002c0: 73fd 773e da14 49be 9124 cd3c f4ef 4d3e
000002d0: b0ba 44be 0faa 013e 7813 a5bb 4f5a 2bbe
000002e0: 94f9 33be dd37 cabe fc1c 903e cf78 f33c
000002f0: 88c5 393e c6db 303e 7ce9 503e 1c61 873e
00000300: c402 093e 20c4 84be 09a0 4f3e 64e3 2f3e
00000310: 11d9 f4bd 8366 fdbd 08d3 d93e 4aeb 943d
00000320: 10df 8f3e bc3d e43c 3314 773e 3eb5 55be
00000330: a8ad 3d3d f7a4 8a3d 39a7 7c3d e292 a63e
00000340: 525f 19bd 3e62 9f3d 6990 823d 0f7a 7ebd
00000350: eceb b2bb eb35 92be c087 063e c02c 8dbe
00000360: 3ab7 7a3e 2274 973e d68d 17be 4fa4 46be
00000370: d62b 4e3e 6309 8a3d 1b03 6b3e 8ac3 873e
00000380: c344 b1bd 2028 84be f698 2e3e b6db 043e
00000390: 08e3 a33e 4428 343e 1aa3 053e b24d 99be
000003a0: 2a0e e5bc e1a0 153e 6817 6a3e 1584 e9bd
000003b0: 04bc 90bd 0d34 01be 8731 4abe 41e1 f53c
000003c0: b50a bd3d 59bf d83d f01d bcbc daa3 d0bd
000003d0: 3e43 d3bc 0c01 3b3e f54a 27be c30c 123d
000003e0: 9823 2d3e 616d 743e 3dce 99bd 3758 5a3e
000003f0: 50f7 57be d1b5 853d ccfd 663e 065f b53d

actor.4.bias f4 [14]
-0.08814458 -0.017855892 -0.18291754 0.104206204 0.06948334 0.1376249 0.16117463 -0.046853524
0.18553482 0.16319047 0.061493747 -0.11910513 -0.13824183 0.097979195
00000000: 2585 b4bd 8546 92bc bc4e 3bbe 106a d53d
00000010: 484d 8e3d 8bed 0c3e f60a 253e 7be9 3fbd
00000020: d7fc 3d3e 671b 273e dee0 7b3d 64ed f3bd
00000030: 448f 0dbe 51a9 c83d

actor.6.weight f4 [7, 14]
0.42787027 0.29135016 -0.08108029 -0.3285265 -0.38894168 -0.08532409 0.041866776 0.08202077
0.3747022 -0.36736017 0.2622711 0.4398674 -0.3935135 -0.30078417 -0.06488428 0.051727418
0.3392693 0.07547502 0.21569958 0.36127472 0.25739038 -0.27589318 -0.2476135 -0.054390687
-0.0011555235 0.011254651 0.28431967 0.31287232 -0.18455733 -0.24951075 0.0065243742 -0.065840505
0.13333577 0.11103796 0.059608787 0.15872186 0.21151312 0.24459815 -0.11839855 -0.16223305
0.270228 0.07839821 -0.17343727 -0.10519428 0.18906577 -0.31617486 -0.14401339 0.007760715
0.29945934 -0.04226921 -0.21869272 -0.23376155 0.027206186 -0.02155405 -0.24358611 0.32547772
0.28067473 -0.13013297 0.33570442 0.0003566267 0.40719858 -0.08507041 0.013669023 -0.3623086
-0.21579975 -0.058283933 0.3108609 -0.1940318 0.017922686 -0.25226033 -0.31523776 -0.20315269
-0.19475044 -0.39560384 -0.2930904 0.02379457 0.18002243 0.18686475 -0.016724842 -0.028785432
-0.07021475 -0.11421911 0.2885379 0.37623757 -0.33256984 -0.4325424 -0.30168974 -0.074607395
-0.10649774 -0.30113563 0.2874422 0.094683625 -0.3166702 -0.42599016 0.34939468 0.27386582
0.21188612 0.054415427
00000000: d011 db3e d92b 953e 6c0d a6bd a034 a8be
00000010: 5d23 c7be 66be aebd 7f7c 2b3d 81fa a73d
00000020: f7d8 bf3e a216 bcbe 6648 863e 4d36 e13e
00000030: 9a7a c9be 6200 9abe 0de2 84bd 21e0 533d
00000040: b5b4 ad3e a692 9a3d 5ae0 5c3e 00f9 b83e
00000050: acc8 833e df41 8dbe 658e 7dbe c5c8 5ebd
00000060: ef74 97ba 6d65 383c 5992 913e cd30 a03e
00000070: 99fc 3cbe bf7f 7fbe 6bca d53b 63d7 86bd
00000080: 2c89 083e df67 e33d 5828 743d fc87 223e
00000090: e596 583e f077 7a3e f07a f2bd 6c20 26be
000000a0: 535b 8a3e 3e8f a03d 8a99 31be 1970 d7bd
000000b0: 759a 413e ace1 a1be 3f78 13be 994d fe3b
000000c0: bc52 993e 7b22 2dbd fcf0 5fbe 305f 6fbe
000000d0: 82df de3c 1e92 b0bc a36e 79be 04a5 a63e
000000e0: 99b4 8f3e 9441 05be 73e1 ab3e a0f9 ba39
000000f0: 557c d03e 6539 aebd 0af4 5f3c 8380 b9be
00000100: 9cfa 5cbe 22bb 6ebd 2929 9f3e 46b0 46be
00000110: 99d2 923c 4428 81be d866 a1be 4207 50be
00000120: a96c 47be 968c cabe f20f 96be d4ec c23c
00000130: cd57 383e 7959 3f3e 8902 89bc 6dcf ebbc
00000140: c0cc 8fbd b5eb e9bd 3dbb 933e 36a2 c03e
00000150: 9846 aabe 3376 ddbe 1477 9abe c3cb 98bd
00000160: 7d1b dabd 732e 9abe a02b 933e 7de9 c13d
00000170: 9922 a2be 621b dabe dce3 b23e 2438 8c3e
00000180: adf8 583e b6e2 5e3d

actor.6.bias f4 [7]
0.21200521 0.14522876 -0.10330522 0.28913343 -0.18496381 -0.050221533 0.24279974
00000000: e517 593e d9b6 143e b091 d3bd 4c09 943e
00000010: 2767 3dbe 18b5 4dbd 7fa0 783e

critic.0.weight f4 [40, 94]
-0.05585024 -0.12542577 0.0046896287 0.077102184 0.053902663 0.12990566 -0.13692038 -0.03458886
-0.09384043 0.0053145373 0.067673296 -0.14379042 0.1431382 0.016052494 0.057514228 -0.114869125
-0.059545677 0.11724549 -0.006098215 0.0365747 0.04062715 0.05601786 -0.095798954 0.07777874
0.17655599 -0.12135383 0.097258486 -0.13301167 0.015569142 -0.12341091 0.12134125 0.022905119
-0.0081379535 -0.028529363 0.006547783 0.06352311 -0.12979473 0.073107466 0.2206845 0.023387685
-0.029141027 -0.06395896 0.12936021 -0.07282468 0.05309545 0.12844265 -0.07935293 0.037972797
-0.02901058 0.1288449 0.069441564 -0.01894011 -0.004368747 0.016564563 0.012084975 0.16873415
0.12147839 0.05963166 0.0564673 -0.08328671 0.05247459 -0.0720795 0.04774667 0.055470664
0.14346941 -0.064809926 -0.07128495 0.12305965 -0.12297587 0.09714825 0.13909328 1.7118693e-05
0.028677545 -0.012446319 0.09018545 -0.02828444 0.122282416 0.08911655 0.14908484 0.101952754
-0.06937259 0.071469724 -0.050707925 0.091981925 0.14578542 0.12018572 0.019117316 -0.14188765
0.15667005 0.050713997 0.09645495 0.13597415 0.16007388 0.032278527 -0.029296914 -0.037243288
-0.03701477 -0.030088883 -0.07739698 0.0131262755 0.020464556 0.05373595 0.011835477 0.120972075
-0.032241035 -0.07021912 0.04057488 -0.12939017 0.08985552 -0.0022570726 -0.014683283 0.14871088
0.04193549 0.08368289 0.042496894 -0.026197352 0.076433964 0.037652172 0.067427345 0.028880574
-0.083068155 -0.096924774 0.08886968 -0.08557664 0.08003405 0.12058867 -0.090814516 -0.013341926
-0.03636719 0.06744621 -0.04713744 0.11681753 -0.027615357 0.03514308 0.055653635 -0.07271564
-0.043168034 -0.08530748 0.051713295 0.094432876 -0.044226803 0.083558865 -0.051377762 -0.06824127
-0.030011455 -0.04015045 0.14054994 0.046804152 0.04329336 -0.1036489 -0.0248813 -0.22900982
0.102413155 0.19951348 -0.0404771 0.06585396 -0.09109162 -0.18342705 -0.04225737 0.032781783
0.12468123 -0.026457097 0.08065833 -0.020026699 -0.15214683 -0.13225642 0.010196302 0.16973418
-0.004749122 0.16000035 -0.16224413 -0.09515974 -0.06703514 0.03986767 0.10021858 -0.047839027
0.20839982 -0.15999223 0.01607054 -0.17272262 0.090496026 0.067085326 -0.044361956 0.11669743
-0.27386788 0.02603408 0.10034111 0.10683619 0.06817972 -0.04258573 0.027723152 -0.11173578
0.08426668 0.017606722 0.06225343 -0.0238426 0.10736786 0.08317606 0.056619324 -0.014636955
-0.08990283 -0.09356367 -0.10525618 0.025388356 -0.04856034 -0.06484311 0.036681883 0.085508406
-0.03981161 0.06446479 -0.00013333226 0.0035199148 -0.04298122 -0.06359674 0.020828715 -0.015611457
-0.059015006 0.07229123 -0.01929723 -0.09933207 0.027717374 -0.012917418 -0.0725063 -0.09317473
-0.025725892 -0.048803844 0.027636752 -0.017925043 0.04703987 0.033927135 0.00037490067 -0.011897906
-0.0070381 -0.006724571 -0.10328318 -0.05462715 0.06519205 0.04390744 0.18200183 0.07757048
-0.18586072 -0.022629874 0.08472436 -0.0808262 0.024088347 -0.062413856 0.08828222 -0.19062625
0.012757162 -0.027570575 -0.19818184 -0.047262385 0.026712796 0.037520986 -0.104222745 0.0561002
00000000: 39c3 64bd 9d6f 00be 75ab 993b c0e7 9d3d
00000010: 0ac9 5c3d fd05 053e db34 0cbe 0cad 0dbd
00000020: 692f c0bd 9225 ae3b 4c98 8a3d cc3d 13be
00000030: d292 123e 8580 833c 0a94 6b3d 8140 ebbd
00000040: 2be6 73bd 671e f03d 89d3 c7bb 5acf 153d
00000050: a868 263d fc72 653d 3e32 c4bd 764a 9f3d
00000060: 18cb 343e 5b88 f8bd 752f c73d 3634 08be
00000070: b715 7f3c dcbe fcbd c381 f83d 84a3 bb3c
00000080: 0d55 05bc 69b6 e9bc c98e d63b 6718 823d
00000090: e9e8 04be 5eb9 953d 1efb 613e 8897 bf3c
000000a0: 2ab9 eebc eafc 82bd 0177 043e 1b25 95bd
000000b0: 9d7a 593d 7886 033e ca83 a2bd 5d89 1b3d
000000c0: 99a7 edbc ebef 033e 6137 8e3d 4a28 9bbc
000000d0: b527 8fbb 68b2 873c 0f00 463c a5c8 2c3e
000000e0: aac9 f83d 5440 743d 414a 673d 3992 aabd
000000f0: 98ef 563d 6b9e 93bd 0392 433d 3535 633d
00000100: a5e9 123e 11bb 84bd d8fd 91bd b306 fc3d
00000110: c6da fbbd a9f5 c63d 786e 0e3e 1d9a 8f37
00000120: 2ced ea3c a5eb 4bbc 26b3 b83d c5b4 e7bc
00000130: 346f fa3d bd82 b63d b2a9 183e 9bcc d03d
00000140: 3713 8ebd b85e 923d 1db3 4fbd 0561 bc3d
00000150: c648 153e ee23 f63d eb9b 9c3c ff4a 11be
00000160: 1d6e 203e 7bb9 4f3d 2c8a c53d cf3c 0b3e
00000170: 68ea 233e 7d36 043d 1500 f0bc 6b8c 18bd
00000180: cd9c 17bd f67c f6bc 4f82 9ebd 970f 573c
00000190: 49a5 a73c 3a1a 5c3d 97e9 413c 35c0 f73d
000001a0: 2d0f 04bd 0bcf 8fbd d831 263d db7e 04be
000001b0: 2c06 b83d 65eb 13bb 2792 70bc aa47 183e
000001c0: 8cc4 2b3d ef61 ab3d 3911 2e3d d49b d6bc
000001d0: 6989 9c3d 2a39 1a3d 5917 8a3d f496 ec3c
000001e0: a31f aabd 7f80 c6bd 4f01 b63d ce42 afbd
000001f0: e4e8 a33d 31f7 f63d f6fc b9bd 1898 5abc
00000200: c3f5 14bd 3d21 8a3d 3013 41bd 073e ef3d
00000210: 9a39 e2bc 31f2 0f3d 11f5 633d f0eb 94bd
00000220: f7d0 30bd b0b5 aebd 52d1 533d 0666 c13d
00000230: 2a27 35bd e920 ab3d 7d71 52bd 14c2 8bbd
00000240: 95da f5bc cc74 24bd 53ec 0f3e b6b5 3f3d
00000250: 6154 313d e045 d4bd ded3 cbbc 8d81 6abe
00000260: fdbd d13d 434d 4c3e 51cb 25bd 71de 863d
00000270: 3e8e babd 4dd4 3bbe 1016 2dbd 3146 063d
00000280: df58 ff3d 8ebc d8bc 3230 a53d 080f a4bc
00000290: 61cc 1bbe 3a6e 07be 640e 273c ccce 2d3e
000002a0: 869e 9bbb 22d7 233e 5323 26be 1ce3 c2bd
000002b0: b849 89bd 484c 233d 663f cd3d dbf2 43bd
000002c0: c366 553e 01d5 23be 5da6 833c 33de 30be
000002d0: fb55 b93d 0864 893d e2b4 35bd 10ff ee3d
000002e0: 6938 8cbe 6c45 d53c a47f cd3d efcc da3d
000002f0: cfa1 8b3d 606e 2ebd aa1b e33c bbd5 e4bd
00000300: 0294 ac3d f93b 903c 74fd 7e3d 8e51 c3bc
00000310: aee3 db3d 3658 aa3d aae9 673d d7cf 6fbc
00000320: fa1e b8bd 4f9e bfbd 8d90 d7bd 3efb cf3c
00000330: 35e7 46bd 77cc 84bd be3f 163d 081f af3d
00000340: 8011 23bd 1e06 843d 1bcf 0bb9 5fae 663b
00000350: 130d 30bd 023f 82bd fba0 aa3c 32c7 7fbc
00000360: b8b9 71bd 6d0d 943d 3915 9ebc 9d6e cbbd
00000370: 8c0f e33c 94a3 53bc 2f7e 94bd 65d2 bebd
00000380: 1bbf d2bc 8ae6 47bd 7866 e23c 8ad7 92bc
00000390: e1ac 403d 2ef7 0a3d 518e c439 6fef 42bc
000003a0: dd9f e6bb ca59 dcbb 2286 d3bd b8c0 5fbd
000003b0: 6983 853d 4ad8 333d b05e 3a3e 46dd 9e3d
000003c0: 4652 3ebe 4962 b9bc f783 ad3d 3588 a5bd
000003d0: ed54 c53c aca5 7fbd 4fcd b43d 8733 43be
000003e0: 6a03 513c b0db e1bc 2ef0 4abe 3496 41bd
000003f0: cbd4 da3c 9baf 193d bc72 d5bd 53c9 653d

critic.0.bias f4 [40]
0.09900891 0.114550464 0.12906986 0.19462173 0.015860742 0.078667164 0.067281306 0.17511769
0.15158534 0.12063236 -0.0052102236 -0.10852523 0.060562078 0.0021665504 -0.021786934 -0.08763746
0.1555603 0.106844015 -0.011671678 0.12684372 -0.0019024294 0.08754624 0.1716138 0.14870733
-0.0487169 0.088488236 -0.019143833 0.14122926 0.17228757 0.0715113 0.061982345 0.16542132
-0.021471372 0.17821653 0.1388867 -0.09457237 -0.02984768 0.038961392 -0.036848955 -0.021081358
00000000: 2fc5 ca3d 6f99 ea3d e42a 043e eb4a 473e
00000010: 63ee 813c 401c a13d c8ca 893d 0d52 333e
00000020: 3039 1b3e 190e f73d 86ba aabb 7a42 debd
00000030: f10f 783d affc 0d3b 837a b2bc 457b b3bd
00000040: 334b 1f3e 09d1 da3d 913a 3fbc 52e3 013e
00000050: f05a f9ba 714b b33d 87bb 2f3e bc46 183e
00000060: 5f8b 47bd 5239 b53d 87d3 9cbc 679e 103e
00000070: 276c 303e 8474 923d 33e1 7d3d 3564 293e
00000080: bbe4 afbc 657e 363e 5138 0e3e 29af c1bd
00000090: 1f83 f4bc fb95 1f3d eeee 16bd d0b2 acbc

critic.2.weight f4 [28, 40]
-0.011851031 0.1054995 -0.013757522 0.20078793 -0.09027131 -0.05291201 -0.03318171 -0.07719915
-0.12049225 -0.11210723 -0.11220638 0.14109069 0.07724019 -0.18814805 0.15153387 0.08049337
0.059465993 0.06228047 -0.014025325 0.21556565 -0.1806212 -0.033806067 -0.03230661 -0.080931626
0.07890733 0.08791132 0.12498096 0.16826221 0.13256001 0.059971415 -0.10045803 0.20878004
0.11561503 0.046609644 0.09439358 0.08043866 0.12934814 -0.032579385 0.021865906 -0.08071452
0.0098505765 0.075284936 0.0076977997 0.20070809 0.076097384 0.13963401 0.20311914 0.026045611
0.0949238 0.023634499 0.20444432 -0.19921349 -0.0070219194 -0.027207132 -0.18303594 -0.11382679
0.19723815 -0.033395097 0.16353026 0.03529242 0.17358749 0.2265353 0.1928563 0.16746043
-0.206883 0.21852972 -0.24512544 -0.0026591024 -0.021458458 -0.0967928 0.22797982 0.15504564
-0.08170867 0.14210708 0.31891146 -0.0252862 -0.1874678 0.13952102 -0.04593919 -0.0760138
-0.075133294 0.20537534 -0.010385895 0.0039833235 0.0793156 0.06360123 0.038149964 0.013918272
0.020589877 -0.047877405 0.023350518 0.17510557 0.041593585 -0.1727175 -0.04404323 -0.049132228
0.16365008 0.2001639 0.06577179 0.20581757 0.068276644 0.06607416 0.2311888 0.14205912
-0.01887731 -0.106254406 -0.041097727 0.07807132 0.2827296 0.07845641 -0.035427757 0.17292948
-0.1434821 0.14026977 0.19721256 0.13725048 -0.08371742 -0.07143574 0.11808514 0.1021232
-0.052358005 0.020183096 0.13763958 0.14506 -0.07936712 -0.029355908 0.28009862 0.015313512
0.20349555 0.25150096 0.09556951 -0.13507217 0.11172045 0.06839074 -0.17138728 0.042554177
0.106663555 -0.04350101 -0.032966543 0.097160704 0.08964814 0.28389874 0.06785545 0.19942495
-0.0797644 0.17446136 -0.08411431 0.078139536 0.14554448 -0.10795088 0.2616772 0.02133582
-0.043856524 0.15768476 0.12963481 -0.2078722 -0.15715078 0.21041767 -0.092627496 -0.1527004
-0.09425159 -0.15140115 -0.1983817 -0.17011976 0.019507047 -0.048787367 0.0036154364 -0.08426857
-0.17764218 -0.19884942 -0.20232001 -0.123243906 -0.11578539 -0.11661465 0.06272098 0.1061327
-0.07367233 -0.088111475 -0.1258572 -0.03129664 -0.12029497 -0.14883015 -0.08496652 -0.19567838
-0.14890184 -0.18205877 -0.038220443 -0.20697892 0.0055273226 -0.14283247 0.01699681 -0.21708153
-0.015188903 -0.14855741 -0.14144145 -0.17759393 -0.14304663 -0.2715903 -0.009145845 0.11213781
0.09319111 0.13017832 0.06679109 0.033427384 -0.1290333 -0.09280656 -0.15801303 -0.024904957
-0.14118093 -0.11496496 0.039554443 0.030593785 0.18853104 -0.21635059 0.21614818 -0.016287792
0.18391044 0.19606929 -0.07047284 -0.07559809 -0.19941236 0.23807344 -0.06324783 -0.0085748
0.17511392 -0.1584853 0.20543423 0.1038413 0.14932853 0.077655 0.074293606 0.17237826
-0.22714002 0.06597008 0.040460676 0.18497933 0.1268927 -0.12048395 0.123998046 -0.032543845
0.037328687 -0.058028065 0.10857496 0.32263887 0.07795191 0.1736127 0.15468563 -0.12534177
0.0146450475 0.13669266 0.27387726 0.0075739715 0.27909473 -0.008549177 -0.17777409 -0.17290668
00000000: d42a 42bc 1f10 d83d 3b67 61bc 5a9b 4d3e
00000010: 2ae0 b8bd 44ba 58bd 8be9 07bd 971a 9ebd
00000020: a4c4 f6bd 7a98 e5bd 75cc e5bd 147a 103e
00000030: 1b30 9e3d e2a9 40be b22b 1b3e b5d9 a43d
00000040: 9d92 733d ce19 7f3d 7aca 65bc 3ebd 5c3e
00000050: c4f4 38be 3b78 0abd f053 04bd 7bbf a5bd
00000060: 2b9a a13d da0a b43d 04f6 ff3d ee4c 2c3e
00000070: d0bd 073e 96a4 753d f1bc cdbd 6fca 553e
00000080: 93c7 ec3d c1e9 3e3d 6c51 c13d 06bd a43d
00000090: d773 043e f671 05bd 2120 b33c a74d a5bd
000000a0: 5064 213c fd2e 9a3d d33d fc3b 6c86 4d3e
000000b0: f2d8 9b3d 38fc 0e3e 77fe 4f3e 9b5d d53c
000000c0: 6967 c23d 239d c13c da59 513e 9ffe 4bbe
000000d0: 2118 e6bb 7ee1 debc c66d 3bbe 051e e9bd
000000e0: ccf8 493e 4cc9 08bd 7a74 273e c98e 103d
000000f0: ebc0 313e dff8 673e 1f7c 453e bf7a 2b3e
00000100: 23d9 53be 41c6 5f3e 2a02 7bbe 5644 2ebb
00000110: a6c9 afbc 4e3b c6bd 8b73 693e 49c4 1e3e
00000120: e056 a7bd 8584 113e 5d48 a33e 0125 cfbc
00000130: 8ff7 3fbe 99de 0e3e bb2a 3cbd 20ad 9bbd
00000140: 7cdf 99bd ea4d 523e 9a29 2abc 8a86 823b
00000150: 3870 a23d 5d41 823d 2343 1c3d 7709 643c
00000160: 1aac a83c 191b 44bd 9649 bf3c e04e 333e
00000170: 095e 2a3d dbdc 30be ad66 34bd e03e 49bd
00000180: e393 273e c4f7 4c3e 5cb3 863d d7c1 523e
00000190: a0d4 8b3d e451 873d c2bc 6c3e f277 113e
000001a0: 97a4 9abc e99b d9bd 1756 28bd dbe3 9f3d
000001b0: efc1 903e c1ad a03d b21c 11bd 6d14 313e
000001c0: f9ec 12be e1a2 0f3e 17f2 493e 648b 0c3e
000001d0: 0a74 abbd e74c 92bd 9fd6 f13d f825 d13d
000001e0: 5975 56bd 0557 a53c 64f1 0c3e 9c8a 143e
000001f0: 3b8b a2bd cd7b f0bc 1669 8f3e 86e5 7a3c
00000200: 2361 503e bcc4 803e f2b9 c33d 5c50 0abe
00000210: b1cd e43d 7210 8c3d 2680 2fbe 4a4d 2e3d
00000220: 6c72 da3d 1d2e 32bd ed07 07bd 31fc c63d
00000230: 7299 b73d 2d5b 913e ccf7 8a3d 0e36 4c3e
00000240: 855b a3bd 00a6 323e 2044 acbd 9f07 a03d
00000250: 9d09 153e 5a15 ddbd 8efa 853e 75c8 ae3c
00000260: e6a2 33bd 1d78 213e fdbe 043e 73dc 54be
00000270: 22ec 20be bb77 573e 7cb3 bdbd 7e5d 1cbe
00000280: fa06 c1bd e708 1bbe 9324 4bbe e033 2ebe
00000290: 3ecd 9f3c 43d5 47bd f5f0 6c3b 0095 acbd
000002a0: d5e7 35be 2f9f 4bbe fa2c 4fbe 4d67 fcbd
000002b0: e420 edbd a9d3 eebd db73 803d 1a5c d93d
000002c0: 85e1 96bd ca73 b4bd b6e0 00be e830 00bd
000002d0: 365d f6bd ee66 18be ed02 aebd ea5f 48be
000002e0: b979 18be 9d6d 3abe 0a8d 1cbd 48f2 53be
000002f0: 8b1e b53b ad42 12be e53c 8b3c 9f4a 5ebe
00000300: e0da 78bc 6f1f 18be 07d6 10be 2fdb 35be
00000310: d17a 12be e20d 8bbe 74d8 15bc 82a8 e53d
00000320: fbda be3d 774d 053e c4c9 883d 27eb 083d
00000330: 4e21 04be 5e11 bebd 2bce 21be 7b05 ccbc
00000340: bc91 10be c072 ebbd d703 223d d19f fa3c
00000350: 480e 413e 028b 5dbe f355 5d3e fa6d 85bc
00000360: 0553 3c3e 63c6 483e 1054 90bd 2cd3 9abd
00000370: c132 4cbe 86c9 733e 1488 81bd 517d 0cbc
00000380: 1051 333e f849 22be 5a5d 523e bfaa d43d
00000390: 94e9 183e 9609 9f3d 3f27 983d ed83 303e
000003a0: 6597 68be 521b 873d 18ba 253d 396b 3d3e
000003b0: 29f0 013e 4ac0 f6bd b0f2 fd3d b24c 05bd
000003c0: f7e5 183d d6ae 6dbd 8c5c de3d ec30 a53e
000003d0: 40a5 9f3d 87c7 313e e965 1e3e 9859 00be
000003e0: c8f1 6f3c 29f9 0b3e a439 8c3e 142f f83b
000003f0: 81e5 8e3e d911 0cbc 690a 36be 730e 31be

critic.2.bias f4 [28]
0.1520185 -0.12256062 -0.05194909 0.010750515 -0.02638911 0.13735208 0.05305526 0.1337828
0.009708767 -0.028891414 -0.078991115 -0.013817968 -0.003965788 -0.08975331 0.014084197 -0.042470306
-0.09778217 -0.07736065 -0.12259252 -0.061061416 -0.1183434 0.23858833 -0.029157735 0.1268535
-0.0793883 0.085453466 -0.116902456 0.10242296
00000000: bdaa 1b3e 1001 fbbd 92c8 54bd ee22 303c
00000010: fa2d d8bc 06a6 0c3e 7950 593d 5cfe 083e
00000020: 8511 1f3c b0ad ecbc 18c6 a1bd c264 62bc
00000030: 71f3 81bb 95d0 b7bd 67c1 663c 58f5 2dbd
00000040: 0542 c8bd 436f 9ebd ca11 fbbd 891b 7abd
00000050: 065e f2bd 8050 743e 34dc eebc e2e5 013e
00000060: 5596 a2bd 3a02 af3d 8e6a efbd 21c3 d13d

critic.4.weight f4 [10, 28]
0.15721436 -0.26968658 0.18383281 -0.057908032 -0.1557183 -0.023455318 0.23823339 -0.04607901
0.18939319 0.10191634 -0.04573977 -0.21389838 0.12922291 0.15462862 0.08749982 -0.25589085
0.10190897 0.18619224 0.0540226 -0.116918944 0.08645282 0.17466694 -0.009834776 0.18514666
0.016471319 0.16820009 -0.18401293 -0.22847965 0.035291262 0.22000904 0.03734272 0.417787
0.08687898 0.019576738 0.025285473 -0.1292773 -0.114850484 -0.29593772 -0.19531241 0.3736381
0.1949313 -0.0888175 0.12872942 0.3079972 -0.091718756 -0.16209632 0.010025416 0.057131667
-0.21212128 0.3145411 -0.19340584 0.07825074 0.04039671 0.12873028 0.27272332 0.17181952
0.22175777 -0.077062845 0.053115923 -0.22816944 0.06447759 -0.0023418437 0.1406305 0.23890497
-0.20878929 -0.053440887 -0.17257573 -0.17308214 -0.050563037 0.26925567 -0.2524135 -0.15639801
-0.007496232 0.26299158 0.23518522 -0.11433367 -0.061625052 0.07940427 0.06385845 0.31200665
0.1844849 0.10458456 -0.15723164 -0.24838257 -0.025935823 -0.16516261 0.15590748 -0.15506627
-0.017223474 0.26528147 0.004979433 0.12070098 -0.007808203 0.2068375 -0.05657967 -0.11119477
0.16273952 0.10379424 -0.10402578 -0.16261843 -0.029421369 0.3295711 0.06194429 -0.30419958
-0.1794794 0.08825434 0.07877316 0.20131102 0.25590304 0.14751859 -0.19800976 0.015537532
0.13510048 -0.20385501 0.08332004 -0.06804626 0.020002924 0.16913089 0.19297944 0.22939555
0.008971352 0.17445265 -0.059463467 -0.22990382 0.17097926 0.078280084 -0.016320312 -0.24738392
0.2883335 0.20379557 0.21096142 -0.34985375 -0.13609548 -0.037373625 0.2551977 -0.07884966
0.08135797 -0.0730304 -0.21187264 -0.01352891 -0.20204431 0.30236632 -0.040281106 0.11768564
-0.042074118 -0.071083546 -0.00041888107 -0.21859592 -0.25984147 -0.062451143 -0.2613956 0.35190588
0.29071394 0.083490625 0.37222666 0.094225496 -0.18802279 0.028025208 -0.13505277 -0.112362206
-0.27910447 0.1933865 -0.2154316 0.20423661 -0.28803515 0.25693774 0.17411093 0.32893634
0.018140921 0.28639382 0.17057891 0.17809676 -0.19061396 -0.13378896 0.20440535 -0.13269119
-0.27240154 -0.18500847 -0.10151899 0.24599883 -0.034849036 -0.14198267 0.3765867 0.14742795
-0.10441388 0.03644977 -0.17786066 -0.14274006 -0.11095726 0.13525617 -0.21758595 0.2913978
-0.1403727 0.13756008 0.20698504 0.25631303 0.01144648 0.02229698 -0.20952998 0.27388617
0.0022893802 0.07178419 0.16413407 -0.21630377 -0.07236918 -0.21938947 -0.124376625 0.26845202
0.12877503 -0.17229545 0.25592095 0.29608086 -0.28756252 0.10372304 0.03264018 -0.007174889
-0.31325525 -0.03484309 -0.008005576 0.039946128 -0.10510714 0.02498531 0.2526349 0.3396527
-0.17718172 0.10131038 0.13422841 0.13673842 -0.094785385 -0.02899869 0.20750895 -0.08346588
-0.22416706 -0.13253511 0.13143606 0.15145011 0.2207522 0.02797456 0.1623947 0.21236107
-0.111473024 -0.20054202 -0.20658596 -0.13048695 -0.09058136 -0.1037707 -0.04324289 0.1026887
0.055649918 0.08517206 0.09826544 0.211284 0.035333656 -0.27513772 -0.07249085 -0.36190975
00000000: cdfc 203e 5c14 8abe ab3e 3c3e f930 6dbd
00000010: 9e74 1fbe 5e25 c0bc 74f3 733e 58bd 3cbd
00000020: 4af0 413e 84b9 d03d a059 3bbd 2d08 5bbe
00000030: 0353 043e f756 1e3e 1b33 b33d 2004 83be
00000040: a6b5 d03d 2ea9 3e3e cd46 5d3d 3373 efbd
00000050: 2d0e b13d e4db 323e 0a22 21bc 1697 3d3e
00000060: dcee 863c a53c 2c3e e36d 3cbe 92f6 69be
00000070: 928d 103d 0d4a 613e aef4 183d 2de8 d53e
00000080: 9bed b13d 655f a03c 7b23 cf3c 4561 04be
00000090: bb36 ebbd 2685 97be faff 47be 7e4d bf3e
000000a0: 129c 473e f3e5 b5bd a5d1 033e cfb1 9d3e
000000b0: 0bd7 bbbd 94fc 25be a441 243c e502 6a3d
000000c0: 5236 59be 880b a13e 2e0c 46be ed41 a03d
000000d0: 0577 253d dfd1 033e 64a2 8b3e 75f1 2f3e
000000e0: 7814 633e 20d3 9dbd 1590 593d 40a5 69be
000000f0: d40c 843d 9e79 19bb 7101 103e 81a3 743e
00000100: dccc 55be d5e4 5abd b1b7 30be 723c 31be
00000110: 301b 4fbd e1db 893e 583c 81be cd26 20be
00000120: f4a2 f5bb d5a6 863e 65d4 703e c527 eabd
00000130: 8d6a 7cbd b59e a23d 38c8 823d 56bf 9f3e
00000140: 9ce9 3c3e 6e30 d63d 5501 21be 0058 7ebe
00000150: 5d77 d4bc 6320 29be 36a6 1f3e b1c9 1ebe
00000160: 3e18 8dbc f9d2 873e 832a a33b 1332 f73d
00000170: f4db ffbb 36cd 533e 16c0 67bd 15ba e3bd
00000180: 30a5 263e 1392 d43d 780b d5bd 7285 26be
00000190: 1505 f1bc 8bbd a83e 4cb9 7d3d 0cc0 9bbe
000001a0: 73c9 37be b1be b43d d353 a13d 7a24 4e3e
000001b0: b905 833e 1d0f 173e 12c3 4abe 2291 7e3c
000001c0: c857 0a3e 5ebf 50be b2a3 aa3d d65b 8bbd
000001d0: 2cdd a33c a630 2d3e 679c 453e abe6 6a3e
000001e0: 94fc 123c b7a3 323e f78f 73bd e86b 6bbe
000001f0: 3015 2f3e 4f51 a03d 2db2 85bc 3652 7dbe
00000200: 73a0 933e c9af 503e 4506 583e 0820 b3be
00000210: 9d5c 0bbe 1615 19bd 46a9 823e ee7b a1bd
00000220: 029f a63d f690 95bd 24f5 58be 5da8 5dbc
00000230: b4e4 4ebe c2cf 9a3e cdfd 24bd 2b05 f13d
00000240: e955 2cbd 4094 91bd 449d dbb9 9cd7 5fbe
00000250: f109 85be c5cc 7fbd a5d5 85be 022d b43e
00000260: 75d8 943e 22fd aa3d 7e94 be3e 4cf9 c03d
00000270: 0c89 40be 1f95 e53c 464b 0abe 281e e6bd
00000280: c8e6 8ebe 1c07 463e 1a9a 5cbe 6723 513e
00000290: 5879 93be 588d 833e 234a 323e 586a a83e
000002a0: 459c 943c 36a2 923e 3dac 2e3e ff5e 363e
000002b0: 4e30 43be f9ff 08be a34f 513e 33e0 07be
000002c0: 3778 8bbe dc72 3dbe 30e9 cfbd 1ee7 7b3e
000002d0: ddbd 0ebd e863 11be f9cf c03e 5af7 163e
000002e0: f2d6 d5bd 5b4c 153d 1b21 36be 732a 12be
000002f0: 8f3d e3bd 9880 0a3e dace 5ebe 1832 953e
00000300: dcbd 0fbe 8ddc 0c3e e3f3 533e 763b 833e
00000310: 048a 3b3c 28a8 b63c 078f 56be cf3a 8c3e
00000320: 6d09 163b 9703 933d c312 283e bc7e 5dbe
00000330: 4b36 94bd a2a7 60be 2cb9 febd 8b72 893e
00000340: 9add 033e 386e 30be 1208 833e e997 973e
00000350: 653b 93be bf6c d43d b6b1 053d 551b ebbb
00000360: fe62 a0be a1b7 0ebd d229 03bc 8d9e 233d
00000370: 6a42 d7bd fead cc3c 5d59 813e f5e6 ad3e
00000380: 206f 35be d17b cf3d 2c73 093e 2805 0c3e
00000390: d71e c2bd a98e edbc 3a7d 543e 29f0 aabd
000003a0: 0d8c 65be 49b7 07be 2d97 063e bd15 1b3e
000003b0: dd0c 623e e82a e53c cc4a 263e 2e75 593e
000003c0: f84b e4bd e35a 4dbe 458b 53be 5f9e 05be
000003d0: b882 b9bd bc85 d4bd 751f 31bd 744e d23d
000003e0: 2bf1 633d b06e ae3d 643f c93d d55a 583e
000003f0: 06ba 103d dade 8cbe 1576 94bd 3c4c b9be

critic.4.bias f4 [10]
-0.08471606 0.33667317 -0.040610213 0.067688204 0.10361521 0.097417645 -0.068445064 0.1988882
0.10700851 -0.14619496
00000000: 9d7f adbd 6d60 ac3e e556 26bd 1da0 8a3d
00000010: 3634 d43d e782 c73d ed2c 8cbd 59a9 4b3e
00000020: 4727 db3d 22b4 15be

critic.6.weight f4 [5, 10]
0.01687862 -0.057448044 0.35806572 0.32933336 0.21525325 0.011337019 0.069244884 -0.17201819
-0.098246865 0.17175005 0.20054361 0.18945727 0.5109932 0.38356975 0.3363744 -0.21672064
-0.29448625 -0.2819314 -0.37823224 -0.0694342 0.32865208 0.220588 0.10594742 0.11905668
-0.12360197 -0.20763527 -0.013020458 -0.19252728 0.015150583 0.23151945 0.26726025 0.02370761
0.040723763 0.16853032 -0.1868708 -0.15125516 -0.4106799 0.13791126 -0.42511818 0.22972296
-0.36491448 0.28695434 -0.07590684 -0.057064403 -0.12312756 0.42465124 0.17340054 0.2500438
0.11860678 -0.47820824
00000000: 0845 8a3c a44e 6bbd 6454 b73e 629e a83e
00000010: 596b 5c3e e7be 393c 43d0 8d3d 8925 30be
00000020: a735 c9bd 3fdf 2f3e 4e5b 4d3e 1601 423e
00000030: 73d0 023f 4163 c43e 4439 ac3e 04ec 5dbe
00000040: e7c6 96be 5059 90be a8a7 c1be 8533 8ebd
00000050: 1645 a83e d2e1 613e f6fa d83d fdd3 f33d
00000060: 0823 fdbd 579e 54be c253 55bc df25 45be
00000070: 273a 783c 6f13 6d3e 56d6 883e 7636 c23c
00000080: f6cd 263d 3693 2c3e 0f5b 3fbe a2e2 1abe
00000090: a344 d2be 9c38 0d3e 17a9 d9be 7f3c 6b3e
000000a0: 12d6 babe aeeb 923e 0c75 9bbd 5dbc 69bd
000000b0: 4d2a fcbd e36b d93e e98f 313e be05 803e
000000c0: 1de8 f23d b6d7 f4be

critic.6.bias f4 [5]
-0.10641517 0.32897496 0.34533337 -0.27715296 0.12379637
00000000: 32f0 d9bd 686f a83e 89cf b03e fee6 8dbe
00000010: f488 fd3d

critic.8.weight f4 [1, 5]
0.17393585 0.5274358 0.16702116 0.257763 -0.33914706
00000000: 3d1c 323e 0806 073f 9807 2b3e 83f9 833e
00000010: afa4 adbe
