Weight/asd/PPO_continuous_log.pth (torch_old, 53153 bytes, 17 tensors)

actor.0.weight f4 [40, 31]
000000 cc fa 4a 3c 3b 75 be bd 43 94 50 be 73 20 58 3e
       0.012388896 -0.09299704 -0.20369057 0.21106128
000010 17 d8 b7 3a a0 8c 72 3d 40 5b 10 bd 44 32 03 3e
       0.0014026192 0.05921614 -0.035243273 0.12812144
000020 0c 79 e3 bc 2a a8 27 3f ab fb 22 3e 1f c9 d8 bc
       -0.02776768 0.65490973 0.15916316 -0.02646309
000030 60 38 c8 bd 6e 5d 28 be d4 73 4b 3d 68 91 f6 bc
       -0.09776378 -0.1644189 0.04967101 -0.030098632
000040 28 85 96 be 42 3b 13 be d8 72 7d 3e ab c3 e2 3d
       -0.29398465 -0.14378074 0.2475084 0.11072477
000050 1e 38 33 3e 31 75 d8 3e 12 b2 89 3e d9 f4 97 be
       0.17501876 0.4227691 0.2689367 -0.2967899
000060 c9 8b a9 3e ff 32 23 3f e4 fc 28 bd 6f 64 11 bd
       0.3311446 0.6374969 -0.0412568 -0.03549617
000070 3e 56 60 bc 24 d9 03 3e 8b 33 63 bd ec ae ed 3d
       -0.013692437 0.12875801 -0.055469077 0.11605629
000080 c4 10 0a be cf ed 5c be 37 d6 3a 3e 83 39 2b bd
       -0.13482958 -0.21575092 0.18245779 -0.041802894
000090 ff a7 e6 bd 55 9a ce bd e2 0d 03 3f 83 e6 df be
       -0.112625115 -0.1008803 0.5119306 -0.43730554
0000a0 3e b1 08 bf ae e1 c3 be ea 9c c0 be 05 49 3b 3e
       -0.5339545 -0.38258117 -0.37619716 0.18289573
0000b0 8a bd 49 3d a8 ec 22 bd 7b 8a 05 3e 3a 36 f0 bd
       0.049253024 -0.039776474 0.13041107 -0.11729093
0000c0 bf 52 46 be da e7 00 3e 90 3d c6 3c ac fe 2d be
       -0.19367503 0.12588444 0.024199277 -0.16991681
0000d0 73 0a b7 3e 3e ec dd 3e ae f9 89 3b 55 c1 1e bd
       0.3575016 0.433443 0.0042106723 -0.038758595
0000e0 08 80 6a be 68 47 08 bd d9 9c 0c bd b9 59 05 bd
       -0.22900403 -0.033271223 -0.03432927 -0.03255627
0000f0 4e b9 40 bd 90 1f 2f 3d 8d 4e 00 3e c1 8d 87 3e
       -0.04705172 0.04275471 0.12529965 0.26475337
000100 28 af 16 bd fb 7f c3 3d d5 6e 73 3e 1e ad 02 bf
       -0.036788136 0.09545895 0.23772748 -0.51045406
000110 2e 71 b9 3d f9 e6 74 3e ce 73 c8 3e 1d c4 15 be
       0.090547904 0.23916234 0.39150852 -0.14625593
000120 79 db d8 3e 79 48 02 3e 70 c6 00 bf 64 57 60 3e
       0.42354944 0.12722959 -0.5030279 0.21908337
000130 6a bb 90 3d 7f 19 6c 3d fc e4 88 be 69 a3 ed 3d
       0.070669964 0.057641502 -0.267372 0.11603434
000140 a3 9e 9d bc 6e 13 bb 3d 32 a7 36 be d6 3f c9 3d
       -0.019240683 0.09134565 -0.17837217 0.09826629
000150 7d 46 5a be 2b d4 b5 be a1 f3 0e bf 59 c7 77 3e
       -0.21315952 -0.35513434 -0.558405 0.24197139
000160 69 b3 4e 3d 6f df 7d bd 7a bf 98 3d 4b 1d 98 bc
       0.050464068 -0.06198066 0.07458396 -0.018568655
000170 8b de 27 3e e9 2c 1a 3c 10 e1 b4 3e 5f 63 b9 bd
       0.16393487 0.0094101215 0.3532796 -0.09052157
000180 b2 95 4e 3e 3c 82 6e be 4c 0b 80 bd 6e f8 6a 3e
       0.20174292 -0.23291868 -0.06252155 0.22946331
000190 06 2a 99 3e f1 dd bf be 5f 3b b1 bd 02 66 87 be
       0.29914874 -0.37474015 -0.08653902 -0.26445013
0001a0 5e 03 2d 3d e5 41 0d be 5e 56 91 be 62 92 da bd
       0.04223954 -0.13794668 -0.28386205 -0.106724516
0001b0 31 53 46 3e 09 7d 4a be 6d ee 2c bc bb e1 df 3a
       0.19367673 -0.1977426 -0.010554892 0.0017080823
0001c0 f7 8e a1 be 03 e0 fc 3b b7 cc a5 3b dc ba 05 3e
       -0.31554386 0.007717134 0.0050598043 0.13059562
0001d0 58 3b 44 be 26 31 ca bd 59 75 ff bd f5 c6 94 3e
       -0.19163263 -0.098726556 -0.12473554 0.29058042
0001e0 04 d7 85 3d 54 cd cc 3d 32 e4 38 3c f1 b6 31 3d
       0.065351516 0.10000101 0.011284875 0.043387357
0001f0 0c 79 bc be 07 28 55 be 34 f9 a5 3d ec 7b 59 3e
       -0.368111 -0.2081605 0.08104172 0.21238679
000200 96 6c 49 be 6a c2 dc 3e cc 39 68 bd e1 2d 90 3e
       -0.19670328 0.43117076 -0.056695744 0.28160003
000210 12 43 56 be fa ee b4 be f7 cb 3a be 25 de 96 be
       -0.20924023 -0.35338575 -0.18241869 -0.29466358
000220 08 c4 a4 be 20 11 9f bd c2 b0 64 3c 82 4f cf 3e
       -0.3218081 -0.07766938 0.013958158 0.40490347
000230 03 6d 18 be b4 12 1e 3d 68 3e 0a be 5d 54 0c bd
       -0.14885335 0.038592055 -0.13500369 -0.034260143
000240 4d d6 f5 3d 55 8d c2 3e d5 8e eb 3e 30 34 cd be
       0.12003765 0.37998453 0.4600741 -0.40078878
000250 a0 e3 6e 3e 23 16 01 3f ac 79 7b 3e 3e af c4 bd
       0.2332902 0.504244 0.24558133 -0.09603737
000260 37 c5 f1 3d 3c f3 19 3e 9d b0 72 3d a6 d1 f7 3d
       0.11805194 0.15034193 0.059250463 0.12100534
000270 79 3c ca bd 83 ba e6 bd 94 3a 78 3e d0 e3 82 bd
       -0.098748155 -0.11266043 0.24241096 -0.06391108
000280 c1 b0 53 3e b3 d8 0f 3e b5 58 44 be 57 ab 23 3f
       0.20672895 0.14047508 -0.19174464 0.6393332
000290 db 1c 39 3d 99 68 ea bd e9 30 b6 3e 5d c1 d6 be
       0.045193534 -0.11445732 0.3558419 -0.419444
0002a0 1d 14 7f 3d d0 ae 27 be b8 f4 00 3e b9 d4 dd bd
       0.06227504 -0.1637528 0.12593353 -0.10831589
0002b0 d1 b3 23 3e 3d 2d e1 bd 24 e6 a7 bc d8 30 7e 3d
       0.15986563 -0.10994957 -0.020495482 0.0620583
0002c0 ae af 14 bf b8 ae 95 bc 4b cc a3 3e 53 62 e2 bd
       -0.58080566 -0.018271789 0.319918 -0.1105391
0002d0 0b e1 0f bf c5 18 89 bd 0c 20 0a bd 4b a4 a3 3d
       -0.56202763 -0.066941775 -0.03372197 0.07990321
0002e0 a5 4f 7e 3e c7 ac a8 3e de 94 e4 bd d1 17 1a 3e
       0.2483507 0.3294432 -0.11161207 0.15048148
0002f0 c8 ea ce 3b c7 4c 50 3e 68 34 0d 3e 6e 8d b3 3e
       0.006314609 0.20341788 0.13789523 0.3506884
000300 02 db 3d 3e a5 4c 3d be a5 76 04 be 13 bf b1 3e
       0.18540576 -0.18486269 -0.12935884 0.3471609
000310 f6 a9 3d bd 26 71 36 bd 1e f2 23 be 4e 91 8b be
       -0.046304666 -0.0445415 -0.16010329 -0.27259296
000320 82 eb 2c 3d cb 6e 2a 3d 0d 6e 19 be 4f 82 07 3e
       0.042216785 0.041609567 -0.14983387 0.13233303
000330 f4 27 77 bd 88 c2 da 3d 17 79 07 3d 53 63 86 3e
       -0.060340837 0.10681635 0.033074465 0.26247653
000340 7d ba 27 be 92 d4 64 bf 1d c5 71 3e eb 4a b7 3e
       -0.16379733 -0.89386857 0.23610349 0.35799345
000350 46 18 c0 bd bd 91 d3 3e 70 82 1f 3e 00 15 b3 3d
       -0.0937963 0.41322127 0.15577102 0.0874424
000360 84 e1 57 3e 89 65 ff 3a 13 5e 8c be 80 92 92 be
       0.21082121 0.0019485216 -0.27415523 -0.28627396
000370 39 fc 34 3e 86 cf 0b 3e f5 3e a3 bd 7b 9d 11 be
       0.1767434 0.13653383 -0.079709925 -0.1422023
000380 e7 ba f9 3d 5b 69 9b be 23 7d 51 3e fa 04 e9 bc
       0.12193852 -0.30353817 0.20457892 -0.028444756
000390 1d f9 07 3e d1 16 b4 3e a7 78 22 3d 0e 6d c0 3d
       0.13278623 0.35173658 0.039665844 0.093958005
0003a0 42 2f 04 3d f4 1f 9e bd bb 97 c8 bd 7a 05 30 bd
       0.03227163 -0.07720938 -0.09794565 -0.042973973
0003b0 ef 6c 67 be 0f 82 1d 3e 9a ba 7d 3e 84 1e 31 3e
       -0.22600149 0.15381645 0.24778214 0.17296797
0003c0 3e 9b 05 bf b3 5a 8d 3e cc fa 65 3e 05 96 ef 3e
       -0.52190006 0.2760826 0.22458953 0.46794143
0003d0 59 89 72 3e f3 e7 ef 3d 4b d1 b9 3d b9 09 40 3e
       0.23685206 0.11714163 0.090731226 0.18753709
0003e0 85 56 3f be 4d c7 dd bd ff e9 81 bd f3 d3 1c bc
       -0.18685348 -0.10829029 -0.06343459 -0.009572017
0003f0 bd dd 4c 3e ed b4 9d be ec 85 e1 bd a6 b1 1e be
       0.20006461 -0.30802098 -0.11011872 -0.15497455

actor.0.bias f4 [40]
000000 f9 35 0f 3e 89 00 46 bd a6 a4 05 be e2 31 23 3e
       0.13985433 -0.048340354 -0.1305109 0.15936998
000010 1d 84 2c 3e 10 27 a0 3d 56 c3 53 3e 0c d9 17 3e
       0.16847272 0.078199506 0.20679983 0.1482889
000020 35 47 e8 3d d4 73 00 be 41 37 10 3d 4a 07 7a 3e
       0.11341707 -0.12544185 0.035208944 0.24416843
000030 8c 94 2b 3e c0 cf 4b be 20 a9 2e 3e 61 a5 20 3c
       0.16755885 -0.19903469 0.17056704 0.009805054
000040 c0 8a 88 bc 49 b5 3d bd 31 7e 8d 3e 42 ee f4 3d
       -0.016667724 -0.046315465 0.2763534 0.119595066
000050 73 69 5f be 3b b6 97 bd 2e 3c f5 3d 9c 1d 45 3e
       -0.2181757 -0.074078046 0.11974369 0.19249576
000060 18 6f 8a bb 4c 06 6b bc 91 3e c2 3d f3 5a 83 3e
       -0.004224669 -0.014344763 0.0948459 0.25655326
000070 83 4d d3 bd 76 4d 1e 3e 08 5d f1 bb 60 d2 4e 3e
       -0.103175186 0.15459237 -0.0073658265 0.20197439
000080 3e 4e d4 bd ed 70 41 be 18 51 0c 3d 99 8e 59 bd
       -0.10366486 -0.18890734 0.034257025 -0.053114507
000090 43 30 d9 3d 2c 4e 29 3e ab f6 67 3c 9e 14 dc bd
       0.10604908 0.16533726 0.014157931 -0.1074612

actor.2.weight f4 [64, 40]
000000 20 9b d5 3d c1 8c 76 3e fc 96 cb be 4e 22 9a 3e
       0.10429978 0.24077131 -0.3976363 0.30104297
000010 7f c9 63 bc 2e a1 7a be ea 0f b9 3e 50 27 07 3e
       -0.013903021 -0.24475548 0.36144954 0.1319859
000020 d8 1d a5 3e 27 e2 79 3e 56 62 ab 3d b7 91 13 be
       0.3224933 0.24402677 0.083683655 -0.14411055
000030 57 30 3a 3e 72 37 7f be 1d 2e 4d 3d 16 82 f0 bd
       0.18182503 -0.24923494 0.050092805 -0.11743562
000040 9c 30 0e be 9c b6 b1 3e a5 d1 92 bd 03 41 43 3e
       -0.1388573 0.34709632 -0.07168893 0.19067769
000050 30 68 07 bf 14 04 77 3d c9 76 ac 3e 28 07 64 3e
       -0.5289335 0.060306624 0.33684376 0.22268355
000060 d3 53 1a 3d 57 36 69 3d d6 fa 1f bf 43 fc 82 3d
       0.037677597 0.05693659 -0.6249212 0.06395771
000070 25 51 29 3e ed 21 6a bc 3f 30 38 3e d3 03 01 bc
       0.1653486 -0.014290315 0.17987154 -0.007874447
000080 c4 31 c7 3d 42 29 b3 3e 59 31 20 be 53 39 5f be
       0.09726289 0.34992415 -0.15643825 -0.21799211
000090 7d 01 c7 3c 1c 5b 62 3e ac 2e 01 bd 93 cf 97 3d
       0.024292702 0.22105068 -0.03153865 0.074126385
0000a0 5e 20 b3 3e f2 e5 34 be f1 a4 95 bd 26 c6 14 be
       0.34985632 -0.17665842 -0.07306851 -0.14528713
0000b0 26 2c 8c bd 66 25 7f be ec 3b f4 3d 2c 3d 5f bd
       -0.06844358 -0.2491661 0.11925492 -0.054501697
0000c0 ce d8 7b be e7 09 3e bd 6a 3e cd 3e 35 b2 5f be
       -0.24594423 -0.046396162 0.4008668 -0.21845324
0000d0 04 f6 92 3d f4 c7 ce 3d 92 c7 f5 bb b3 7e 8c be
       0.0717583 0.10096732 -0.0075005973 -0.27440414
0000e0 03 89 de 3c c1 20 aa 3e b6 86 de be b5 63 c6 be
       0.027164942 0.33228114 -0.4346215 -0.38747945
0000f0 1e 29 a5 3e 12 c7 e5 bd 95 ad 9e bc c7 64 f6 3d
       0.32257932 -0.1121961 -0.01936988 0.120309405
000100 14 ac cf 3d ae 0a d0 3d 49 40 7d 3d a7 fe 50 3d
       0.10140243 0.10158287 0.061828885 0.051024105
000110 f7 6f f2 3e 86 64 8b be c5 5c d8 be e2 85 eb be
       0.47351047 -0.2722513 -0.42258278 -0.46000582
000120 58 b3 0b bd c8 9e bf bd b5 fa 7d be 54 df 90 3e
       -0.034106582 -0.09356457 -0.24802668 0.28295386
000130 2f 7e 53 bd 00 c3 95 bd 60 2f 1a 3e 7b d7 c1 bd
       -0.05163401 -0.07312584 0.15057135 -0.09464928
000140 be 73 87 3e 75 8a 8b be 83 d4 4f 3e 28 8c 04 3c
       0.26455492 -0.27254072 0.2029591 0.0080900565
000150 b8 ae 36 bc be 8a 38 3e 67 66 ca bd d1 7b 1b 3e
       -0.011150055 0.18021676 -0.09882813 0.15183951
000160 5f d1 98 3e a0 b3 d3 3e a1 70 e6 3d 1f aa 89 be
       0.29847237 0.4134798 0.11251951 -0.26887605
000170 2b 86 66 bc 85 5b d7 3d a5 b3 7c 3d d4 59 90 3e
       -0.014070074 0.10515503 0.06169476 0.28193533
000180 dd 8e b6 3e 95 d0 8a 3e 20 07 40 be 96 89 aa bd
       0.3565587 0.2711226 -0.18752718 -0.08327024
000190 44 e7 84 3e 2c 77 86 bd 89 c9 15 3d 5e ca 6b bd
       0.25957692 -0.06565699 0.036569152 -0.05756604
0001a0 a3 d0 33 3e 33 17 9b bd f2 75 91 3d 6a fb 5a 3e
       0.17560057 -0.07572784 0.071025744 0.2138497
0001b0 8b d7 a2 3d 25 08 b8 bd 9f 58 b7 3e 6d 69 3b 3d
       0.07951268 -0.089859284 0.358098 0.04575484
0001c0 07 5c 8a 3e b4 0d 09 be 0f 7a cd bd 01 3a 31 be
       0.27023336 -0.13384134 -0.100330465 -0.17307283
0001d0 6e 66 f4 3a 6b c8 bb 3e 7b 7d d0 3e c0 7c 7a be
       0.0018646249 0.36676344 0.40720734 -0.24461651
0001e0 2e a0 24 3e a9 83 42 be 7c 1a 26 be bf 83 9b bd
       0.16076729 -0.18995537 -0.1622104 -0.07593488
0001f0 07 35 9a 39 9e e0 15 be 66 59 e0 3d 36 bd 66 3e
       0.00029412677 -0.14636466 0.109545514 0.22533116
000200 8b 4e 9a 3e 9c d8 30 3e 37 7b 1a 3d e1 93 51 3c
       0.3013805 0.1727013 0.037715163 0.012791605
000210 68 a9 35 be 75 27 90 3e e3 85 af be c4 c4 97 be
       -0.17740405 0.28155103 -0.34281835 -0.29642308
000220 64 c0 0c 3b d5 3a 2c be 36 2e d5 bc 6f d1 a7 3e
       0.0021476978 -0.16819318 -0.026023012 0.32776973
000230 eb 3b d2 be 9f 64 12 be ee 91 86 3e 84 58 b4 bc
       -0.4106134 -0.14296196 0.2628321 -0.022014864
000240 32 75 ce bd 18 28 9f bd 48 09 f8 be 19 2e cc 3d
       -0.10080947 -0.07771319 -0.4844458 0.0996973
000250 ae 08 3d bd 8a 6c c0 bd 08 2b 43 3e 15 84 91 3e
       -0.046150856 -0.09395702 0.19059384 0.28421083
000260 7b 14 c0 be 71 f1 d0 3c 28 e0 a8 3e 4a f0 11 3d
       -0.37515625 0.025505753 0.32983518 0.035629548
000270 07 6d 31 3e 6d d0 e9 be fd c9 e6 be a9 0e ee bc
       0.17326747 -0.4566683 -0.4507598 -0.029059725
000280 ff 24 de 3c 0c cb cd bd 23 d8 9e bd f9 f4 24 be
       0.02711725 -0.10048494 -0.077560686 -0.16109075
000290 f2 77 95 be ae 8f 2d be 9b 84 5c bd 89 08 da 3c
       -0.29193074 -0.1694934 -0.0538374 0.026615398
0002a0 07 43 ce bd 42 6c cb 3d b5 5f 99 bd 0d 32 a0 be
       -0.10071378 0.09932758 -0.07488958 -0.31288186
0002b0 e5 1c 17 3d 23 30 2f 3d 7f 85 86 be fc 73 bc bd
       0.03689279 0.042770516 -0.26273724 -0.0920181
0002c0 96 9f 5f be d6 fb d3 3d 06 f8 90 be 5e 7e 7a bd
       -0.21838221 0.10350768 -0.28314227 -0.06115567
0002d0 42 ae c0 bc 55 54 e1 3d 33 f6 a2 bd b5 96 c0 bd
       -0.023520593 0.11002413 -0.07957115 -0.09403745
0002e0 37 3a 43 be e7 29 20 3d 7f 38 25 bf b9 52 7e be
       -0.19065176 0.03910246 -0.6453933 -0.24836244
0002f0 cd 4f 54 3d 83 29 10 be 9e e6 f1 bd 7b f7 99 3d
       0.051833916 -0.14078335 -0.11811565 0.07517906
000300 af bb 26 3e 3f 20 b0 be 33 42 d0 bc a5 0b 2a bc
       0.16282533 -0.34399602 -0.025422191 -0.010378753
000310 52 5d bb 3d 51 c7 02 be 25 ac 13 be 28 74 bf bd
       0.09148659 -0.12771346 -0.14421137 -0.09348327
000320 d5 e0 37 3e 1c 0e 8b bd 77 0e 96 3e 4f 53 3e 3d
       0.1795686 -0.067898005 0.2930791 0.046466168
000330 5c 97 89 be 6e a1 2b bf fd 75 5e 3b 19 26 81 3e
       -0.2687329 -0.670432 0.0033944838 0.2522438
000340 83 78 21 be 69 cd db 3c 78 e9 7e 3d d8 8d d0 bd
       -0.15768628 0.026831346 0.062234372 -0.101833045
000350 ee 78 8f 3e 13 f9 52 bc 2c 46 24 bd 4f 4c 4c 3e
       0.2802195 -0.012876767 -0.040105984 0.19950984
000360 aa db 45 3e 3f 1d 8f 3e 55 a5 3c be e2 ef 57 be
       0.19322076 0.27952 -0.18422444 -0.21087602
000370 b2 8e 0e 3e bd 3e 3d 3e 6c 57 5e bc 79 f6 61 be
       0.13921621 0.18480964 -0.013570648 -0.22066678
000380 95 e4 3c 3e 28 53 8e 3e 9f 0c 86 3c c1 d7 f1 be
       0.18446572 0.27797818 0.01636344 -0.4723492
000390 c8 9f 5e bb a8 d5 3b bf cd d4 58 bc 5d d3 03 3c
       -0.0033969749 -0.7337289 -0.013234329 0.008045998
0003a0 ef 38 20 3e 4d b9 03 bd fc 8e 2a 3d 02 59 98 3d
       0.15646718 -0.03215914 0.041640267 0.07438852
0003b0 86 31 c9 3d 45 74 b8 3d 25 d3 9b 3e 8e d8 7e bd
       0.09823899 0.09006552 0.30434528 -0.06221824
0003c0 5c 82 07 bd dc ad a8 3e ed ba 0c be 8a ae 50 be
       -0.033083305 0.32945144 -0.13743182 -0.20379081
0003d0 45 46 7c 3e 8a da c3 bd e4 6b 4b 3e a3 4e bb 3d
       0.2463618 -0.095631674 0.19865376 0.09145858
0003e0 b6 0f 43 3e 35 35 e7 be e6 ed a0 3e 19 a6 2b be
       0.19048962 -0.4515778 0.31431502 -0.1676258
0003f0 34 2c fb bc ac 66 2f bd 34 14 cb bd 10 38 02 3e
       -0.030660726 -0.042822525 -0.09915963 0.12716699

actor.2.bias f4 [64]
000000 df bd ab 3e dc 2c e6 3d 19 6d 8e bc 47 98 0f 3e
       0.33543298 0.11239025 -0.017386006 0.14022933
000010 72 e8 4d be 00 d8 ac bd f9 51 00 3c 8d 9d e2 bd
       -0.20108202 -0.08439636 0.007832044 -0.11065207
000020 31 f8 12 3e 73 fa 78 3d ac a5 0d 3e e8 90 44 bd
       0.1435249 0.060785722 0.1383273 -0.047989756
000030 6a d9 3f bd f4 d9 fe 3c 9b bb 9c bd 97 9e d3 bd
       -0.0468382 0.031109788 -0.076529704 -0.10332983
000040 59 bd 43 be 0f 3b 9f bd 1b f8 3c 3e f1 24 cc bd
       -0.19115199 -0.077749364 0.1845402 -0.099679835
000050 0b 77 18 3e c4 ba 01 3e cb 85 12 3d 74 4d f6 3d
       0.14889161 0.12668902 0.035772126 0.12026492
000060 b3 84 f2 3d a9 2b 72 3d b5 c9 9a 3c d2 0c a6 3d
       0.118417166 0.05912367 0.01889501 0.08107914
000070 fc 28 80 3d 7b 6b 09 be 67 a2 2b 3e d6 b5 ae 3d
       0.06257817 -0.13419907 0.1676117 0.08530776
000080 84 85 79 bc cf 61 59 3e 8c 3f 53 bc 48 ac 88 3d
       -0.0152295865 0.21228717 -0.012893569 0.06673485
000090 94 16 05 3e b1 d3 0e 3e 57 d7 21 be 1e c2 9a 3c
       0.12996894 0.13947941 -0.15804802 0.01889139
0000a0 e3 95 50 bd 95 32 44 3e 50 56 13 3d 7a fb cc bd
       -0.050924193 0.1915992 0.035970986 -0.10008903
0000b0 bd 84 c1 3d 2a 79 fc bd f8 17 fb bb cf 36 44 3e
       0.09449146 -0.12327798 -0.0076627694 0.19161533
0000c0 87 fd 2e 3e ec ac bb 3d 3b f6 6c bd ab ba 03 3e
       0.170889 0.091638416 -0.05785201 0.12864177
0000d0 b9 33 8c 3d 7d 1b 05 bd e4 60 b8 3d 8b 0b 1c 3e
       0.06845803 -0.032496918 0.090028554 0.15238778
0000e0 6c 7d ff 3d 52 ec ea bd 39 74 84 3e 51 c2 96 3d
       0.12475094 -0.11470856 0.2586992 0.07361282
0000f0 f6 22 93 3d 0a 7b b4 3d 1f 90 e1 3c a5 f1 27 3d
       0.07184403 0.0881253 0.027534543 0.041001935

actor.4.weight f4 [32, 64]
000000 63 71 99 bd 2d cb 3c 3e 89 48 a6 3e 16 9a d0 be
       -0.0749233 0.1843688 0.32477215 -0.40742558
000010 cd 4a c4 3e 4b 2b e4 3d de e1 2a 3d 98 19 8d 3e
       0.38338318 0.1114107 0.04171931 0.2755859
000020 ec 20 05 3e dd 8d a8 3d c0 14 a6 3d d3 c7 83 3d
       0.1300084 0.08230183 0.081094265 0.06434598
000030 a1 b2 57 3e d6 82 03 3e 76 5f 82 3e 3c 92 a3 bc
       0.21064235 0.12842879 0.25463456 -0.01996719
000040 36 9f 5c bc 9f f3 83 3e f9 07 23 3c b9 89 13 3f
       -0.013465693 0.25771806 0.009950631 0.57632023
000050 e6 e8 15 3d b5 87 ff 3d b4 9e b7 3d 3e 13 8b 3c
       0.036599062 0.12477056 0.08965817 0.016976949
000060 9c 8d cd bb 23 b5 75 be f5 e5 b2 bd 39 16 b1 3e
       -0.0062729847 -0.2399488 -0.08735267 0.34587267
000070 66 33 0c 3e b8 bf ff bd f3 32 a4 bc 74 b9 b7 3e
       0.13691482 -0.12487739 -0.020043826 0.35883677
000080 08 4c 21 3d 87 45 80 3d c0 98 79 3e a9 86 be bd
       0.03937915 0.06263261 0.24374676 -0.09303028
000090 b1 b2 90 bd cf 92 a6 be 56 99 ce 3e 14 97 79 3e
       -0.07065333 -0.3253388 0.4035136 0.24374038
0000a0 d6 84 8a bd 3b de 02 3c 8d d4 bd bd f1 a0 7a 3e
       -0.06763618 0.007987554 -0.092690565 0.24475457
0000b0 d6 fc a0 be d3 67 85 3e d2 19 6b 3c 42 07 1b 3e
       -0.314429 0.26055774 0.014349418 0.15139487
0000c0 6e b2 a4 be d8 28 85 be 97 d2 01 3d 40 5f 11 be
       -0.3216738 -0.26007724 0.031694975 -0.14196491
0000d0 7b 34 05 3e 90 bb 9b 3e 73 a9 a3 be 88 01 c4 bc
       0.13008301 0.30416536 -0.31965217 -0.023926511
0000e0 4e 1f 05 3d de b9 e1 3d 04 8a 7c be 65 c0 a8 3e
       0.032500558 0.110217795 -0.24662024 0.32959285
0000f0 3e e8 d5 3d 23 60 c8 bd 55 ef 49 be 42 7e 9e bd
       0.10444687 -0.097839616 -0.19720204 -0.077389255
000100 ca e4 7e bd 19 70 69 bd c4 be 06 3d 8e 55 72 bc
       -0.06222991 -0.05699167 0.032896772 -0.014790906
000110 5b ae be 3c ce 07 be bd 4c c2 aa bd b4 62 d5 bc
       0.023276499 -0.092788324 -0.083378404 -0.026048042
000120 8e a1 4e bd 14 4b 06 be 1b 2c db 3c 60 2c 78 3c
       -0.05044704 -0.13114578 0.02675443 0.015147299
000130 08 10 a0 3c 33 83 03 bd 57 87 f2 3c a8 a2 ad bd
       0.019538894 -0.032107543 0.02960555 -0.0847829
000140 3a ba 1c 3d cb 26 c3 3d 1f 0d f7 bd e4 f6 d7 bd
       0.038263537 0.095288835 -0.120630495 -0.105451375
000150 72 a5 f2 3c 9a 46 a4 bd b0 77 5f 3c 7a 6b 98 3c
       0.029619906 -0.08021279 0.013639376 0.018605936
000160 03 a0 e9 bc 89 ac 66 3d 5d 33 03 be 04 52 95 bc
       -0.028518682 0.056316886 -0.12812562 -0.018227585
000170 31 21 e6 bd b0 ce 22 bd 47 60 14 bd 62 9f b9 bd
       -0.112367995 -0.039747894 -0.03622463 -0.09063603
000180 fa bb b1 3d 43 a1 e6 3c 31 76 09 3d 19 80 ad 3d
       0.08678432 0.028153067 0.03355998 0.08471698
000190 34 32 28 bc a2 c1 3f 3b 93 ca 3a bc e8 11 a0 3c
       -0.010265876 0.0029259701 -0.0114008365 0.019539788
0001a0 40 20 77 bd bc dd 35 bd b2 a2 76 3d 8a e3 2e bd
       -0.06033349 -0.044400916 0.060213752 -0.042697467
0001b0 63 1a 97 bd cb 53 06 3d 27 bb 25 3d 3c 66 4e 3d
       -0.0737808 0.032794755 0.040461686 0.050390467
0001c0 c1 67 ce 3b f6 e1 95 bd b9 05 d0 bd fa c0 f0 bd
       0.0062989895 -0.07318489 -0.101573415 -0.11755557
0001d0 54 8f a1 3c 60 36 be bd 8d 2e 2f bd 22 c7 3b bd
       0.019721664 -0.09287715 -0.042769004 -0.045844205
0001e0 d7 23 0c be c3 1b 15 bd 2d d7 11 be 59 21 b8 3b
       -0.13685547 -0.03640343 -0.1424224 0.0056192097
0001f0 a6 74 06 be b4 4c 96 bc b2 b1 28 bd 93 f9 c7 bb
       -0.13130435 -0.018347122 -0.04118509 -0.0061027496
000200 cd 10 9e 3d 0e e7 e6 bd 53 8d ff bd d7 70 f0 3d
       0.07718048 -0.11274539 -0.12478127 0.117402725
000210 fa 2e 85 3d 03 90 19 be eb 97 af bd 05 5a c6 bd
       0.06503101 -0.14996342 -0.08573898 -0.096851386
000220 02 eb b6 bd 21 56 01 be 6b 7a 21 3d f3 b9 62 be
       -0.08931543 -0.12630512 0.039423387 -0.22141246
000230 19 8d 51 3d f5 87 b8 bd 19 52 93 3d 40 68 80 3d
       0.05115995 -0.09010307 0.07193393 0.06269884
000240 42 fb 87 be cc 6b 73 bc e5 d3 4b be 4d 38 0f 3e
       -0.26558882 -0.014857244 -0.1990505 0.13986321
000250 59 17 29 be c7 37 20 3d 0b 95 b3 3c 7c 72 85 bd
       -0.16512813 0.039115693 0.021921655 -0.06515977
000260 5c 6d 3f 3d cf c4 13 3e cf 81 8a bd 99 42 fe 3d
       0.046735153 0.14430545 -0.0676304 0.12415046
000270 6f fa 09 3d e4 77 c1 bd c6 be 55 be 46 04 42 be
       0.033686098 -0.094466954 -0.20873556 -0.18946943
000280 1f ce 26 bc 05 80 d4 bd 72 cf 35 be c4 26 18 bd
       -0.010180979 -0.1037598 -0.17754915 -0.037146345
000290 00 86 59 bd bd 1a 28 bd 40 9d 85 bd 76 7c 93 be
       -0.053106308 -0.041041125 -0.06524134 -0.28805894
0002a0 25 40 02 bd 34 6b c4 bd 42 f9 a9 3c 52 d2 00 be
       -0.031799454 -0.0959076 0.020748738 -0.12580231
0002b0 93 fd 6f 3d 2c 80 02 bd 93 3b 33 be fe 45 db be
       0.058591437 -0.031860515 -0.17503195 -0.42826837
0002c0 3e c2 e8 bc 6f e8 c0 3a a0 6d 14 be 15 68 88 bc
       -0.028412934 0.0014717708 -0.14494944 -0.016651193
0002d0 c9 9d c7 3c 28 a7 81 3d 84 f5 8f 3d 02 4f d5 38
       0.02436723 0.06330711 0.0702925 0.00010171348
0002e0 f5 a2 e1 bd 63 8f 2a be b2 e0 be 3d 44 54 eb bd
       -0.1101741 -0.1665626 0.09320201 -0.11490682
0002f0 64 91 36 3d b5 d8 96 3d ac 26 76 bd 19 29 83 3d
       0.04457225 0.07365552 -0.060095474 0.06404323
000300 7b 03 2b 3d cf b4 d7 3c 99 12 db bd 0d 86 c4 3e
       0.041751366 0.026331333 -0.106969066 0.38383523
000310 45 63 86 3e b0 29 b7 3d 65 53 6c 3d fd 06 c4 bd
       0.26247612 0.08943498 0.05769672 -0.095716454
000320 ba eb 7b 3e e5 35 9e bd 62 9c 01 3e c8 51 ec 3c
       0.24601641 -0.07725123 0.12657312 0.02884759
000330 25 2c ae 3d 90 03 0b be ec 49 23 3c 29 84 ad bd
       0.08504514 -0.13575578 0.009966355 -0.08472473
000340 06 f2 bd 3e 3a 22 ac be 4c 3c be bd 15 b3 ad bd
       0.37098712 -0.33619863 -0.092888445 -0.08481423
000350 df c0 83 be 76 1c 99 be 85 9b 28 be 3e 2d e7 3d
       -0.25733086 -0.29904526 -0.16465576 0.11287926
000360 1e d2 e0 bc 13 39 38 3c 63 56 63 3e 5d ec 90 3e
       -0.027443942 0.011244076 0.22200923 0.2830533
000370 80 c5 a9 3e 40 ee 8d be d7 16 49 3e 3b 32 25 be
       0.33158493 -0.27720833 0.19637619 -0.16132443
000380 44 5a 73 3e 19 df ad bd 42 d9 fe bc 24 ba 83 3e
       0.23764902 -0.08489818 -0.031109456 0.25727952
000390 79 c2 aa 3d e9 75 03 3e 21 79 a7 bd 83 f4 93 be
       0.08337874 0.12837948 -0.081774004 -0.28897485
0003a0 27 61 0a 3e 8a 63 a6 3e d3 5a 26 bd 88 7a df 3d
       0.13513623 0.32497817 -0.04061396 0.10912043
0003b0 9e 4b ab 3e 61 42 79 bc e8 fc 04 bd 96 72 84 3e
       0.3345613 -0.01521358 -0.032467753 0.25868672
0003c0 f0 33 02 3f 63 9b 51 3e c6 17 77 be f2 50 95 3d
       0.508605 0.20469432 -0.24130163 0.0729083
0003d0 f6 e7 a7 3d 0e 51 69 be 92 c5 b8 bd 87 1b 06 3e
       0.0819854 -0.22784826 -0.090220585 0.13096438
0003e0 30 c5 26 3d ea 31 57 3e bb fc 18 be f5 89 26 be
       0.040715396 0.21015134 -0.14940159 -0.16263564
0003f0 c5 5f 97 3e f4 42 c1 3e cb df a5 bb c0 93 e4 bd
       0.29565254 0.37746394 -0.0050620786 -0.111609936

actor.4.bias f4 [32]
000000 34 c0 36 be a9 c7 6f 3d 1c 9b 0b be 98 ae 47 3e
       -0.17846757 0.05854002 -0.13633388 0.19500196
000010 a8 7a c6 3d be 84 4d 3d 3a 1e 4f 3e e7 71 08 3d
       0.096913636 0.05017542 0.20226374 0.03331175
000020 b1 89 b6 3b d3 5b f5 bd f0 ac 64 3e 91 11 29 be
       0.0055706133 -0.11980405 0.22331595 -0.16510607
000030 b1 c3 ab 3d 10 a4 2d bc 52 29 02 3e 07 fa 1f be
       0.083869345 -0.010598198 0.12711075 -0.15622722
000040 75 0c e8 3d 12 ae 63 3e 00 b4 27 be 3a ec 9a bd
       0.11330501 0.22234371 -0.16377258 -0.07564588
000050 48 96 7d 3d db c6 81 3d 23 6a 8c 3d 01 c5 7b 3e
       0.061910897 0.06336757 0.068561815 0.2458687
000060 37 4a a4 bd ac 46 52 3c 3e f1 09 be 33 cc 32 be
       -0.08021968 0.012834232 -0.13470933 -0.17460708
000070 a9 8a 5f 3e ca bb 29 3e aa 1d f4 bd e9 fc a3 bb
       0.21830238 0.16575542 -0.119197205 -0.0050045145

actor.6.weight f4 [7, 32]
000000 01 5c 65 bd 85 b1 cf bd 82 e0 3b 3d 9a 01 71 be
       -0.055995945 -0.10141281 0.045868404 -0.23535767
000010 88 6d 80 3c cb a0 05 bf 7c 6c 04 bf 54 61 97 3e
       0.015677229 -0.52198476 -0.51728034 0.29566443
000020 35 9a 9c 3e 88 10 74 bd e9 50 20 3e b6 6d a0 bd
       0.305864 -0.059586078 0.15655865 -0.07833426
000030 b0 11 9b 3e 80 4f 8f be 9a e2 ff 3e 11 38 c1 3c
       0.30286932 -0.2799034 0.4997757 0.023586305
000040 22 b0 4e be b5 04 21 be b7 24 84 bd f8 b0 8d be
       -0.20184377 -0.15724452 -0.06452315 -0.2767408
000050 40 ba 2c 3e 39 6b 1f be ce 43 09 3f 9a 8f 1a 3e
       0.16867924 -0.15568246 0.53619087 0.15093842
000060 78 a1 da 3d e8 42 3e 3e 36 1c 7e 3e 3c c5 0f be
       0.10675329 0.1858021 0.24815449 -0.14040083
000070 87 3b 96 3c c4 f0 aa 3d 67 fe d5 be 6e d7 19 bb
       0.018338932 0.08346704 -0.41795656 -0.0023474353
000080 f8 c0 e1 be 48 df 8f 3d 28 dd c9 3d 8d 0d 02 3d
       -0.44092536 0.070250094 0.09856635 0.031751204
000090 f4 07 1a 3e 70 23 c5 3e 33 1c 58 3e eb 57 46 be
       0.15042096 0.385036 0.21104507 -0.19369476
0000a0 dc c5 6e 3e 86 ee 11 3e ab e9 06 3e f1 7d 73 3e
       0.23317665 0.14251146 0.13175075 0.23778512
0000b0 3b 17 87 3d 97 8d 3e be 94 fc 17 3f ed 2e 27 3e
       0.06596228 -0.186087 0.5936978 0.16326495
0000c0 9d 48 98 be b2 23 29 3e d8 d1 ad 3d 9e 26 b3 be
       -0.297429 0.16517523 0.0848729 -0.349904
0000d0 1a 23 22 be 3a dc f9 3e f6 65 64 3d b9 1c f6 3d
       -0.15833703 0.48800832 0.0557613 0.12017197
0000e0 80 94 67 bd b2 81 93 be 14 a3 ad 3e 47 8e e3 3d
       -0.056538105 -0.28809887 0.3391348 0.111111216
0000f0 61 65 21 3f 73 e3 97 3d 76 d7 d2 3c f9 a3 3a 3e
       0.63045317 0.07416429 0.025737505 0.18226613
000100 76 7d d0 3d 8c 42 e3 3b 1e ce cf 3d 8f 07 1d bd
       0.1018018 0.0069354232 0.101467356 -0.038337287
000110 9f 3b a7 3e ca 1d 2c be 22 bb cd bc 96 ec 7e 3d
       0.32662675 -0.16808239 -0.025113646 0.062237345
000120 55 07 1b 3e a3 47 a0 3b fb 2b 6a 3e 74 54 b8 3e
       0.15139516 0.0048913523 0.2286834 0.36001933
000130 cf 73 a6 bd f4 ba 92 be 97 de ff 3e 41 c0 43 3d
       -0.081275575 -0.2865826 0.4997451 0.04779077
000140 95 d6 59 3d 06 ba dc be 81 c0 92 3e a7 63 b4 bd
       0.053183157 -0.43110675 0.28662494 -0.0880807
000150 6d 4b 0d 3f 1c 34 ae 3d 55 82 d2 3c 83 e1 db be
       0.55193216 0.08506033 0.025696913 -0.4294549
000160 bc c2 85 3c 83 9b 94 bd cd 42 d5 be a6 ac c0 bc
       0.016328208 -0.07256224 -0.41652527 -0.023519825
000170 15 9b 78 bc ee c5 05 bf 4a 31 bb be 3f ea 15 3e
       -0.015173693 -0.5225514 -0.36561042 0.14640139
000180 8f 66 b4 be 4e 53 29 bd 2b 76 c1 3b 16 52 56 3e
       -0.35234496 -0.04133921 0.0059039793 0.20929751
000190 13 09 e4 be 2c 20 86 3e 78 56 88 bd a6 b3 ed be
       -0.44538173 0.2619642 -0.066571176 -0.46426123
0001a0 6b d6 7a be 77 af c3 bd 0a 1d 6e 3e 9a ab 7c be
       -0.24495856 -0.09554952 0.23253265 -0.24674836
0001b0 b3 74 6b 3d 62 c2 33 3d 83 57 8d be 44 58 b6 bd
       0.05748434 0.04388655 -0.2760583 -0.08903554
0001c0 c5 af 0d be 4e f9 ba 3e d8 2a 5d 3c 93 cb d1 3d
       -0.13836582 0.3651833 0.013498984 0.10243907
0001d0 83 94 3a 3d 4f bf f1 be ef 67 b9 3e 0c 87 d8 3e
       0.045551788 -0.4721627 0.36212108 0.42290533
0001e0 17 77 25 3e 3d d0 5a be 49 08 a3 3d 03 f5 03 3e
       0.1615871 -0.21368499 0.07960565 0.12886433
0001f0 5a 12 6c be 83 5c f8 3e f9 cc b4 3e 02 05 ac be
       -0.23053876 0.4850808 0.35312632 -0.3359757
000200 c1 82 89 3d 8c d6 3f 3e 96 15 6c bb 46 43 a5 bd
       0.067143925 0.18734187 -0.0036023608 -0.08069472
000210 b2 48 3b be b0 ff d7 3c 37 24 59 be 5e 73 cd 3e
       -0.1828945 0.026367038 -0.21205221 0.4012708
000220 30 9f 12 be a6 89 88 3d 9d 93 05 be 71 08 7e 3e
       -0.14318538 0.06666879 -0.13044591 0.24807908
000230 f3 d6 e7 3e a3 e3 c9 3e 01 19 2d bf bc af f9 bd
       0.4528118 0.39431486 -0.6761628 -0.12191722
000240 ba 8c 8a 3e d9 cb a4 bd ac 08 93 be 14 63 44 3f
       0.2706049 -0.08046693 -0.28717554 0.7671368
000250 bb c7 35 3d 11 a2 8b be 18 53 8b 3e 51 e4 a2 3d
       0.04437993 -0.27272084 0.27211833 0.07953704
000260 de 04 85 bd 6e 31 ec be d8 ab 62 be 23 fb dc be
       -0.06495069 -0.46131462 -0.22135866 -0.43160352
000270 56 d9 9a be 27 84 da 3e d5 58 3a 3e 09 6e 07 bd
       -0.3024394 0.4267895 0.18197949 -0.033063922
000280 d4 c2 80 3e 9a e4 e3 bd e5 be 93 3e fa 66 09 bf
       0.25148642 -0.11127587 0.28856578 -0.53672755
000290 00 0d 84 3e 5e a5 3e 3e fe 55 8d 3e ce 85 78 bc
       0.25791168 0.1861777 0.2760467 -0.01516862
0002a0 b7 e1 82 be 5f dc df bd ee bf a4 3e 22 3b 40 be
       -0.25562832 -0.10930704 0.3217768 -0.18772557
0002b0 5c f8 99 3e 19 6d 9d be 77 39 a4 be 8e 35 b3 bd
       0.30072296 -0.30747297 -0.32075092 -0.08750449
0002c0 74 bc b4 3e 84 0e ec 3b a8 82 e5 bd 60 f4 49 3e
       0.35300028 0.007203879 -0.11206561 0.19722128
0002d0 3c 78 18 bf a0 83 d5 bd be d4 01 3d f3 dd b3 bb
       -0.59558463 -0.10425496 0.031697027 -0.005489105
0002e0 8a 22 58 bd 1f c4 78 3d 75 78 f8 bd 23 cb c5 3d
       -0.052767314 0.06073391 -0.1213235 0.09657886
0002f0 b4 67 bc be f5 d2 ea bd 87 7f a6 be 1b 61 ea 3e
       -0.3679787 -0.11466018 -0.3251917 0.4577721
000300 5b de ae be 5f c0 69 3d f1 b0 c3 bb 33 56 65 be
       -0.3415402 0.057068225 -0.005972021 -0.22396164
000310 24 52 80 3e de c5 95 3d 68 20 ac 3e 4e 81 a0 be
       0.25062668 0.07313131 0.33618474 -0.31348652
000320 00 2d f1 be c7 d8 b5 bd 54 0a 10 3f 18 87 14 be
       -0.47104645 -0.088792376 0.5626576 -0.14504659
000330 8b 24 ff 3e 8a c7 8c bb b4 39 fe bb 05 5c 83 3d
       0.49832568 -0.004296248 -0.0077583436 0.06414036
000340 9d 8e df bd 1d 30 14 be dd d7 96 3d ac 33 f8 3d
       -0.10915873 -0.14471479 0.073653914 0.12119231
000350 13 7b 18 bf c1 4e c9 be 7e c4 05 3e 45 43 41 3e
       -0.59562796 -0.39317897 0.13063237 0.18873318
000360 83 17 48 3d 01 41 9d bb 7f 91 cb 3e a1 97 86 3e
       0.048850548 -0.004799009 0.39759442 0.2628756
000370 90 ef f4 be 68 2a 4f 3e f4 de 59 3e ec 7f 14 3e
       -0.47839022 0.2023102 0.21276456 0.14501923

actor.6.bias f4 [7]
000000 d0 9d 45 bd a2 7c aa bc 33 a7 be 3c cc bf 21 3e
       -0.048246205 -0.020811383 0.023273086 0.15795821
000010 03 f0 7c be e1 e9 0a 3e 72 ac ba bd
       -0.24700932 0.1356578 -0.091149226

critic.0.weight f4 [40, 31]
000000 1e 13 b6 be 3a bf 56 be 12 8f 96 3e 7c 78 41 3d
       -0.3556146 -0.20971385 0.2940603 0.047234043
000010 dc 32 e7 be e7 1c 8c be 6b 79 cb bb b0 99 fa 3d
       -0.4515599 -0.273658 -0.0062095425 0.12236345
000020 57 85 f1 bc 28 6e 48 3d cd c4 6b be ee 92 c0 3d
       -0.029482527 0.04893318 -0.23024292 0.094030246
000030 2f 30 86 3d 18 b9 a1 3b 37 3e 9e 3f a0 f9 6b be
       0.06552159 0.004935395 1.2362736 -0.23044443
000040 3f 9c 8c 3e 73 02 96 bd d3 66 3a be a4 ca d8 3e
       0.27462956 -0.07324686 -0.18203287 0.42342103
000050 13 29 12 3d d4 f5 31 3e fc 3c 66 3f 1b b7 29 3e
       0.035683703 0.17378932 0.89936805 0.16573755
000060 72 cf bf 3e bd 7b 9c bd cd 9c b7 bd 1e 0f 3a be
       0.37462956 -0.07640789 -0.08965454 -0.18169829
000070 eb 2e 0b 3e 76 1e 4b be 7e 0c 3a 3e 7d fe c8 3c
       0.13592117 -0.19835839 0.18168828 0.024535412
000080 01 59 74 be ca 67 8b 3e 13 b7 c6 3e 21 16 87 bd
       -0.23862077 0.27227622 0.3881155 -0.06596018
000090 18 8a f3 3d b1 7e 26 3e fd 29 48 3d ca 54 d0 bd
       0.11891574 0.16259266 0.04886817 -0.10172422
0000a0 9f d1 4f 3d 95 60 2a 3e 81 b5 09 be 08 52 a2 3d
       0.05073702 0.16638406 -0.13448144 0.079258025
0000b0 56 ad ba bd b7 96 dc be 55 1e 47 3d 4d cc 69 bd
       -0.091150925 -0.43083736 0.04861291 -0.057079602
0000c0 9a b4 b6 bc a4 a7 55 3d fb 3c 95 be c6 03 da 3d
       -0.022302914 0.052161828 -0.29148087 0.10645251
0000d0 0d e8 4d 3e 18 e6 af bd a1 78 73 3e d5 1b 12 3e
       0.20108052 -0.08588809 0.23776485 0.1426843
0000e0 33 4e 9b be db 73 65 3c b8 e8 84 bd ea 26 4c be
       -0.303331 0.014004673 -0.064897 -0.1993672
0000f0 22 d2 74 be 0d 86 86 be d2 0e 16 bf d9 99 7c 3e
       -0.23908284 -0.26274148 -0.58616364 0.24668063
000100 53 af ec be 6c c9 a4 3e 31 9f e3 3e 38 7c 13 bf
       -0.46227512 0.32184923 0.4445739 -0.5761142
000110 ac bd 22 3f 12 2e 9a bd a7 07 36 3d 64 78 3b 3c
       0.63570666 -0.075283185 0.04444089 0.011442278
000120 63 68 c6 3c d1 ec b3 3d 71 28 48 3b 2e f3 46 bc
       0.024219697 0.087854035 0.0030541683 -0.0121429395
000130 f1 0f 2b bf f5 41 20 3b 6c a9 01 3e 41 0a b4 3e
       -0.668212 0.0024453376 0.12662286 0.35164073
000140 a0 0b 4a 3e 71 42 54 3e fb 4b 07 3d bb 82 2d 3a
       0.19730997 0.2072847 0.033031445 0.00066189066
000150 04 2b 5a bb 23 80 77 bc b4 ff 52 3e 75 00 66 bd
       -0.00332898 -0.015106234 0.20605356 -0.05615278
000160 5d b6 f9 3a ba 56 1a bb d2 5b d2 3e 42 ec ae 3e
       0.0019051541 -0.0023550228 0.41085678 0.34164625
000170 38 31 f1 3e 1b f0 32 be 05 1a ec be 88 88 0c 3f
       0.47107863 -0.17474405 -0.461136 0.5489583
000180 5f 19 c1 3e 02 30 b7 be ac 67 c5 bd c9 fa 06 3e
       0.3771467 -0.35778815 -0.096389145 0.13181604
000190 20 ec fd bc 4a 59 2a 3d b7 c3 d4 bb 72 32 a2 bd
       -0.030996382 0.04158906 -0.0064930576 -0.07919778
0001a0 4b 7a 8f 3b 2c 80 be bc e6 37 10 bc c7 40 9c be
       0.004378592 -0.023254476 -0.00880239 -0.3051817
0001b0 64 99 48 3e 35 e1 dd bd 6d 12 52 3e 70 9f 7d 3e
       0.19589764 -0.108339705 0.20514841 0.24767852
0001c0 fd 41 d2 3c 0f b2 83 3e ed c8 16 3d 48 a0 ba 3d
       0.025666231 0.25721785 0.03681271 0.091126025
0001d0 39 15 0c be d7 1d 1a be 12 2b bf 3d 3e 8a 8d bd
       -0.13679971 -0.15050445 0.09334387 -0.06911133
0001e0 ed 8b 19 bc e9 2a 14 bd 0e e9 d1 bd d1 dc 6e be
       -0.00937174 -0.036173735 -0.1024953 -0.23326422
0001f0 f7 f4 64 be 25 32 f6 bd 73 7d b9 be 25 88 ca bd
       -0.22359072 -0.12021283 -0.36228523 -0.09889249
000200 02 ed 00 3e 78 88 01 3d 88 fb 90 be af 9d fa 3d
       0.12590411 0.031624287 -0.28316903 0.12237107
000210 f3 bd 1f 3e 2f 9f 72 be 8d 1c 23 be 86 e4 a1 3d
       0.15599804 -0.23693536 -0.1592886 0.079049155
000220 05 00 9d 3d 40 e0 f4 3c 35 08 4b be 55 fc 8b 3d
       0.07666019 0.029892087 -0.1982735 0.06835238
000230 2b 29 1e 3e 47 8a 78 bc 02 15 8c be 19 d1 b4 be
       0.15445392 -0.015169687 -0.27359778 -0.3531578
000240 aa 6f 01 3e 1f af 26 3e 15 1d 8a be 01 36 85 3c
       0.12640253 0.16277741 -0.26975313 0.016261103
000250 e7 f5 ae 3e 6c 83 94 bd 0d 54 1c 3f 12 de 90 3d
       0.34171984 -0.07251629 0.6106575 0.070736066
000260 fb 19 da 3d 14 ec 83 be f6 a1 83 bd a7 6f ac 3d
       0.10649487 -0.2576605 -0.06427376 0.084197335
000270 51 e7 18 bf 9a 0a 6b 3d 38 49 a4 3e c0 52 00 3f
       -0.5972796 0.057383157 0.3208711 0.50126266
000280 40 f9 e7 3e 55 95 b2 bd 28 43 4c 3b 19 1f cc 3c
       0.4530735 -0.08719889 0.0031167958 0.024917172
000290 b8 d1 86 bb 9c 91 23 bd 0e 0b 73 3c 05 cf 2d 3d
       -0.004114356 -0.039933786 0.014834179 0.042433757
0002a0 8a d9 4e 3d d8 10 15 3f ac 1d 61 3e 9b 17 97 bc
       0.05050043 0.58228827 0.21983975 -0.018443873
0002b0 af 43 af be 5b 05 ce bd c9 a4 dc bc 98 c8 44 3e
       -0.34231326 -0.10059615 -0.026934044 0.19217145
0002c0 15 76 90 3e fa 83 da 3e 85 c5 62 3d a5 bd 9f bc
       0.2821509 0.42678815 0.05536415 -0.01949961
0002d0 a7 51 0b 3b 72 60 42 3e b2 64 07 3d 70 cc a9 3d
       0.0021258385 0.18982103 0.033055015 0.082909465
0002e0 e0 5f 8f 3e d5 27 c4 bd 8a 0e 1a 3f 33 47 83 3e
       0.28002834 -0.0957791 0.60178435 0.25640258
0002f0 23 76 54 3e 5c 4c 93 3c c7 c2 40 3e 8d 43 96 be
       0.2074819 0.017980747 0.18824302 -0.29348412
000300 b2 cc 13 be 0c d5 94 3d 6c b7 22 be 3e 1c bd bc
       -0.14433554 0.07267198 -0.15890282 -0.023084756
000310 62 94 06 3d d9 3a 2c be b4 63 fc 3c 46 0f 22 3e
       0.032856353 -0.16819324 0.03080926 0.15826139
000320 13 da bd bd 3e ea d9 3d 3e 71 94 bd 2e 72 20 3e
       -0.0927011 0.10640381 -0.07248162 0.15668556
000330 1a 5e 97 3e 71 7b 15 be 21 50 f6 3d 7b cf 78 3e
       0.2956398 -0.1459787 0.12027002 0.24297898
000340 9d 11 9d bd 8d 95 2c 3c 63 74 b3 be 92 42 c7 bd
       -0.07669375 0.010533703 -0.35049734 -0.09729494
000350 30 de 6b bd 76 c0 12 3e e4 a6 95 3d 90 01 c0 3e
       -0.05758494 0.1433123 0.073072225 0.37501192
000360 a4 52 7a 3d 78 10 8d be d5 cf 7e be e0 d9 3c 3d
       0.06111397 -0.27551627 -0.24883969 0.04610622
000370 73 c7 c3 3d d4 4d f0 bd 1d 15 3e be 3f b7 14 bf
       0.09559526 -0.117335945 -0.18562742 -0.5809211
000380 83 6a 03 3b 7c 19 a2 3d 65 07 5c bc d7 9d 6d 3b
       0.00200525 0.07915017 -0.013429497 0.003625741
000390 2e fa d7 3c 29 e2 02 3d 64 9a 17 bc 26 9d 29 3d
       0.026364412 0.031953964 -0.009253118 0.041409634
0003a0 ce af c9 be 97 45 24 3d 66 36 98 be 1d 16 d9 bd
       -0.3939194 0.04010543 -0.29729003 -0.10599921
0003b0 9f aa 80 3e bc 11 d0 3e aa 36 66 3e d4 22 28 3e
       0.25130174 0.4063853 0.2248179 0.16419536
0003c0 53 b7 95 bc 5e 2f 39 bd 7d 6c bd 3d e4 0a e4 3c
       -0.018275892 -0.04521119 0.09249208 0.027837224
0003d0 32 58 0a 3d 15 76 1a be d5 1b 9d be 23 72 a7 be
       0.033775516 -0.15084107 -0.30685297 -0.32704267
0003e0 23 d8 1a be 76 23 97 be 80 e9 30 3e c9 f1 ce 3e
       -0.15121512 -0.29519242 0.17276573 0.40418842
0003f0 12 f8 be 3d a5 27 81 3e b2 12 65 3e a2 8a 70 bd
       0.093246594 0.2522556 0.22370413 -0.05872596

critic.0.bias f4 [40]
000000 e9 dd 44 3e fd 3c d3 be a2 97 8f 3e 26 be 31 be
       0.19225277 -0.41257468 0.28045374 -0.17357692
000010 f3 b1 53 bd 2a fd 90 bd 58 20 9a 3e c2 1c 33 be
       -0.051683377 -0.07079537 0.301028 -0.17491439
000020 c8 45 0e be c5 7e b4 3e 83 8d fe be 76 50 5d 3e
       -0.13893807 0.35252967 -0.4971734 0.21612725
000030 b1 5a 29 3d 26 42 db 3e 49 4d af 3e d5 62 94 be
       0.041346256 0.42823905 0.3423865 -0.28981653
000040 d3 fb 80 be 53 16 c6 bd 88 c7 16 3f 72 ba 4e 3e
       -0.25192127 -0.09672227 0.5889821 0.2018831
000050 b5 02 14 be f2 3b ab 3e f9 70 ac be 44 a6 c3 3e
       -0.14454158 0.33444172 -0.3367994 0.38212788
000060 02 97 7f be 72 0e 1e 3e d4 f5 e8 bc 52 fd 0d 3e
       -0.24959949 0.15435198 -0.028437532 0.13866165
000070 19 6a b2 3d bd 98 d8 bd 6c c9 4b be 0c 96 ec 3e
       0.08711643 -0.105760075 -0.19901055 0.46208227
000080 8e b4 d2 3d 46 63 d5 3e 85 06 44 3e ed 7e b5 be
       0.10288344 0.41677302 0.19143112 -0.354484
000090 34 9f f1 3e d1 e6 80 3e e3 26 40 bd 22 95 30 bd
       0.47191775 0.251761 -0.046912085 -0.043110974

critic.2.weight f4 [64, 40]
000000 15 b8 9d be f0 68 85 bc 6f 1e 04 3f ef ff 1e bd
       -0.30804506 -0.01628539 0.5160894 -0.038818296
000010 af 06 0a 3e 79 42 9c 3e ef 30 17 3d 69 53 3c bf
       0.13479112 0.30519465 0.0369119 -0.73564774
000020 99 5e 4c bc 87 d0 82 be d4 be c4 3d c3 ca 5b 3e
       -0.012473726 -0.2554972 0.0960671 0.21464066
000030 47 d1 e1 bc 70 db f0 3e df b6 09 3f 41 91 65 3a
       -0.027565612 0.47042418 0.53794664 0.0008757301
000040 20 8e 5d bd df 94 11 be bf ac 1d 3e 46 10 b5 3e
       -0.05409062 -0.14216946 0.15397929 0.35363978
000050 0d cd 25 be 60 f9 b9 3e 25 9e ce bd 62 29 2d be
       -0.16191502 0.3632307 -0.100887574 -0.16910318
000060 4c cb a8 3d 66 e4 9c 3d 0d 65 b9 3d b1 c0 55 bd
       0.08241901 0.07660751 0.09052477 -0.052185718
000070 92 e0 de 3e 7e 41 6b bc 1c 58 b6 be 36 ba 87 3e
       0.4353071 -0.014358876 -0.35614097 0.26509255
000080 4c 88 07 bd 74 b4 e9 3e 63 62 45 3e 7f 59 e1 be
       -0.033088967 0.45645487 0.19275813 -0.44013593
000090 50 8f fc be 5c f6 a1 bd e4 37 dc 3d 55 98 9e 3e
       -0.4932809 -0.079083174 0.10752848 0.30975595
0000a0 1f db 0e bf c0 cb 87 be 6c c1 b0 bc dd e9 6b be
       -0.558031 -0.26522636 -0.021576606 -0.2303843
0000b0 a3 ff df bd 8e 10 2f 3f 18 40 05 be 24 7f 9e be
       -0.10937431 0.68384635 -0.13012731 -0.30956376
0000c0 87 14 c6 3d cf 01 16 3e 6d b0 6c 3e 39 5e 80 bd
       0.09671884 0.14649127 0.23114176 -0.062679715
0000d0 f4 85 9f be b9 71 45 3e 38 c4 7e be 14 3f a7 bd
       -0.31156886 0.19281663 -0.24879539 -0.08166328
0000e0 34 a4 0f be 1c 68 7e 3e 5d b9 58 bc cd f7 9c 3e
       -0.14027482 0.24844402 -0.013227788 0.30657807
0000f0 26 01 39 3e 9e 49 99 3e 85 a7 37 be f0 da b2 bd
       0.18066844 0.29938978 -0.17934997 -0.08733165
000100 f7 f0 3d 3f c4 b7 e9 3e 45 dd 0f be 11 0e 4a be
       0.7419581 0.45648015 -0.14049251 -0.19731928
000110 3d 8b 53 3e b7 7c 6f be 51 20 c3 be 41 8b 4d 3e
       0.20658584 -0.23387419 -0.38110593 0.20072652
000120 13 48 fa be b8 cf 63 3e f5 e8 c1 3e b0 2d 02 bf
       -0.48883113 0.22247207 0.37873045 -0.50850964
000130 4f 93 32 bf 68 40 4d 3e ed 68 b5 3e 82 f0 92 3e
       -0.69756025 0.200441 0.35431615 0.28699118
000140 46 52 12 3f 54 2a b4 3e 64 dc 7d be 9c f3 8b 3d
       0.5715679 0.35188544 -0.24791104 0.06833574
000150 59 78 c3 3e 17 38 c1 3d ab b9 9e 3d fc 75 6b ba
       0.38177755 0.094345264 0.07750257 -0.00089821196
000160 5f d2 bc bd d6 3f 93 bd 8f 57 c9 be 1c c8 d4 be
       -0.092198126 -0.0718991 -0.39324614 -0.4155892
000170 5a f2 a7 3e ef 14 57 3e 1e da 3d be 33 ae a1 be
       0.32802087 0.2100408 -0.18540236 -0.31578216
000180 fb 86 91 be 4f b7 18 bf 25 7c 7f 3e f1 d6 38 3e
       -0.28423294 -0.59654707 0.24949701 0.18050744
000190 fa 94 03 bd 8b d8 8c 3e f6 47 97 be 1e 66 b2 3e
       -0.032124497 0.2750896 -0.2954709 0.34843534
0001a0 15 10 0a be 5f 75 dc 3e f5 b7 b0 3d b4 97 cd 3e
       -0.13482697 0.43058297 0.08628837 0.40154803
0001b0 1d 8f 9d be 77 97 d0 be 0f 47 03 3e 16 57 00 3f
       -0.3077325 -0.40740559 0.12820075 0.5013288
0001c0 97 f3 b5 3c 9c 1d c6 3e f4 dd 66 be 68 2b 27 bd
       0.02221088 0.38694465 -0.22545606 -0.04081288
0001d0 b3 76 b1 3e 7e b4 18 3f 15 f5 46 be 05 f3 2f be
       0.34660873 0.5965041 -0.19429429 -0.17182548
0001e0 78 c8 aa be 92 60 ad 3e f5 95 83 3e d3 23 8c 3e
       -0.3335607 0.3386274 0.25700346 0.27371082
0001f0 2f 3b 96 bd 87 87 4e 3e 17 2d 30 3e 6f e5 9c 3e
       -0.07335507 0.20168887 0.172047 0.30643794
000200 57 28 b6 3e f7 ed fe 3d 4d 94 49 3e 9f f5 6b bd
       0.35577652 0.12447732 0.19685479 -0.05760729
000210 91 58 3f be 0f ce ae bd 37 20 a0 be 0b b1 a9 bc
       -0.18686129 -0.08535396 -0.31274578 -0.020714303
000220 a3 07 8d 3e 72 59 b5 be 87 fd c6 be b2 f1 f4 3d
       0.2754489 -0.35419804 -0.388653 0.11960162
000230 b8 f7 bf 3c 1a 6d 7b be 98 1b 8b 3e ce 17 14 be
       0.023433551 -0.24553338 0.2716949 -0.14462206
000240 47 ce c4 3e 1d 09 8d be c0 c7 0b be be 4a 9a be
       0.38438627 -0.27546015 -0.13650417 -0.3013515
000250 5e f8 0f 3e 7e 16 2f 3e 11 13 1e ba 47 55 03 bf
       0.14059588 0.17098424 -0.0006030063 -0.51302
000260 38 02 c7 bd 8f 56 04 bf a6 5d e9 be 70 55 1e 3f
       -0.0971722 -0.5169458 -0.4557926 0.6184912
000270 ad 14 94 bd 51 d1 df be 69 d7 0d be 3c ad 04 be
       -0.07230506 -0.43714383 -0.13851704 -0.12956709
000280 db 4b 1d be 42 4a 98 be 49 70 b6 bd 20 ca 8a be
       -0.15360968 -0.29744154 -0.089081354 -0.27107334
000290 79 d6 ab bd 12 9a 8d 3d 34 12 48 bd 5d 64 70 bd
       -0.08390517 0.06914152 -0.048845485 -0.058689464
0002a0 67 58 29 3d 6a 04 d0 be 0a 23 94 be 8f 4e a1 be
       0.041344073 -0.40628368 -0.28932983 -0.31505248
0002b0 c2 90 fc bd 1d e4 81 bd 80 21 94 bd 34 12 06 be
       -0.12332298 -0.06342337 -0.07232952 -0.13092881
0002c0 98 ff 14 be 0c ea 0f bc 7f 93 d3 bd e0 53 07 3c
       -0.14550626 -0.0087838285 -0.10330867 0.008259743
0002d0 42 b2 20 be 3f a7 cf 3d b8 95 91 be 43 7e c2 3d
       -0.15693 0.101393215 -0.2843454 0.09496739
0002e0 cc 33 4c 3e 02 59 e2 bd c1 77 81 bc a1 88 4a bd
       0.19941634 -0.11052133 -0.015804173 -0.049446706
0002f0 8f 74 5b be df 6b 05 bd 04 96 e7 bd df f1 bb bc
       -0.21431182 -0.032573577 -0.1130791 -0.022942482
000300 01 60 01 be 7d ea c1 bd f6 1c a1 bb 45 1d f9 bd
       -0.12634279 -0.09468553 -0.0049167825 -0.12163786
000310 9c 24 25 be 2e 2e b2 3d ef e7 00 be 99 b5 c2 3d
       -0.16127247 0.08700214 -0.12588476 0.09507293
000320 91 7c f5 3e 0a 1d c3 3d 4d f9 9b be 45 7d 39 3f
       0.479466 0.09527023 -0.3046364 0.7245677
000330 fd ea 84 be 2b b3 6d be 0b 44 10 3c a7 01 93 3e
       -0.25960532 -0.23212878 0.008805285 0.28712198
000340 75 d2 3c 3d 0d 3c f5 bc 6d 1f 8f 3e d4 46 96 3e
       0.046099145 -0.029935861 0.27953663 0.29350913
000350 32 c9 91 3e db ea 2a be 99 9f db 3e 58 2b 00 bf
       0.28473812 -0.16691153 0.428952 -0.5006614
000360 0f 8e 4b 3e 99 16 f8 be 3d 04 6e 3c ab 7d de bc
       0.1987841 -0.4845474 0.014527378 -0.027159533
000370 23 01 4b bd e9 39 c3 be d9 61 cb bd 4f ef fc 3d
       -0.04956163 -0.3813012 -0.09930772 0.12350332
000380 92 71 f6 be b8 89 f9 bd 0b 57 fb 3e fd 2f d4 3d
       -0.48133522 -0.12184471 0.49089846 0.103607155
000390 25 f7 47 3e 60 76 a0 3c a3 91 c9 be f1 5e 41 be
       0.19527872 0.019587696 -0.39368924 -0.18883874
0003a0 0a a2 a3 bd 53 16 99 be fc df c5 bb 76 25 d6 bc
       -0.07989891 -0.29899845 -0.006038664 -0.02614091
0003b0 f6 43 22 3f 1a 93 01 3e b0 30 39 bf 2c e9 74 be
       0.6338495 0.12653771 -0.72339916 -0.23917073
0003c0 8c 13 1c be 91 51 ba 3d 8f 85 ce be 4d fa b6 b9
       -0.15241832 0.09097589 -0.40336272 -0.00034900234
0003d0 e4 f3 10 be 11 d6 a3 ba a0 97 10 be a0 ac a1 bd
       -0.14155537 -0.001249971 -0.1412034 -0.07894254
0003e0 dd 39 ec 3d 26 b7 aa bd 78 30 85 3d 92 cd 3c be
       0.11534474 -0.08335714 0.06503385 -0.18437794
0003f0 80 f6 bd 3c 7a 0b 5e 3e 2f 1d 81 bd 5b 9a b1 3d
       0.02318883 0.21684065 -0.063043945 0.08672019

critic.2.bias f4 [64]
000000 25 61 91 3e 94 41 8a 3d f8 17 01 3e 1d 25 9a be
       0.28394428 0.06750789 0.126068 -0.3010644
000010 70 28 ac bd a1 7a a5 bc 10 d9 e6 3d b1 09 64 3e
       -0.0840615 -0.020200076 0.1127187 0.22269322
000020 1a 1b d5 3e 8a 63 3e 3c d8 e5 25 3e bf 30 b5 3e
       0.4162224 0.011620412 0.1620096 0.35388753
000030 71 8a c7 be d5 cd 61 be 90 c3 e0 bd 9f 04 3f be
       -0.3897281 -0.22051175 -0.109748006 -0.18654107
000040 11 0d 22 3d c5 a8 09 3e ff f6 f8 bd e0 f8 8a 3e
       0.039563242 0.13443287 -0.12156486 0.27143002
000050 51 1d ca bd 1c 55 64 be c4 64 bb bd a0 55 10 3e
       -0.09868873 -0.22298092 -0.09150079 0.14095163
000060 8c a5 8e 3e fd 09 b6 3e 6e 9b 65 be 76 3e d7 3d
       0.27860677 0.35554495 -0.22422573 0.1050996
000070 16 c5 52 3e 61 e2 e7 3d c5 4a 85 be cf cd c3 3e
       0.20582995 0.11322475 -0.26033607 0.38242957
000080 bd fc 8f 3c 99 9b 55 3e 96 57 a1 be 8d fc 0a 3d
       0.01757657 0.20860137 -0.31512135 0.033932257
000090 fc 92 2b be e2 99 df 3e 17 58 b2 3d bb 68 94 be
       -0.16755289 0.4367209 0.08708208 -0.28986153
0000a0 34 31 95 be 45 f2 82 3e 16 c4 c2 3d dc 4b 0f 3e
       -0.29139102 0.25575462 0.09510057 0.13993782
0000b0 f4 84 c9 3e b4 03 be bd 01 a9 c1 3e 3f fc eb 3e
       0.39359248 -0.0927805 0.37824252 0.46090886
0000c0 a2 8c 64 3e 9c a3 94 3e 40 6a 14 be b1 98 e7 3c
       0.22319272 0.29031074 -0.14493656 0.028271051
0000d0 e6 3e 41 3e ee 8a 22 be c7 4b b2 3e 77 fb 52 3e
       0.1887165 -0.1587331 0.3482344 0.20603739
0000e0 ae ec 92 3e 05 c4 9a bd d1 46 8d bd 8e 89 f5 3d
       0.28696197 -0.07556919 -0.06898273 0.11989127
0000f0 fe c5 59 3e 17 25 91 3e c8 bf 16 bd 0a c6 43 bd
       0.21266934 0.2834861 -0.03680399 -0.047796287
