Weight/asd/PPO_continuous_log (copy).pth (torch_old, 53153 bytes, 17 tensors)

actor.0.weight f4 [40, 31]
0	0xbc225d21	-0.009909899
1	0xbdc27937	-0.09495776
2	0xbe18b0ba	-0.14911166
3	0x3db45e30	0.08807027
4	0xbe05ed06	-0.13078699
5	0x3da7c987	0.08192735
6	0xbe330139	-0.17480935
7	0x3e077116	0.13226733
8	0x39c24a1a	0.00037057773
9	0x3e9b29a8	0.3030522
10	0x3e9be2a1	0.30446342
11	0x3e0b7eff	0.13622664
12	0x3c9abf79	0.01889013
13	0xbdde68f5	-0.10859863
14	0x3d596fe1	0.05308521
15	0xbd88a811	-0.06672681
16	0xbe49ea31	-0.19718243
17	0xbe62055a	-0.22072354
18	0x3e036f0a	0.12835327
19	0x3d19ec06	0.037578605
20	0x3da088bc	0.0783858
21	0x3dedc2f4	0.1160945
22	0x3e65b9d8	0.22434175
23	0xbe59f570	-0.21285033
24	0x3e7d75bf	0.24751948
25	0x3ee5a436	0.44851846
26	0xbe013b36	-0.12620243
27	0xbe250de5	-0.16118582
28	0x3cdbf5bc	0.026850574
29	0x3de5b303	0.112157844
30	0xbb47d332	-0.0030490872
31	0x3e17a78c	0.14810008
32	0xbdb774ff	-0.08957862
33	0xbe935568	-0.28776097
34	0x3e312a0d	0.17301197
35	0x3d565e08	0.05233577
36	0xbe3ec434	-0.18629533
37	0xbbf6ccd6	-0.0075317426
38	0x3e5d38c4	0.21603686
39	0xbe476aa9	-0.19474281
40	0xbe4696cb	-0.1939346
41	0xbe635b2c	-0.22202748
42	0xbed4c8b7	-0.41559383
43	0x3d96505b	0.07339545
44	0x3ce8050b	0.028322717
45	0xbd2299ab	-0.03969733
46	0x3e1ced16	0.15324816
47	0xbe00c68c	-0.1257574
48	0xbdcde327	-0.100530915
49	0x3e1d1fe4	0.15344197
50	0xbcbd70d4	-0.02312509
51	0xbd9a094d	-0.07521305
52	0x3e2fa274	0.17151815
53	0x3ec90517	0.39261696
54	0x3d0be860	0.034157157
55	0xbe5aae17	-0.21355473
56	0xbe957925	-0.29193988
57	0xbda0f997	-0.078601055
58	0xbdaad63f	-0.083416454
59	0x3d2f2e26	0.04276862
60	0x3cfd6eea	0.030936677
61	0x3dd8e3e6	0.10590343
62	0x3e49f9b9	0.19724168
63	0x3e09f185	0.13471039
64	0x3e006b7c	0.12541002
65	0x3dacdf46	0.084410235
66	0x3e3a8db7	0.18218122
67	0xbe896274	-0.26832926
68	0x3d478c5c	0.04871784
69	0xbd184cab	-0.03718249
70	0x3e5ff763	0.21871714
71	0xbe55ca4e	-0.20877954
72	0x3e368dd0	0.17827535
73	0x3e1ea555	0.15492757
74	0xbe0ccf17	-0.13750874
75	0x3e08391b	0.13303034
76	0x3e3e6725	0.18594034
77	0xbc01991c	-0.007910039
78	0xbe361b6f	-0.17783903
79	0xbd75dbd4	-0.060024098
80	0xbd34ddcb	-0.04415683
81	0x3dc8c86f	0.09803855
82	0xbe212b9c	-0.15739292
83	0x3df74a73	0.12074747
84	0xbe94bdc9	-0.29051045
85	0xbeca3099	-0.39490202
86	0xbe965e82	-0.2936898
87	0x3e0f0001	0.13964845
88	0x3e4866b0	0.19570422
89	0x3d2c3afa	0.042048432
90	0xbd4ce2ac	-0.05002086
91	0xbd7e18f8	-0.06203553
92	0x3ddad1ad	0.10684524
93	0x3df46f08	0.1193524
94	0x3e97dfce	0.29662937
95	0xbd6895ae	-0.05678337
96	0x3dbaf164	0.09128073
97	0xbe5d72e9	-0.21625866
98	0xbe744564	-0.23854595
99	0x3e4015d4	0.18758327
100	0x3d9fa59a	0.07795258
101	0xbe9a5071	-0.30139497
102	0xbc66d330	-0.014088437
103	0xbe78882f	-0.242707
104	0x3e732ed0	0.23748326
105	0xbe1c6385	-0.15272339
106	0x3dc0e45d	0.09418557
107	0xbd895b2a	-0.06706841
108	0x3e0939c0	0.13400936
109	0xbe1cbd95	-0.15306695
110	0xbd3a3406	-0.04545977
111	0xbce90c02	-0.028448109
112	0xbe476e0c	-0.19475573
113	0x3d13cdf5	0.036085088
114	0x3d28d0de	0.041214816
115	0xbe6423fd	-0.22279353
116	0x3cb168be	0.02165639
117	0x3d51940f	0.05116659
118	0xbe2cd230	-0.16877055
119	0x3e452766	0.1925331
120	0xbd0f32fb	-0.03496073
121	0x3dc3a71a	0.095533565
122	0xbce64e72	-0.028113578
123	0x3d0ad789	0.033896957
124	0xbdd0ad27	-0.10189276
125	0x3ca4589a	0.02006178
126	0xbd64ce99	-0.05586109
127	0x3d24bfd0	0.04022199
128	0xbd7b1b28	-0.061305195
129	0x3e547add	0.20749994
130	0x3b5f3e88	0.003406437
131	0x3e0edf59	0.13952388
132	0xbd7a8297	-0.061159696
133	0xbe193239	-0.14960565
134	0xbe7d63e8	-0.24745142
135	0xbebe11c2	-0.37122923
136	0xbea2412a	-0.3169034
137	0xbd0d9fb3	-0.03457613
138	0x3d77aeb9	0.060469363
139	0x3e6e6640	0.23281193
140	0xb98fa26c	-0.000273961
141	0x3cf07eeb	0.029357394
142	0xbe6ad9cb	-0.22934644
143	0x3dd8479c	0.105605334
144	0xbd485e23	-0.0489179
145	0x3e7e4ba6	0.24833545
146	0x3d0f38ce	0.034966283
147	0xbebfd86e	-0.3746981
148	0xbcd3d704	-0.025859363
149	0x3e873f3e	0.26415437
150	0x3e04d583	0.12972073
151	0xbca1a427	-0.019731594
152	0xbd62f0d7	-0.055405464
153	0x3d502a67	0.050821688
154	0xbdcc8e63	-0.099880956
155	0x3d2de703	0.042456638
156	0xbdf415c5	-0.11918215
157	0x3c9f9f56	0.019485157
158	0x3e46b59e	0.19405219
159	0xbd525fac	-0.05136077
160	0x3e686c89	0.22697653
161	0x3daac0b7	0.08337539
162	0x3d2ca222	0.04214681
163	0x3e94e17a	0.29078275
164	0xbd2d5ee6	-0.04232683
165	0xbd7a183e	-0.061058275
166	0x3e897714	0.26848662
167	0xbeceae66	-0.4036743
168	0x3d63aaac	0.055582687
169	0xbe26d27e	-0.16291234
170	0x3bf17696	0.007368873
171	0xbb5f4b42	-0.0034071957
172	0x3dd5582b	0.10417207
173	0xbe1ad1e7	-0.15119134
174	0x3d8cc0d9	0.0687272
175	0xbdb8ddc2	-0.09026672
176	0xbe8cecb9	-0.27524355
177	0x3d88d400	0.06681061
178	0x3e56fbc5	0.2099448
179	0xbcd35378	-0.025796637
180	0xbe87cb55	-0.26522318
181	0xbb84c146	-0.0040513603
182	0xbd2d5571	-0.04231781
183	0xbd921148	-0.071322024
184	0x3d9446d8	0.07240075
185	0x3e327c81	0.17430307
186	0xbdca2719	-0.098707385
187	0x3ca54a4e	0.020177033
188	0x3e04881a	0.12942544
189	0x3d84a985	0.06477646
190	0xbd09e45a	-0.03366504
191	0x3e4f1f89	0.20226873
192	0x3de3b0e2	0.11117722
193	0x3e3234ca	0.1740295
194	0xbe24f537	-0.16109167
195	0x3da855eb	0.082195126
196	0x3dffceed	0.1249064
197	0x3d063c27	0.03277221
198	0xbe8139ef	-0.25239512
199	0x3da280e8	0.07934743
200	0x3e1ce4de	0.15321681
201	0xbdff8feb	-0.12478622
202	0xbcfd852d	-0.030947292
203	0xbd3f51f3	-0.046709012
204	0xbe2ab866	-0.16671905
205	0x3e3b5a7b	0.18296234
206	0x3dccfae7	0.10008793
207	0x3e074d2b	0.13213031
208	0xbd534c2b	-0.05158631
209	0xbf02d1e4	-0.5110152
210	0xbe33f665	-0.17574461
211	0xbd9410f6	-0.072297975
212	0xbdd98a4b	-0.106220804
213	0x3e3aba07	0.18235026
214	0xbc69527d	-0.014240858
215	0xbc073433	-0.008252191
216	0x3d68a0d8	0.056794018
217	0x3dca51ce	0.09878884
218	0xbe85b902	-0.26117712
219	0xbea5e70f	-0.32402846
220	0x3d7349be	0.059396498
221	0x3dd2f6bc	0.10300967
222	0xbe31961b	-0.17342417
223	0xbdb65f5b	-0.08904906
224	0x3da34a39	0.07973141
225	0xbdb8a820	-0.09016442
226	0x3dbd8a59	0.09254903
227	0xbcf6eb80	-0.030141592
228	0x3ea40fb6	0.32043236
229	0x3ea24d24	0.3169948
230	0x3e908c24	0.2823192
231	0x3e1767dc	0.14785713
232	0xbcffd5ba	-0.031229842
233	0xbd032979	-0.032021973
234	0xbe16816b	-0.14697807
235	0xbda6a637	-0.08137172
236	0xbe01958c	-0.12654704
237	0x3dddef06	0.10836606
238	0xbe0f516e	-0.13995907
239	0x3ebc6a34	0.36799777
240	0xbe4fa72b	-0.20278613
241	0x3d0beb7e	0.03416013
242	0xbe38f533	-0.18062286
243	0x3e96fea2	0.29491144
244	0x3d9c2f9b	0.076262675
245	0x3df0726b	0.117405735
246	0x3e0dba41	0.13840581
247	0x3e416d20	0.18889284
248	0xbe0db4d7	-0.13838516
249	0xbe0292c9	-0.12751307
250	0xbd158792	-0.036506243
251	0x3d468efe	0.04847621
252	0x3e13d2ac	0.14435834
253	0xbe7d3ecf	-0.24730991
254	0xbe8b2165	-0.27173916
255	0xbe54b80f	-0.20773338

actor.0.bias f4 [40]
0	0x3e2e7427	0.17036496
1	0xbc4339b4	-0.011915613
2	0xbe2a6e4f	-0.16643642
3	0x3dfbb2d2	0.12289967
4	0xbcb83241	-0.0224849
5	0xbd82c3c9	-0.06384999
6	0x3c4f68d3	0.012659269
7	0x3dfec619	0.12440128
8	0xbd3dc38f	-0.046329077
9	0xbe17c8ab	-0.14822643
10	0x3e28b8a8	0.16476691
11	0x3e09bc85	0.1345082
12	0x3e6a0ca1	0.2285638
13	0xbd1c2816	-0.038124166
14	0x3e3db9d7	0.18527924
15	0x3c9b56ed	0.018962348
16	0xbd292752	-0.041297264
17	0xbd2f2148	-0.04275635
18	0x3e54723c	0.20746702
19	0x3d2612be	0.040545218
20	0xbe0faadc	-0.14030021
21	0xbdda221a	-0.106510356
22	0xbc24139c	-0.010014441
23	0x3db0cdca	0.08633001
24	0xbdeffe2d	-0.11718402
25	0x3d957bac	0.07298979
26	0x3d38293c	0.0449612
27	0x3e03fd28	0.1288954
28	0x3c18d1a8	0.00932733
29	0xbbcb90b9	-0.0062123206
30	0xbd66b750	-0.056327164
31	0x3e04e83e	0.12979218
32	0xbe16e4d2	-0.14735726
33	0xbe10cb8f	-0.14140151
34	0xbd9e933e	-0.07742928
35	0x3de22310	0.11041844
36	0x3d6ee067	0.058319476
37	0x3e23ea74	0.16007406
38	0x3d8f463e	0.069958195
39	0xbd87d2f1	-0.06632031

actor.2.weight f4 [64, 40]
0	0xbe05ad85	-0.13054474
1	0x3da31977	0.079638414
2	0xbe4de6d0	-0.20107579
3	0x3e21da88	0.1580602
4	0xbe392109	-0.18079008
5	0xbe3e163c	-0.18563169
6	0x3d8824fc	0.06647679
7	0x3bf6cd79	0.0075318185
8	0x3e29fd0b	0.16600434
9	0xbc0fbb64	-0.008772705
10	0xbe39f3f3	-0.18159465
11	0xbda012db	-0.078160964
12	0x3d8a5443	0.06754353
13	0xbe60b034	-0.21942216
14	0xbe090010	-0.1337893
15	0x3db16054	0.08660951
16	0xbd9781de	-0.07397817
17	0x3e420d3c	0.18950361
18	0xbd2fc8ad	-0.04291599
19	0x3db00f9b	0.085967265
20	0xbe968183	-0.29395685
21	0xbe029ec9	-0.12755884
22	0x3e32de52	0.17467621
23	0x3e3e9c0f	0.18614219
24	0x3c95e662	0.018298332
25	0xbda4ca06	-0.080463454
26	0xbeca1bd2	-0.3947435
27	0x3d8a2c9a	0.06746788
28	0x3cd1a100	0.025589466
29	0xbdaa91f1	-0.08328617
30	0x3e3f708a	0.18695274
31	0x3d399da2	0.045316346
32	0xbdcc414c	-0.09973392
33	0xbc905303	-0.017617708
34	0xbe597405	-0.21235664
35	0xbebbc249	-0.36671665
36	0xbe165cc7	-0.14683829
37	0x3d2247b6	0.03961917
38	0xbc93d71c	-0.018046908
39	0x3d04df50	0.03243953
40	0x3e9ac74e	0.30230182
41	0xbda0da4c	-0.07854137
42	0x3e2f0675	0.17092307
43	0xbd9df4ad	-0.07712684
44	0x3c75ded6	0.0150067415
45	0x3cca81c2	0.024720076
46	0x3e21ee6b	0.15813605
47	0x3ccb418b	0.024811527
48	0xbdadac67	-0.08480149
49	0xbc44a238	-0.012001567
50	0x3e414126	0.18872508
51	0xbe10cca9	-0.14140572
52	0x3daa115b	0.083040915
53	0x3e5c67d3	0.21523981
54	0x3cbe4d42	0.023230199
55	0xbe2630d7	-0.16229568
56	0xbc66f005	-0.014095311
57	0x3e73847c	0.23781008
58	0xbd4364db	-0.047703605
59	0xbe5ee4b2	-0.21766928
60	0x3e7e74dd	0.24849267
61	0xbdbe94cf	-0.09305727
62	0xbd495d9c	-0.04916154
63	0x3e5ce42e	0.21571419
64	0x3e2814fb	0.16414253
65	0x3dbfbb50	0.09361899
66	0x3dbacc5d	0.091210105
67	0x3e08ed20	0.13371706
68	0x3e63da5a	0.22251263
69	0xbe211f42	-0.1573458
70	0xbd046d5a	-0.03233085
71	0xbe99a0e9	-0.30005577
72	0x3da66ac1	0.081258304
73	0x3b7222b5	0.0036946957
74	0xbd8ccba1	-0.06874777
75	0x3e2ee265	0.1707855
76	0xbca8682b	-0.020557484
77	0xbb7e127d	-0.0038768344
78	0x3e7fdedf	0.24987362
79	0xbd81e7ee	-0.06343065
80	0x3e2c86a8	0.16848242
81	0xbe978a46	-0.29597682
82	0xbd2f5027	-0.04280105
83	0xbca61baf	-0.020276872
84	0xbdcf15d6	-0.10111587
85	0xbdcd0fd6	-0.10012786
86	0xbe2a8845	-0.16653545
87	0x3df54494	0.11975971
88	0x3d2ddcda	0.04244695
89	0x3d91a9d3	0.071124695
90	0x3da49896	0.08036916
91	0xbecab830	-0.3959365
92	0xbe035ec0	-0.12829113
93	0x3cfc6f9b	0.030814936
94	0x3c323765	0.010877465
95	0xbc389631	-0.011266277
96	0xbd77f2cc	-0.060534284
97	0x3ddb5bfa	0.107109025
98	0xbd993862	-0.07481457
99	0xbd08e111	-0.033417765
100	0x3d8eb5a9	0.06968243
101	0xbe943900	-0.28949738
102	0xbe27db8a	-0.16392341
103	0xbe254a7d	-0.16141696
104	0xbdde37fa	-0.108505204
105	0xbd154424	-0.036441937
106	0x3d43c60f	0.047796305
107	0x3b8f8f72	0.0043811137
108	0x3d1dbec0	0.03851199
109	0xbe97111d	-0.29505244
110	0x3db42172	0.08795442
111	0xbe36eeac	-0.17864484
112	0x3d148a14	0.036264494
113	0xbe4a2fc8	-0.1974479
114	0xbe1a0a3c	-0.15042967
115	0xbc132d4e	-0.008982969
116	0xbe07f560	-0.13277197
117	0x3dbeb656	0.093121216
118	0x3e384693	0.17995672
119	0xbe819a7a	-0.2531317
120	0xbc97c52c	-0.018526636
121	0xbd992795	-0.07478253
122	0xbe2246b8	-0.1584729
123	0xbe20cc40	-0.15702915
124	0xbdff0483	-0.124520324
125	0xbe9ab61a	-0.30217057
126	0xbb301d11	-0.0026872794
127	0x3e06c7ef	0.13162206
128	0x3e18d6e2	0.14925721
129	0x3d73dcde	0.059536807
130	0x3d54096a	0.05176679
131	0xbe34b39b	-0.17646639
132	0xbe39de99	-0.1815132
133	0xbc44c34d	-0.012009454
134	0xbe988d8b	-0.2979549
135	0x3d8b42c8	0.06799847
136	0x3e424aef	0.18973897
137	0xbca63504	-0.020288952
138	0x3c292b02	0.010325195
139	0x3e2cae90	0.16863465
140	0xbcf028e6	-0.029316377
141	0xbd9938ac	-0.074815124
142	0x3d317cb4	0.043331817
143	0xbdcf1485	-0.10111336
144	0xbdd1abfb	-0.10237881
145	0xbe19c62d	-0.15017004
146	0xbec3bce2	-0.38230044
147	0x3c9926d2	0.018695269
148	0xbd7759df	-0.060388442
149	0xbe23d757	-0.16000114
150	0xbd50ff8e	-0.051024966
151	0x3e130c2b	0.1436011
152	0xbe9df4e0	-0.30850887
153	0xbd48a2b7	-0.048983302
154	0x3e17381c	0.14767498
155	0xbdfe5705	-0.124189414
156	0x3dd89d5a	0.105768874
157	0xbe2a001d	-0.16601606
158	0xbe864d20	-0.26230717
159	0xbdf8bc2e	-0.121452674
160	0x3dc24f59	0.094877906
161	0xbbe1c6bc	-0.006890146
162	0xbc7f5cf0	-0.015586123
163	0xbe1e5189	-0.1546079
164	0xbe80de29	-0.25169495
165	0xbe810f7d	-0.2520713
166	0xbd6c1029	-0.0576326
167	0x3dbd4764	0.09242132
168	0xbd86ee96	-0.065884754
169	0x3e2422bf	0.1602888
170	0x3d389e95	0.04507311
171	0xbe3f1b10	-0.18662667
172	0x3d9159a9	0.070971794
173	0x3de4a95d	0.11165116
174	0xbe448210	-0.1919024
175	0xbde58fc2	-0.1120906
176	0xbe2e629a	-0.17029801
177	0x3e279854	0.16366702
178	0xbe41f177	-0.18939768
179	0xbd2669f4	-0.04062839
180	0x3d19140f	0.037372645
181	0x3e2364c8	0.15956414
182	0xbd0e14d3	-0.03468783
183	0xbd1b3386	-0.037890933
184	0xbe5540a8	-0.20825446
185	0x3e13966d	0.14412852
186	0xbf0dfc51	-0.5546313
187	0xbe835915	-0.25653902
188	0x3da78f30	0.08181608
189	0xbe1892d6	-0.14899763
190	0xbd664aa7	-0.056223538
191	0x3e095816	0.13412508
192	0x3e47c759	0.19509639
193	0xbe74931d	-0.23884244
194	0x3d2c6e15	0.04209717
195	0xbc616e2c	-0.013759177
196	0x3e07e360	0.1327033
197	0xbdfcd7e6	-0.12345867
198	0xbdb074c7	-0.086160235
199	0xbe388369	-0.18018879
200	0x3e264aaa	0.1623942
201	0xbda0c194	-0.07849422
202	0x3dcff074	0.10153285
203	0xbc5c8a2c	-0.013460677
204	0xbdc935f4	-0.09824744
205	0xbeb993a8	-0.36245465
206	0x3c1fb93f	0.009748756
207	0x3e163cf7	0.14671694
208	0xbe933666	-0.2875244
209	0x3dee221f	0.11627602
210	0x3e00bea9	0.12572731
211	0x3e58945e	0.21150348
212	0x3dacb4fa	0.08432956
213	0xbcae4f70	-0.021278113
214	0x3d658df0	0.056043565
215	0x3d9cf5c0	0.076640606
216	0x3d9d3a63	0.07677152
217	0x3dc2cf44	0.09512189
218	0xbdae26f5	-0.08503524
219	0xbe68ffb2	-0.2275379
220	0xbe22231c	-0.15833706
221	0x3da28564	0.079355985
222	0x3e239ea4	0.15978485
223	0xbd930005	-0.07177738
224	0xbd875edf	-0.06609892
225	0x3ea8c879	0.32965448
226	0x3af1d88b	0.0018451376
227	0xbe9bd895	-0.30438676
228	0xbdb14fd5	-0.08657805
229	0xbedf6b9b	-0.43636784
230	0x3da4704a	0.0802923
231	0xbd63f28f	-0.055651244
232	0x3db99e59	0.090634055
233	0xbcc02608	-0.023455635
234	0x3dc9b0cd	0.09848175
235	0x3c5f3a27	0.013624704
236	0x3dddcf9f	0.10830616
237	0x3dda3458	0.10654515
238	0x3e149a4f	0.14511989
239	0x3b794905	0.0038037908
240	0xbdb36826	-0.08760099
241	0x3d9fab7f	0.07796382
242	0x3db8fb65	0.09032325
243	0xbdfcd6c5	-0.123456515
244	0x3c4da5bc	0.012551721
245	0x3e108890	0.14114594
246	0x3dd6fc73	0.104973696
247	0x3e2ecd77	0.17070566
248	0x3e03f2ba	0.12885562
249	0xbe9786dc	-0.29595077
250	0x3c6a6c87	0.0143081015
251	0xbe5a3295	-0.21308358
252	0x3cf14b21	0.02945477
253	0x3e2440b3	0.16040306
254	0x3ce1b8b6	0.027553897
255	0x3ca91656	0.020640533

actor.2.bias f4 [64]
0	0x3e078cdb	0.13237326
1	0x3e0b6e10	0.13616204
2	0xbdfe4966	-0.124163434
3	0xbcac364d	-0.021021986
4	0xbe08df19	-0.13366355
5	0xbb53665e	-0.003225706
6	0x3e04ebf5	0.12980635
7	0xbd21bf41	-0.039489035
8	0x3dc25a2f	0.094898574
9	0x3d8d4904	0.06898692
10	0x3e197abd	0.14988227
11	0x3e039a1a	0.12851754
12	0xbd864d7d	-0.065577485
13	0x3db75396	0.089514896
14	0xbdc361df	-0.09540152
15	0xbdd39e97	-0.10332983
16	0xbe223293	-0.15839605
17	0xbd8198f2	-0.06328
18	0x3d26c5f3	0.040716123
19	0xbdad7bc2	-0.084708706
20	0x3e1325f2	0.14369944
21	0x3de8a845	0.1136022
22	0xbd32f472	-0.043690152
23	0x3dea50f5	0.114412226
24	0x3d96888d	0.07350264
25	0xbd619184	-0.055070415
26	0xbdc5d0c7	-0.09658962
27	0x3d99f9ec	0.07518372
28	0xbcf671fd	-0.03008365
29	0xbc9a1257	-0.018807573
30	0x3d8400c5	0.06445459
31	0x3ce480c4	0.027893431
32	0xbdaa9b2d	-0.08330379
33	0x3dbe706f	0.09298789
34	0x3c927e67	0.017882539
35	0x3d25c972	0.040475316
36	0xbc430a6b	-0.011904339
37	0xbb21513f	-0.0024615077
38	0xbdf6d063	-0.12051465
39	0xbdc0add6	-0.094081566
40	0xbd0f51dc	-0.034990177
41	0x3df81601	0.12113572
42	0xbdd90760	-0.1059711
43	0x3d5f9eed	0.054594923
44	0xbcb1198c	-0.021618627
45	0x3d62baf5	0.055354077
46	0xbddeae50	-0.10873091
47	0x3d88cc2d	0.066795684
48	0x3e04090a	0.12894073
49	0xbd022039	-0.03176901
50	0xbcc23b8c	-0.023710035
51	0x3e4bb921	0.1989484
52	0x3cd7c4f9	0.026339041
53	0x3c688aeb	0.014193277
54	0x3d3e2e72	0.046431012
55	0x3e3249af	0.1741092
56	0x3d83b669	0.06431276
57	0xbd748835	-0.05970021
58	0x3e242421	0.16029407
59	0x3e55c2d2	0.208751
60	0x3d23a809	0.039955173
61	0xbd53d1f8	-0.051713914
62	0xbdb73fb5	-0.08947698
63	0x3da2cd9e	0.079493746

actor.4.weight f4 [32, 64]
0	0xbd9647e0	-0.07337928
1	0x3e2c668c	0.16835994
2	0x3e1f8c8c	0.15580958
3	0xbe87dd08	-0.2653582
4	0x3ea356b6	0.31902093
5	0x3a3ecb5f	0.00072782295
6	0x3cff06b3	0.031131124
7	0x3e5b63cb	0.21424787
8	0x3dce6aac	0.1007894
9	0x3dd9f32b	0.10642084
10	0x3daae4a1	0.08344389
11	0x3d84c287	0.06482416
12	0x3e4b5fb7	0.19860731
13	0x3e03498e	0.12821028
14	0xb9fb416c	-0.00047923194
15	0xbca3923c	-0.01996719
16	0xbb9d4097	-0.0047989595
17	0x3dc0c114	0.09411827
18	0xbde68a4d	-0.112568475
19	0x3e59558f	0.21224044
20	0x3d1ab8a4	0.037773743
21	0x3de6b0a0	0.11264157
22	0x3e077427	0.13227902
23	0x3d0e6807	0.034767177
24	0xbd9025ba	-0.07038446
25	0xbeb3f9c7	-0.35151502
26	0xbda96d9c	-0.082728595
27	0x3e8f1be3	0.27950963
28	0xbe33752b	-0.17525165
29	0xbe34a954	-0.17642719
30	0xbc808212	-0.015687022
31	0x3e9dbb74	0.30807078
32	0x3d90ce95	0.070706524
33	0x3c17c695	0.009263654
34	0x3e4be796	0.19912562
35	0xbde969dc	-0.11397144
36	0xbdf64b3f	-0.12026071
37	0xbdecef4f	-0.11569082
38	0x3e8c423f	0.27394292
39	0x3e0b01ed	0.13574953
40	0x3c5d41ae	0.013504429
41	0xbc9fef3e	-0.01952326
42	0xbe0a0214	-0.13477355
43	0x3e151bdf	0.14561413
44	0xbebc0722	-0.36724192
45	0x3e30bddf	0.1725993
46	0x3d016eea	0.031599917
47	0x3e32e290	0.17469239
48	0xbe71c169	-0.23608936
49	0xbe168bcd	-0.14701767
50	0xbdc5c5ca	-0.09656866
51	0xbd946fef	-0.07247912
52	0x3de925de	0.11384176
53	0x3e503de4	0.2033611
54	0xbe8e3a6e	-0.27778953
55	0xbd23fbc4	-0.040035024
56	0xbcca852f	-0.02472171
57	0x3df2c7de	0.11854528
58	0xbe87678c	-0.26446187
59	0x3e716c24	0.23576409
60	0x3df6f997	0.12059324
61	0x3bcb8bd7	0.0062117386
62	0xbe199f31	-0.15002133
63	0xbd15584f	-0.03646117
64	0xbd7ee4ca	-0.06222991
65	0xbd697019	-0.05699167
66	0x3d06bec4	0.032896772
67	0xbc72558e	-0.014790906
68	0x3cbeae5b	0.023276499
69	0xbdbe07ce	-0.092788324
70	0xbdaac24c	-0.083378404
71	0xbcd562b4	-0.026048042
72	0xbd4ea18e	-0.05044704
73	0xbe064b14	-0.13114578
74	0x3cdb2c1b	0.02675443
75	0x3c782c60	0.015147299
76	0x3ca01008	0.019538894
77	0xbd038333	-0.032107543
78	0x3cf28757	0.02960555
79	0xbdada2a8	-0.0847829
80	0x3d1cba3a	0.038263537
81	0x3dc326cb	0.095288835
82	0xbdf70d1f	-0.120630495
83	0xbdd7f6e4	-0.105451375
84	0x3cf2a572	0.029619906
85	0xbda4469a	-0.08021279
86	0x3c5f77b0	0.013639376
87	0x3c986b7a	0.018605936
88	0xbce9a003	-0.028518682
89	0x3d66ac89	0.056316886
90	0xbe03335d	-0.12812562
91	0xbc955204	-0.018227585
92	0xbde62131	-0.112367995
93	0xbd22ceb0	-0.039747894
94	0xbd146047	-0.03622463
95	0xbdb99f62	-0.09063603
96	0x3db1bbfa	0.08678432
97	0x3ce6a143	0.028153067
98	0x3d097631	0.03355998
99	0x3dad8019	0.08471698
100	0xbc283234	-0.010265876
101	0x3b3fc1a2	0.0029259701
102	0xbc3aca93	-0.0114008365
103	0x3ca011e8	0.019539788
104	0xbd772040	-0.06033349
105	0xbd35ddbc	-0.044400916
106	0x3d76a2b2	0.060213752
107	0xbd2ee38a	-0.042697467
108	0xbd971a63	-0.0737808
109	0x3d0653cb	0.032794755
110	0x3d25bb27	0.040461686
111	0x3d4e663c	0.050390467
112	0x3bce67c1	0.0062989895
113	0xbd95e1f6	-0.07318489
114	0xbdd005b9	-0.101573415
115	0xbdf0c0fa	-0.11755557
116	0x3ca18f54	0.019721664
117	0xbdbe3660	-0.09287715
118	0xbd2f2e8d	-0.042769004
119	0xbd3bc722	-0.045844205
120	0xbe0c23d7	-0.13685547
121	0xbd151bc3	-0.03640343
122	0xbe11d72d	-0.1424224
123	0x3bb82159	0.0056192097
124	0xbe0674a6	-0.13130435
125	0xbc964cb4	-0.018347122
126	0xbd28b1b2	-0.04118509
127	0xbbc7f993	-0.0061027496
128	0x3d9e10cd	0.07718048
129	0xbde6e70e	-0.11274539
130	0xbdff8d53	-0.12478127
131	0x3df070d7	0.117402725
132	0x3d852efa	0.06503101
133	0xbe199003	-0.14996342
134	0xbdaf97eb	-0.08573898
135	0xbdc65a05	-0.096851386
136	0xbdb6eb02	-0.08931543
137	0xbe015621	-0.12630512
138	0x3d217a6b	0.039423387
139	0xbe62b9f3	-0.22141246
140	0x3d518d19	0.05115995
141	0xbdb887f5	-0.09010307
142	0x3d935219	0.07193393
143	0x3d806840	0.06269884
144	0xbe87fb42	-0.26558882
145	0xbc736bcc	-0.014857244
146	0xbe4bd3e5	-0.1990505
147	0x3e0f384d	0.13986321
148	0xbe291759	-0.16512813
149	0x3d2037c7	0.039115693
150	0x3cb3950b	0.021921655
151	0xbd85727c	-0.06515977
152	0x3d3f6d5c	0.046735153
153	0x3e13c4cf	0.14430545
154	0xbd8a81cf	-0.0676304
155	0x3dfe4299	0.12415046
156	0x3d09fa6f	0.033686098
157	0xbdc177e4	-0.094466954
158	0xbe55bec6	-0.20873556
159	0xbe420446	-0.18946943
160	0xbc26ce1f	-0.010180979
161	0xbdd48005	-0.1037598
162	0xbe35cf72	-0.17754915
163	0xbd1826c4	-0.037146345
164	0xbd598600	-0.053106308
165	0xbd281abd	-0.041041125
166	0xbd859d40	-0.06524134
167	0xbe937c76	-0.28805894
168	0xbd024025	-0.031799454
169	0xbdc46b34	-0.0959076
170	0x3ca9f942	0.020748738
171	0xbe00d252	-0.12580231
172	0x3d6ffd93	0.058591437
173	0xbd02802c	-0.031860515
174	0xbe333b93	-0.17503195
175	0xbedb45fe	-0.42826837
176	0xbce8c23e	-0.028412934
177	0x3ac0e86f	0.0014717708
178	0xbe146da0	-0.14494944
179	0xbc886815	-0.016651193
180	0x3cc79dc9	0.02436723
181	0x3d81a728	0.06330711
182	0x3d8ff584	0.0702925
183	0x38d54f02	0.00010171348
184	0xbde1a2f5	-0.1101741
185	0xbe2a8f63	-0.1665626
186	0x3dbee0b2	0.09320201
187	0xbdeb5444	-0.11490682
188	0x3d369164	0.04457225
189	0x3d96d8b5	0.07365552
190	0xbd7626ac	-0.060095474
191	0x3d832919	0.06404323
192	0xbd493b20	-0.04912865
193	0xbd664dff	-0.056226727
194	0x3dd22e4f	0.10262739
195	0x3d85b04c	0.065277666
196	0x3e94aa28	0.2903607
197	0x3c0e8be4	0.008700345
198	0xbe667956	-0.22507223
199	0xbd965e50	-0.073422074
200	0x3d9cd109	0.07657058
201	0xbd840a11	-0.064472325
202	0x3c6c4cc6	0.014422601
203	0x3cbd80ff	0.0231328
204	0xbb8c8c6d	-0.004289201
205	0xbe6c2381	-0.23060419
206	0xbdfe433c	-0.12415168
207	0xbdad8429	-0.08472473
208	0x3e83e12e	0.25757736
209	0xbe1f63c2	-0.15565398
210	0xbb110fab	-0.0022134583
211	0x3cca92f2	0.024728272
212	0x3d5903da	0.05298219
213	0xbd3ee514	-0.046605185
214	0xbd44c764	-0.048041716
215	0x3dbb41d5	0.09143416
216	0x3e27d4e9	0.16389813
217	0x3c5081bc	0.012726244
218	0x3df832ab	0.12119039
219	0x3e3db2ab	0.18525188
220	0x3e7bb750	0.24581647
221	0xbe5362a9	-0.20643105
222	0x3e31f086	0.17376909
223	0xbe4bda29	-0.1990744
224	0x3e1117ff	0.1416931
225	0x3d18077b	0.03711651
226	0xbbe356e1	-0.006937847
227	0x3e5f3d3b	0.21800701
228	0x3db8186f	0.08989035
229	0x3d40c35c	0.04706131
230	0xbe236294	-0.15955573
231	0xbdb2c582	-0.08729078
232	0x3d03fccf	0.03222352
233	0x3e30d664	0.17269284
234	0x3ded7637	0.11594813
235	0x3d57479b	0.052558523
236	0x3eaa64c7	0.33280012
237	0xbdb245d2	-0.087047234
238	0x3d3920f8	0.045197457
239	0x3e251042	0.16119483
240	0x3e5e3085	0.21698196
241	0x3e017215	0.12641175
242	0xbdfd2c2d	-0.123619415
243	0x3e6a11e0	0.22858381
244	0xbc8abff5	-0.016937235
245	0xbe1a3e5a	-0.15062848
246	0xbd942b1b	-0.07234784
247	0x3df87bbf	0.12132978
248	0x3d0ce817	0.034401026
249	0x3de2bc90	0.11071122
250	0xbe136cd2	-0.1439698
251	0xbd950a18	-0.07277316
252	0x3e1659b4	0.14682657
253	0x3e344461	0.1760421
254	0x3c03e611	0.008050458
255	0xbb85ae80	-0.00407964

actor.4.bias f4 [32]
0	0xbdbc6cd1	-0.092004426
1	0x3d6fc7a9	0.05854002
2	0xbe0b9b1c	-0.13633388
3	0x3e025136	0.12726292
4	0x3dd21870	0.10258567
5	0xbce8e22c	-0.02842816
6	0x3e3bd675	0.18343528
7	0x3e27e5b4	0.16396219
8	0xbd66da22	-0.05636037
9	0xbdf55bd3	-0.11980405
10	0x3e193f98	0.14965665
11	0xbcbfed22	-0.023428503
12	0x3d03ae6c	0.032148764
13	0x3c4557ab	0.012044827
14	0xbdd9e839	-0.10639996
15	0xbe1ffa07	-0.15622722
16	0x3e56ea2c	0.20987767
17	0x3da68321	0.081304796
18	0xbdcabdcf	-0.09899484
19	0xbd002adc	-0.031290874
20	0xbd2b7e09	-0.041868243
21	0x3ce840ca	0.028351206
22	0xbca65301	-0.020303251
23	0x3dfac98e	0.12245475
24	0xbda44a37	-0.08021968
25	0x3d176e61	0.0369705
26	0xbde4a37c	-0.11163995
27	0xbdbbe8ad	-0.09175239
28	0x3dee7f14	0.11645332
29	0x3d82e4f3	0.06391325
30	0xbda1ba92	-0.078969136
31	0xbd9164e0	-0.070993185

actor.6.weight f4 [7, 32]
0	0xbe4de3b7	-0.20106398
1	0xbdcfb185	-0.10141281
2	0x3d3be082	0.045868404
3	0xbe7f7a3b	-0.24948971
4	0xbd01f9ef	-0.031732496
5	0xbeebfd52	-0.46091706
6	0xbeaaa306	-0.33327502
7	0x3db17688	0.08665186
8	0x3e00702d	0.12542792
9	0xbd741088	-0.059586078
10	0x3d591480	0.052998066
11	0xbe091706	-0.13387689
12	0x3e26f086	0.1630269
13	0xbe7964e2	-0.2435489
14	0x3e78a770	0.24282622
15	0x3cc13811	0.023586305
16	0xbe9a42e8	-0.3012917
17	0xbe839ccf	-0.25705573
18	0xbdcb424c	-0.099247545
19	0xbe7ae59d	-0.24501653
20	0x3ca893ed	0.020578349
21	0xbe6077a4	-0.2192064
22	0x3eb13da6	0.34617347
23	0x3c94c2f4	0.018159367
24	0x3ddaa178	0.10675329
25	0xbd3ab7a8	-0.045585304
26	0x3e59409b	0.21216051
27	0xbdea63cd	-0.11444817
28	0xbe333420	-0.17500353
29	0xbcc06695	-0.023486415
30	0xbe4b48f2	-0.19852045
31	0xbd9f4d51	-0.07778419
32	0xbe8874a7	-0.266515
33	0x3d8fdf48	0.070250094
34	0x3dc9dd28	0.09856635
35	0xbd79adaa	-0.060956635
36	0x3de4bdd2	0.11169018
37	0x3e9984f3	0.29984245
38	0x3e5fa933	0.21841888
39	0xbdab1832	-0.08354224
40	0x3e3a4dba	0.18193713
41	0x3e11ee86	0.14251146
42	0x3e3db1ce	0.18524858
43	0x3e8ba570	0.27274656
44	0x3deb6453	0.11493745
45	0xbe031e20	-0.1280446
46	0x3e699f6a	0.22814718
47	0x3e272eed	0.16326495
48	0xbe55d2ee	-0.20881245
49	0x3db4d156	0.0882899
50	0x3d3f55b4	0.046712592
51	0xbe8b302f	-0.271852
52	0xbddf9045	-0.10916189
53	0x3e81ab2f	0.25325915
54	0xb9bfac7c	-0.0003655887
55	0x3d9eadab	0.07747968
56	0xbd679480	-0.056538105
57	0xbe782956	-0.24234518
58	0x3d81a232	0.063297644
59	0x3d273ed9	0.04083142
60	0x3e97062d	0.294969
61	0x3d8a432b	0.067510925
62	0xbc878796	-0.016544145
63	0x3e47acfb	0.1949958
64	0x3da39273	0.07986917
65	0x3be3428c	0.0069354232
66	0x3dcfce1e	0.101467356
67	0xbd011db6	-0.031522475
68	0x3e90147c	0.28140628
69	0xbd4719ed	-0.04860871
70	0x3e13d124	0.1443525
71	0x3cf32528	0.029680803
72	0xbda1fa30	-0.079090476
73	0x3ba047a3	0.0048913523
74	0x3e2ae611	0.16689326
75	0x3ece466a	0.40288097
76	0xbdcc2e17	-0.099697284
77	0x3d157449	0.03648785
78	0xbd26acb8	-0.04069206
79	0x3d43c041	0.04779077
80	0x3deea895	0.11653248
81	0xbe9f084f	-0.31061026
82	0x3e954ca5	0.29160038
83	0x3dee0ebd	0.11623905
84	0x3ee5ad5d	0.44858828
85	0xbd2a24a3	-0.041538846
86	0x3c9a3f25	0.018828938
87	0xbe9698de	-0.29413503
88	0x3c85c2bc	0.016328208
89	0xbe635b4d	-0.22202797
90	0xbe3769cb	-0.1791145
91	0x3e5c30db	0.21503012
92	0xbe233d77	-0.15941416
93	0xbe3d8d22	-0.18510869
94	0xbdf17070	-0.11789024
95	0x3de95c28	0.113945305
96	0xbe9f85d2	-0.31156784
97	0xbd29534e	-0.04133921
98	0x3bc1762b	0.0059039793
99	0x3e4259fb	0.18979637
100	0xbe7e2169	-0.24817432
101	0x3e699993	0.2281249
102	0xbd003c16	-0.031307302
103	0xbeccd70b	-0.40007815
104	0xbe0542af	-0.13013719
105	0xbdc3af77	-0.09554952
106	0x3dd5daa6	0.104420945
107	0xbe4977f5	-0.19674666
108	0xbd2076b9	-0.039175723
109	0x3d29c256	0.0414451
110	0xbe18803d	-0.14892669
111	0xbdb65844	-0.08903554
112	0xbe10c0d6	-0.14136061
113	0x3e463575	0.1935633
114	0xb98c7397	-0.00026789002
115	0x3c955df3	0.018233275
116	0x3e95fff6	0.29296845
117	0xbea20dfd	-0.31651297
118	0x3e464df6	0.19365677
119	0x3e425f3c	0.18981642
120	0x3e257717	0.1615871
121	0xbec3ed1f	-0.38266847
122	0x3d844f48	0.06460434
123	0x3d8fcc1b	0.07021352
124	0xbe41c620	-0.18923235
125	0x3e65a5fc	0.224266
126	0x3eb21b36	0.34786385
127	0xbe8da559	-0.27665213
128	0xbd8da119	-0.069154926
129	0x3e3fd68c	0.18734187
130	0xbb6c1596	-0.0036023608
131	0xbd17b230	-0.037035167
132	0xbe1a4916	-0.15066943
133	0x3db42361	0.087958105
134	0xbdda7a88	-0.10667902
135	0x3e874fd1	0.26428083
136	0xbbbbac0c	-0.0057272967
137	0x3d8889a6	0.06666879
138	0x3d9469b5	0.072467245
139	0x3ea084ee	0.31351417
140	0x3ec85c38	0.39132857
141	0x3e739ee5	0.23791082
142	0xbece1bc0	-0.40255547
143	0xbdf9afbc	-0.12191722
144	0x3dd99443	0.10623982
145	0xbcc49f9e	-0.024001893
146	0xbe9966b1	-0.2996116
147	0x3ec0146b	0.37515578
148	0xbdc20fa3	-0.09475639
149	0xbe571c29	-0.21006836
150	0x3eb886a6	0.3604023
151	0x3e2b95e1	0.16756393
152	0xbd8504de	-0.06495069
153	0xbea62aba	-0.32454473
154	0xbebb6e30	-0.36607504
155	0xbec82f23	-0.39098462
156	0xbe5a9a0e	-0.2134783
157	0x3eba2ea3	0.36363706
158	0x3d027e1b	0.031858545
159	0xbbc2a86b	-0.005940487
160	0x3e6a9c65	0.22911222
161	0xbde3e49a	-0.11127587
162	0x3e93bee5	0.28856578
163	0xbed82f78	-0.42223716
164	0x3e1c3156	0.15253195
165	0x3e8cd2e8	0.2750466
166	0x3d93c673	0.072155856
167	0xbd70c216	-0.058778845
168	0xbd7d30da	-0.061814167
169	0xbddfdc5f	-0.10930704
170	0x3dde8df5	0.1086692
171	0xbe6feab7	-0.2342938
172	0x3e3f3601	0.18672945
173	0xbe5f3063	-0.21795802
174	0xbedc1a43	-0.42988786
175	0xbdb3358e	-0.08750449
176	0x3e996b89	0.29964855
177	0x3ca0b5be	0.019617911
178	0xbe0aa541	-0.13539602
179	0x3da6b709	0.0814038
180	0xbee28665	-0.4424316
181	0x3cc885c7	0.024477853
182	0xbcf2c790	-0.029636174
183	0xbd9a9b7e	-0.07549189
184	0xbd58228a	-0.052767314
185	0xbe1b53f8	-0.1516875
186	0xbe4b0253	-0.19825105
187	0xbd9a6db1	-0.07540453
188	0xbe40f1b9	-0.1884221
189	0xbe84b90b	-0.25922427
190	0xbecc930d	-0.3995594
191	0x3ec35d71	0.38157228
192	0xbe777c34	-0.24168473
193	0x3d69c05f	0.057068225
194	0xbbc3b0f1	-0.005972021
195	0xbdabb47d	-0.08384035
196	0x3e9d7c5b	0.30758938
197	0x3d9f97fa	0.07792659
198	0x3eb50b22	0.35360056
199	0xbe1ff65d	-0.15621324
200	0xbe9deb77	-0.30843708
201	0xbdb5d8c7	-0.088792376
202	0x3ee6fcb3	0.4511467
203	0xbe154a4f	-0.14579128
204	0x3ec0a0a8	0.3762257
205	0x3c630113	0.013855237
206	0x3d110476	0.035404645
207	0x3d835c05	0.06414036
208	0xbd4705a2	-0.048589356
209	0xbdfe7665	-0.12424926
210	0x3d6818da	0.056664325
211	0x3dc94fc8	0.0982967
212	0xbee3e3bd	-0.44509688
213	0xbe3af9b0	-0.1825931
214	0x3da6fa06	0.08153157
215	0x3e45b3a3	0.19306807
216	0x3d481783	0.048850548
217	0x3de41e9d	0.111386515
218	0x3ea77d18	0.32712626
219	0x3e4974f8	0.19673526
220	0xbe990b16	-0.2989127
221	0x3e467ae6	0.1938282
222	0x3e7257d0	0.2366631
223	0x3e20bf56	0.15697989

actor.6.bias f4 [7]
0	0xbe451b7c	-0.19248766
1	0xbdc64720	-0.09681535
2	0x3c2e487f	0.010637402
3	0xbcff5e7f	-0.031172989
4	0xbddf08d1	-0.108903535
5	0x3dd301ff	0.10303115
6	0xbc8c1bb5	-0.017103055

critic.0.weight f4 [40, 31]
0	0xbdeb9bb2	-0.11504306
1	0xbe3401b1	-0.1757877
2	0x3d726b81	0.059184555
3	0x3d9f65cf	0.0778309
4	0xbdc3cc64	-0.09560469
5	0xbe4364ef	-0.19081472
6	0x3e53db7a	0.20689192
7	0xbc7eb686	-0.015546447
8	0xbd0313c9	-0.03200129
9	0x3ac155e2	0.0014750327
10	0xbe153e66	-0.14574584
11	0xbd98ed54	-0.07467142
12	0xbdffcd64	-0.12490347
13	0x3d2928ac	0.041298553
14	0x3f0cf8f7	0.5506739
15	0xbaa172df	-0.001231756
16	0xbd45ffb2	-0.048339553
17	0xbdc59d2a	-0.09649117
18	0x3cf86f2b	0.030326447
19	0x3dadc6e3	0.084852
20	0x3cbf5107	0.023354067
21	0x3d221256	0.039568268
22	0x3e81208b	0.2522014
23	0x3e08e018	0.13366735
24	0xbcdb79ea	-0.026791532
25	0xbcbe1bca	-0.02320661
26	0xbdaa44b5	-0.08313886
27	0xbe1622d0	-0.14661717
28	0x3e1a7d16	0.15086779
29	0xbda43e7f	-0.08019733
30	0x3e3c81c1	0.18408872
31	0x3d4135e4	0.047170535
32	0x3cb6493d	0.02225172
33	0xbb54294b	-0.0032373245
34	0x3ea9fdaf	0.33201358
35	0xbd5b254c	-0.053502366
36	0xbe270c3b	-0.1631326
37	0x3d09b4c3	0.033619653
38	0x3d759dca	0.059964933
39	0xbd312412	-0.04324729
40	0x3a35d6b6	0.00069365965
41	0xbd3b5f7f	-0.04574537
42	0x3d5756a7	0.052572872
43	0x3d038fcb	0.032119554
44	0x3cac8648	0.021060124
45	0xbec8b698	-0.39201808
46	0x3dd4532d	0.10367427
47	0xbe063221	-0.1310506
48	0xbdaa97b7	-0.083297186
49	0x3dbb291e	0.09138702
50	0xbe8f77ec	-0.2802118
51	0x3e34c9e1	0.17655136
52	0xbca4518f	-0.020058421
53	0x3e001906	0.12509546
54	0x3b5908fb	0.0033116925
55	0x3ca4f40d	0.020135904
56	0xbe109f2c	-0.14123219
57	0x3d8cb6bf	0.068707936
58	0xbc971288	-0.018441454
59	0xbb2917fc	-0.002580165
60	0xbe320726	-0.1738554
61	0xbc93f0e7	-0.018059207
62	0xbe2854b0	-0.16438556
63	0x3df18fd5	0.11795012
64	0xbd285ebc	-0.04110597
65	0x3c9ea462	0.019365493
66	0x3d829ee3	0.063779615
67	0xbde61ded	-0.11236177
68	0x3ec15a5b	0.37764248
69	0x3d8c8ae2	0.06862427
70	0x3d144b64	0.03620471
71	0xbca2a92b	-0.019856056
72	0x3c484456	0.012223324
73	0x3da1396d	0.07872281
74	0x3cb54742	0.022128705
75	0x3d0555a1	0.032552365
76	0xbef7077b	-0.48247895
77	0x3c1cf9ca	0.009581039
78	0x3eb69654	0.35661566
79	0x3e41c006	0.18920907
80	0xbe8cce47	-0.27501127
81	0x3d551271	0.05201954
82	0xbebd8d16	-0.37021703
83	0xbc685e86	-0.014182692
84	0x3c19d9ea	0.009390334
85	0x3ce8c787	0.028415455
86	0x3e055196	0.13019404
87	0xbc8d7a29	-0.017270165
88	0xbd743d4c	-0.05962877
89	0xbcd77f72	-0.026305888
90	0x3d8dd645	0.06925634
91	0xbd52f157	-0.05149969
92	0x3e08d1c0	0.13361263
93	0xbddcfd63	-0.10790517
94	0xbe2c1255	-0.16803868
95	0xbd348e98	-0.0440813
96	0x3e83e665	0.25761715
97	0xbe8f5ae0	-0.2799902
98	0xbdb8e2ee	-0.090276584
99	0x3e35fb55	0.17771657
100	0x3c6eab84	0.01456726
101	0xbbcb3de4	-0.0062024463
102	0xbd1f51d1	-0.038896386
103	0x3af82e8b	0.0018934769
104	0xbcba357d	-0.022730583
105	0xbd090862	-0.03345526
106	0x3d3290d9	0.04359517
107	0xbec56350	-0.38552332
108	0xbc861c46	-0.016370904
109	0xbdb90478	-0.090340555
110	0x3d9c069c	0.07618448
111	0x3e611cc6	0.21983632
112	0xbc3d919d	-0.011570361
113	0x3e5e6d1d	0.21721311
114	0x3d29c33c	0.041445956
115	0xbd91f3f0	-0.071266055
116	0x3d1768d6	0.036965214
117	0x3c7e9980	0.015539527
118	0xbab030be	-0.0013442261
119	0x3c73e71f	0.0148866465
120	0x3d097e1e	0.03356754
121	0xbcfed237	-0.031106098
122	0xbe8ac330	-0.2710204
123	0xbe8199cb	-0.25312647
124	0xbd8f5b27	-0.06999808
125	0x3d28945e	0.04115712
126	0xbf08e6f9	-0.53477436
127	0x3e2b8782	0.16750911
128	0x3ecf63b0	0.40505743
129	0x3d1c2085	0.03811695
130	0xbe0bd296	-0.13654551
131	0x3dbf1e7a	0.09331985
132	0x3d08f1a6	0.03343358
133	0xbe38d23d	-0.1804895
134	0xbd7fc3cf	-0.062442597
135	0xbcd15c2b	-0.025556644
136	0x3cf8be2b	0.030364117
137	0x3dd88d86	0.105738685
138	0xbe837024	-0.25671494
139	0x3e65489a	0.22390977
140	0x3d1fabfa	0.03898237
141	0x3dedae63	0.11605527
142	0xbdb5c9ed	-0.08876405
143	0xbeb2be21	-0.34910682
144	0x3dd4a53c	0.103830785
145	0xbe5fdd18	-0.21861684
146	0x3e12c1d6	0.14331755
147	0xbe4efd37	-0.20213781
148	0xbdf702de	-0.12061094
149	0x3d0702b7	0.032961573
150	0xbdcec3d3	-0.10095944
151	0xbd7cf274	-0.06175466
152	0x3dceb0fe	0.10092352
153	0xbd9a70ee	-0.07541071
154	0x3b0577b3	0.0020365536
155	0x3dad89d3	0.084735535
156	0xbe2f1471	-0.17097642
157	0xbe9b3465	-0.3031341
158	0xbcfe1693	-0.031016624
159	0x3f08da61	0.5345822
160	0x3e35fafe	0.17771527
161	0x3dd7e910	0.105425
162	0xbce7db5b	-0.028302839
163	0x3d474077	0.048645463
164	0x3db30708	0.087415755
165	0x3d5e00ea	0.05420009
166	0xbc9baf3f	-0.019004462
167	0xba51cd4e	-0.000800331
168	0x3e0507c7	0.12991248
169	0x3e97d04f	0.29651114
170	0x3d9cea47	0.07661872
171	0x3bdc97ea	0.0067319768
172	0xbed4e4fb	-0.41580948
173	0xbdb599ad	-0.08867202
174	0xbc69a84c	-0.0142613165
175	0x3df38ceb	0.11892112
176	0x3df85589	0.121256895
177	0x3ecf4534	0.40482485
178	0xbdb2ae74	-0.087246805
179	0x3dae7437	0.0851826
180	0xbe8835b7	-0.2660348
181	0xbd5a89e7	-0.05335417
182	0x3d83d640	0.06437349
183	0xbd790c33	-0.06080265
184	0xbd211215	-0.039323885
185	0xbe800d94	-0.2501036
186	0x3e7520b0	0.2393825
187	0x3e88b341	0.2669926
188	0x3cedfe9a	0.029052068
189	0x3df57419	0.119850345
190	0x3c37c8a6	0.011217272
191	0xbd201704	-0.03908445
192	0xbe6f7a25	-0.23386438
193	0xbd3ad171	-0.045609895
194	0xbdd5c8e4	-0.104387075
195	0x3d28285c	0.041054115
196	0xbdd25887	-0.102707915
197	0xbdbb69a8	-0.09151012
198	0xbdaf7f11	-0.08569158
199	0x3dc09eb8	0.09405273
200	0xbde227fd	-0.110427834
201	0xbdf7485a	-0.12074347
202	0x3d3982d4	0.045290783
203	0x3e3a29e4	0.18180043
204	0x3c1e0213	0.009644049
205	0x3da56a96	0.0807697
206	0xbe87ddff	-0.26536557
207	0xbe241923	-0.16025214
208	0xbe955ef5	-0.2917401
209	0xbe18e52e	-0.14931175
210	0xbe70f525	-0.23531015
211	0xbcd00bb2	-0.025396202
212	0x3d5fb709	0.054617915
213	0xbc91b416	-0.017786067
214	0x3ddb61f0	0.107120395
215	0x3ec063bc	0.3757609
216	0x3ce1cf81	0.027564766
217	0x3d19ae7a	0.03751991
218	0xbdfe4515	-0.1241552
219	0xbedbde5d	-0.42943087
220	0x3db1bf5a	0.086790755
221	0x3d4d66ac	0.050146744
222	0x3d410a7b	0.047129136
223	0xbea98749	-0.33111027
224	0xbd1efdfc	-0.038816437
225	0x3ca75cf2	0.020430062
226	0xbd999875	-0.07499782
227	0x3d96473a	0.07337804
228	0x3d860a92	0.06544985
229	0xbd54a560	-0.051915526
230	0x3c1ff46c	0.009762865
231	0xbd754489	-0.059879813
232	0xbe45f265	-0.19330747
233	0xbdbe348f	-0.092873685
234	0xbe2ea7af	-0.17056154
235	0xbe373597	-0.17891537
236	0x3c3db5c8	0.011578985
237	0x3edd58b2	0.43231732
238	0x3cce64e1	0.025194587
239	0xbe39b017	-0.18133579
240	0xbcfa6dc5	-0.03056992
241	0x3e1adb4b	0.15122716
242	0x3e725c8d	0.23668118
243	0xbd6273c3	-0.05528618
244	0x3c3c0784	0.011476401
245	0xbdf8ddd8	-0.12151688
246	0xbe524ea4	-0.20537812
247	0xbe922edd	-0.2855138
248	0xbde5db39	-0.11223454
249	0xbdc6ee8d	-0.09713469
250	0x3e1c5ff1	0.15270974
251	0x3e42e9a4	0.1903444
252	0x3e32f806	0.17477426
253	0x3d643f38	0.055724353
254	0x3e51c07c	0.20483583
255	0x3ca69ae3	0.020337528

critic.0.bias f4 [40]
0	0x3e234888	0.15945637
1	0xbe411048	-0.18853867
2	0xbbbe0222	-0.005798594
3	0xbe58954a	-0.211507
4	0xbd178fc4	-0.03700234
5	0xbe8125c0	-0.25224113
6	0x3e046ede	0.12932917
7	0xbe061fb3	-0.1309803
8	0xbe5e2084	-0.21692091
9	0x3e931b3b	0.28731713
10	0xbe876bd0	-0.26449442
11	0x3e0b44f9	0.1360053
12	0x3d128ce0	0.03577888
13	0x3ef33f58	0.47509265
14	0x3e0bb29c	0.13642353
15	0xbd9668bf	-0.073441975
16	0xbe9c38e5	-0.30512157
17	0xbcda19d6	-0.026623648
18	0x3e799e82	0.24376872
19	0xbd18f9fe	-0.037347786
20	0x3d3e3a3b	0.04644225
21	0x3e9a6896	0.30157918
22	0xbe3bf18c	-0.18353862
23	0x3e2f7ee6	0.17138252
24	0xbe35c6ac	-0.17751569
25	0x3e6fb5df	0.23409222
26	0xbe21e93e	-0.15811631
27	0x3b9b452c	0.0047384705
28	0xbc8c5c22	-0.017133776
29	0xbe8e087f	-0.27740857
30	0xbe84e089	-0.25952557
31	0x3edafdc2	0.42771727
32	0x39e81c66	0.00044271647
33	0x3e37ac8c	0.17936915
34	0x3dc05835	0.09391824
35	0xbe6dc883	-0.2322102
36	0x3ea25435	0.3170487
37	0x3e70e5d3	0.23525171
38	0x3d40c6ed	0.04706471
39	0xbe64cf72	-0.22344759

critic.2.weight f4 [64, 40]
0	0xbdd90b6f	-0.10597884
1	0x3d1b6ba4	0.03794445
2	0xbd16dcb7	-0.036831584
3	0x3db94e89	0.090481825
4	0xbe35297d	-0.17691608
5	0xbde6f9c3	-0.11278107
6	0xbe1e6181	-0.15466882
7	0xbe5948c9	-0.21219172
8	0x3c5e9145	0.01358444
9	0x3db88539	0.09009785
10	0xbd91f669	-0.07127077
11	0xbd4940c3	-0.049134027
12	0xbd1ac3b6	-0.0377843
13	0x3e6857b8	0.22689712
14	0x3e927770	0.2860675
15	0xbe3d651d	-0.18495603
16	0xbde045e6	-0.10950832
17	0x3e788e74	0.24273092
18	0xbe357709	-0.1772119
19	0xbd558f24	-0.052138463
20	0x3b4f805a	0.0031662197
21	0x3db7b473	0.08969965
22	0x3d3e4b1a	0.04645834
23	0xbe26856e	-0.16261837
24	0xbd5d2f81	-0.05400038
25	0x3ccce07f	0.025009392
26	0x3e38764b	0.18013875
27	0xbeab0eaa	-0.33409625
28	0x3d99315c	0.07480118
29	0xbd21d0a1	-0.039505605
30	0x3e15d908	0.14633572
31	0xbd9f0e22	-0.077663675
32	0x3e077287	0.13227282
33	0x3ddd5045	0.10806326
34	0x3cdf4cf7	0.02725838
35	0x3c29b3dc	0.010357823
36	0xbe7eb88f	-0.24875091
37	0x3d17d8a2	0.03707183
38	0xbd621fe3	-0.05520619
39	0x3dcf3be1	0.10118843
40	0xbe71f069	-0.23626865
41	0xbea7dd09	-0.32785824
42	0xbe77d1f3	-0.24201183
43	0xbd803ef5	-0.06262008
44	0xbd2859d8	-0.041101307
45	0xbe496ab2	-0.19669607
46	0xbc92148b	-0.017832061
47	0x3c002f7b	0.00782382
48	0x3dfc445b	0.12317725
49	0x3dc148af	0.094376914
50	0xbd512c4e	-0.051067643
51	0xbde17896	-0.11009328
52	0xbce45f9d	-0.027877623
53	0xbd16f4d4	-0.03685458
54	0x3b896afe	0.0041936627
55	0xbe0f371a	-0.13985863
56	0xbe44b280	-0.19208717
57	0xbc0dbdde	-0.008651225
58	0xbdea04da	-0.114267066
59	0x3decbacb	0.115590654
60	0x3e209db0	0.15685153
61	0x3e5fa176	0.21838936
62	0xbe00dc6a	-0.12584081
63	0x3d18f5be	0.037343733
64	0x3ef508d3	0.47858295
65	0x3e27c921	0.16385318
66	0xbdcd6361	-0.10028721
67	0xbe129f1d	-0.1431851
68	0xbd2e2039	-0.0425112
69	0xbd171692	-0.03688676
70	0xbe586bfa	-0.2113494
71	0x3d30ad42	0.04313398
72	0xbe45a5ce	-0.1930153
73	0xbda96801	-0.0827179
74	0x3e6a1baf	0.22862123
75	0xbe6511da	-0.22370091
76	0xbeaa71f1	-0.33290055
77	0x3e8e64c5	0.27811256
78	0x3d839131	0.064241774
79	0x3e0fe83b	0.14053433
80	0xbe334309	-0.1750604
81	0x3e27c153	0.16382341
82	0xbe9278a4	-0.28607666
83	0x3c793741	0.015210927
84	0x3e3e1b58	0.18565118
85	0x3e32d281	0.17463113
86	0x3e3e33b3	0.18574409
87	0xbe4f3ae6	-0.20237312
88	0x3e183010	0.14862084
89	0xbdccd1fb	-0.10000988
90	0xbdd17a21	-0.10228372
91	0xbec733e3	-0.38906774
92	0x3e09bba6	0.13450488
93	0xbd1458bb	-0.036217432
94	0xbdf88650	-0.12134993
95	0xbc2087f1	-0.009798036
96	0xbd75c72a	-0.06000439
97	0xbf01951f	-0.50618166
98	0xbdba1fce	-0.090880975
99	0xbe8b9d17	-0.27268288
100	0xbbfff9aa	-0.0078117447
101	0x3de880b0	0.1135267
102	0xbead451e	-0.33841795
103	0xbd02b00d	-0.031906176
104	0x3d3c5400	0.045978546
105	0x3e01b7b7	0.12667738
106	0xbce260c0	-0.027634025
107	0x3e27ff04	0.16405874
108	0xbdcab9f1	-0.09898747
109	0xbd5ea657	-0.054357853
110	0xbe23f3e5	-0.16011007
111	0x3e40e084	0.18835646
112	0x3abffdfb	0.0014647836
113	0xbe2dd191	-0.16974474
114	0xbde5b186	-0.112155005
115	0xbd2ceaa8	-0.042215973
116	0xbe9ec844	-0.31012166
117	0x3e41bd36	0.18919834
118	0xbd592435	-0.053013045
119	0x3bc14870	0.005898528
120	0xbe0c7230	-0.13715434
121	0x3e37eb2d	0.17960806
122	0x3e1029dd	0.1407847
123	0x3e5562f5	0.2083853
124	0xbdae0d43	-0.08498623
125	0x3e0e909b	0.1392235
126	0x3d2888bf	0.041146036
127	0x3e73d76e	0.23812649
128	0x3e88e8ea	0.267402
129	0xbe0d76e4	-0.13814884
130	0x3def27d4	0.116775185
131	0xbdeef134	-0.116670996
132	0xbc47b30c	-0.012188684
133	0xbea0c889	-0.31402996
134	0xbc3327ec	-0.010934811
135	0x3decfce7	0.11571675
136	0x3e5a23a8	0.21302664
137	0x3be92072	0.0071144635
138	0xbe133779	-0.1437663
139	0x3e1c1312	0.1524165
140	0xbd6102e7	-0.05493441
141	0xbe808e05	-0.25108352
142	0x3e3466c6	0.1761733
143	0xbc5f7e58	-0.013640963
144	0x3de96d0b	0.113977514
145	0xbe39898a	-0.18118873
146	0x3c3783a3	0.011200818
147	0xbdb04feb	-0.08608993
148	0x3e361282	0.17780498
149	0x3e0bd4f9	0.13655461
150	0xbc65114d	-0.013981176
151	0xbea7a21f	-0.32740876
152	0xbe091065	-0.1338516
153	0xbdcc98f1	-0.09990109
154	0xbe89ba42	-0.26899916
155	0x3ea2920c	0.3175205
156	0x3d8c3d1b	0.068475924
157	0xbeb01e45	-0.34398094
158	0xbdfcb223	-0.123386644
159	0x3bda52c5	0.006662699
160	0xbe1d4bdb	-0.15360968
161	0xbe88b13b	-0.26697716
162	0xbd980a43	-0.07423832
163	0xbe8aca20	-0.27107334
164	0xbd5af704	-0.05345823
165	0x3dcb7369	0.09934122
166	0xbb5ff150	-0.0034170933
167	0xbd36eff8	-0.044662446
168	0x3d60fd9b	0.054929357
169	0xbed0046a	-0.40628368
170	0xbe8daa53	-0.2766901
171	0xbeac9fec	-0.3371576
172	0xbde78a86	-0.11305718
173	0xbc8c06e2	-0.017093126
174	0xbd7440d4	-0.059632137
175	0xbde946f6	-0.11390488
176	0xbe14ff98	-0.14550626
177	0x3c071f78	0.008247249
178	0xbd9c0f77	-0.07620137
179	0x3cbd3f6f	0.023101537
180	0xbe024949	-0.12723269
181	0x3e15bf2c	0.14623708
182	0xbe9195b8	-0.2843454
183	0x3dc27e43	0.09496739
184	0x3e4c33cc	0.19941634
185	0xbd8c08d2	-0.0683762
186	0xbc8177c1	-0.015804173
187	0xbb8f3e7f	-0.004371464
188	0xbe46d456	-0.19416937
189	0xbc9b5f2c	-0.01896628
190	0xbde79604	-0.1130791
191	0x3cc6403c	0.024200551
192	0xbe016001	-0.12634279
193	0xbd54124f	-0.051775273
194	0x3c0fc614	0.008775253
195	0xbdf4f116	-0.11960046
196	0xbe13664f	-0.14394496
197	0x3deb6dec	0.11495575
198	0xbdddd5d7	-0.10831802
199	0x3e018615	0.12648804
200	0x3d97035b	0.07373687
201	0xbdf71ddf	-0.12066244
202	0xbe646126	-0.22302684
203	0x3e4c3a9b	0.19944231
204	0x3d9509ce	0.07277261
205	0x3e406004	0.18786627
206	0xbde5aee8	-0.11215001
207	0x3e7f007a	0.24902526
208	0xbcc4df3b	-0.024032226
209	0xbdb77011	-0.08956922
210	0x3d4bbbdc	0.049739704
211	0x3df6deff	0.12054252
212	0xbd373508	-0.04472831
213	0xbe6f34e4	-0.2336002
214	0x3e413df4	0.1887129
215	0xbe14b895	-0.14523537
216	0x3e8af4c9	0.2713988
217	0x3c909eb9	0.01765381
218	0xbe228c3c	-0.15873808
219	0x3d947190	0.07248223
220	0xbe293f4f	-0.16528057
221	0xbe25e3ad	-0.16200133
222	0x3e02a2aa	0.12757364
223	0xbd33a3a3	-0.043857228
224	0xbcc4e57c	-0.024035208
225	0xbdcaa1ae	-0.09894119
226	0x3e565d7d	0.209341
227	0xbdba16b2	-0.0908636
228	0x3e62247c	0.2208423
229	0x3de5deb2	0.112241164
230	0xbe34e915	-0.17667039
231	0xbe5592e5	-0.20856817
232	0x3d91e3a7	0.07123499
233	0xbd9c1d52	-0.0762278
234	0xbdf019cf	-0.117236726
235	0x3e079d9a	0.13243714
236	0x3daa3ece	0.0831276
237	0xbd694d4e	-0.05695849
238	0xbe889814	-0.26678526
239	0x3da84d7c	0.08217904
240	0xbe5e7bb9	-0.21726884
241	0x3d455fd1	0.04818708
242	0xbe13de86	-0.14440355
243	0x3cba55fb	0.022746077
244	0xbd9ec0e7	-0.07751637
245	0x3c51113c	0.012760457
246	0x3d8edd36	0.069757864
247	0xbd193c59	-0.037411068
248	0xbdd34c9f	-0.10317349
249	0xbdcc155d	-0.09965012
250	0xbd2e76cc	-0.042593762
251	0xbde3f484	-0.11130622
252	0x3d72f0c8	0.05931166
253	0x3e6907d7	0.22756897
254	0xbc20a0bc	-0.009803947
255	0x3e2e4fe8	0.1702267

critic.2.bias f4 [64]
0	0xbcc36eea	-0.023856599
1	0x3cae6af0	0.021291226
2	0xbd57ffd8	-0.052734226
3	0xbe52e5ee	-0.20595524
4	0xbd1cfed3	-0.038328957
5	0xbeb48510	-0.3525777
6	0x3e0f4dea	0.13994566
7	0x3e112a4f	0.14176296
8	0x3e8bb860	0.27289104
9	0xbe193840	-0.14962864
10	0xbd89db25	-0.067312516
11	0x3dfcb247	0.12338691
12	0xbea9a22e	-0.33131546
13	0xbe1a3284	-0.15058333
14	0xbd9f9642	-0.07792331
15	0xbda76592	-0.0817367
16	0x3d5d4dca	0.054029264
17	0x3e8f9dc8	0.28050065
18	0xbdd45cd4	-0.10369268
19	0x3e763efc	0.24047464
20	0xbe7b6f74	-0.24554235
21	0xbd8e5c22	-0.06951167
22	0x394ba13c	0.00019419653
23	0x3e70363b	0.23458187
24	0x3e4c177f	0.19930838
25	0x3e8ac8e4	0.27106392
26	0xbe8db344	-0.2767583
27	0xbb789b33	-0.0037934303
28	0x3e51125b	0.20417158
29	0x3e22b9ba	0.15891162
30	0xbe3dd4f0	-0.1853826
31	0x3d9f5820	0.077804804
32	0x3d03628c	0.032076403
33	0x3df1fd1a	0.118158534
34	0xbe610c24	-0.21977288
35	0xbe3d584b	-0.18490712
36	0xbe90da8b	-0.28291735
37	0x3e63feef	0.22265218
38	0x3e208b64	0.15678173
39	0xbdfe2476	-0.12409298
40	0xbe7f1a46	-0.24912366
41	0x3d9b0496	0.07569234
42	0x3deee954	0.116655976
43	0x3e4fe9c6	0.20304021
44	0xbd9ca453	-0.0764853
45	0xbe4a6bfc	-0.19767755
46	0x3e2c7ebc	0.1684522
47	0x3e6fa4d2	0.23402718
48	0xbcf7b850	-0.030239254
49	0x3e4cf0c3	0.20013718
50	0xbe030291	-0.12793948
51	0xbda53f99	-0.08068771
52	0x3dd8a497	0.10578268
53	0xbe7915a4	-0.24324661
54	0xbd92c430	-0.07166326
55	0x3d4818d5	0.048851807
56	0x3c5885fa	0.013215536
57	0x3b0ee33e	0.0021802927
58	0xbe95b114	-0.29236662
59	0x3d88e347	0.06683975
60	0xbd960797	-0.073256664
61	0x3d969f30	0.07354581
62	0xbd1ca8a2	-0.03824676
63	0xbe7182d5	-0.23585065
