Weight/asd/PPO_continuous.pth (torch_old, 53153 bytes, 17 tensors)

actor.0.weight f4 [40, 31]
0.0059816567 -0.09728068 -0.19948359 0.21715173 -0.0032795551 0.0628065 -0.04428347 0.094983526
-0.018614404 0.6384594 0.1546778 -0.010503794 -0.08841002 -0.13488328 0.05945085 -0.02326988
-0.29910457 -0.1768571 0.25074315 0.09230951 0.16729315 0.4301175 0.27595553 -0.29348683
0.36065897 0.6671358 -0.044744596 -0.04195102 -0.00025003086 0.13793494 -0.043033 0.12197315
-0.13001192 -0.22482347 0.18512528 -0.034408305 -0.11604086 -0.10092341 0.5186976 -0.41603008
-0.5487119 -0.38688102 -0.39098763 0.16994755 0.037998527 -0.03457364 0.13478534 -0.1149622
-0.17090404 0.13169715 0.018180145 -0.18066089 0.3539204 0.44011265 0.0021046933 -0.0394685
-0.21374768 -0.037173573 -0.030675082 -0.022589723 -0.03394456 0.052091163 0.11924036 0.25830132
-0.027719606 0.09775814 0.22943763 -0.49447197 0.08495279 0.22675051 0.38020003 -0.14587899
0.4464445 0.1781929 -0.48482203 0.20516802 0.07094651 0.05682169 -0.2717064 0.113673046
-0.02217728 0.08268237 -0.16776088 0.095693745 -0.20085931 -0.36106205 -0.5498028 0.22816345
0.072032854 -0.07986552 0.077883236 -0.018971542 0.16800313 0.021584725 0.36307693 -0.09913662
0.19588554 -0.22602654 -0.071740694 0.23776567 0.3149481 -0.3546228 -0.08835144 -0.2792155
0.0906425 -0.1394604 -0.3107591 -0.09381005 0.18726218 -0.1892669 -0.005758246 -0.0053974865
-0.31786856 -0.0079722125 -0.013058074 0.14803423 -0.23019198 -0.09233474 -0.122309424 0.2995724
0.07745854 0.10554153 0.021145739 0.048195824 -0.36737415 -0.20626402 0.07699344 0.20872703
-0.19409424 0.42843503 -0.05268736 0.2767628 -0.1674394 -0.36695468 -0.19789416 -0.3005762
-0.3255947 -0.08603038 0.0126060685 0.40264973 -0.14488348 0.06066557 -0.13574754 -0.030557746
0.10500696 0.38189077 0.4560981 -0.39015877 0.24901284 0.51799226 0.25359058 -0.09184615
0.1234931 0.15709406 0.063629955 0.1186827 -0.09593912 -0.123127714 0.24016762 -0.04960128
0.21325557 0.13797292 -0.18600623 0.6208787 0.048672277 -0.097884625 0.31917483 -0.41645607
0.056618538 -0.17480682 0.12944148 -0.11497811 0.15172115 -0.10875183 -0.021334272 0.07068818
-0.5989616 -0.01085385 0.30895784 -0.13146192 -0.56864095 -0.06959934 -0.029191814 0.08085301
0.24425788 0.33096543 -0.108989164 0.1483826 0.0061870767 0.2139742 0.13574614 0.34768313
0.17674594 -0.18964516 -0.120172136 0.34828103 -0.05498815 -0.042981934 -0.16565993 -0.28644505
0.046971675 0.053994913 -0.1529168 0.10222675 -0.05256758 0.0933881 0.003192388 0.25714463
-0.16487145 -0.8851934 0.22848818 0.3696208 -0.10689765 0.4095228 0.1714233 0.10475898
0.22582455 0.008711893 -0.26989138 -0.2899262 0.17681189 0.13715225 -0.0892661 -0.14097682
0.12559302 -0.2851689 0.19767518 -0.048929278 0.15153354 0.3476401 0.026992029 0.10690047
0.02817116 -0.068327725 -0.11259021 -0.045487847 -0.22132082 0.14738484 0.25174424 0.17919533
-0.5305875 0.29248095 0.22927672 0.47580922 0.23529556 0.11477652 0.09719546 0.18512914
-0.18791911 -0.11632328 -0.05042282 -0.0015339112 0.18955377 -0.3113693 -0.11601365 -0.15517719
00000000: c601 c43b 183b c7bd 6d45 4cbe 065d 5e3e
00000010: ceed 56bb b2a0 803d 9562 35bd b986 c23d
00000020: 3c7d 98bc 1372 233f db63 1e3e 1b18 2cbc
00000030: 5010 b5bd d81e 0abe bc82 733d 7aa0 bebc
00000040: 3c24 99be 071a 35be 6861 803e c50c bd3d
00000050: e54e 2b3e 5c38 dc3e 0b4a 8d3e e843 96be
00000060: 4ba8 b83e 69c9 2a3f 1c46 37bd d5d4 2bbd
00000070: 9316 83b9 d13e 0d3e 5f43 30bd 0fcd f93d
00000080: d821 05be 2038 66be 7b91 3d3e b9ef 0cbd
00000090: d5a6 edbd efb0 cebd 5ec9 043f e501 d5be
000000a0: 6278 0cbf 4515 c6be 882f c8be bb06 2e3e
000000b0: 58a4 1b3d 179d 0dbd 2b05 0a3e 4d71 ebbd
000000c0: 7801 2fbe 9edb 063e 87ee 943c 2bff 38be
000000d0: 0e35 b53e 7256 e13e e5ee 093b b9a9 21bd
000000e0: ace0 5abe 5143 18bd 4f4a fbbc 150e b9bc
000000f0: 7309 0bbd 8b5d 553d 4a34 f43d 1240 843e
00000100: 3a14 e3bc 6b35 c83d b3f1 6a3e 6e2b fdbe
00000110: bafb ad3d 4931 683e 94a9 c23e 4d61 15be
00000120: 6094 e43e 3378 363e 983a f8be 9117 523e
00000130: 674c 913d dcbd 683d 1a1d 8bbe 6acd e83d
00000140: 21ad b5bc 6055 a93d 82c9 2bbe 15fb c33d
00000150: 10ae 4dbe 20dd b8be e0bf 0cbf aea3 693e
00000160: f685 933d 8990 a3bd 3f81 9f3d 356a 9bbc
00000170: 0309 2c3e 73d2 b03c 38e5 b93e 2408 cbbd
00000180: 3896 483e 8073 67be c9ec 92bd d878 733e
00000190: e140 a13e 1f91 b5be 9af1 b4bd 56f5 8ebe
000001a0: c6a2 b93d b5ce 0ebe d11b 9fbe 7c1f c0bd
000001b0: a8c1 3f3e 2fcf 41be abaf bcbb 66dd b0bb
000001c0: abbf a2be e29d 02bc 88f1 55bc 4996 173e
000001d0: 72b7 6bbe ff19 bdbd 5d7d fabd 8e61 993e
000001e0: 95a2 9e3d 2826 d83d d439 ad3c fc68 453d
000001f0: 7718 bcbe e036 53be bdae 9d3d 8abc 553e
00000200: a4c0 46be d65b db3e b4ce 57bd dbb3 8d3e
00000210: 3c75 2bbe 7ce1 bbbe c4a4 4abe 20e5 99be
00000220: 59b4 a6be b230 b0bd af89 4e3c 1b28 ce3e
00000230: 565c 14be 767c 783d 6701 0bbe 3d54 fabc
00000240: e40d d73d 3087 c33e b185 e93e e4c2 c7be
00000250: 39fd 7e3e 249b 043f a0d6 813e d619 bcbd
00000260: f3e9 fc3d 44dd 203e 6c50 823d ea0f f33d
00000270: bb7b c4bd 622a fcbd 80ee 753e b62a 4bbd
00000280: ab5f 5a3e c648 0d3e 6b78 3ebe e8f1 1e3f
00000290: 955c 473d bc77 c8bd e26a a33e bb39 d5be
000002a0: d7e8 673d 8f00 33be 4f8c 043e a579 ebbd
000002b0: ca5c 1b3e 48b9 debd 36c5 aebc f7c4 903d
000002c0: 8c55 19bf 59d4 31bc b92f 9e3e f49d 06be
000002d0: 7492 11bf 198a 8ebd ac23 efbc 4396 a53d
000002e0: bd1e 7a3e 4d74 a93e b635 dfbd 9cf1 173e
000002f0: f6bc ca3b 0d1c 5b3e 0901 0b3e 8603 b23e
00000300: e3fc 343e 5732 42be cf1c f6bd e451 b23e
00000310: 413b 61bd d30d 30bd c2a2 29be eda8 92be
00000320: 5f65 403d c529 5d3d 3996 1cbe 425c d13d
00000330: 1a51 57bd 4342 bf3d 6237 513b 76a8 833e
00000340: 10d4 28be 099c 62bf cef8 693e f03e bd3e
00000350: 28ed dabd f9ac d13e 9789 2f3e e08b d63d
00000360: 8d3e 673e 54bc 0e3c 342f 8abe 3571 94be
00000370: 2d0e 353e a471 0c3e 25d1 b6bd 3a5c 10be
00000380: 759b 003e a801 92be 5d6b 4a3e 116a 48bd
00000390: 9c2b 1b3e e2fd b13e 631e dd3c a2ee da3d
000003a0: 34c7 e63c 68ef 8bbd b295 e6bd 7751 3abd
000003b0: eda1 62be 0dec 163e 9fe4 803e fb7e 373e
000003c0: 95d4 07bf 10c0 953e 84c7 6a3e 449d f33e
000003d0: 52f1 703e f40f eb3d 6a0e c73d 7e92 3d3e
000003e0: de6d 40be e63a eebd 2988 4ebd 850d c9ba
000003f0: 621a 423e cc6b 9fbe 9198 edbd c5e6 1ebe

actor.0.bias f4 [40]
0.15237482 -0.039072793 -0.12651815 0.16401573 0.17252623 0.07967866 0.22139458 0.14575006
0.12922381 -0.1301637 0.044992287 0.23266916 0.16582528 -0.19790708 0.16735803 0.0050342316
-0.009328377 -0.06960251 0.27116406 0.11357756 -0.2386089 -0.07459673 0.11429238 0.19786115
-0.0032912423 -0.014134078 0.08996637 0.2547222 -0.10189545 0.14993833 -0.011770676 0.19403052
-0.09004721 -0.17486246 0.033360645 -0.057821345 0.11469188 0.16487844 0.015014994 -0.11171557
00000000: 2508 1c3e cb0a 20bd f98d 01be bdf3 273e
00000010: b7aa 303e 912e a33d 43b5 623e 813f 153e
00000020: 3f53 043e a249 05be d549 383d d340 6e3e
00000030: 1ace 293e 27a8 4abe e75f 2b3e 32f6 a43b
00000040: 0dd6 18bc c38b 8ebd 04d6 8a3e 5a9b e83d
00000050: e455 74be 2cc6 98bd 2012 ea3d 1d9c 4a3e
00000060: e2b1 57bb 9f92 67bc 4a40 b83d f36a 823e
00000070: 90ae d0bd 6f89 193e cbd9 40bc f0af 463e
00000080: ac6a b8bd 250f 33be 2ca5 083d 13d6 6cbd
00000090: 94e3 ea3d e5d5 283e 7301 763c 22cb e4bd

actor.2.weight f4 [64, 40]
0.09881696 0.25171304 -0.38664022 0.30710652 -0.0123499865 -0.22972287 0.36687353 0.12813643
0.33456254 0.2697646 0.09183245 -0.13474968 0.16919811 -0.22471726 0.052598502 -0.1364257
-0.14860259 0.33526152 -0.062486377 0.2036001 -0.5196778 0.07300896 0.34070882 0.21433412
0.03938449 0.06370511 -0.6273238 0.07708488 0.17224425 0.0024887992 0.20309012 0.0015820453
0.09261656 0.32052597 -0.16355318 -0.19826888 0.029619176 0.22863935 -0.03724392 0.06941609
0.35909522 -0.16704734 -0.08585821 -0.12414939 -0.06382632 -0.2322566 0.12639503 -0.049576033
-0.23980212 -0.028585082 0.4256612 -0.20390473 0.04104599 0.12781844 0.017150965 -0.28963584
0.042813774 0.33310792 -0.43602282 -0.37767625 0.33249986 -0.08552386 -0.008748472 0.12842928
0.11085302 0.11073762 0.077057965 0.05465025 0.5021452 -0.25433263 -0.38394278 -0.45770615
-0.035974216 -0.1130231 -0.24084859 0.28178418 -0.042428974 -0.065675855 0.14267877 -0.085736856
0.2599423 -0.28635082 0.19671705 0.0050909244 -0.027694682 0.1785679 -0.105477005 0.14722277
0.27554917 0.42045388 0.10635993 -0.26390868 -0.005403563 0.10246061 0.057517655 0.2736436
0.3389916 0.2694214 -0.19367762 -0.09585033 0.26267865 -0.0619012 0.023620669 -0.0659396
0.17040043 -0.07643966 0.061497364 0.21053697 0.08091927 -0.100312166 0.34710652 0.03469043
0.26708606 -0.11953273 -0.112919696 -0.15761791 -0.0070808223 0.35884264 0.4028719 -0.24738663
0.16885497 -0.1721556 -0.16427955 -0.07221187 0.011345534 -0.13490056 0.11641769 0.22940294
0.3209185 0.13767727 0.039586354 0.008536505 -0.20634466 0.29798532 -0.32864943 -0.27208248
0.01822182 -0.16996346 -0.022112902 0.334421 -0.4160026 -0.13810878 0.2719366 -0.014400573
-0.09280667 -0.07680643 -0.4728435 0.11428165 -0.030780239 -0.08150126 0.21438968 0.30359718
-0.39240536 -0.008223086 0.3420098 -0.009369238 0.18672368 -0.4419855 -0.44241494 -0.03816502
0.02711725 -0.10048494 -0.077560686 -0.16109075 -0.29193074 -0.1694934 -0.0538374 0.026615398
-0.10071378 0.09932758 -0.07488958 -0.31288186 0.03689279 0.042770516 -0.26273724 -0.0920181
-0.21838221 0.10350768 -0.28314227 -0.06115567 -0.023520593 0.11002413 -0.07957115 -0.09403745
-0.19065176 0.03910246 -0.6453933 -0.24836244 0.051833916 -0.14078335 -0.11811565 0.07517906
0.16282533 -0.34399602 -0.025422191 -0.010378753 0.09148659 -0.12771346 -0.14421137 -0.09348327
0.18401554 -0.073064744 0.276435 0.03766333 -0.26593634 -0.6625103 0.014116429 0.24856557
-0.15010707 0.0373617 0.081614316 -0.09179495 0.24346639 0.0025631734 -0.010927823 0.18390682
0.18063474 0.26630124 -0.18514183 -0.20447189 0.15498386 0.19291566 -0.030537443 -0.2475065
0.1957545 0.286873 0.026736319 -0.5115463 0.036522202 -0.7115561 -0.004215507 0.022463568
0.14002177 -0.060455132 0.033020448 0.056478526 0.11251028 0.08920254 0.3034472 -0.076994434
-0.034441907 0.3224164 -0.12073618 -0.217103 0.25335267 -0.05948872 0.19468994 0.07815765
0.20449626 -0.43079025 0.32162 -0.1692034 -0.02488425 -0.005156892 -0.072267845 0.14295483
00000000: 8c60 ca3d 88e0 803e b5f5 c5be 113d 9d3e
00000010: 9957 4abc 793c 6bbe d9d6 bb3e 3236 033e
00000020: c84b ab3e 961e 8a3e a712 bc3d d2fb 09be
00000030: 4542 2d3e 481c 66be 8771 573d 2eb3 0bbe
00000040: 472b 18be 66a7 ab3e b7f1 7fbd 8b7c 503e
00000050: 9b09 05bf b985 953d 6371 ae3e 677a 5b3e
00000060: a251 213d d377 823d 4b98 20bf adde 9d3d
00000070: cc60 303e 1f1b 233b dbf6 4f3e a25c cf3a
00000080: c0ad bd3d fb1b a43e 7c7a 27be ff06 4bbe
00000090: eaa3 f23c 6f20 6a3e 158d 18bd 062a 8e3d
000000a0: 54db b73e 750e 2bbe 6ed6 afbd 0942 febd
000000b0: 60b7 82bd add4 6dbe b36d 013e 3d10 4bbd
000000c0: b08e 75be 432b eabc 44f0 d93e 67cc 50be
000000d0: d71f 283d d6e2 023e 2e80 8c3c 264b 94be
000000e0: 7f5d 2f3d 1f8d aa3e 623e dfbe c85e c1be
000000f0: 6c3d aa3e 2227 afbd c055 0fbc f782 033e
00000100: e806 e33d 68ca e23d 91d0 9d3d f1d8 5f3d
00000110: 968c 003f e337 82be 2694 c4be 7658 eabe
00000120: b359 13bd a878 e7bd 03a1 76be 0446 903e
00000130: 01ca 2dbd 1081 86bd 621a 123e ce96 afbd
00000140: 2817 853e 939c 92be 3270 493e c5d1 a63b
00000150: f5df e2bc 81da 363e 5404 d8bd 91c1 163e
00000160: c814 8d3e bb45 d73e 3cd3 d93d 0a1f 87be
00000170: 5f10 b1bb ded6 d13d a297 6b3d 041b 8c3e
00000180: 4f90 ad3e 9af1 893e 6d53 46be 2e4d c4bd
00000190: d17d 863e 1d8c 7dbd 2280 c13c 570b 87bd
000001a0: 737d 2e3e 658c 9cbd a9e4 7b3d 0197 573e
000001b0: 01b9 a53d 7770 cdbd f2b7 b13e 8d17 0e3d
000001c0: 81bf 883e 93cd f4bd 7142 e7bd 9766 21be
000001d0: 3e06 e8bb 39ba b73e 3a45 ce3e ec52 7dbe
000001e0: 51e8 2c3e 8f49 30be e638 28be d1e3 93bd
000001f0: 9ee2 393c 5f23 0abe 666c ee3d 9be8 6a3e
00000200: 6e4f a43e 45fb 0c3e 4d25 223d b2dc 0b3c
00000210: 044c 53be 8891 983e bd44 a8be 654e 8bbe
00000220: ed45 953c e70a 2ebe 1e26 b5bc 3b39 ab3e
00000230: 4bfe d4be 636c 0dbe 463b 8b3e 62f0 6bbc
00000240: 6c11 bebd b14c 9dbd 8b18 f2be 7f0c ea3d
00000250: d726 fcbc 22ea a6bd f888 5b3e 1771 9b3e
00000260: 5be9 c8be 1fba 06bc e91b af3e 6f81 19bc
00000270: 7e34 3f3e ec4b e2be 3684 e2be ed52 1cbd
00000280: ff24 de3c 0ccb cdbd 23d8 9ebd f9f4 24be
00000290: f277 95be ae8f 2dbe 9b84 5cbd 8908 da3c
000002a0: 0743 cebd 426c cb3d b55f 99bd 0d32 a0be
000002b0: e51c 173d 2330 2f3d 7f85 86be fc73 bcbd
000002c0: 969f 5fbe d6fb d33d 06f8 90be 5e7e 7abd
000002d0: 42ae c0bc 5554 e13d 33f6 a2bd b596 c0bd
000002e0: 373a 43be e729 203d 7f38 25bf b952 7ebe
000002f0: cd4f 543d 8329 10be 9ee6 f1bd 7bf7 993d
00000300: afbb 263e 3f20 b0be 3342 d0bc a50b 2abc
00000310: 525d bb3d 51c7 02be 25ac 13be 2874 bfbd
00000320: 926e 3c3e f8a2 95bd e388 8d3e dd44 1a3d
00000330: cf28 88be 469a 29bf 9848 673c f987 7e3e
00000340: abb5 19be 9508 193d 6825 a73d fefe bbbd
00000350: 414f 793e eafa 273b 9d0a 33bc 1252 3c3e
00000360: 50f8 383e a358 883e d295 3dbe 1461 51be
00000370: 17b4 1e3e af8b 453e a929 fabc 5872 7dbe
00000380: de73 483e 05e1 923e 2006 db3c b3f4 02bf
00000390: 4e98 153d 8a28 36bf 3c22 8abb 8405 b83c
000003a0: de61 0f3e cd9f 77bd 7340 073d 0756 673d
000003b0: ca6b e63d d2af b63d 6e5d 9b3e 42af 9dbd
000003c0: f512 0dbd c313 a53e 8844 f7bd 4050 5ebe
000003d0: 71b7 813e 72aa 73bd cd5c 473e 1e11 a03d
000003e0: 7867 513e 8a90 dcbe 60ab a43e a843 2dbe
000003f0: 0eda cbbc 25fb a8bb 2a01 94bd c062 123e

actor.2.bias f4 [64]
0.34295383 0.11550513 -0.027098373 0.14823134 -0.20108202 -0.08639049 0.02153185 -0.10442341
0.14886674 0.060088128 0.13901219 -0.047989756 -0.042264283 0.032823697 -0.07282869 -0.10332983
-0.21792272 -0.06875093 0.17398994 -0.08837955 0.1565677 0.112671755 0.0482492 0.119486906
0.123173214 0.057729017 0.019115243 0.085700355 0.06380025 -0.13419907 0.17646691 0.08518103
-0.017753191 0.20123969 0.002283528 0.07228133 0.12796916 0.13846752 -0.14900015 0.024324492
-0.06994846 0.18936953 0.035118707 -0.08619428 0.09499954 -0.16887237 -0.0024130999 0.19313262
0.16825365 0.09641139 -0.07251028 0.1285495 0.06225813 -0.014858176 0.091111995 0.15113766
0.12670024 -0.115476675 0.2551321 0.07301978 0.06809915 0.07555806 0.030819518 0.05089733
00000000: a597 af3e f48d ec3d 68fd ddbc f5c9 173e
00000010: 72e8 4dbe 7fed b0bd 9063 b03c f1db d5bd
00000020: 8670 183e f81e 763d 3659 0e3e e890 44bd
00000030: 501d 2dbd 2472 063d 3527 95bd 979e d3bd
00000040: 2227 5fbe 4acd 8cbd 6b2a 323e 5600 b5bd
00000050: 4853 203e 73c0 e63d f4a0 453d 8db5 f43d
00000060: 3d42 fc3d 4375 6c3d 9297 9c3c ab83 af3d
00000070: b5a9 823d 7b6b 09be beb3 343e 6473 ae3d
00000080: 246f 91bc c711 4e3e 3ea7 153b 3c08 943d
00000090: 590a 033e 6eca 0d3e 7f93 18be 2844 c73c
000000a0: 2341 8fbd 16ea 413e a2d8 0f3d a086 b0bd
000000b0: 1e8f c23d e1ec 2cbe 1925 1ebb 8fc4 453e
000000c0: af4a 2c3e 5673 c53d 4580 94bd 7ba2 033e
000000d0: 6202 7f3d b56f 73bc ed98 ba3d d5c3 1a3e
000000e0: b5bd 013e 097f ecbd ada0 823e 658b 953d
000000f0: 9177 8b3d 2fbe 9a3d 3779 fc3c b879 503d

actor.4.weight f4 [32, 64]
-0.076830454 0.19531654 0.3305187 -0.42075777 0.38338318 0.09848951 0.033235285 0.28652194
0.13064262 0.07405491 0.0718173 0.06434598 0.20455995 0.12004457 0.26216355 -0.01996719
-0.023761297 0.26488057 0.030167565 0.56575596 0.050407756 0.1382487 0.088714726 0.018865036
-0.0011079469 -0.24804604 -0.08591934 0.34627348 0.13137618 -0.12487739 -0.013832093 0.3727214
0.04037292 0.07695932 0.25420278 -0.09982535 -0.063123025 -0.33522075 0.40203506 0.21041264
-0.07449475 0.005717982 -0.09330158 0.22602151 -0.3145503 0.27139774 0.019139325 0.14890428
-0.32678524 -0.2707475 0.017067172 -0.13988335 0.13757548 0.3123738 -0.30426058 -0.009256138
0.042073987 0.10626804 -0.231259 0.32064307 0.09668795 -0.100178614 -0.21654607 -0.064430736
-0.06222991 -0.05699167 0.032896772 -0.014790906 0.023276499 -0.092788324 -0.083378404 -0.026048042
-0.05044704 -0.13114578 0.02675443 0.015147299 0.019538894 -0.032107543 0.02960555 -0.0847829
0.038263537 0.095288835 -0.120630495 -0.105451375 0.029619906 -0.08021279 0.013639376 0.018605936
-0.028518682 0.056316886 -0.12812562 -0.018227585 -0.112367995 -0.039747894 -0.03622463 -0.09063603
0.08678432 0.028153067 0.03355998 0.08471698 -0.010265876 0.0029259701 -0.0114008365 0.019539788
-0.06033349 -0.044400916 0.060213752 -0.042697467 -0.0737808 0.032794755 0.040461686 0.050390467
0.0062989895 -0.07318489 -0.101573415 -0.11755557 0.019721664 -0.09287715 -0.042769004 -0.045844205
-0.13685547 -0.03640343 -0.1424224 0.0056192097 -0.13130435 -0.018347122 -0.04118509 -0.0061027496
0.07718048 -0.11274539 -0.12478127 0.117402725 0.06503101 -0.14996342 -0.08573898 -0.096851386
-0.08931543 -0.12630512 0.039423387 -0.22141246 0.05115995 -0.09010307 0.07193393 0.06269884
-0.26558882 -0.014857244 -0.1990505 0.13986321 -0.16512813 0.039115693 0.021921655 -0.06515977
0.046735153 0.14430545 -0.0676304 0.12415046 0.033686098 -0.094466954 -0.20873556 -0.18946943
-0.010180979 -0.1037598 -0.17754915 -0.037146345 -0.053106308 -0.041041125 -0.06524134 -0.28805894
-0.031799454 -0.0959076 0.020748738 -0.12580231 0.058591437 -0.031860515 -0.17503195 -0.42826837
-0.028412934 0.0014717708 -0.14494944 -0.016651193 0.02436723 0.06330711 0.0702925 0.00010171348
-0.1101741 -0.1665626 0.09320201 -0.11490682 0.04457225 0.07365552 -0.060095474 0.06404323
0.044612933 0.013233016 -0.10756062 0.40062433 0.26247612 0.101518214 0.052250735 -0.09734833
0.2489443 -0.050552394 0.12694077 0.02884759 0.08977076 -0.13487709 0.0066209775 -0.08472473
0.37441722 -0.33442017 -0.10291855 -0.08513261 -0.25505742 -0.2718658 -0.16548756 0.1191871
-0.025182363 0.038610052 0.2252127 0.2837057 0.3331076 -0.27720833 0.19770974 -0.1634384
0.23887008 -0.0890052 -0.03463748 0.27823192 0.08530963 0.13279939 -0.08427772 -0.28765815
0.1299494 0.32852384 -0.03264254 0.12342087 0.3494804 -0.07262647 -0.017659882 0.26595253
0.50857663 0.21759431 -0.25420755 0.06353979 0.07875077 -0.22628137 -0.09795264 0.12137329
0.04094141 0.21010436 -0.15665632 -0.15067102 0.30018377 0.37887827 0.02117544 -0.113195926
00000000: 4959 9dbd 0f01 483e bf39 a93e 906d d7be
00000010: cd4a c43e deb4 c93d b921 083d 01b3 923e
00000020: 2ec7 053e 1aaa 973d f314 933d d3c7 833d
00000030: 2a78 513e edd9 f53d 4d3a 863e 3c92 a3bc
00000040: 0da7 c2bc 6d9e 873e f821 f73c 62d5 103f
00000050: 5d78 4e3d 1191 0d3e 11b0 b53d d98a 9a3c
00000060: 8738 91ba c8ff 7dbe 7bf6 afbd c24a b13e
00000070: 7a87 063e b8bf ffbd 01a0 62bc 57d5 be3e
00000080: 135e 253d d99c 9d3d de26 823e 3c71 ccbd
00000090: a546 81bd 0ea2 abbe 8ad7 cd3e 6976 573e
000000a0: b490 98bd e95d bb3b e614 bfbd 2f72 673e
000000b0: bd0c a1be a5f4 8a3e 13ca 9c3c 5d7a 183e
000000c0: 6550 a7be 6b9f 8abe 74d0 8b3c 953d 0fbe
000000d0: 96e0 0c3e 75ef 9f3e 0bc8 9bbe 0ea7 17bc
000000e0: c655 2c3d 0fa3 d93d 29cf 6cbe 542b a43e
000000f0: 5504 c63d 722a cdbd 41be 5dbe 43f4 83bd
00000100: cae4 7ebd 1970 69bd c4be 063d 8e55 72bc
00000110: 5bae be3c ce07 bebd 4cc2 aabd b462 d5bc
00000120: 8ea1 4ebd 144b 06be 1b2c db3c 602c 783c
00000130: 0810 a03c 3383 03bd 5787 f23c a8a2 adbd
00000140: 3aba 1c3d cb26 c33d 1f0d f7bd e4f6 d7bd
00000150: 72a5 f23c 9a46 a4bd b077 5f3c 7a6b 983c
00000160: 03a0 e9bc 89ac 663d 5d33 03be 0452 95bc
00000170: 3121 e6bd b0ce 22bd 4760 14bd 629f b9bd
00000180: fabb b13d 43a1 e63c 3176 093d 1980 ad3d
00000190: 3432 28bc a2c1 3f3b 93ca 3abc e811 a03c
000001a0: 4020 77bd bcdd 35bd b2a2 763d 8ae3 2ebd
000001b0: 631a 97bd cb53 063d 27bb 253d 3c66 4e3d
000001c0: c167 ce3b f6e1 95bd b905 d0bd fac0 f0bd
000001d0: 548f a13c 6036 bebd 8d2e 2fbd 22c7 3bbd
000001e0: d723 0cbe c31b 15bd 2dd7 11be 5921 b83b
000001f0: a674 06be b44c 96bc b2b1 28bd 93f9 c7bb
00000200: cd10 9e3d 0ee7 e6bd 538d ffbd d770 f03d
00000210: fa2e 853d 0390 19be eb97 afbd 055a c6bd
00000220: 02eb b6bd 2156 01be 6b7a 213d f3b9 62be
00000230: 198d 513d f587 b8bd 1952 933d 4068 803d
00000240: 42fb 87be cc6b 73bc e5d3 4bbe 4d38 0f3e
00000250: 5917 29be c737 203d 0b95 b33c 7c72 85bd
00000260: 5c6d 3f3d cfc4 133e cf81 8abd 9942 fe3d
00000270: 6ffa 093d e477 c1bd c6be 55be 4604 42be
00000280: 1fce 26bc 0580 d4bd 72cf 35be c426 18bd
00000290: 0086 59bd bd1a 28bd 409d 85bd 767c 93be
000002a0: 2540 02bd 346b c4bd 42f9 a93c 52d2 00be
000002b0: 93fd 6f3d 2c80 02bd 933b 33be fe45 dbbe
000002c0: 3ec2 e8bc 6fe8 c03a a06d 14be 1568 88bc
000002d0: c99d c73c 28a7 813d 84f5 8f3d 024f d538
000002e0: f5a2 e1bd 638f 2abe b2e0 be3d 4454 ebbd
000002f0: 6491 363d b5d8 963d ac26 76bd 1929 833d
00000300: 0dbc 363d 4bcf 583c be48 dcbd a21e cd3e
00000310: 4563 863e c8e8 cf3d de04 563d 905e c7bd
00000320: 41eb 7e3e 0710 4fbd c3fc 013e c851 ec3c
00000330: bbd9 b73d 381d 0abe c9f4 d83b 2984 adbd
00000340: 9db3 bf3e 1f39 abbe f6c6 d2bd 015a aebd
00000350: e396 82be fe31 8bbe 9275 29be 5e18 f43d
00000360: 3e4b cebc 9325 1e3d 289e 663e e041 913e
00000370: 148d aa3e 40ee 8dbe 6c74 4a3e 655c 27be
00000380: 5c9a 743e 5c48 b6bd 08e0 0dbd 6a74 8e3e
00000390: d1b6 ae3d 90fc 073e cc99 acbd ee47 93be
000003a0: 7511 053e 4734 a83e 2fb4 05bd 15c4 fc3d
000003b0: 18ef b23e 30bd 94bd 75ab 90bc ee2a 883e
000003c0: 1432 023f 0bd1 5e3e 7e27 82be 2621 823d
000003d0: 1548 a13d 4eb6 67be 659b c8bd 8f92 f83d
000003e0: 2eb2 273d 9925 573e 846a 20be 8149 1abe
000003f0: b0b1 993e 55fc c13e 1e78 ad3c 44d3 e7bd

actor.4.bias f4 [32]
-0.17121698 0.05854002 -0.13633388 0.19350156 0.10265977 0.050196923 0.21934919 0.033526063
-0.0010889571 -0.11980405 0.22316286 -0.16510607 0.09118653 -0.013789054 0.11406825 -0.15622722
0.120456755 0.22126955 -0.16377258 -0.077008836 0.058775887 0.072641335 0.03882793 0.2474912
-0.08021968 0.027646448 -0.15382768 -0.17460708 0.21574205 0.16265644 -0.12187445 0.002154984
00000000: 8153 2fbe a9c7 6f3d 1c9b 0bbe 4625 463e
00000010: 493f d23d 4a9b 4d3d 139d 603e a052 093d
00000020: 56bb 8eba d35b f5bd ce84 643e 9111 29be
00000030: 01c0 ba3d 7ceb 61bc 9d9c e93d 07fa 1fbe
00000040: 08b2 f63d 7c94 623e 00b4 27be cfb6 9dbd
00000050: fcbe 703d fbc4 943d 090a 1f3d 556e 7d3e
00000060: 374a a4bd ce7a e23c 0185 1dbe 33cc 32be
00000070: 7ceb 5c3e 698f 263e 5099 f9bd a23a 0d3b

actor.6.weight f4 [7, 32]
-0.048383884 -0.10141281 0.045868404 -0.28400472 0.0025278255 -0.5418569 -0.53045017 0.2726329
0.284898 -0.059586078 0.14779167 -0.07833426 0.29852355 -0.27257925 0.46050084 0.023586305
-0.20502727 -0.17617892 -0.06452315 -0.2770069 0.14960074 -0.18901789 0.5293099 0.14231844
0.10675329 0.1825583 0.26506516 -0.14040083 -0.021122817 0.07813418 -0.41531846 -0.011184213
-0.43686736 0.070250094 0.09856635 0.0370461 0.14735031 0.38590276 0.21102758 -0.19435479
0.30360258 0.14251146 0.12321984 0.23778512 0.061293226 -0.18346743 0.59313047 0.16326495
-0.2967114 0.16431993 0.0848729 -0.34976757 -0.15410109 0.4958456 0.056847636 0.11734459
-0.056538105 -0.29844522 0.30914062 0.111111216 0.63138014 0.07284734 0.027116979 0.17643826
0.09519185 0.0069354232 0.101467356 -0.036283925 0.3219489 -0.17081372 -0.02749581 0.065493345
0.15516074 0.0048913523 0.19680694 0.36001933 -0.11415 -0.28381282 0.49457043 0.04779077
0.04816937 -0.43012643 0.28662494 -0.09268493 0.55372113 0.08561336 0.012894832 -0.44861054
0.016328208 -0.12415228 -0.4592141 -0.023519825 -0.013574591 -0.5275349 -0.3624651 0.13909723
-0.3650991 -0.04133921 0.0059039793 0.21724597 -0.45494464 0.2604343 -0.07118011 -0.4669989
-0.21384886 -0.09554952 0.20988593 -0.24674836 0.03947217 0.044966243 -0.2857041 -0.08903554
-0.14720145 0.37240037 0.013498984 0.093753174 0.050279837 -0.46198377 0.31934643 0.4075853
0.1615871 -0.2277675 0.052498605 0.12886433 -0.2186899 0.4741853 0.35661182 -0.34829533
0.07170694 0.18734187 -0.0036023608 -0.08580408 -0.18086734 0.019977225 -0.22063252 0.40999544
-0.13661484 0.06666879 -0.09086681 0.24807908 0.51593864 0.39045992 -0.67406344 -0.12191722
0.2649781 -0.08950547 -0.28717554 0.75848055 0.04171773 -0.27772608 0.3424606 0.08533345
-0.06495069 -0.41759703 -0.25608987 -0.43160352 -0.30720943 0.42175835 0.1770209 -0.029290084
0.24263257 -0.11127587 0.28856578 -0.54270416 0.24043441 0.1803249 0.26562783 -0.02659283
-0.2611797 -0.10930704 0.32365766 -0.18772557 0.2941038 -0.3160927 -0.315432 -0.08750449
0.34661496 0.007189365 -0.11206561 0.1928557 -0.60607827 -0.11817445 0.055744875 -0.008063279
-0.052767314 0.057535883 -0.11224922 0.09657886 -0.37758854 -0.11974978 -0.3342293 0.44856012
-0.32572544 0.057068225 -0.005972021 -0.21712308 0.28453863 0.08495229 0.3562805 -0.28699207
-0.5066291 -0.088792376 0.58751786 -0.14504659 0.5037936 0.0017465771 -9.350984e-06 0.06414036
-0.09464376 -0.14240535 0.073653914 0.1290245 -0.5858256 -0.36691365 0.105894044 0.18797909
0.048850548 0.03177454 0.3603962 0.2628756 -0.4648569 0.20554364 0.2197808 0.17125267
00000000: 2e2e 46bd 85b1 cfbd 82e0 3b3d 1169 91be
00000010: e0a9 253b 22b7 0abf 95cb 07bf 8a96 8b3e
00000020: 27de 913e 8810 74bd b356 173e b66d a0bd
00000030: 14d8 983e 828f 8bbe c4c6 eb3e 1138 c13c
00000040: abf2 51be 3f68 34be b724 84bd d9d3 8dbe
00000050: f030 193e e88d 41be db80 073f edbb 113e
00000060: 78a1 da3d 90f0 3a3e 9fb6 873e 3cc5 0fbe
00000070: c209 adbc d004 a03d 9fa4 d4be fd3d 37bc
00000080: 14ad dfbe 48df 8f3d 28dd c93d a7bd 173d
00000090: 00e3 163e 0c95 c53e 9d17 583e f104 47be
000000a0: cc71 9b3e 86ee 113e af5a fc3d f17d 733e
000000b0: 9b0e 7b3d e3de 3bbe 66d7 173f ed2e 273e
000000c0: 8eea 97be 7c43 283e d8d1 ad3d bc14 b3be
000000d0: adcc 1dbe 79df fd3e 11d9 683d 5c52 f03d
000000e0: 8094 67bd d0cd 98be ae47 9e3e 478e e33d
000000f0: 21a2 213f fc30 953d 6d24 de3c 3bac 343e
00000100: f2f3 c23d 8c42 e33b 1ece cf3d 749e 14bd
00000110: 7cd6 a43e cbe9 2ebe e53e e1bc 6021 863d
00000120: 75e2 1e3e a347 a03b c287 493e 7454 b83e
00000130: 7ac7 e9bd ea4f 91be 5638 fd3e 41c0 433d
00000140: 3f4d 453d 8839 dcbe 81c0 923e 99d1 bdbd
00000150: abc0 0d3f 0f56 af3d d844 533c 48b0 e5be
00000160: bcc2 853c 8d43 febd 1c1e ebbe a6ac c0bc
00000170: f667 5ebc 870c 07bf 0795 b9be 816f 0e3e
00000180: 45ee babe 4e53 29bd 2b76 c13b ba75 5e3e
00000190: 81ee e8be a557 853e e1c6 91bd 7b1a efbe
000001a0: 32fb 5abe 77af c3bd 56ec 563e 9aab 7cbe
000001b0: 92ad 213d 862e 383d cf47 92be 4458 b6bd
000001c0: fabb 16be 43ab be3e d82a 5d3c aa01 c03d
000001d0: 3bf2 4d3d 2389 ecbe 6081 a33e 05af d03e
000001e0: 1777 253e e23b 69be c708 573d 03f5 033e
000001f0: 3ff0 5fbe 6ac8 f23e d395 b63e c453 b2be
00000200: 17db 923d 8cd6 3f3e 9615 6cbb 0dba afbd
00000210: 4a35 39be 47a7 a33c 7eed 61be ecea d13e
00000220: c3e4 0bbe a689 883d 6118 babd 7108 7e3e
00000230: 8e14 043f 5dea c73e 6c8f 2cbf bcaf f9bd
00000240: 36ab 873e a54e b7bd ac08 93be c82b 423f
00000250: 36e0 2a3d 1d32 8ebe ff56 af3e 4ec3 ae3d
00000260: de04 85bd 47cf d5be 361e 83be 23fb dcbe
00000270: 8e4a 9dbe b6f0 d73e f844 353e c2f1 efbc
00000280: ac74 783e 9ae4 e3bd e5be 933e a9ee 0abf
00000290: 7034 763e 17a7 383e 5f00 883e 35d9 d9bc
000002a0: 58b9 85be 5fdc dfbd 75b6 a53e 223b 40be
000002b0: c694 963e e7d6 a1be 4e80 a1be 8e35 b3bd
000002c0: 8477 b13e c494 eb3b a882 e5bd f77b 453e
000002d0: f227 1bbf 7205 f2bd bd54 643d d81b 04bc
000002e0: 8a22 58bd bfaa 6b3d ebe2 e5bd 23cb c53d
000002f0: 4953 c1be 5f3f f5bd 1a20 abbe aca9 e53e
00000300: 7cc5 a6be 5fc0 693d f1b0 c3bb 8355 5ebe
00000310: 0caf 913e 77fb ad3d 666a b63e a0f0 92be
00000320: 72b2 01bf c7d8 b5bd 9267 163f 1887 14be
00000330: 9ef8 003f 67ed e43a 2ce2 1cb7 055c 833d
00000340: 96d4 c1bd b5d2 11be ddd7 963d 001f 043e
00000350: abf8 15bf 1bdc bbbe fade d83d 977d 403e
00000360: 8317 483d 0526 023d da85 b83e a197 863e
00000370: b901 eebe 087a 523e 380e 613e dc5c 2f3e

actor.6.bias f4 [7]
-0.07077328 -0.02062302 0.017421477 0.15211782 -0.25387606 0.13321231 -0.07628606
00000000: 95f1 90bd 9cf1 a8bc 7cb7 8e3c c6c4 1b3e
00000010: 0bfc 81be cf68 083e de3b 9cbd

critic.0.weight f4 [40, 31]
-0.35381228 -0.20750527 0.2891889 0.0406289 -0.44960216 -0.27436385 -0.0032700687 0.10145594
-0.041491058 0.05280179 -0.21249911 0.09687595 0.087357774 0.019312706 1.233167 -0.2397373
0.2847418 -0.08129505 -0.19165193 0.4215376 0.06923697 0.2118198 0.90763324 0.18172576
0.39248624 -0.10392499 -0.09708536 -0.16605301 0.12390681 -0.20039347 0.17223077 0.034285285
-0.23767617 0.24251868 0.39326766 -0.03327738 0.13652806 0.15996026 0.04259853 -0.044050843
0.101601556 0.15332058 -0.14758581 0.068479374 -0.061908446 -0.42060298 0.07142422 -0.07329881
0.055193692 0.08785207 -0.26622632 0.108751215 0.22977209 -0.122727945 0.31901893 0.17337948
-0.33803123 0.06906409 -0.07909981 -0.18238607 -0.21790963 -0.24836321 -0.603255 0.24102633
-0.42561817 0.32336372 0.41436508 -0.5824141 0.6330074 -0.064882025 0.044905428 0.013843097
0.002807742 0.096368216 -0.023539556 -0.0034413908 -0.6460128 -0.002194502 0.11918151 0.29052094
0.17756863 0.15871912 0.040649056 -0.07328762 -0.0061324243 -0.038685046 0.20216407 -0.02999974
0.001680785 0.006338291 0.42909843 0.34528115 0.49122128 -0.16203167 -0.44807222 0.5408206
0.36236402 -0.3409876 -0.08870343 0.14517067 -0.041070987 0.05931059 -0.022186613 -0.07249883
0.04341045 -0.06852494 0.023436874 -0.36322585 0.19271788 -0.114300065 0.25128567 0.26022702
0.042597238 0.24678089 0.046764083 0.10714007 -0.11688851 -0.16520537 0.07634635 -0.05548756
0.041457076 -0.046845056 -0.11270972 -0.24477442 -0.23705266 -0.11097419 -0.3947476 -0.071072124
0.1465867 0.057094954 -0.30573583 0.11565017 0.14262801 -0.26689485 -0.108146764 0.04160056
0.053863823 -0.0021822783 -0.22353846 0.091272816 0.12352135 0.011566325 -0.2336312 -0.38104954
0.15489824 0.23654363 -0.27643162 0.02675237 0.38085058 -0.043442745 0.58892554 0.04372823
0.11846339 -0.2229519 -0.04906419 0.09564527 -0.58941454 0.07639374 0.31366357 0.49472922
0.44945964 -0.078333214 0.040092573 0.064871825 -0.01873894 -0.06747047 0.018851968 0.02735834
0.016383814 0.58597255 0.248367 -0.022370359 -0.35137734 -0.08122024 -0.030272955 0.14978693
0.25986165 0.4201497 0.04000041 0.0038595996 0.026008409 0.2038771 0.0055791596 0.08396747
0.27403975 -0.09732748 0.60589844 0.266587 0.19360541 0.012499271 0.19319779 -0.30659568
-0.14200462 0.08664972 -0.15376216 -0.009004469 0.034565475 -0.13362901 0.024088204 0.15064946
-0.096236736 0.09533755 -0.053619385 0.110572964 0.27864853 -0.16296357 0.11721772 0.2275219
-0.05629945 -0.03587576 -0.35879627 -0.057846647 -0.087414116 0.15848836 0.052095488 0.35291028
0.045878243 -0.28017032 -0.25373107 0.05119865 0.10053929 -0.12226349 -0.17889084 -0.5862496
0.0039457004 0.07085623 -0.0018507455 -0.00012312194 0.014532081 0.03755465 0.01677555 0.05279804
-0.39011234 0.03742442 -0.2766815 -0.1009628 0.23696792 0.42476714 0.22705305 0.14956534
-0.034026537 -0.04969844 0.10862031 0.04392351 0.035654843 -0.1469272 -0.30149803 -0.32310665
-0.15774383 -0.30257156 0.17687026 0.4092795 0.0950555 0.27404362 0.21640262 -0.060942065
00000000: e226 b5be 437c 54be 9110 943e 7d6a 263d
00000010: 4132 e6be 6b79 8cbe a64e 56bb 22c8 cf3d
00000020: 87f2 29bd b146 583d 5e99 59be e666 c63d
00000030: a2e8 b23d ae35 9e3c 6bd8 9d3f b27d 75be
00000040: adc9 913e 057e a6bd 6740 44be c7d3 d73e
00000050: 1dcc 8d3d 4ae7 583e a75a 683f 5116 3a3e
00000060: f5f3 c83e a0d6 d4bd b0d4 c6bd cd09 2abe
00000070: dbc2 fd3d f233 4dbe 435d 303e ba6e 0c3d
00000080: 6261 73be d156 783e 615a c93e dd4d 08bd
00000090: 03ce 0b3e 9fcc 233e cc7b 2e3d a86e 34bd
000000a0: 7a14 d03d 1200 1d3e bc20 17be ea3e 8c3d
000000b0: b693 7dbd 4659 d7be dd46 923d b01d 96bd
000000c0: c812 623d c9eb b33d d14e 88be f5b8 de3d
000000d0: 6049 6b3e ca58 fbbd 7356 a33e 648a 313e
000000e0: 6e12 adbe 7971 8d3d 15ff a1bd 6ac3 3abe
000000f0: b423 5fbe ed52 7ebe eb6e 1abf 9bcf 763e
00000100: a0ea d9be ee8f a53e a927 d43e 1719 15bf
00000110: c60c 223f dee0 84bd c1ee 373d 28ce 623c
00000120: 1802 383b b35c c53d 07d6 c0bc f588 61bb
00000130: 1861 25bf a2d1 0fbb 6f15 f43d 29bf 943e
00000140: 8dd4 353e 4487 223e a07f 263d d217 96bd
00000150: 81f2 c8bb 3674 1ebd 1904 4f3e 04c2 f5bc
00000160: c94d dc3a 70b1 cf3b cab2 db3e b1c8 b03e
00000170: 5b81 fb3e a1eb 25be b969 e5be 3873 0a3f
00000180: c787 b93e ed95 aebe 25aa b5bd 9fa7 143e
00000190: 0d3a 28bd a9ef 723d b3c0 b5bc 447a 94bd
000001a0: 28cf 313d ce56 8cbd b0fe bf3c bdf8 b9be
000001b0: d657 453e 2716 eabd 84a8 803e 7a3c 853e
000001c0: 717a 2e3d 21b4 7c3e b28b 3f3d 416c db3d
000001d0: 3e63 efbd 992b 29be 7a5b 9c3d ec46 63bd
000001e0: e5ce 293d 9ae0 3fbd 5bd4 e6bd 25a6 7abe
000001f0: efbd 72be 7046 e3bd 5c1c cabe 438e 91bd
00000200: d31a 163e 66dc 693d 6889 9cbe ffd9 ec3d
00000210: 140d 123e 71a6 88be 0d7c ddbd 5965 2a3d
00000220: 50a0 5c3d 8e04 0fbb 44e7 64be 3eed ba3d
00000230: c3f8 fc3d af80 3d3c 043d 6fbe ed18 c3be
00000240: a59d 1e3e 7e38 723e 7288 8dbe c927 db3c
00000250: d9fe c23e 05f1 31bd d3c3 163f 5f1c 333d
00000260: ef9c f23d 814d 64be 88f7 48bd abe1 c33d
00000270: dfe3 16bf 5274 9c3d 8398 a03e 264d fd3e
00000280: 931f e63e 2a6d a0bd 1c38 243d 85db 843d
00000290: 6882 99bc f52d 8abd 716f 9a3c 991e e03c
000002a0: 5937 863c 4c02 163f eb53 7e3e 0b42 b7bc
000002b0: bbe7 b3be cc56 a6bd fdfe f7bc bf61 193e
000002c0: 960c 853e dd1d d73e 78d7 233d 56f1 7c3b
000002d0: 960f d53c 29c5 503e 62d1 b63b 23f7 ab3d
000002e0: f04e 8c3e a153 c7bd 291c 1b3f 177e 883e
000002f0: 7f40 463e bec9 4c3c a4d5 453e 1cfa 9cbe
00000300: a969 11be 6975 b13d d473 1dbe 7b87 13bc
00000310: 8794 0d3d 0bd6 08be a054 c53c da43 1a3e
00000320: c417 c5bd 5540 c33d 00a0 5bbd 1474 e23d
00000330: 05ab 8e3e ecdf 26be d80f f03d 80fb 683e
00000340: 419a 66bd 76f2 12bd 25b4 b7be 9bf0 6cbd
00000350: 2c06 b3bd c64a 223e 1462 553d a8b0 b43e
00000360: d3ea 3b3d 7c72 8fbe 0ae9 81be adb5 513d
00000370: 8be7 cd3d 4865 fabd 292f 37be 7414 16bf
00000380: ef4a 813b 121d 913d b794 f2ba 4b1a 01b9
00000390: f717 6e3c e8d2 193d e16c 893c c242 583d
000003a0: cebc c7be 594a 193d 33a9 8dbe 96c5 cebd
000003b0: b8a7 723e 147b d93e 9880 683e a827 193e
000003c0: 695f 0bbd 9790 4bbd 5374 de3d 23e9 333d
000003d0: d00a 123d 1574 16be f35d 9abe 3c6e a5be
000003e0: 9987 21be a9ea 9abe 7a1d 353e 158d d13e
000003f0: 75ac c23d 724f 8c3e a698 5d3e 639e 79bd

critic.0.bias f4 [40]
0.18297532 -0.39866453 0.3003314 -0.18517624 -0.036847815 -0.07226934 0.2858221 -0.17096575
-0.13441913 0.33296165 -0.5015157 0.23865044 0.04588287 0.43749064 0.35666403 -0.25973
-0.26086453 -0.11519877 0.6169345 0.20277749 -0.15559636 0.3539472 -0.34015575 0.3804535
-0.2296639 0.1518441 0.0038600091 0.13154535 0.098131895 -0.102277696 -0.18719684 0.46960807
0.1021024 0.40489405 0.17524673 -0.33975273 0.46249786 0.23865359 -0.077878654 -0.039680228
00000000: e25d 3b3e c21d ccbe 0ac5 993e d79e 3dbe
00000010: bced 16bd f301 94bd 4657 923e a511 2fbe
00000020: 2ba5 09be f379 aa3e 5563 00bf c860 743e
00000030: adef 3b3d c6fe df3e ab9c b63e 55fb 84be
00000040: 0990 85be 55ed ebbd 6bef 1d3f e7a4 4f3e
00000050: a754 1fbe 9138 b53e e528 aebe cdca c23e
00000060: 032d 6bbe 057d 1b3e 35f8 7c3b d3b3 063e
00000070: 60f9 c83d f876 d1bd 87b0 3fbe 7870 f03e
00000080: 101b d13d 464e cf3e e173 333e 12f4 adbe
00000090: 85cc ec3e 9b61 743e d87e 9fbd bc87 22bd

critic.2.weight f4 [64, 40]
-0.31423575 -0.032603063 0.50436866 -0.052584104 0.1268601 0.29366282 0.035648108 -0.747126
-0.010468965 -0.26684165 0.099948026 0.20337182 -0.012634146 0.4671123 0.53879917 0.008528332
-0.08802759 -0.14478762 0.18856673 0.34959796 -0.17452902 0.3574202 -0.1081071 -0.17724131
0.06893146 0.04430649 0.061634425 -0.047858585 0.42309132 -0.02333374 -0.3711906 0.27590173
-0.049779892 0.47574195 0.20247719 -0.4266153 -0.4937271 -0.06790209 0.10185319 0.3227522
-0.5403558 -0.29693288 -0.025360672 -0.23906334 -0.118624754 0.685992 -0.11814641 -0.28130132
0.10411756 0.14037664 0.22807091 -0.06519695 -0.27334353 0.20808332 -0.22392419 -0.09157654
-0.17016782 0.24553218 0.027135232 0.31600595 0.17923674 0.292095 -0.18420736 -0.07144759
0.7168119 0.43187985 -0.13505054 -0.18073605 0.2033736 -0.24008214 -0.40272066 0.23992847
-0.49783906 0.25698343 0.41288283 -0.6013954 -0.6776197 0.21985725 0.32547396 0.29401582
0.56144613 0.33005628 -0.25320378 0.056775615 0.3713993 0.09949104 0.074435554 -0.024629083
-0.10946204 -0.07002071 -0.416179 -0.40918624 0.31434822 0.20472696 -0.18563788 -0.32206506
-0.28386202 -0.60036224 0.23711026 0.17750937 -0.06423794 0.2639114 -0.31858876 0.33891174
-0.12801577 0.41404817 0.07258757 0.38610226 -0.29604343 -0.4083547 0.11981194 0.49305782
0.03048459 0.37338787 -0.25648168 -0.040750906 0.34020892 0.56542253 -0.22246465 -0.18314475
-0.31220782 0.3364055 0.26070988 0.28157872 -0.085740946 0.20478204 0.16430627 0.35980132
0.365783 0.12172711 0.22570094 -0.052345525 -0.16297421 -0.09087287 -0.28177813 -0.055609077
0.2471274 -0.36196405 -0.39060694 0.108010344 -0.018101135 -0.27863145 0.23740692 -0.15337576
0.3624095 -0.27247727 -0.13257304 -0.2861282 0.15148064 0.17682435 0.011302684 -0.5011942
-0.09076154 -0.49111587 -0.439021 0.5695299 -0.04991916 -0.45640475 -0.17962384 -0.13609143
-0.15360968 -0.29744154 -0.089081354 -0.27107334 -0.08390517 0.06914152 -0.048845485 -0.058689464
0.041344073 -0.40628368 -0.28932983 -0.31505248 -0.12332298 -0.06342337 -0.07232952 -0.13092881
-0.14550626 -0.0087838285 -0.10330867 0.008259743 -0.15693 0.101393215 -0.2843454 0.09496739
0.19941634 -0.11052133 -0.015804173 -0.049446706 -0.21431182 -0.032573577 -0.1130791 -0.022942482
-0.12634279 -0.09468553 -0.0049167825 -0.12163786 -0.16127247 0.08700214 -0.12588476 0.09507293
0.4528301 0.12684737 -0.32097694 0.73127764 -0.2528771 -0.23663603 0.026586255 0.2515412
0.040347043 -0.025327355 0.27641377 0.29989338 0.26217598 -0.18964373 0.41195127 -0.5196961
0.21307546 -0.49496633 -0.03088119 -0.03670306 -0.062094335 -0.4425427 -0.105764806 0.10153401
-0.494654 -0.12824357 0.45766872 0.09291598 0.20190917 0.024498789 -0.3954975 -0.22288743
-0.06676125 -0.3323882 -0.0007503239 -0.06655785 0.6010071 0.12029833 -0.59662914 -0.24962653
-0.15241832 0.09097589 -0.40336272 -0.00034900234 -0.14155537 -0.001249971 -0.1412034 -0.07894254
0.11534474 -0.08335714 0.06503385 -0.18437794 0.02318883 0.21684065 -0.063043945 0.08672019
00000000: 82e3 a0be ca8a 05bd 4e1e 013f 6e62 57bd
00000010: 9de7 013e f95a 963e c003 123d a643 3fbf
00000020: 0686 2bbc 789f 88be 8db1 cc3d b440 503e
00000030: 73ff 4ebc 5829 ef3e beee 093f 6bba 0b3c
00000040: cf47 b4bd 3543 14be a317 413e 81fe b23e
00000050: bcb7 32be c8ff b63e 4167 ddbd bf7e 35be
00000060: f02b 8d3d b97a 353d 6174 7c3d 5d07 44bd
00000070: 6d9f d83e 6626 bfbc b20c bebe fe42 8d3e
00000080: 00e6 4bbd 7394 f33e 2e56 4f3e 526d dabe
00000090: ccc9 fcbe 4010 8bbd 6898 d03d c73f a53e
000000a0: c254 0abf 9607 98be 2fc1 cfbc 05cd 74be
000000b0: 89f1 f2bd 2c9d 2f3f bff6 f1bd ba06 90be
000000c0: 963b d53d e5be 0f3e 6c8b 693e fb85 85bd
000000d0: aff3 8bbe cb13 553e 624c 65be 7b8c bbbd
000000e0: 7940 2ebe ca6c 7b3e b54a de3c 88cb a13e
000000f0: d689 373e 7a8d 953e dba0 3cbe 1d53 92bd
00000100: fc80 373f 5b1f dd3e b04a 0abe df12 39be
00000110: 2b41 503e 18d8 75be 6731 cebe cfaf 753e
00000120: c3e4 febe 5593 833e 6165 d33e 0df5 19bf
00000130: 7c78 2dbf 4222 613e 86a4 a63e 3e89 963e
00000140: efba 0f3f 23fd a83e eda3 81be 8c8d 683d
00000150: 0d28 be3e f5c1 cb3d ab71 983d eec2 c9bc
00000160: a22d e0bd 0567 8fbd 6a15 d5be dc80 d1be
00000170: 40f2 a03e f2a3 513e db17 3ebe b6e5 a4be
00000180: 5d56 91be 57b1 19bf 08cd 723e 04c5 353e
00000190: 2e8f 83bd 651f 873e 111e a3be d785 ad3e
000001a0: 9116 03be 1ffe d33e cba8 943d 32af c53e
000001b0: 0193 97be de13 d1be f65f f53d 1372 fc3e
000001c0: d2ba f93c b22c bf3e 9151 83be 6cea 26bd
000001d0: dd2f ae3e 88bf 103f c6cd 63be 4c8a 3bbe
000001e0: b4d9 9fbe 573d ac3e c47b 853e 162b 903e
000001f0: f398 afbd 62b2 513e e73f 283e e137 b83e
00000200: e947 bb3e 104c f93d 261e 673e 4368 56bd
00000210: b6e2 26be 8e1b babd 3945 90be 58c6 63bd
00000220: f70e 7d3e 5a53 b9be a2fd c7be 8734 dd3d
00000230: d548 94bc c8a8 8ebe cd1a 733e 890e 1dbe
00000240: bd8d b93e 2482 8bbe 3ac1 07be 657f 92be
00000250: be1d 1b3e 7111 353e e52e 393c 434e 00bf
00000260: 30e1 b9bd 8a73 fbbe 5cc7 e0be b6cc 113f
00000270: 0878 4cbd e2ad e9be 50ef 37be 8d5b 0bbe
00000280: db4b 1dbe 424a 98be 4970 b6bd 20ca 8abe
00000290: 79d6 abbd 129a 8d3d 3412 48bd 5d64 70bd
000002a0: 6758 293d 6a04 d0be 0a23 94be 8f4e a1be
000002b0: c290 fcbd 1de4 81bd 8021 94bd 3412 06be
000002c0: 98ff 14be 0cea 0fbc 7f93 d3bd e053 073c
000002d0: 42b2 20be 3fa7 cf3d b895 91be 437e c23d
000002e0: cc33 4c3e 0259 e2bd c177 81bc a188 4abd
000002f0: 8f74 5bbe df6b 05bd 0496 e7bd dff1 bbbc
00000300: 0160 01be 7dea c1bd f61c a1bb 451d f9bd
00000310: 9c24 25be 2e2e b23d efe7 00be 99b5 c23d
00000320: 59d9 e73e 47e4 013e 1757 a4be 0335 3b3f
00000330: 1b79 81be b750 72be 6bcb d93c 02ca 803e
00000340: f142 253d 507b cfbc 1b86 8d3e a08b 993e
00000350: ee3b 863e f731 42be 47eb d23e ce0a 05bf
00000360: 7430 5a3e 3a6c fdbe 8dfa fcbc f355 16bd
00000370: a156 7ebd f594 e2be 389b d8bd 10f1 cf3d
00000380: 4a43 fdbe 4852 03be 8e53 ea3e bc4a be3d
00000390: 47c1 4e3e afb1 c83c a67e cabe 9a3c 64be
000003a0: 1fba 88bd c92e aabe 62b1 44ba 7b4f 88bd
000003b0: 9adb 193f f95e f63d b0bc 18bf 199e 7fbe
000003c0: 8c13 1cbe 9151 ba3d 8f85 cebe 4dfa b6b9
000003d0: e4f3 10be 11d6 a3ba a097 10be a0ac a1bd
000003e0: dd39 ec3d 26b7 aabd 7830 853d 92cd 3cbe
000003f0: 80f6 bd3c 7a0b 5e3e 2f1d 81bd 5b9a b13d

critic.2.bias f4 [64]
0.27235055 0.0770433 0.12488755 -0.2943939 -0.0840615 -0.023212882 0.1127187 0.2264393
0.39938262 0.008120642 0.11478148 0.3400532 -0.3897281 -0.22051175 -0.057256848 -0.1613559
0.043323617 0.13443287 -0.14111951 0.26115206 -0.094842695 -0.216392 -0.08771132 0.13485935
0.25966612 0.34823903 -0.21579507 0.116002135 0.22377892 0.12368109 -0.25243476 0.34989297
0.01757657 0.19600303 -0.31512135 0.02852714 -0.16839333 0.42970496 0.08824923 -0.28986153
-0.28556883 0.26197731 0.09510057 0.11416596 0.3766873 -0.0852445 0.37944326 0.44062993
0.22511794 0.29481855 -0.13436139 0.028930794 0.18335246 -0.14741445 0.34859675 0.17614119
0.2568776 -0.07556919 -0.038044825 0.12425617 0.20950568 0.26785105 -0.014404835 -0.05754095
00000000: 8871 8b3e e1c8 9d3d 0bc5 ff3d ccba 96be
00000010: 7028 acbd f128 bebc 10d9 e63d b4df 673e
00000020: e17b cc3e 710c 053c 8d12 eb3d 741b ae3e
00000030: 718a c7be d5cd 61be 2886 6abd 7b3a 25be
00000040: 1b74 313d c5a8 093e a281 10be b9b5 853e
00000050: e33c c2bd dd95 5dbe fea1 b3bd 9218 0a3e
00000060: f5f2 843e 634c b23e 62f9 5cbe 8792 ed3d
00000070: 4d26 653e 834c fd3d 213f 81be 2c25 b33e
00000080: bdfc 8f3c 05b5 483e 9657 a1be c0b1 e93c
00000090: 4d6f 2cbe 4a02 dc3e 03bc b43d bb68 94be
000000a0: 1436 92be e421 863e 16c4 c23d d8cf e93d
000000b0: 28dd c03e ab94 aebd 6346 c23e 3f9a e13e
000000c0: 5185 663e 75f2 963e 0896 09be 4600 ed3c
000000d0: bfc0 3b3e d0f3 16be 467b b23e 5b5e 343e
000000e0: 7685 833e 05c4 9abd e4d4 1bbd 057a fe3d
000000f0: a888 563e c623 893e 4202 6cbc 0fb0 6bbd

critic.4.weight f4 [32, 64]
0.051166177 0.15210111 -0.19404574 -0.5118706 -0.0505903 -0.28627044 -0.10263874 0.3292767
-0.014800923 -0.5951582 0.33524153 0.06399068 -0.03363962 0.102767184 0.2585196 0.23005767
0.36922988 0.030742768 -0.0770332 -0.27368128 0.028869929 -0.16453251 -0.0596011 -0.0068784
-0.036776334 0.36172512 -0.30749992 -0.7617357 -0.04045419 0.039610256 -0.5372323 0.15345795
0.12041413 0.3296599 -0.061941586 0.062035266 0.12908708 0.36450422 0.52177924 -0.19078913
-0.21980065 -0.069859095 0.014052949 -0.1070395 0.085619524 -0.07651005 0.04627987 -0.07704074
0.22513244 0.22503781 -0.38190186 0.09987373 -0.10272433 -0.79552454 0.18661615 0.44354543
0.09505719 -0.12363137 -0.36562878 -0.07697319 -0.6367058 0.1292093 -0.06950285 -0.15812498
-0.4730966 0.030763734 -0.09830395 0.35483915 0.114170216 -0.011066745 -0.063285805 -0.042961396
-0.082747124 0.0026790637 0.27104172 -0.3471754 0.059359774 -0.22995579 0.06221928 -0.1501925
-0.05034188 -0.10534572 0.10437193 0.179509 0.012788596 0.18421449 0.05640553 -0.0121762445
0.06716794 0.00010787383 0.1918928 0.032914765 0.2850795 -0.21948466 0.076280676 -0.64261657
-0.16812661 -0.7190124 -0.030048858 0.1823234 0.2994283 -0.30834928 0.036924955 0.18540594
-0.4341816 -0.18087101 -0.2796406 0.15464282 -0.621841 -0.17838113 0.0604432 -0.011977848
0.07430615 0.023333272 0.15224756 -0.112887375 0.30715263 0.35545048 -0.2655424 0.15898983
0.124241695 0.22434372 0.16565216 -0.2513081 0.24284913 -0.07082597 -0.0029249229 0.04264838
0.52008027 0.39244235 0.2328792 0.35092196 0.031022614 -0.04013665 0.072414 -0.06617432
0.36414745 -0.26028293 -0.41812894 0.25253338 -0.19448723 -0.14530641 0.06642356 0.20757626
0.65252364 0.19735755 0.13982688 0.4906569 -0.16401157 0.14278176 -0.21483609 0.23683232
0.2919361 -0.014416721 0.30957195 -0.14952017 0.3192566 0.024170466 0.20172219 -0.43541703
0.050472897 -0.0328014 -0.11352438 0.3007685 -0.6162484 0.12391716 0.4602889 -0.13050787
-0.5284666 0.034383353 0.05162806 0.31154674 -0.036419414 -0.07246497 -0.08082418 0.14953718
0.35782462 -0.3254673 0.060369026 0.6771441 -0.7626021 -0.91044337 0.32451648 0.50002855
0.4133663 0.27053788 -0.60148996 -0.152607 -0.08748227 0.73959327 -0.32612723 0.072961256
0.36918402 0.09079982 0.37688783 0.1464416 -0.28637433 0.34467718 0.13473181 -0.28722635
-0.17820814 0.41284832 0.47847778 -0.11370119 0.3503837 0.16599914 0.2966868 0.37574843
0.06205148 -0.16552538 -0.24785458 0.2136792 0.03528506 -0.08821532 0.48563 -0.10794858
-0.54496527 -0.20786963 0.2474538 0.18401878 -0.17742802 0.13127552 0.11634918 -0.12324357
0.20656106 -0.40926972 0.030895116 0.016494073 0.2128416 0.12080928 -0.063987665 0.36182907
0.43016586 0.17388117 -0.37687957 -0.3132882 -0.30482054 0.38226914 -0.06295102 0.1675493
0.04826197 -0.21894547 0.037239425 0.097304195 0.59181964 0.63797486 0.25336912 -0.15589733
-0.75946784 0.29938102 0.34933248 0.039132927 -0.047347475 -0.39061028 0.0041616713 0.4417329
00000000: a093 513d 65c0 1b3e edb3 46be f409 03bf
00000010: c637 4fbd 0a92 92be 4234 d2bd f596 a83e
00000020: 927f 72bc 4a5c 18bf c7a4 ab3e 8c0d 833d
00000030: b3c9 09bd 9a77 d23d ae5c 843e 3d94 6b3e
00000040: b30b bd3e 42d8 fb3c 95c3 9dbd f41f 8cbe
00000050: a180 ec3c 367b 28be 4820 74bd 3464 e1bb
00000060: c8a2 16bd 0934 b93e a170 9dbe 1c01 43bf
00000070: 4bb3 25bd 5d3e 223d 0e88 09bf 1524 1d3e
00000080: af9b f63d 2fc9 a83e 76b6 7dbd b118 7e3d
00000090: 672f 043e 4ca0 ba3e 5393 053f 3a5e 43be
000000a0: 6c13 61be 4912 8fbd 573e 663c 8637 dbbd
000000b0: 4a59 af3d 4db1 9cbd f68f 3d3d 89c7 9dbd
000000c0: 1e89 663e 5070 663e a488 c3be 998a cc3d
000000d0: 2261 d2bd 7fa7 4bbf 4e18 3f3e 6318 e33e
000000e0: 58ad c23d 7232 fdbd b233 bbbe 1fa4 9dbd
000000f0: 27ff 22bf 714f 043e 8357 8ebd 84eb 21be
00000100: b839 f2be 3a04 fc3c 9553 c9bd 7aad b53e
00000110: 13d2 e93d 4b51 35bc fd9b 81bd 4af8 2fbd
00000120: 5377 a9bd 3b93 2f3b fbc5 8a3e f9c0 b1be
00000130: 3c23 733d 8879 6bbe a5d9 7e3d 10cc 19be
00000140: 4a33 4ebd 7fbf d7bd f3c0 d53d 35d1 373e
00000150: 4287 513c b9a2 3c3e 7c09 673d df7e 47bc
00000160: 588f 893d 523a e238 8c7f 443e a2d1 063d
00000170: f1f5 913e 96c0 60be 0b39 9c3d 8582 24bf
00000180: 6229 2cbe 3211 38bf 0629 f6bc fcb2 3a3e
00000190: ab4e 993e f5df 9dbe 9f3e 173d 0edb 3d3e
000001a0: 0d4d debe 4036 39be 0d2d 8fbe b05a 1e3e
000001b0: f930 1fbf 8ba9 36be 4a93 773d bc3e 44bc
000001c0: d32d 983d 6b25 bf3c c9e6 1b3e 7f31 e7bd
000001d0: 1c43 9d3e 9bfd b53e 2cf5 87be 3bce 223e
000001e0: 6e72 fe3d 5cba 653e b8a0 293e 75ab 80be
000001f0: 71ad 783e 350d 91bd 10b0 3fbb 11b0 2e3d
00000200: fb23 053f 34ee c83e e377 6e3e 0bac b33e
00000210: 2323 fe3c 5466 24bd cb4d 943d 6786 87bd
00000220: 8971 ba3e ce43 85be ff14 d6be 0e4c 813e
00000230: a927 47be 34cb 14be 1309 883d df8e 543e
00000240: ca0b 273f 1918 4a3e c72e 0f3e 6237 fb3e
00000250: a6f2 27be 6235 123e fefd 5bbe 2c84 723e
00000260: a678 953e 1c34 6cbc 3780 9e3e d11b 19be
00000270: 9a75 a33e 2401 c63c 4390 4e3e fbee debe
00000280: abbc 4e3d c35a 06bd 787f e8bd 54fe 993e
00000290: 75c2 1dbf 48c8 fd3d fdaa eb3e dba3 05be
000002a0: 9649 07bf 8fd5 0c3d f277 533d 0e83 9f3e
000002b0: 862c 15bd 8468 94bd 2687 a5bd 4620 193e
000002c0: ca34 b73e a6a3 a6be 8345 773d 5159 2d3f
000002d0: e439 43bf d112 69bf 0627 a63e df01 003f
000002e0: bfa4 d33e f183 8a3e 3ffb 19bf 0245 1cbe
000002f0: e829 b3bd fc55 3d3f 26fa a6be b66c 953d
00000300: b005 bd3e 42f5 b93d 71f7 c03e c9f4 153e
00000310: a89f 92be 8779 b03e 23f7 093e 550f 93be
00000320: 327c 36be db60 d33e 0afb f43e 2bdc e8bd
00000330: 7e65 b33e aefb 293e 55e7 973e 1962 c03e
00000340: b129 7e3d 7c7f 29be 97cd 7dbe b8ce 5a3e
00000350: 1187 103d 3caa b4bd 7fa4 f83e 2514 ddbd
00000360: d882 0bbf c7db 54be 8764 7d3e 6b6f 3c3e
00000370: b1af 35be 176d 063e 7b48 ee3d 2067 fcbd
00000380: be84 533e cd8b d1be c117 fd3c 941e 873c
00000390: 26f3 593e db6a f73d f70b 83bd a941 b93e
000003a0: b33e dc3e e80d 323e 5cf6 c0be 5067 a0be
000003b0: 7011 9cbe c8b8 c33e 77ec 80bd 0b92 2b3e
000003c0: 58ae 453d 3e33 60be 5e88 183d 6c47 c73d
000003d0: 7e81 173f 5252 233f 99b9 813e 8da3 1fbe
000003e0: 7c6c 42bf 7848 993e b5db b23e d949 203d
000003f0: 6def 41bd 12fe c7be a15e 883b d12a e23e

critic.4.bias f4 [32]
0.19116193 -0.078974634 0.06354394 0.19179077 0.35188285 0.1345185 0.18559156 0.101388484
0.02446367 0.32234648 0.058161847 -0.09630343 -0.14680831 -0.18150496 0.057855874 -0.06758287
-0.3643515 0.2912911 -0.05150267 0.21121664 -0.12554713 -0.18055734 0.12892549 -0.11472301
-0.10975138 0.07982078 -0.012457635 -0.17409752 0.038272128 -0.007028976 -0.13788176 -0.0924101
00000000: f4bf 433e 74bd a1bd 5323 823d cd64 443e
00000010: fd29 b43e 38bf 093e b70b 3e3e c4a4 cf3d
00000020: 0968 c83c 990a a53e 1e3b 6e3d bc3a c5bd
00000030: eb54 16be 70dc 39be 48fa 6c3d e368 8abd
00000040: 488c babe 1b24 953e 77f4 52bd 2d49 583e
00000050: 6d8f 00be 06e4 38be 0b05 043e e6f3 eabd
00000060: 55c5 e0bd 1479 a33d 1c1b 4cbc 9f46 32be
00000070: 3cc3 1c3d 5353 e6bb e030 0dbe 8241 bdbd
