Weight/asd/PPO_continuous_log (another copy).pth (torch_old, 53153 bytes, 17 tensors)

actor.0.weight f4 [40, 31]
00000000: b72b 293c 91e2 8abd 20e3 4dbe dd6b 473e
00000010: 84e9 debc 8a81 913d 7870 b4bc 55a6 cf3d
00000020: 29ad 2b3b c4fd 123f 1544 403e 68ef 03bd
00000030: c836 62bd 60bc e6bd 4e93 783d d371 03bd
00000040: 0f50 9fbe 373a 28be a02f 853e 43fc e23d
00000050: a078 0e3e c15b 8e3e 1cea a13e 5e28 69be
00000060: b23e 893e b31e 293f c4dd 43bd ce29 cdbc
00000070: 40cd 8abc 649b d53d 8778 73bd 5fd7 0e3e
00000080: 0918 0bbe 55b5 7bbe 61eb 373e 345e 6dbc
00000090: 31b8 12be 7f26 0fbe a1b1 f23e 9bcb cdbe
000000a0: 860a 04bf 1c2d cebe 095a bcbe 86a1 4b3e
000000b0: f22d e93d 4514 0dbd 7c67 f43d 95e9 c2bd
000000c0: 80b4 3bbe 6ba5 d53d 0aaa f43c 560a 2dbe
000000d0: 6fb4 9f3e fbca bf3e dc62 213d e26f 04be
000000e0: 2358 6fbe 6148 febb 66fd 7cbd 7cb9 5ebd
000000f0: c3f1 83bd 85df 9f3c 0b02 d63d d28b 6b3e
00000100: 1b77 b53c 51a9 903d ef37 623e 0c16 f1be
00000110: 40d7 ef3c 6f00 3d3e fdfc ab3e 25a4 f2bd
00000120: 2782 e63e 53cc 333e bef6 e3be 0fee 4d3e
00000130: 8027 f03d 553e 0e3c 6c2d 80be b94b c43d
00000140: cd54 63bc 0e5b e53d 2685 50be 41d8 fa3d
00000150: 5ca5 1fbe b54f c6be aec9 f5be 956e 4e3e
00000160: 2c89 963d d250 3fbe 418a 603d ba2b 82bd
00000170: 05b9 193e f2f7 5b3d 2593 b13e b5c3 bdbd
00000180: 3eee 333e ffc2 80be e6a4 dcbd 8a7a 813e
00000190: 6306 a73e 1427 b3be 36a7 49bc 88aa 95be
000001a0: 2386 1b3e 13e3 6ebd cc2b 81be e636 49bd
000001b0: a8f2 223e a049 14be 1998 57bd c549 11bd
000001c0: 4e82 99be 28fe bfbc 152f efbd 21e6 d33d
000001d0: c28e 8dbe b252 29be 2140 1abe f9e9 ad3e
000001e0: dc14 e53d 0f39 c03d 01cb 8639 8c6d fe3c
000001f0: 02ce aebe 2bef 4cbe c5a0 453d fd0e 553e
00000200: 5066 2bbe 30a0 c93e ae2e 7abd 6cd3 653e
00000210: ab34 31be bb2a c6be 591f 7cbe 821e 7fbe
00000220: 8f60 b4be 6ab0 67bd 42e1 84bb 6fb4 ca3e
00000230: 9129 13be c31e 883d f40b 02be ac62 efbc
00000240: 4be4 d43d 667f 9b3e 17f3 dc3e 748a cfbe
00000250: 8876 3c3e 702a ed3e ba66 a03e 8374 c9bd
00000260: 1a84 bb3d 6fb0 0a3e 2464 1b3d 5c8e 9a3d
00000270: a6cf eabd 3197 d2bd ff09 783e 47e0 1dbd
00000280: b592 713e 7ddf e23d a023 17be 3c50 213f
00000290: 9381 c63d 8851 25bd 3975 923e bac2 d7be
000002a0: d4e2 583d 5f59 2dbe 770d 123e 4972 f4bd
000002b0: acfe 0b3e ef08 e2bd 42f3 95bc b946 943d
000002c0: 8215 05bf 05f9 6fbb 32b6 893e 75e6 c7bd
000002d0: 19b4 fbbe 2893 bebd ea41 f6bc baf5 db3d
000002e0: eead 803e 7806 b83e 2df9 a0bd 7064 2d3e
000002f0: 2c94 f0bc 6b21 643e 855e 133e e26a a13e
00000300: 85fb 503e b45e 18be 4f11 13be 4182 a33e
00000310: 5211 e63c c4f7 85bd 1789 2cbe 8b64 3dbe
00000320: 4da9 4f3d dffc 613d 610d 0cbe 7ff1 d43d
00000330: 5f39 80bd a428 d53d 0c1f 903b e157 473e
00000340: ec1d 14be d4f7 54bf 50c7 083e c313 ab3e
00000350: cd19 fbbd 1b53 e73e 76c6 3a3e 1cfe e33d
00000360: f7d0 6c3e 4f63 133d 2c6c 82be 51f6 9dbe
00000370: f171 3a3e d4f4 023e 3678 fcbd b888 f6bd
00000380: e124 143e f728 a9be 458b 1e3e bcd0 8cbd
00000390: 0f4d 223e 20a9 c63e 76e5 e43d 94f6 cf3d
000003a0: 2765 f33c ff57 84bd b19e f6bd 7c5e 35bd
000003b0: 1d50 6bbe a7dc 163e 4fa6 ec3d c7b7 463e
000003c0: eee3 f6be 1b96 513e 163f 533e 5553 063f
000003d0: e63f 803e 94cb cf3d eb15 b13d b977 2b3e
000003e0: f5d4 57be 7e42 d5bd ef11 bebd 9955 173c
000003f0: 5037 613e 5150 a8be 3e7d e8bd 4e3d 48be
0.010325364 -0.06781495 -0.20106173 0.1947474 -0.027210958 0.07104786 -0.022026286 0.10139147
0.002619574 0.57418466 0.18775971 -0.032210737 -0.055228025 -0.112663984 0.060687356 -0.032090973
-0.31115767 -0.16428457 0.26012897 0.11083271 0.13913202 0.27804378 0.31623924 -0.22769305
0.26805645 0.6606247 -0.047818914 -0.025044348 -0.016943574 0.10430029 -0.059441116 0.13949345
-0.13583387 -0.24580891 0.17960884 -0.014487792 -0.14328076 -0.13979529 0.47401145 -0.401944
-0.5157856 -0.4026879 -0.3678744 0.19885835 0.113857165 -0.03444316 0.119338006 -0.095172085
-0.18330574 0.104319416 0.029866237 -0.16898474 0.31192347 0.3745955 0.03940092 -0.12933305
-0.23373465 -0.007760093 -0.061765097 -0.05437611 -0.06442597 0.019515762 0.104496084 0.23002556
0.02215152 0.070635445 0.2209165 -0.47087133 0.029277444 0.18457197 0.33591452 -0.11847714
0.45021173 0.17558412 -0.44524187 0.20110343 0.11726284 0.008681853 -0.25034654 0.095847555
-0.013875199 0.11199008 -0.20363292 0.122482784 -0.15590423 -0.38732687 -0.48005432 0.20159371
0.07350382 -0.18683174 0.05481935 -0.063559964 0.15011986 0.053703256 0.34682575 -0.09265844
0.17571351 -0.2514877 -0.107736394 0.25288802 0.3262206 -0.34990752 -0.012307933 -0.29231668
0.15187888 -0.058322024 -0.25228727 -0.04912462 0.15912879 -0.1448121 -0.052635286 -0.035470743
-0.29982227 -0.02343662 -0.11678902 0.10346628 -0.27647978 -0.16535452 -0.15063526 0.3396757
0.11185619 0.09385883 0.0002570972 0.031058095 -0.34141546 -0.2001311 0.048249025 0.20806499
-0.16738248 0.39380026 -0.061079673 0.22443932 -0.17305247 -0.38704476 -0.24621333 -0.24913982
-0.35229918 -0.056564726 -0.004055173 0.39590785 -0.14371325 0.06646492 -0.12699872 -0.029221855
0.10395106 0.30370635 0.43154213 -0.4053532 0.18404591 0.4632144 0.31328374 -0.09836676
0.09156056 0.13543867 0.0379373 0.07546684 -0.11465387 -0.10282744 0.24222563 -0.038543966
0.2359112 0.11077783 -0.14759684 0.6301305 0.09692683 -0.040360957 0.2860506 -0.42140752
0.052950695 -0.16928624 0.14262949 -0.11935861 0.13671368 -0.1103686 -0.01830447 0.07240052
-0.51985943 -0.0036616933 0.26896816 -0.09760753 -0.4916084 -0.093054116 -0.030060727 0.10740228
0.25132698 0.35942435 -0.078600265 0.16932845 -0.029367529 0.22278373 0.14391525 0.31526858
0.20408447 -0.14879876 -0.14362071 0.31935313 0.02808443 -0.06541398 -0.1684917 -0.18495385
0.050698567 0.055172797 -0.13676979 0.10397624 -0.06260943 0.10408142 0.0043982323 0.19467117
-0.1446454 -0.83190656 0.13357282 0.33413514 -0.122607805 0.45180592 0.1823977 0.11132452
0.23126589 0.03598338 -0.25473154 -0.30851987 0.18207528 0.12788707 -0.12327616 -0.12037796
0.14467193 -0.33039066 0.15482815 -0.068757504 0.15849708 0.38800907 0.11176579 0.10154453
0.02971132 -0.064620964 -0.12041987 -0.04427956 -0.2297978 0.1473261 0.11555158 0.19406043
-0.48220772 0.20467417 0.20629534 0.52470905 0.2504875 0.10146251 0.08646759 0.1674489
-0.2107733 -0.10413073 -0.09280764 0.009236717 0.21993756 -0.32873777 -0.11352013 -0.19554636

actor.0.bias f4 [40]
00000000: 4510 0c3e 4bc7 91bd 908a 13be 9852 173e
00000010: 023a 173e cc66 dc3d 98ac 673e c889 033e
00000020: fee7 f83d d80f dfbd 5b81 523c ac88 7c3e
00000030: 4f2d 423e 56a2 25be 005c 453e bca9 733d
00000040: 554a 143c 8144 11bd 6293 8d3e 151c 0d3e
00000050: 3da8 7cbe 554c fbbd a747 db3d 3776 403e
00000060: c011 293d fd99 343d 5eb5 d73d 66d9 8c3e
00000070: 7219 fbbd 7a96 e23d 857c ba3b 9d7b 4d3e
00000080: 3925 a9bd 1a66 1cbe a955 363b 45b5 36bd
00000090: 1afc 0e3e d557 303e f7f7 ca3c b759 c5bd
0.13678081 -0.0711809 -0.14408326 0.14777601 0.14768222 0.107617944 0.22624433 0.12845528
0.12153624 -0.10891694 0.012848224 0.24661511 0.18962596 -0.16175207 0.19273376 0.059488043
0.009050925 -0.03546572 0.27651507 0.13780244 -0.24673553 -0.122704186 0.10707026 0.18795095
0.041276693 0.044092167 0.1053264 0.27509612 -0.12260713 0.110638574 0.0056911134 0.20066686
-0.08259053 -0.15273324 0.0027822054 -0.044606466 0.13963357 0.17221005 0.024776442 -0.096362524

actor.2.weight f4 [64, 40]
00000000: 65c0 d93d 5ef7 7d3e f780 abbe f0c9 a23e
00000010: 1613 adbc 02df 67be e1b2 b63e fb38 1d3e
00000020: 8913 9f3e f8b5 8e3e ac22 163d 78ec 0abe
00000030: 2e75 193e 1171 1bbe 73a3 313d c595 0bbe
00000040: 6fdb fabd d551 b43e 13a2 d8bd c865 793e
00000050: a33b f9be a434 773d 5d04 b53e abd8 763e
00000060: cff4 dd3c fc21 833d b8f5 19bf 8912 953d
00000070: 1f27 123e 9c5d d8bc cce2 4e3e f6f1 b1bc
00000080: 4eaf 7e3d 3ca7 993e 1697 21be 4461 83be
00000090: a0a6 0f3d 2f56 3c3e 59a7 fabc 3ec4 983d
000000a0: ccfa bb3e dc8e 1ebe fac2 89bd bfb6 05be
000000b0: e42b aabd f970 5ebe 5045 9c3d dceb 68bd
000000c0: 9234 8fbe d1f5 8a3b 4247 c93e 5a66 2ebe
000000d0: 63bf 1b3d b059 023e c741 a13c b769 93be
000000e0: 9fb6 893c da16 ac3e e628 c5be 06a3 c3be
000000f0: d11b b33e 3b08 cdbd 852b f5bc f544 233e
00000100: e00a 953d 7435 d83d 8f63 903d 602a 6a3d
00000110: 1ecd f33e f5b2 87be 7a21 c4be 5624 f2be
00000120: 0087 49bd 0c95 0abe bd6f 6fbe 6ad7 433e
00000130: 0c0c 57bd 0c0a 69bd 7ba2 293e aee6 cabd
00000140: 483a 933e 440c b9be fd06 dc3d a813 69bd
00000150: bc7a 28bd 5b75 1e3e 301a cfbd cea7 043e
00000160: f220 9a3e 0638 c53e 7259 003e 4986 91be
00000170: 7de4 153c c912 b03d 3461 ab3d 20cc 9a3e
00000180: e45a a43e 5095 6c3e 07b5 4fbe 6fda 0dbe
00000190: 5719 803e 1d8a 3ebd 2735 b73c fa69 acbd
000001a0: 9ddd 3c3e b7a9 53bd 6798 593d c19a 2f3e
000001b0: 4ba4 be3d a9c4 0bbe 2c85 a03e 0ba0 543d
000001c0: 0e17 5f3e 6729 cdbd 6886 aebd 22dc 05be
000001d0: 7a49 babc e610 ce3e 5b4b d63e 164b 6bbe
000001e0: 7a73 0d3e d5e1 39be 1024 19be cef1 adbd
000001f0: a1ec f5bc e29c edbd 47f1 d93d e0d7 3f3e
00000200: 02c4 913e a2fb 3a3e 1560 3b3c 54d8 1e3d
00000210: 033a 84be 1aee 8a3e b9f8 a1be 1cfc 9fbe
00000220: 1d98 cd3c 021a 3dbe 9af4 bbbd 8d30 ae3e
00000230: 6b48 cdbe 52d9 c1bd 6f2f 873e a5da 3fbd
00000240: 0b4f 0cbe 9119 9fbd 3424 00bf 6d42 113e
00000250: ddfa 92bd 8b7d 61bd bfb6 823e cb1a 803e
00000260: ed32 c7be b5e8 69bd 0131 983e d58c b0bd
00000270: ee18 413e d782 d0be 4583 febe f8a7 08be
00000280: ff24 de3c 0ccb cdbd 23d8 9ebd f9f4 24be
00000290: f277 95be ae8f 2dbe 9b84 5cbd 8908 da3c
000002a0: 0743 cebd 426c cb3d b55f 99bd 0d32 a0be
000002b0: e51c 173d 2330 2f3d 7f85 86be fc73 bcbd
000002c0: 969f 5fbe d6fb d33d 06f8 90be 5e7e 7abd
000002d0: 42ae c0bc 5554 e13d 33f6 a2bd b596 c0bd
000002e0: 373a 43be e729 203d 7f38 25bf b952 7ebe
000002f0: cd4f 543d 8329 10be 9ee6 f1bd 7bf7 993d
00000300: afbb 263e 3f20 b0be 3342 d0bc a50b 2abc
00000310: 525d bb3d 51c7 02be 25ac 13be 2874 bfbd
00000320: 1b6e 563e 8050 b7bd d4ad 5c3e 2c3e e0bb
00000330: a404 75be fd51 37bf a2c8 e9bb ee4e 533e
00000340: e00a b3bd 44bf 543d ffa2 c5bc dd31 e0bd
00000350: a98b 213e d3a0 65bd b50c adbc b794 4a3e
00000360: 1dc5 2f3e 8941 5d3e 5f19 38be e1e6 9bbe
00000370: fe0e 003e 7211 0f3e 8597 3ebd 493f 79be
00000380: 4e7e 453e 5871 883e 692b 9cbc a97a 0dbf
00000390: 55d7 5dbd 76de 3fbf 8f11 4abd dbf1 033d
000003a0: 6736 d13d 4971 9bbd 0015 743d 12a9 82bc
000003b0: db88 aa3d 6f38 eb3d 97c7 943e b461 b8bd
000003c0: 9d11 08be 2010 a03e 2e3a c9bd 3463 54be
000003d0: cf3a 133e 614b 5fbd 5877 183e baab b53d
000003e0: b04e 183e bb4b f5be f368 b53e 3979 5ebe
000003f0: e950 af3b 977a 303c 77cf a6bd a7ad 003e
0.106323995 0.24801394 -0.3349683 0.3179469 -0.021127265 -0.22643664 0.3568335 0.15353768
0.31069592 0.27873206 0.03665416 -0.13566768 0.14986107 -0.1517985 0.043368768 -0.13631351
-0.12248885 0.35218683 -0.10577788 0.24355233 -0.48678312 0.060352936 0.3535489 0.2410609
0.027094273 0.064029664 -0.6014056 0.07278926 0.14272736 -0.026411824 0.20203704 -0.021721821
0.062178902 0.30010402 -0.15780291 -0.25660145 0.035071015 0.18392251 -0.030597376 0.07459305
0.3671478 -0.15484184 -0.06726642 -0.13057993 -0.08309153 -0.21722783 0.07630408 -0.056865558
-0.27969795 0.0042407294 0.39312178 -0.17031232 0.038024317 0.12729526 0.019684685 -0.28791592
0.016810713 0.33611184 -0.38507766 -0.38210315 0.3498216 -0.100113355 -0.029927978 0.15944274
0.07277465 0.105570704 0.07050239 0.05716932 0.4761743 -0.2650372 -0.3830679 -0.47293347
-0.04920101 -0.1353342 -0.23382469 0.19125143 -0.052501723 -0.056894347 0.16565888 -0.0990728
0.28755403 -0.3614217 0.107435204 -0.05690351 -0.041132674 0.15474455 -0.10112417 0.12954637
0.3010326 0.38519305 0.1253412 -0.28422764 0.009148714 0.08597333 0.083681494 0.3023386
0.32100594 0.23103833 -0.202839 -0.13852857 0.25019333 -0.046518434 0.022364212 -0.08418651
0.18443914 -0.051675525 0.053123858 0.17148878 0.0930868 -0.13649239 0.31351602 0.05191044
0.21786138 -0.100176625 -0.0852173 -0.13072255 -0.022740114 0.40247267 0.41854367 -0.22977862
0.13813582 -0.18152554 -0.14955163 -0.08493386 -0.03002006 -0.11602189 0.10641723 0.18734694
0.28469855 0.18260053 0.011436482 0.038780525 -0.2582551 0.27134782 -0.31635073 -0.31247032
0.025096947 -0.18466952 -0.091775134 0.34021416 -0.40094313 -0.09465279 0.26403376 -0.046839375
-0.13702027 -0.07768548 -0.5005524 0.14185496 -0.071767546 -0.055051368 0.2553005 0.2502044
-0.3890604 -0.057106692 0.29724887 -0.086206116 0.18857166 -0.40724823 -0.49709526 -0.13345325
0.02711725 -0.10048494 -0.077560686 -0.16109075 -0.29193074 -0.1694934 -0.0538374 0.026615398
-0.10071378 0.09932758 -0.07488958 -0.31288186 0.03689279 0.042770516 -0.26273724 -0.0920181
-0.21838221 0.10350768 -0.28314227 -0.06115567 -0.023520593 0.11002413 -0.07957115 -0.09403745
-0.19065176 0.03910246 -0.6453933 -0.24836244 0.051833916 -0.14078335 -0.11811565 0.07517906
0.16282533 -0.34399602 -0.025422191 -0.010378753 0.09148659 -0.12771346 -0.14421137 -0.09348327
0.2094044 -0.08950901 0.21550685 -0.006843349 -0.23927552 -0.7160948 -0.007134513 0.20635578
-0.087423086 0.051940218 -0.024125574 -0.10947011 0.15775932 -0.056061577 -0.021124223 0.19783293
0.17165036 0.21607031 -0.17978428 -0.30449584 0.12505719 0.13971499 -0.04653122 -0.24340548
0.19286463 0.26648974 -0.019063668 -0.5526529 -0.054160435 -0.74948823 -0.04933315 0.032213073
0.102154545 -0.07589967 0.05959034 -0.01594976 0.08326884 0.11485373 0.29058525 -0.090030104
-0.13287969 0.31262302 -0.0982555 -0.20740968 0.14377902 -0.054515246 0.14889276 0.08870645
0.14873767 -0.4790934 0.35431632 -0.2172593 0.0053502214 0.010771415 -0.081450395 0.12566243

actor.2.bias f4 [64]
00000000: 3ff3 a93e d734 a73d 1734 dbbc e1f1 e23d
00000010: 72e8 4dbe d851 dabd 7f86 8f3c b659 98bd
00000020: be11 223e c92b 803d b770 003e e890 44bd
00000030: 9ce6 56bd b340 f13c 1f4a eebc 979e d3bd
00000040: e00c 25be 0dcb 0abd c27e 353e 63d3 cfbd
00000050: 608e 2b3e 1f6c 163e acfa 673d f5ff 013e
00000060: 5ea7 0e3e 276b 903d 3dae e13b e1bd b93d
00000070: edb1 a53d 7b6b 09be a7fa 2c3e fb2f c83d
00000080: 2cbf bcbc ab65 593e 9fdd d13c 6527 943d
00000090: fd7e 013e b938 1c3e c5dd ebbd 892d 183c
000000a0: 0974 a5bd 5471 313e 7c0a 193d 7a89 a7bd
000000b0: 2570 d93d 3cb2 ddbd d3e4 0f3d 3cf6 333e
000000c0: da5b 1a3e 0385 b73d fa12 8dbd 8815 3b3e
000000d0: 973c 673d bc8a 133b 2fee ae3d 03da 243e
000000e0: 3850 e83d dfa4 10be d005 863e 738f e93d
000000f0: cb94 5b3d aa4f 1b3d d261 7c3d 9f0c 7d3b
0.33193395 0.08164375 -0.026758237 0.11081291 -0.20108202 -0.10660142 0.017520187 -0.07438986
0.1582708 0.06258351 0.12542997 -0.047989756 -0.05246602 0.029449796 -0.029088078 -0.10332983
-0.16118193 -0.03388505 0.17724136 -0.10147741 0.1675353 0.14689682 0.056635544 0.12695296
0.13931033 0.07051688 0.006887226 0.0906942 0.08090577 -0.13419907 0.16892491 0.097747765
-0.023040377 0.2123019 0.025618372 0.072340764 0.12646098 0.15256013 -0.115169086 0.0092882
-0.080787726 0.17328387 0.037363514 -0.081805184 0.10617093 -0.10825011 0.035130333 0.175744
0.15074101 0.08960917 -0.06888385 0.18269932 0.056454267 0.0022513112 0.08541524 0.1609879
0.113434255 -0.14125393 0.2617631 0.11404314 0.053608697 0.03791777 0.061616726 0.003861226

actor.4.weight f4 [32, 64]
00000000: 816c 70bd a5a0 233e b236 b03e f610 cfbe
00000010: cd4a c43e d725 bb3d 7e92 1c3d c6b4 933e
00000020: 0039 f83d 521d ad3c d263 a33d d3c7 833d
00000030: 913f 673e a154 0e3e 1372 8a3e 3c92 a3bc
00000040: 582b ccbd ee3e a03e c6d5 053d 95ef 153f
00000050: 5395 bc3d d973 3f3e 2fc8 d73d b0c4 3b3c
00000060: cc91 3d3d 246c 85be a600 cbbd b6cd a53e
00000070: 9e8f 0c3e b8bf ffbd f8bd 9cbb 416b bf3e
00000080: e176 043d c7e9 c33d ea5a 8b3e af87 e6bd
00000090: 89e9 68bd e68b 9ebe db53 cd3e 3662 803e
000000a0: ce3e 79bd 9788 c03b 5d01 90bd 3609 853e
000000b0: 07ca 9dbe dfa4 873e 4b91 e33a 84e3 123e
000000c0: 48a2 92be 3c94 87be 1373 28bd b2f9 6fbd
000000d0: 2b85 063e 1b42 aa3e 994e 93be 213b 8b3c
000000e0: 4785 3e3d 1d76 da3d 151e 5fbe b809 a43e
000000f0: 08de c73d bf3d 86bd ee90 5cbe 8672 86bd
00000100: cae4 7ebd 1970 69bd c4be 063d 8e55 72bc
00000110: 5bae be3c ce07 bebd 4cc2 aabd b462 d5bc
00000120: 8ea1 4ebd 144b 06be 1b2c db3c 602c 783c
00000130: 0810 a03c 3383 03bd 5787 f23c a8a2 adbd
00000140: 3aba 1c3d cb26 c33d 1f0d f7bd e4f6 d7bd
00000150: 72a5 f23c 9a46 a4bd b077 5f3c 7a6b 983c
00000160: 03a0 e9bc 89ac 663d 5d33 03be 0452 95bc
00000170: 3121 e6bd b0ce 22bd 4760 14bd 629f b9bd
00000180: fabb b13d 43a1 e63c 3176 093d 1980 ad3d
00000190: 3432 28bc a2c1 3f3b 93ca 3abc e811 a03c
000001a0: 4020 77bd bcdd 35bd b2a2 763d 8ae3 2ebd
000001b0: 631a 97bd cb53 063d 27bb 253d 3c66 4e3d
000001c0: c167 ce3b f6e1 95bd b905 d0bd fac0 f0bd
000001d0: 548f a13c 6036 bebd 8d2e 2fbd 22c7 3bbd
000001e0: d723 0cbe c31b 15bd 2dd7 11be 5921 b83b
000001f0: a674 06be b44c 96bc b2b1 28bd 93f9 c7bb
00000200: cd10 9e3d 0ee7 e6bd 538d ffbd d770 f03d
00000210: fa2e 853d 0390 19be eb97 afbd 055a c6bd
00000220: 02eb b6bd 2156 01be 6b7a 213d f3b9 62be
00000230: 198d 513d f587 b8bd 1952 933d 4068 803d
00000240: 42fb 87be cc6b 73bc e5d3 4bbe 4d38 0f3e
00000250: 5917 29be c737 203d 0b95 b33c 7c72 85bd
00000260: 5c6d 3f3d cfc4 133e cf81 8abd 9942 fe3d
00000270: 6ffa 093d e477 c1bd c6be 55be 4604 42be
00000280: 1fce 26bc 0580 d4bd 72cf 35be c426 18bd
00000290: 0086 59bd bd1a 28bd 409d 85bd 767c 93be
000002a0: 2540 02bd 346b c4bd 42f9 a93c 52d2 00be
000002b0: 93fd 6f3d 2c80 02bd 933b 33be fe45 dbbe
000002c0: 3ec2 e8bc 6fe8 c03a a06d 14be 1568 88bc
000002d0: c99d c73c 28a7 813d 84f5 8f3d 024f d538
000002e0: f5a2 e1bd 638f 2abe b2e0 be3d 4454 ebbd
000002f0: 6491 363d b5d8 963d ac26 76bd 1929 833d
00000300: 7a70 233d d95f 1bbd f871 03be 5f5c c23e
00000310: 4563 863e e70c afbc 88af 533d b04b c0bd
00000320: 184c 843e d804 47bd 01d7 bb3d c851 ec3c
00000330: 841e 3b3d 9989 47be e2ff ad3b 2984 adbd
00000340: e137 e53e 99ab b9be 114c 47bd b164 f3bd
00000350: 9469 90be 23fa 92be 6fd0 2dbe 4da6 0a3e
00000360: 784a 0abd d4d0 823d 30c1 7b3e 575a 943e
00000370: a738 a93e 40ee 8dbe 5468 4f3e 386f 22be
00000380: ce01 893e a435 92bd 4016 7ebd da07 983e
00000390: 5457 b03d ef66 093e 3d4e c4bd 113e 71be
000003a0: 4199 163e 9a0f a43e e67c 95bc d1b9 df3d
000003b0: eb08 b33e 2c3d 9bbd 1c92 903c a203 883e
000003c0: 300d ec3e 1b42 643e 8bcd 2abe f19f d93d
000003d0: 9377 bf3d 2250 65be 24b9 52bd a040 f13d
000003e0: cffd 6f3d 936b 2e3e f490 0abe e856 3ebe
000003f0: 319e 983e 2a17 c73e decf 023d 196e 1bbd
-0.058697227 0.1597925 0.3441673 -0.40442628 0.38338318 0.09138077 0.038225643 0.28848857
0.12120247 0.021132145 0.079780236 0.06434598 0.22582842 0.13899471 0.27040157 -0.01996719
-0.09969205 0.31298012 0.032674573 0.585687 0.09208169 0.18696536 0.10536229 0.011460468
0.04628162 -0.26059067 -0.09912233 0.32383507 0.1372666 -0.12487739 -0.004783388 0.37386516
0.032339934 0.09566074 0.272178 -0.11256348 -0.05686334 -0.3096611 0.4010304 0.2507493
-0.06085091 0.005875658 -0.0703151 0.2598359 -0.30818197 0.26492974 0.0017362026 0.14344603
-0.28639436 -0.2648028 -0.04112537 -0.058587737 0.13136737 0.3325356 -0.28770903 0.016995968
0.046513822 0.106670596 -0.21788819 0.32038665 0.09759146 -0.06554746 -0.21539661 -0.06564812
-0.06222991 -0.05699167 0.032896772 -0.014790906 0.023276499 -0.092788324 -0.083378404 -0.026048042
-0.05044704 -0.13114578 0.02675443 0.015147299 0.019538894 -0.032107543 0.02960555 -0.0847829
0.038263537 0.095288835 -0.120630495 -0.105451375 0.029619906 -0.08021279 0.013639376 0.018605936
-0.028518682 0.056316886 -0.12812562 -0.018227585 -0.112367995 -0.039747894 -0.03622463 -0.09063603
0.08678432 0.028153067 0.03355998 0.08471698 -0.010265876 0.0029259701 -0.0114008365 0.019539788
-0.06033349 -0.044400916 0.060213752 -0.042697467 -0.0737808 0.032794755 0.040461686 0.050390467
0.0062989895 -0.07318489 -0.101573415 -0.11755557 0.019721664 -0.09287715 -0.042769004 -0.045844205
-0.13685547 -0.03640343 -0.1424224 0.0056192097 -0.13130435 -0.018347122 -0.04118509 -0.0061027496
0.07718048 -0.11274539 -0.12478127 0.117402725 0.06503101 -0.14996342 -0.08573898 -0.096851386
-0.08931543 -0.12630512 0.039423387 -0.22141246 0.05115995 -0.09010307 0.07193393 0.06269884
-0.26558882 -0.014857244 -0.1990505 0.13986321 -0.16512813 0.039115693 0.021921655 -0.06515977
0.046735153 0.14430545 -0.0676304 0.12415046 0.033686098 -0.094466954 -0.20873556 -0.18946943
-0.010180979 -0.1037598 -0.17754915 -0.037146345 -0.053106308 -0.041041125 -0.06524134 -0.28805894
-0.031799454 -0.0959076 0.020748738 -0.12580231 0.058591437 -0.031860515 -0.17503195 -0.42826837
-0.028412934 0.0014717708 -0.14494944 -0.016651193 0.02436723 0.06330711 0.0702925 0.00010171348
-0.1101741 -0.1665626 0.09320201 -0.11490682 0.04457225 0.07365552 -0.060095474 0.06404323
0.039902188 -0.037933204 -0.12836444 0.379611 0.26247612 -0.021368457 0.05168107 -0.09389436
0.25839305 -0.048588604 0.09171868 0.02884759 0.0456834 -0.19486083 0.0053100446 -0.08472473
0.44769195 -0.3626373 -0.048656527 -0.1188444 -0.2820555 -0.28706464 -0.16974042 0.13540001
-0.033762425 0.06387487 0.24585414 0.28975174 0.33051035 -0.27720833 0.20254642 -0.15862739
0.2675919 -0.071391374 -0.062032938 0.2969349 0.086104065 0.13418172 -0.09585235 -0.23558833
0.14706899 0.32043153 -0.018248033 0.109241135 0.3496774 -0.07580027 0.017647795 0.26565272
0.4610381 0.22290842 -0.16679971 0.106262095 0.09348979 -0.2239385 -0.051446095 0.11779904
0.05859166 0.17033224 -0.13531858 -0.1858784 0.2980819 0.3888486 0.03193652 -0.037946794

actor.4.bias f4 [32]
00000000: 6da5 0bbe a9c7 6f3d 1c9b 0bbe f275 3f3e
00000010: 4d88 cf3d 0094 293d fe26 723e 4d16 963d
00000020: 55ad 24bc d35b f5bd 62b7 4b3e 110f 18be
00000030: e7de bd3d 1264 873c be41 aa3d 07fa 1fbe
00000040: 25ec 113e 2d56 643e 00b4 27be b0f2 96bd
00000050: da6f b33c 2d12 9e3d dc6b 063c 195f 813e
00000060: 374a a4bd 9dd4 913d 8407 3cbe 33cc 32be
00000070: 2e25 363e 5e1b 303e 0d9d dabd b54a c43b
-0.13637324 0.05854002 -0.13633388 0.18697336 0.10133419 0.04140091 0.23647687 0.07328472
-0.010051091 -0.11980405 0.19894174 -0.14849497 0.09271031 0.01652721 0.083133206 -0.15622722
0.14250238 0.22298498 -0.16377258 -0.07370508 0.02190392 0.077183105 0.008204427 0.25267866
-0.08021968 0.07120631 -0.18362242 -0.17460708 0.1778762 0.1719794 -0.10674486 0.005990351

actor.6.weight f4 [7, 32]
00000000: fe28 21bd 85b1 cfbd 82e0 3b3d 0cf2 9abe
00000010: 2fa5 243d fa96 09bf 41ad fdbe 736e 9b3e
00000020: cc73 8f3e 8810 74bd 37d3 2f3e 09b2 a1bd
00000030: d8ed a43e 4806 82be d944 e93e 1138 c13c
00000040: 45d7 40be a3d4 39be b724 84bd bf4a 86be
00000050: f8e1 203e 188f 20be 4ba3 0b3f 0659 1f3e
00000060: 78a1 da3d e29b 463e da5c 9b3e 3cc5 0fbe
00000070: 126c 36bd d380 b53d be6a cbbe f917 af3c
00000080: 121a e1be 48df 8f3d 28dd c93d b0ce 033d
00000090: 865a 0b3e ccf1 c53e 80f3 4f3e 49d3 58be
000000a0: 6726 a83e 86ee 113e 3810 cc3d f17d 733e
000000b0: 4987 1e3d 6288 3bbe 7545 0d3f ed2e 273e
000000c0: 7f92 9ebe 78b0 253e d8d1 ad3d 0dcf b9be
000000d0: fc2a 2cbe e4b0 fb3e cf96 b1bc 8c8a d73d
000000e0: 8094 67bd 5f72 b1be 04bf 373e 478e e33d
000000f0: b87d 1d3f 9d54 743d accb da3c 6436 193e
00000100: 1caf 5a3d 8c42 e33b 1ece cf3d 7fea f0bc
00000110: d3b2 913e 220f 49be e4bc 84bd e1d9 b83d
00000120: 20da 003e a347 a03b 6188 e33d 4448 bf3e
00000130: d2ea d9bd 5b06 7dbe 26ec d23e 41c0 433d
00000140: d70f 8d3c e2da ebbe 81c0 923e ce72 c5bd
00000150: cd03 143f 4bc8 903d bd0d ae39 2473 09bf
00000160: bcc2 853c 1a3b 6ebe 5325 bdbe a6ac c0bc
00000170: 21c8 b7bc adb0 07bf 2930 a9be 0191 b93d
00000180: fa1a bfbe 4e53 29bd 2b76 c13b 18e9 593e
00000190: 5014 f0be eda9 7f3e 6850 9bbd 0d9e e2be
000001a0: f15b 56be 77af c3bd dee7 203e 9aab 7cbe
000001b0: afe1 be3c 871c 503d bfe9 aabe 4458 b6bd
000001c0: 162e 2abe 61c7 bc3e d82a 5d3c ce0a 963d
000001d0: 761a 223d 8872 ecbe 9bc1 a63e 97ae bb3e
000001e0: 1777 253e 8fbb 84be 2909 0d3d 03f5 033e
000001f0: adda 6abe d96c e83e b871 b93e b138 b8be
00000200: 0cd9 923d 8cd6 3f3e 9615 6cbb 8283 e4bd
00000210: b3fb 40be 6712 9dbc 941b 87be 2bfb d83e
00000220: 22a6 f0bd a689 883d 23a3 07be 7108 7e3e
00000230: 868f f53e dcb1 bd3e 4371 2dbf bcaf f9bd
00000240: 18f6 7e3e ed9e 0fbe ac08 93be f35a 373f
00000250: 5361 0c3d 8aa1 93be 4305 b23e 6703 263d
00000260: de04 85bd 945a d6be 537f 99be 23fb dcbe
00000270: ce72 a4be 5791 b73e 9b58 123e 8156 68bd
00000280: 43a0 843e 9ae4 e3bd e5be 933e f8cb 0bbf
00000290: 3abc 903e 37e2 2f3e 591c 873e 5df7 153d
000002a0: 0d27 4cbe 5fdc dfbd e139 973e d266 50be
000002b0: 5a42 8e3e 433f a3be 6821 9abe 8e35 b3bd
000002c0: 16b2 b23e 8a4d c0bc a882 e5bd d5d6 3c3e
000002d0: 1218 18bf c294 68bd ca95 0f3d be4b 49bd
000002e0: 8a22 58bd 1142 bf3d 16ef 13be 23cb c53d
000002f0: c3d1 a3be fb89 0fbe 47c6 b2be 4a4a ed3e
00000300: c952 a2be 5fc0 693d f1b0 c3bb 135b 4cbe
00000310: 6a79 8f3e 6c2d c33d 2739 b63e f5c0 8dbe
00000320: c57f f1be c7d8 b5bd bbea 143f c588 0ebe
00000330: 88cd 073f ab57 c23c 5293 85bc 055c 833d
00000340: 5874 a1bd deca 09be ddd7 963d 9506 1e3e
00000350: 455e 0fbf d10c bbbe 631d 113e 7d5d 433e
00000360: 8317 483d 5c1a ea3c 6368 5f3e a197 863e
00000370: 808d eabe f50b 673e 5adc 743e b8d6 2b3e
-0.039345734 -0.10141281 0.045868404 -0.30262792 0.040196594 -0.53745997 -0.49546245 0.30357704
0.28018034 -0.059586078 0.17170416 -0.07895286 0.3221271 -0.25395417 0.4556034 0.023586305
-0.18832119 -0.1814752 -0.06452315 -0.26228902 0.157112 -0.15679586 0.5454604 0.15561303
0.10675329 0.19395402 0.30344278 -0.14040083 -0.044536658 0.08862462 -0.39729875 0.021373736
-0.43965203 0.070250094 0.09856635 0.032179534 0.1360875 0.3866104 0.20307732 -0.21174349
0.328418 0.14251146 0.09964031 0.23778512 0.038703237 -0.18313745 0.5518411 0.16326495
-0.30971143 0.16180599 0.0848729 -0.3629078 -0.16813272 0.49158394 -0.021678356 0.105244726
-0.056538105 -0.3465757 0.1794396 0.111111216 0.61519957 0.059651006 0.026708446 0.14962155
0.053389654 0.0069354232 0.101467356 -0.029408691 0.28456745 -0.19634679 -0.064813405 0.09025932
0.12583208 0.0048913523 0.111099966 0.37359822 -0.106404915 -0.24709456 0.41195792 0.04779077
0.017219467 -0.46065432 0.28662494 -0.09641038 0.578183 0.07069453 0.00033198102 -0.53691316
0.016328208 -0.23264733 -0.3694254 -0.023519825 -0.022434296 -0.5300396 -0.33044556 0.090608604
-0.3732527 -0.04133921 0.0059039793 0.21280324 -0.46890497 0.24967165 -0.07583696 -0.44261208
-0.2093351 -0.09554952 0.1571345 -0.24674836 0.023300974 0.050808456 -0.3338146 -0.08903554
-0.16619143 0.36870864 0.013498984 0.073262796 0.039576016 -0.4618113 0.32569584 0.3665664
0.1615871 -0.25924346 0.034432564 0.12886433 -0.2293498 0.45395544 0.36219573 -0.35980752
0.07170305 0.18734187 -0.0036023608 -0.111578956 -0.18846016 -0.019173814 -0.26388228 0.42379126
-0.11750437 0.06666879 -0.13245825 0.24807908 0.47961062 0.37049758 -0.6775095 -0.12191722
0.24898565 -0.14025469 -0.28717554 0.7162315 0.034272503 -0.28834182 0.3476964 0.04053059
-0.06495069 -0.4186598 -0.29979953 -0.43160352 -0.3211884 0.35853073 0.14291613 -0.05672312
0.2590352 -0.11127587 0.28856578 -0.54608107 0.28268605 0.17176138 0.26388815 0.036612857
-0.19936772 -0.10930704 0.29536346 -0.20351723 0.27784997 -0.31884202 -0.30103612 -0.08750449
0.34901494 -0.023474474 -0.11206561 0.18441327 -0.5941173 -0.05678249 0.03505496 -0.0491445
-0.052767314 0.09338773 -0.14446673 0.09657886 -0.31995973 -0.14017479 -0.349169 0.4634574
-0.31703785 0.057068225 -0.005972021 -0.19956617 0.2802232 0.09530148 0.3559048 -0.27686277
-0.47167793 -0.088792376 0.5817067 -0.13919361 0.5304799 0.023723444 -0.0163056 0.06414036
-0.07883519 -0.13456294 0.073653914 0.15432198 -0.5600322 -0.36533216 0.14171366 0.19078632
0.048850548 0.028577022 0.21817164 0.2628756 -0.4581108 0.22563155 0.23912182 0.16781127

actor.6.bias f4 [7]
00000000: 698a bfbd 1865 3cbd b319 8cbd 1f47 d63d
00000010: 7046 8abe 92da 0a3e 6fd2 93bd
-0.093525715 -0.045994848 -0.06840839 0.10462784 -0.27006865 0.1355994 -0.072178714

critic.0.weight f4 [40, 31]
00000000: 6f38 2abe b121 51be 7584 59bd 797f 6c3d
00000010: 2be4 f3bd f594 1ebe 0b0f bcbd 4096 4fbd
00000020: 5782 33be b6f1 b73d c6cb 1abe 889c 7d3c
00000030: d4b1 ebbd 2e44 3d3d db11 723f 1b26 9cbe
00000040: 39ad 223e 645d 3fbd a856 64be 4d10 b83e
00000050: 19ee 0e3e 7e0c 983e aa6f 633f 338a 223e
00000060: abb2 3b3e 21a8 c5bc c7ec 7abd 1e07 45be
00000070: 0b76 cc3c ac58 aabc 92bc af3d 649a 823b
00000080: 9f56 3abe 5cdf 083e 8f27 b33e 2938 e0bc
00000090: 7cd4 8f3d 26ea 0c3e e8ba 113e def1 e8bc
000000a0: 0f62 cb3d 6e8e c53d 33ba c2bd d5ed d93d
000000b0: 4b1a 01be 0866 f0be a68a f53d d525 02be
000000c0: c3d6 0ebd f68d df3d c47e 91be bfaa f23a
000000d0: 5e16 b93d bf19 afbc 98a7 253d 91f7 6f3e
000000e0: 6574 eebc a50f d8bc afc5 e0bd 0278 0dbe
000000f0: 67eb d3be 7709 53be 9eba 14bf ec7b 4a3e
00000100: 273a c0be 47d7 a73e 21fd 9c3e 875b 04bf
00000110: 8989 273f eff5 7abd cd48 643d 763a 04bd
00000120: ac3a 2b3c 6831 dd3b 1ce5 85bd 7a6f 153d
00000130: 418e 0abf 6972 6ebd 409c 3d3e 4950 d93e
00000140: 41b4 073e a7e5 f13d 5439 9b3d 4d1c 443e
00000150: 2a2d 063d 2a72 ccba b93b e63e c241 ecbd
00000160: bc5c ce3c 0213 92bd ef8c b93e fe28 8a3e
00000170: 8daa eb3e 1de9 1cbe d1f9 eebe 61aa c83e
00000180: 4a74 c73e c60b a5be ae30 9dbd 98dc 403e
00000190: 84bd 193c dfc8 93bc 12a6 063c 457a 153d
000001a0: fb36 99bc 07d8 223b 3a49 b8bc ad75 babe
000001b0: 0633 423e 1602 02be 5ff1 8a3e 71e7 7e3e
000001c0: fde9 abbc 35a4 7c3e 00a1 16bd cb96 ab3d
000001d0: 8912 f5bd 414a 7ebd 44ed 9c3d e8d5 eabb
000001e0: 7cf7 4d3d 5716 03bd 43a5 26be 0abc 5bbe
000001f0: 0632 5abe 42ec 2bbe 8a7e 84be 1fe8 7abd
00000200: 5231 acbb 4e63 313d 6ad9 b0be 360c c33e
00000210: d739 a23e f89d a3be ca65 ecbd 8697 133e
00000220: 42b5 393e f0ce eabc 7334 7ebe 3462 833d
00000230: 6818 1f3e a8a6 98bd 223f 74be 3e20 95be
00000240: 2e6f 0d3e 1376 2c3e c468 b6be a0c6 213d
00000250: c301 083d 1e08 0c3c f122 453f 703f 393d
00000260: 4e38 bd3d d877 34be 30e0 c1bd c650 d53d
00000270: 1cb5 eabe 008a 1ebd f6e9 5d3e 60e2 0c3f
00000280: 4c68 ff3e f483 323d 7419 e9bb 61e5 54bc
00000290: 6235 b93c 6fe6 21bc cf90 72bc ff66 853c
000002a0: e480 02bd 3c47 143f cf8d 203e 82fd ed3d
000002b0: 9b87 98be db80 8cbe cf58 8bbd 394c 703e
000002c0: 58c0 683e 8518 d03e a194 933d 1921 133d
000002d0: 7976 c4bd 9c5b 2c3e 476c e3bd 0567 563d
000002e0: 9ff3 663e 68dd 13be c375 1c3f 3cab 623e
000002f0: be4e 1c3e dea4 d63d 80ed 343e 27f9 73be
00000300: a27a 89bd 480e a53d e7bc 80be 62f9 ec3b
00000310: e9d3 5b3d 0fc2 73bd 7364 f73c d429 043e
00000320: fd65 3ebd 6dc9 993d 7d7b 70bd 57fe 863e
00000330: f7c5 913e c1e0 4fbe 1674 103e bef0 3a3e
00000340: 1a5b 8abc 7f32 d9bd 7daa 39be 0971 05be
00000350: f7e1 fdbd 2540 d93d 213c 253d 9f06 e83e
00000360: 7f4a 493d 7475 89be 8c84 88be d86e 92bc
00000370: 322c 9c3d 3223 dcbc 6c26 03be 53b2 0ebf
00000380: 7051 df3d 0a27 d63d 8301 dabd 2c2c cf3b
00000390: 94b5 1639 04d4 3e3e 1efe b83c ebed 83bb
000003a0: c0ef afbe b90d 6d3d 03ee 78be c38b 66be
000003b0: b9f3 373e 8aa3 ff3e a1b3 833e 3e68 183e
000003c0: 0b61 96ba 05df 193d 53e7 df3d 0fc6 003e
000003d0: 6da0 c53d 03ab 73bd 19b4 4fbe 7479 74be
000003e0: 6be1 0cbe 3a58 a9be c018 1a3e a789 a83e
000003f0: 48d2 3438 bf07 9d3e 541b 3f3e f541 a5bb
-0.1662309 -0.20423009 -0.053104836 0.057738755 -0.11908754 -0.1548651 -0.09182557 -0.0506804
-0.1753019 0.089816496 -0.15116796 0.0154792145 -0.115085274 0.0462076 0.94558495 -0.30497822
0.15886392 -0.046719924 -0.22298682 0.35949937 0.13958015 0.2969703 0.8884226 0.15873031
0.18329875 -0.024128022 -0.061260965 -0.19240996 0.024958631 -0.020794235 0.08580889 0.00398569
-0.18197106 0.13366455 0.34991118 -0.02737053 0.0702295 0.13761196 0.14231455 -0.028435644
0.099308126 0.09646307 -0.09508171 0.10641066 -0.12607686 -0.46952844 0.11989336 -0.12709744
-0.03487278 0.10915749 -0.28417027 0.0018514021 0.09037469 -0.021374581 0.040443033 0.23434283
-0.029108236 -0.026374647 -0.10975205 -0.1381531 -0.41390535 -0.2060908 -0.58097255 0.19773835
-0.37544367 0.3278143 0.30661872 -0.5170216 0.65444237 -0.061269697 0.05573349 -0.032282315
0.010451 0.0067502744 -0.0653784 0.036483265 -0.5412331 -0.05821458 0.18516636 0.42444065
0.13252355 0.11811381 0.07579294 0.19151421 0.032757916 -0.0015597988 0.4496744 -0.1153598
0.025190704 -0.07132532 0.36240336 0.269844 0.46028557 -0.153233 -0.4667497 0.3919249
0.3895591 -0.32235545 -0.076753005 0.1883415 0.009383563 -0.018040119 0.008218305 0.03649356
-0.018702975 0.0024848 -0.022495855 -0.36417904 0.18964776 -0.12696108 0.27137277 0.24892975
-0.020985598 0.24672015 -0.036774635 0.08378371 -0.11966426 -0.062082533 0.07662442 -0.007166613
0.050284848 -0.032003727 -0.1627398 -0.2145845 -0.21308145 -0.16789344 -0.25877792 -0.061256524
-0.005254903 0.043307595 -0.34540874 0.38095254 0.31684753 -0.31956458 -0.11542852 0.1441327
0.1813555 -0.028663129 -0.24824695 0.06415215 0.15536654 -0.07453662 -0.23852208 -0.2912616
0.13811943 0.16841917 -0.35626805 0.039496064 0.033204805 0.008546857 0.7700644 0.045226514
0.09239255 -0.17623842 -0.094665885 0.10415797 -0.458413 -0.038705826 0.2167128 0.5503292
0.4988426 0.04358287 -0.00711363 -0.012994141 0.022608463 -0.0098816 -0.014805033 0.016284464
-0.0318612 0.57921195 0.15679096 0.116206184 -0.2979096 -0.2744206 -0.06804048 0.23466577
0.22729623 0.40643707 0.07206083 0.035920236 -0.09592909 0.16831821 -0.11104637 0.05234434
0.22553872 -0.14439929 0.6111719 0.22135633 0.15264413 0.10480665 0.17668724 -0.23825513
-0.067128435 0.080593646 -0.2514412 0.007231877 0.05366889 -0.05951124 0.030199265 0.12906581
-0.046483982 0.07509122 -0.058711518 0.2636592 0.28471348 -0.2030058 0.14106783 0.18255898
-0.016889144 -0.106053345 -0.18131442 -0.130314 -0.12396615 0.10607938 0.040340547 0.45317551
0.04914331 -0.26847422 -0.26663625 -0.01787512 0.07625617 -0.026872251 -0.12807626 -0.5574085
0.10904205 0.10456665 -0.106448196 0.0063224044 0.00014372758 0.18635565 0.02258211 -0.0040261648
-0.34362602 0.057874415 -0.24309544 -0.22514252 0.17964067 0.49929458 0.25722983 0.14883515
-0.0011473013 0.037566204 0.109327935 0.12575553 0.096497394 -0.05948926 -0.20283546 -0.23874456
-0.13757865 -0.33075124 0.15048504 0.3291752 4.3111184e-05 0.30669972 0.18662769 -0.005043263

critic.0.bias f4 [40]
00000000: b0a6 d23d 637c b5be 7ca8 883e f863 1bbe
00000010: 7768 a1bd dd7c f4bd 50f8 933e b432 afbd
00000020: 7e19 07be 9248 c23e 98e8 fdbe 8340 463e
00000030: d79d 883d 6f4d 073f a4a1 d03e 866a 82be
00000040: 25f8 5fbe 17c8 47be ee7c 243f 1558 0b3e
00000050: 383d 12be a751 7e3e ddc3 94be fd25 bf3e
00000060: f32e 84be 4d54 d03d f8a8 c1bb 7526 553e
00000070: 28cd 72bb 51bb 28be 8780 6dbe 6756 fc3e
00000080: b93f 013e b3c1 b73e e565 173e 2a88 9bbe
00000090: 7289 e23e 7541 813e adaa 9ebd 9f29 2ebe
0.10285699 -0.35446462 0.26691043 -0.15174854 -0.07881253 -0.11937878 0.28900385 -0.08554593
-0.13193318 0.37945992 -0.49591517 0.19360547 0.066707306 0.5285253 0.40748322 -0.25471896
-0.21872003 -0.19509922 0.6425313 0.1360782 -0.14281166 0.24835835 -0.29055682 0.3733367
-0.2581707 0.10172329 -0.005910035 0.20815451 -0.0037048552 -0.16477706 -0.2319356 0.4928467
0.12621965 0.35889968 0.14784963 -0.30377322 0.44245487 0.25245252 -0.077473976 -0.17008065

critic.2.weight f4 [64, 40]
00000000: c577 3cbe 2935 043d ab13 eb3e 9b44 71bd
00000010: 23f4 323d 58a0 6a3e 30b0 cc3c bf55 2fbf
00000020: 0c19 abbc f240 69be 8265 183e 02e9 4b3e
00000030: e5b9 46bc 5417 033f c2e3 003f ca27 1ebd
00000040: c212 0abe 6cc6 85bd c25c c43d 52a2 a63e
00000050: 8cf8 eabd 6a76 ac3e 9e4e f0bd 7770 e5bd
00000060: a056 343e 8e07 1c3d 5741 b73d 768d cabd
00000070: 7ff3 ce3e f2c5 033d 3a56 1abe 8e74 803e
00000080: f5a3 edbc f7a7 153f ea93 683e 697d 9bbe
00000090: 9548 cfbe 357d a0bb a318 c53d 76cc 873e
000000a0: 6df8 00bf 6dd6 7dbe 116a e1bc d352 b0be
000000b0: e30d 903d 31aa fe3e 6ea1 1dbe e031 80bd
000000c0: a779 e73d 962f d83d eee7 863e 860f ffbd
000000d0: 5241 cfbe ea25 293e c781 84be a222 4dbd
000000e0: f8b5 78bd 4b54 a63e e5a5 b23c c496 b43e
000000f0: 266c 853e c9e4 ba3e bb57 f33c 5f0c 473c
00000100: fa11 693f e848 863e acb1 6abb 6eac 36be
00000110: 52a0 2b3e 6e95 3bbe db5c 9bbe 5428 553e
00000120: 6069 28bf 0beb 9e3e babe be3e 6580 c8be
00000130: 88ea 08bf 83a1 9e3e 2838 b73e fd93 ad3e
00000140: 7d94 ef3e feb7 d53e 1b7c 7bbe 5c37 333e
00000150: 4ac8 bc3e 17b8 3f3e 68e7 f23d c555 a2bd
00000160: 80b0 1ebd f031 73bd 2113 bdbe 8b86 b2be
00000170: f8ed a83e ae54 2f3e 84b8 48be 5f43 88be
00000180: b983 bebe 5b92 40bf a650 4b3e 99fa bb3d
00000190: 280b 13be fe03 103e f120 91be 2c51 5d3e
000001a0: f60b 22be 4381 d43e ce77 afbd f8e8 a83e
000001b0: ed04 6ebe 79b6 d0be d017 a83d 4abc e33e
000001c0: c43a 803d f436 b53e d071 73be 2029 a5bd
000001d0: e388 223e a781 053f adc0 1dbe f4f1 54be
000001e0: f518 a7be b6f2 b13e 8583 973e b5c2 9f3e
000001f0: 8e19 85bd 31a0 633d 12e8 333e f91d cc3e
00000200: 23c3 c83e 3359 fb3d 4fbd 803e 3640 21bd
00000210: a755 9cbd a062 32be d12f 8fbe c67d 2ebd
00000220: 2b9a 773e 5cdb fbbe b908 c9be 6e70 383e
00000230: 93fc b63c e0d5 85be e159 853e 3651 dabd
00000240: 3abf a33e aef6 babe ef3c 5abe 9d4b 6ebe
00000250: b2c2 283e 70e7 613e ad83 19bd b1df e3be
00000260: d4a4 1fbd 4d13 acbe e8b7 d2be 4869 fb3e
00000270: 8dab c03d 912d ecbe ae8b 5ebe d703 ecbd
00000280: db4b 1dbe 424a 98be 4970 b6bd 20ca 8abe
00000290: 79d6 abbd 129a 8d3d 3412 48bd 5d64 70bd
000002a0: 6758 293d 6a04 d0be 0a23 94be 8f4e a1be
000002b0: c290 fcbd 1de4 81bd 8021 94bd 3412 06be
000002c0: 98ff 14be 0cea 0fbc 7f93 d3bd e053 073c
000002d0: 42b2 20be 3fa7 cf3d b895 91be 437e c23d
000002e0: cc33 4c3e 0259 e2bd c177 81bc a188 4abd
000002f0: 8f74 5bbe df6b 05bd 0496 e7bd dff1 bbbc
00000300: 0160 01be 7dea c1bd f61c a1bb 451d f9bd
00000310: 9c24 25be 2e2e b23d efe7 00be 99b5 c23d
00000320: b484 903e 66a0 103e f55b 76be 7d78 493f
00000330: ebea 00be ea71 51be 1b2f a93d 58d5 553e
00000340: 52b5 a53d fbd9 233c c03c d03e b207 a33e
00000350: bb68 a03e d957 09be dd1d eb3e 8bde cbbe
00000360: 3282 983e 5749 afbe 7b49 4e3d 7ef2 3039
00000370: 0661 903d 2386 a6be 101b c9bd 41b3 0a3d
00000380: cf07 81be 3505 a43d 84b5 bc3e a24a 703e
00000390: 7229 823e 855e c23d 0409 40be a9ce b7bd
000003a0: 2213 cbbc f87a 87be 05e1 e13c 3711 a33d
000003b0: 30ca fa3e 2a56 2c3e 8962 e0be d84e 93bd
000003c0: 8c13 1cbe 9151 ba3d 8f85 cebe 4dfa b6b9
000003d0: e4f3 10be 11d6 a3ba a097 10be a0ac a1bd
000003e0: dd39 ec3d 26b7 aabd 7830 853d 92cd 3cbe
000003f0: 80f6 bd3c 7a0b 5e3e 2f1d 81bd 5b9a b13d
-0.18405063 0.03227726 0.45913443 -0.058903318 0.04368986 0.22912729 0.024986356 -0.68490213
-0.020885967 -0.22778681 0.14882472 0.19913104 -0.012129282 0.5120747 0.5034753 -0.038612165
-0.13483718 -0.065319866 0.09588005 0.32545716 -0.11473188 0.33684093 -0.11733745 -0.112030916
0.1761117 0.038093142 0.089480095 -0.09890263 0.40420148 0.032171197 -0.15071955 0.25088924
-0.029008845 0.5845942 0.22712675 -0.30369118 -0.40485063 -0.0048977383 0.0962384 0.2652318
-0.5037907 -0.24788828 -0.027516397 -0.3443819 0.07033899 0.4973922 -0.15393612 -0.06259513
0.113025 0.10555951 0.26348823 -0.12454133 -0.40479523 0.1651837 -0.25880262 -0.050081857
-0.060720414 0.32486185 0.02180762 0.35271275 0.26059073 0.36502674 0.02970492 0.012148946
0.91043055 0.26227498 -0.0035811467 -0.17839214 0.16760376 -0.18318722 -0.3034428 0.20816165
-0.6578579 0.310387 0.37254888 -0.39160457 -0.53482866 0.309826 0.3578503 0.3390197
0.46792975 0.41741937 -0.24559061 0.17501587 0.36871558 0.18722568 0.118605435 -0.079265155
-0.038742542 -0.059373796 -0.36928657 -0.34868273 0.32994056 0.17122146 -0.19601637 -0.266139
-0.3720987 -0.7522332 0.19854984 0.09178657 -0.14359725 0.14064023 -0.28345445 0.21612996
-0.15824875 0.4150487 -0.08567773 0.3299024 -0.23244067 -0.40764216 0.08207667 0.4447959
0.06261209 0.35393488 -0.23773885 -0.080644846 0.1587253 0.5215096 -0.15405531 -0.20795423
-0.32636228 0.34755486 0.2959253 0.31203237 -0.06499015 0.055572692 0.17568997 0.39866617
0.39211378 0.12272873 0.2514443 -0.039367877 -0.076335244 -0.17420435 -0.2796617 -0.042600416
0.24179904 -0.49190795 -0.39264467 0.18011639 0.022337234 -0.26139736 0.26045135 -0.10660021
0.31981832 -0.36516327 -0.21312307 -0.23271032 0.1648052 0.22060943 -0.03747909 -0.445066
-0.03897555 -0.33608475 -0.41155934 0.4910376 0.09407721 -0.46128514 -0.21732971 -0.1152417
-0.15360968 -0.29744154 -0.089081354 -0.27107334 -0.08390517 0.06914152 -0.048845485 -0.058689464
0.041344073 -0.40628368 -0.28932983 -0.31505248 -0.12332298 -0.06342337 -0.07232952 -0.13092881
-0.14550626 -0.0087838285 -0.10330867 0.008259743 -0.15693 0.101393215 -0.2843454 0.09496739
0.19941634 -0.11052133 -0.015804173 -0.049446706 -0.21431182 -0.032573577 -0.1130791 -0.022942482
-0.12634279 -0.09468553 -0.0049167825 -0.12163786 -0.16127247 0.08700214 -0.12588476 0.09507293
0.28226244 0.14123687 -0.24058516 0.78699476 -0.12589614 -0.20453611 0.08260938 0.20882165
0.08091225 0.010000701 0.4067135 0.3184181 0.31329903 -0.13412417 0.4592122 -0.39818224
0.2978683 -0.3423564 0.050363045 0.00016875003 0.07049756 -0.32524213 -0.09819615 0.033862356
-0.2520127 0.08008806 0.36857235 0.2346597 0.25422245 0.094906844 -0.18753439 -0.08974964
-0.024789397 -0.26461005 0.027573118 0.07962268 0.48982382 0.16829744 -0.43825176 -0.071927726
-0.15241832 0.09097589 -0.40336272 -0.00034900234 -0.14155537 -0.001249971 -0.1412034 -0.07894254
0.11534474 -0.08335714 0.06503385 -0.18437794 0.02318883 0.21684065 -0.063043945 0.08672019

critic.2.bias f4 [64]
00000000: 02dd 4e3e 55a4 093d fe2c b23d 6543 82be
00000010: 7028 acbd 2299 303d 10d9 e63d faa1 7b3e
00000020: 3fc9 d13e afb2 38bc 2df1 353d e17a 973e
00000030: fdad bfbe d5cd 61be 9d9c 43bd 1984 0bbe
00000040: ab24 b23d c5a8 093e 24f1 a5bd a289 a83e
00000050: dcbf aebd dd95 5dbe 4f55 07be 01a3 8e3d
00000060: a685 863e df21 be3e 7b11 7bbe 53df ff3d
00000070: 259a 883e 4493 4a3e cdcd 9cbe a7c0 923e
00000080: bdfc 8f3c d3e7 273e 9657 a1be 0ff9 633d
00000090: e1d7 83be a696 c43e 88f8 323e bb68 94be
000000a0: 8f1c 99be e475 2a3e 16c4 c23d 1ffd 353e
000000b0: 6056 9f3e 1f3f 96bd ce0f bb3e 28ef c33e
000000c0: 5b1b 263e ec8f 8a3e 917f 99bd 712f 033d
000000d0: 007d ae3d a7ac 56be d282 b63e e8c5 663e
000000e0: f6e4 903e cfac bfbd 95b3 37be 646d 233e
000000f0: 19a4 093e c9d3 a33e ad4f a6bd 4b36 9dbd
0.20201495 0.033603985 0.08699988 -0.25442043 -0.0840615 0.04311479 0.1127187 0.24573508
0.4097385 -0.01127307 0.044419456 0.29585937 -0.3743743 -0.22051175 -0.04775678 -0.1362461
0.086984 0.13443287 -0.081026345 0.32917506 -0.08532688 -0.216392 -0.13216136 0.06964684
0.2627384 0.37135217 -0.24518387 0.124937676 0.26680103 0.1978274 -0.30625764 0.28662607
0.01757657 0.16397028 -0.31512135 0.055657443 -0.2575064 0.38396186 0.1747762 -0.28986153
-0.299046 0.16646534 0.09510057 0.1777234 0.31120586 -0.07336258 0.36535496 0.382684
0.16221373 0.2706293 -0.074950345 0.032027666 0.085199356 -0.20964299 0.35646683 0.22536433
0.28299683 -0.093591325 -0.17939599 0.15959698 0.13441505 0.31997517 -0.08120666 -0.07676371

critic.4.weight f4 [32, 64]
00000000: d390 c63d 0314 6e3e e076 98bd c6f3 c4be
00000010: c637 4fbd fa67 4abe 4234 d2bd 7b66 c53e
00000020: e192 393c 1778 09bf d9a2 573e f1a5 0c3e
00000030: cd84 a9bd 9a77 d23d 293d 0f3e d9a5 c63c
00000040: e9ea 953e 42d8 fb3c 1ef2 55bd 6854 57be
00000050: 1356 fc3d 367b 28be 599e efbc 4313 02be
00000060: 5417 a43d ce8f e33e 9ebd 94be 7450 1ebf
00000070: 99fe 32be 23a7 703d 6f25 d8be 036f b23e
00000080: af9b f63d 6c7f a93e 76b6 7dbd c65c f73d
00000090: 53ba 9e3e fd69 ab3e d8ca 043f 3a5e 43be
000000a0: 150e 41be c7a4 91bd 573e 663c 11bd e4bd
000000b0: 2cb0 ce3d 62d3 a9ba ca19 883d b3a9 b2bc
000000c0: 4711 2f3e 34d3 823e fd6a 82be 5c14 003e
000000d0: d639 77be 993c 13bf b4b9 563e b85e 123f
000000e0: 4f8a 613e fdbb 39be f141 3abe 078a 273c
000000f0: 7e54 13bf d193 fe3d d27f 14bd d6f8 03be
00000100: 95cc debe 7b75 6e3d 2382 c6bd cfa3 a73e
00000110: 13d2 e93d 1c97 28bc fd9b 81bd 4f6b 153d
00000120: 473d 0cbd cbf8 543c 3e70 b13e 55be 8dbe
00000130: 081f c43c 8879 6bbe 72ed 53bc edff 26be
00000140: e980 dfbc 7fbf d7bd 0b89 03bd 4353 3f3e
00000150: 0481 193d b9a2 3c3e 7512 69bd 35e8 bdbd
00000160: d232 433d 523a e238 1eaa 033e 108a 993c
00000170: a9f8 8a3e 8697 2fbe 2b60 14bd 8582 24bf
00000180: 6229 2cbe 0e87 1cbf 0629 f6bc 6fd9 d53d
00000190: e1de 5a3d 53bc 14be a4e3 9eba 0edb 3d3e
000001a0: 998e d2be 9a05 e7bd 0d2d 8fbe 7a0b 553e
000001b0: b35f 0ebf 2aa2 67be 7b54 7b3c dec4 123d
000001c0: b267 b13d d4fa 373d d564 793d 02c4 14be
000001d0: 2c01 aa3e 6185 b13e 1b1c 61be 7905 393e
000001e0: 1be9 603d 139f 7d3e 5858 2a3e e1d3 73be
000001f0: b4e5 823e fbc4 10bd f2ae 613d fc60 cbbc
00000200: 6e1f 0d3f 1e45 ef3e ec6f f73e 3dc8 bb3e
00000210: 2323 fe3c 2fa2 823d cb4d 943d 72e1 033e
00000220: 938e d13e cfe6 75bd 01b0 c2be c19a 473e
00000230: 7040 72be 34cb 14be 3e23 43bd 9304 8c3d
00000240: 5008 1e3f 1918 4a3e 6060 d73d 3281 f23e
00000250: 36b3 f3bd 6235 123e c549 21be f1eb ef3d
00000260: 29b5 d13e 407c 01bd 3ef4 b13e 6345 f9bd
00000270: 6df7 533e 02b7 143e a644 2c3e 2527 f4bd
00000280: abbc 4e3d 960e ad3c 787f e8bd c9e4 7c3e
00000290: aa08 05bf d3f5 ec3d 4955 dc3e dba3 05be
000002a0: 2ab5 05bf 61aa e73d f277 533d 9704 9f3e
000002b0: 4514 6f3d 8124 2c3d 5974 2b3d 74be 513e
000002c0: 9273 8d3e 236f 63be c792 6e3e 4ba9 413f
000002d0: 52a5 1cbf 24bf 61bf f756 a13e 35fe ef3e
000002e0: 97d9 003f 4855 8f3e 43df 0ebf 0350 c2bd
000002f0: 4561 b73d 6606 393f 9a90 7ebe 0a5b 443e
00000300: 4f68 883e c1a6 933d 6a63 853e 4b08 463e
00000310: a89f 92be f0d8 9f3e 23f7 093e 349a d7be
00000320: 5971 7fbe f28b ac3e 650b db3e bfc5 14be
00000330: ad8b c53e aefb 293e be0a c13e 02f7 b03e
00000340: cba7 9f3d 7c7f 29be 1abe 8a3b 4e58 383e
00000350: 4c9e fabb 3caa b4bd 791a c23e 4ec4 873d
00000360: ccb4 e2be 6b90 7abd 9b86 963e 600b 4e3e
00000370: 6647 3abe d3e0 fc3c 5d59 483e f9a1 24be
00000380: be84 533e 5239 05bf c117 fd3c 851c 6d3e
00000390: 06e3 eb3e 0451 213d 324b ea3c a941 b93e
000003a0: 0a76 fd3e e90a dc3d 5cf6 c0be b744 aabe
000003b0: d246 cebe 84db 8d3e 2d76 f5bd d26e b23d
000003c0: cd1c be3c fa49 80be 7b5f c43d ef9e 2c3d
000003d0: a50a 073f 3859 213f 0555 2a3e de34 4fbe
000003e0: db51 25bf b034 ac3e d037 a43e ecc6 cebb
000003f0: 585a a2bd cb7c c5be f311 09bd 6d06 e93e
0.09695592 0.23249821 -0.074445486 -0.38467234 -0.0505903 -0.19766226 -0.10263874 0.3855475
0.011326523 -0.5369887 0.21058215 0.13735177 -0.08277283 0.102767184 0.13988174 0.024249004
0.29280785 0.030742768 -0.052232854 -0.21028292 0.12321105 -0.16453251 -0.02925031 -0.1270266
0.08012262 0.44445652 -0.29050916 -0.6184151 -0.17479934 0.058753144 -0.4221606 0.3485032
0.12041413 0.33105028 -0.061941586 0.12078242 0.3100153 0.334793 0.51872015 -0.19078913
-0.18853028 -0.07111507 0.014052949 -0.11168874 0.10092196 -0.0012956674 0.06645544 -0.021809435
0.17096435 0.2555176 -0.2547225 0.12507766 -0.24143156 -0.5751434 0.20969278 0.5717578
0.22025417 -0.18138118 -0.18189217 0.010225779 -0.575508 0.124305375 -0.03625471 -0.12887892
-0.4351546 0.058217507 -0.0969279 0.32742164 0.114170216 -0.0102899335 -0.063285805 0.03647929
-0.034238126 0.01299877 0.34655946 -0.27684274 0.023940578 -0.22995579 -0.012935029 -0.16308565
-0.027283149 -0.10534572 -0.032113116 0.18684106 0.037476555 0.18421449 -0.056902368 -0.092728056
0.047655888 0.00010787383 0.12857863 0.018742591 0.27142838 -0.17147645 -0.036224525 -0.64261657
-0.16812661 -0.6114358 -0.030048858 0.10441863 0.05343521 -0.14524965 -0.0012122286 0.18540594
-0.41124418 -0.11280365 -0.2796406 0.20805159 -0.55614775 -0.22620454 0.015339966 0.03583228
0.086623564 0.044916943 0.060887177 -0.14527896 0.3320402 0.34672073 -0.21983378 0.18068494
0.054909807 0.24767713 0.16635263 -0.23811294 0.25565875 -0.035344105 0.05509848 -0.02482652
0.5512608 0.4673242 0.48327577 0.36676207 0.031022614 0.0637859 0.072414 0.1287897
0.40929088 -0.06003457 -0.38024905 0.19492628 -0.23657393 -0.14530641 -0.04764103 0.0683681
0.61731434 0.19735755 0.10516429 0.47364193 -0.11899416 0.14278176 -0.15750797 0.11714924
0.40958527 -0.031612635 0.34756655 -0.121714376 0.20699854 0.14522937 0.16823062 -0.11921529
0.050472897 0.02112512 -0.11352438 0.2469665 -0.51966345 0.11570325 0.43033817 -0.13050787
-0.5222956 0.11311794 0.05162806 0.3105819 0.05836894 0.042027 0.041859005 0.20482808
0.27627236 -0.22210364 0.23298179 0.75648946 -0.6118976 -0.8818228 0.3151166 0.46873632
0.50332016 0.27994752 -0.5580942 -0.09487917 0.089540996 0.7227539 -0.24859849 0.19175354
0.2664208 0.0720954 0.2605241 0.19339101 -0.28637433 0.31220198 0.13473181 -0.42109835
-0.24945582 0.3370052 0.4278213 -0.14528559 0.38583127 0.16599914 0.37703508 0.34563452
0.07795676 -0.16552538 0.0042340877 0.18002436 -0.007648265 -0.08821532 0.37910822 0.06629239
-0.44278562 -0.061172884 0.2939957 0.20121527 -0.18191299 0.030868923 0.1956534 -0.16077413
0.20656106 -0.5204059 0.030895116 0.2315541 0.46071643 0.039383903 0.028600309 0.36182907
0.4950412 0.107442684 -0.37687957 -0.3325555 -0.40288407 0.2770654 -0.11985431 0.087125435
0.023207093 -0.2505644 0.09588524 0.04214376 0.5275062 0.6302676 0.16633995 -0.20235011
-0.64578027 0.33633947 0.32073832 -0.0063103344 -0.07927388 -0.38571772 -0.033464383 0.45512715

critic.4.bias f4 [32]
00000000: 02ba 483e 11ee 33bc 5896 133e 8519 9e3d
00000010: 9615 b73e 93b9 5b3e e390 383e d7e7 f23d
00000020: 0968 c83c 9f14 863e 3047 323d 54cd debd
00000030: f0e3 28be c187 3ebe a0ea 9a3d 9237 47bd
00000040: c48d 9abe 58f7 a63e 9c2f e7ba 6ba8 143e
00000050: 6d8f 00be 06e4 38be 2aa2 383e 0bc3 0cbe
00000060: 80c0 0cbe ffc2 ae3d 1c1b 4cbc a81c 4abd
00000070: 3cc3 1c3d e3db 07bd 69cc 93bd 6d84 a9bd
0.19602206 -0.010982052 0.1441282 0.07719711 0.35758656 0.2145751 0.1802402 0.11860626
0.02446367 0.26187608 0.04352492 -0.10879007 -0.16493201 -0.18606474 0.075642824 -0.04863698
-0.30186284 0.32610583 -0.001763809 0.14517371 -0.12554713 -0.18055734 0.1803061 -0.13746278
-0.13745308 0.08533286 -0.012457635 -0.049343735 0.038272128 -0.033168685 -0.072167225 -0.08277211
