Weight/14_5_62/PPO_continuous_log.pth (torch_old, 19759 bytes, 13 tensors)

actor.0.weight f4 [28, 31]
00000000: 9608 41be b0cf 893d bc59 44bd 1061 783d
00000010: 9215 afbd 6d8c f8bc 86ba b43c 2f21 193e
00000020: 20af 1cbe d9cc 1fbe 9b2a 24be 6120 cabd
00000030: 7366 663e 3ac5 0e3e 450f a8bd 19e2 62bd
00000040: 2d0c bbbc ec3e 0f3e 931a 1bbc 8afe f93d
00000050: 9f3c e0bd e1c8 21be 419c 1bbe 8034 1c3d
00000060: a2c3 07bd 215e b9bd 0c18 f7bd 364e 6cbe
00000070: 63dc 29be bb81 233e 2f9c 123e 1db3 0bbd
00000080: da69 7ebc 952f afbc cd08 ce3d fe18 313e
00000090: d6bc 7d3d df7e 3cbe 406c aa3d 0f80 353e
000000a0: b42c acbd f739 c53d 43e8 babd 32fb 16bd
000000b0: 0cac 15bb 10ca e1bd b4ea 01bd 9465 903d
000000c0: bba6 0d3d 0060 cf3d 1705 c3bc 0a98 ac3c
000000d0: af23 08be 0180 69be 20af 7ebe eb04 adbd
000000e0: aef7 28be aa3a ee3d c7cb 91bd b02e 323e
000000f0: 52bc febd ba05 88bc 5eb8 583e 59da 6e3d
00000100: 1822 9abc 674d 203c a40d debd 8ade ebbc
00000110: 5637 263e 1577 ef3d ffbb 3c3e 8957 a7bc
00000120: 4638 78bc 705a 053e 82b7 283d 9996 ac3b
00000130: 7e16 21be 3826 21be 7a76 ac3d 5052 1bbe
00000140: 122f 8a3d 112f 7c3d 9dc2 883b a9c4 033d
00000150: 0d67 e63d eea0 6abe d28c 3bbe d9d3 e1bd
00000160: 07a0 e73d 8715 323d e630 723c 3725 b33d
00000170: 3da1 bd3d 8660 babc 2ca8 8cbd 900a 96bd
00000180: bafc 1a3e 1b83 113a bdf5 e03c fdd6 67bd
00000190: 0468 ad3d ff54 05be 26b9 42bd 0190 363c
000001a0: d4c3 c5bd 1076 4b3d 52fd d53d 8b58 213e
000001b0: 4f63 f1bc af79 57bd d351 563d 47b7 4b3d
000001c0: c25d 353e ac4f 8f3d c1fb 443e 51b2 9a3d
000001d0: 2164 2f3e d778 7cbd 6cdb bfbd a96b 0abe
000001e0: 2634 843d bcc9 fb3d f034 1dbe 5f8a 473d
000001f0: 6087 3bbd ca65 ac3d 46d1 11be dd2e 06be
00000200: aef6 9fbd aa17 953d a6a2 58bd 7ea7 4bbd
00000210: 3ece b83c 1751 df3d b607 3cbb 6d74 0c3e
00000220: d47b 923d 14ab 693e f58d 86bd 8b37 1bbe
00000230: 6183 3dbd 28b8 3a3d c70d 0f3d 2aa5 17bd
00000240: 4c75 803d b6e2 86bd 0f4b 3a3e 3fb5 2cbe
00000250: 8a3f 4cbe 9690 d9bd 45b0 a4bd c883 67bd
00000260: 4416 233e 6422 c9bc df9b 16be edcd fb3d
00000270: 3633 5dbd 33ef 343e 8f10 793d f61f 6bbd
00000280: 645b afbd 5f0c 1c3d 50c2 30be 135e f6bd
00000290: 75a8 9ebd 88b6 eb3d 3f3d 5dbd f6ef 4cbd
000002a0: 0216 82bd c950 eabb ba7b b0bd 3dbf 9ebc
000002b0: 11df b23d ec07 0bbe ddb3 6c3d 2b77 403e
000002c0: 82af 00be 9046 3abe f7f5 cbbd 23ed 73bd
000002d0: 92aa ed3d 10be b7bd 3d3a 1ebe 01fd 71bb
000002e0: 4bc3 473d 08d6 47bd 8b53 a1bd c583 31bc
000002f0: 0b43 923d 0041 1a3e ca37 1cbe 4e55 e2bb
00000300: c718 f4bd 2ff9 5abc 8f1b 84bd 8e54 3e3b
00000310: 84cd 183d 9bc2 1b3d 5f94 43be eb80 bfbd
00000320: 47ee 2ebc 8dd7 a13d 74fd 2ebe dce3 ffbd
00000330: 265c 2ebe 8d6b 59bd 0970 293e f1f7 263e
00000340: 408e c1bc 3a3b c5bc 8bb2 2cbe f63a 993d
00000350: b4ef 0e3d 2c07 07bd 91fb 2fbc ca80 ce3d
00000360: d912 d23d 391b 153e 14a3 4fbc b273 31be
00000370: a5ac eebc 59dc 0dbd 4e99 d4bd 944f b23d
00000380: 951f 24be 94d3 0abe 92d7 dabd d3ff ef3d
00000390: 8698 163e c045 edbd d568 cabd 20b6 6bbd
000003a0: ff63 d1bd 3947 42bd 3024 2c3e e06f a73d
000003b0: bf65 243e 0d06 263d e869 79be 6a97 adbd
000003c0: 0343 1a3e be1d 033e 50b9 adbd dbc4 36be
000003d0: c44d ba3d 75bd cfbd dd6f 0e3e e596 c13d
000003e0: 3675 a23d 19c5 9abd 3ba5 aabd fee2 bc3d
000003f0: 7e91 cfbd da6b 123e e67f d13d dc8c 55bd
-0.18850932 0.06729066 -0.04793714 0.06063944 -0.08549036 -0.030340398 0.022061598 0.14954065
-0.1530118 -0.15605487 -0.16031878 -0.09869457 0.22500019 0.13942423 -0.082060374 -0.055391405
-0.022832954 0.13988847 -0.009466785 0.122067526 -0.109490626 -0.15799285 -0.15196325 0.038136005
-0.033145554 -0.09051157 -0.120651335 -0.2307671 -0.16587977 0.15967457 0.14317392 -0.034106363
-0.015528167 -0.021384994 0.10060272 0.1729469 0.061947666 -0.18407772 0.08321428 0.17724632
-0.08406964 0.096301965 -0.09126332 -0.036860652 -0.0022838144 -0.110248685 -0.03171797 0.070506245
0.034582835 0.101257324 -0.023806138 0.021068592 -0.13294862 -0.22802736 -0.24871492 -0.08448204
-0.16500732 0.11632283 -0.071189456 0.17400622 -0.12438263 -0.016604293 0.2116408 0.0583137
-0.018815085 0.009784079 -0.108424455 -0.028792638 0.16232046 0.11692635 0.1843109 -0.020427482
-0.015150135 0.1302278 0.04119063 0.005266976 -0.15731236 -0.15737236 0.08421035 -0.15168118
0.06747259 0.061568324 0.0041735903 0.03216997 0.11250124 -0.22912952 -0.18315437 -0.11026735
0.1130982 0.04347756 0.014782166 0.087473325 0.092592694 -0.022751104 -0.06868014 -0.073262334
0.1513547 0.0005550847 0.027460927 -0.056601513 0.08467105 -0.13020705 -0.047539853 0.011142732
-0.09656492 0.04967314 0.10448708 0.15756433 -0.0294663 -0.05260628 0.052324127 0.049735334
0.17711547 0.06997618 0.19236661 0.075535424 0.1712804 -0.06163868 -0.09368023 -0.13517632
0.06455259 0.12294337 -0.15352225 0.048715945 -0.0457834 0.08417852 -0.14239988 -0.13103814
-0.07810722 0.07279904 -0.05288949 -0.04972028 0.022559281 0.109041385 -0.002869112 0.13716288
0.071525246 0.22819167 -0.06570045 -0.15157907 -0.04626787 0.04558578 0.03492525 -0.037022747
0.062723726 -0.065862104 0.18192695 -0.16866015 -0.19946113 -0.10623281 -0.08041433 -0.05652216
0.15926462 -0.024552532 -0.14707898 0.122951366 -0.054003917 0.17669372 0.060806807 -0.057403527
-0.08562353 0.038097735 -0.17261624 -0.12029662 -0.077469744 0.115094244 -0.054013487 -0.050033532
-0.06351854 -0.0071507436 -0.08617349 -0.019378299 0.08733953 -0.1357724 0.05778872 0.18795459
-0.12566951 -0.1819098 -0.099590234 -0.059552323 0.11604799 -0.089717984 -0.15451904 -0.0036924484
0.04877023 -0.0487881 -0.07877263 -0.010834639 0.07141694 0.15063858 -0.15255657 -0.006907142
-0.119187884 -0.013365074 -0.06450569 0.0029042098 0.03730537 0.038027387 -0.19099568 -0.09350761
-0.010676927 0.07902441 -0.17088872 -0.124946326 -0.1702734 -0.053081084 0.16546644 0.1630552
-0.0236274 -0.024076093 -0.16864984 0.07481949 0.034896567 -0.032965824 -0.01074113 0.10083158
0.10257501 0.14561166 -0.012673158 -0.1732929 -0.029135058 -0.034633968 -0.10380803 0.087065846
-0.16027673 -0.13557273 -0.10685648 0.117187165 0.1470662 -0.115855694 -0.098832764 -0.057546735
-0.10224151 -0.047431204 0.1681068 0.08175635 0.16054438 0.040533114 -0.24356806 -0.084761456
0.15064625 0.12804314 -0.08482611 -0.17848532 0.09096864 -0.10143558 0.1390986 0.09452609
0.079325125 -0.07557125 -0.083322965 0.09222983 -0.10135172 0.14298955 0.10229473 -0.052136287

actor.0.bias f4 [28]
00000000: 61b4 7a3d 6b00 27be e5ac 5c3d 3446 1f3e
00000010: e182 fa3d e12b 713d a31f d7bc 342b 003e
00000020: eb14 a5bd 1529 16ba 942c 073e d42c db3c
00000030: e054 c53d 98a5 fb3d f7c1 e23d 8c89 12be
00000040: b1ee 003e de98 393e 9be7 ac3c c7a6 fb3d
00000050: 1020 ee3d 02b3 c53c cf8e da3d c84c a4bd
00000060: ef6c 9bbd 16c1 e23d 84a9 7cbd 91cb dc3d
0.06120718 -0.16308753 0.053875823 0.15554124 0.122319944 0.058879737 -0.026260203 0.1251648
-0.080606304 -0.00057281676 0.13200599 0.026754774 0.09635329 0.12287444 0.11072152 -0.14310282
0.12591054 0.1812472 0.021106532 0.1228767 0.11627209 0.02413321 0.1067177 -0.08022457
-0.07589137 0.110719845 -0.0616851 0.10781015

actor.2.weight f4 [14, 28]
00000000: aa24 76bc d26a b63d 3ca7 3ebd afea 263e
00000010: 8d1c 823d 0f56 253e 888b 3e3d 7e53 cebd
00000020: d4c8 083d 544d 16be e23e 1cbe 2d19 543c
00000030: 820a e8bc 9262 2f3e 9629 bbbb 319d 32be
00000040: db44 623d 1c6b b8bc 6a98 07bc 191d 09be
00000050: 3ba8 1abe 37fe b4bd 1eca 183e c9d8 293e
00000060: 13ba 29be f0ae 09bd 1032 0f3e e580 553d
00000070: 3715 9f3c a711 14bd ed81 45be 0288 76bd
00000080: 0000 613d f11c 123d 49b3 293e 4cf5 6f3e
00000090: 3b5a 0c3e ae66 313e a2e5 753d b760 9dbd
000000a0: 8d79 49be c56a 08be 936a 4a3e cba5 ff3c
000000b0: 56ed 5cbd 2988 11be 1898 aa3c 2aad 4c3c
000000c0: 90ea 47bd e8f0 b8bb 7dbd dcbd d6a3 6bbd
000000d0: 0b04 093d 828d ad3d 0ca0 fcbc ef4b 2d3d
000000e0: 4706 0fbd 2425 663e 12d5 833d c011 343e
000000f0: 411c e83c 7479 cb3d 4b58 223e 804d dfbc
00000100: dc82 593e 8406 0fbd 7687 c03d fd21 16bd
00000110: 5e64 45bd 3406 b8bd 0deb 973d aaa4 33be
00000120: bc3f 7bbd 72eb c1bc fc04 083d 7e52 933d
00000130: 1650 febd b1e5 ee3b 84da 893d d2e8 313e
00000140: a113 2bbd 141d d4bd 3de8 3bbb 8c62 233e
00000150: 6640 5c3d b9fd 253e f74b 1bbe 51b6 e6bd
00000160: 4982 f1bd 1ec3 1f3e 821a 0dbb 91fa 043e
00000170: a978 263e f906 073e 8604 cf3b 881c 973d
00000180: 6599 783d e9da 4c3e 191e 553d 1f21 483d
00000190: afa7 09be 4a3b 803d a3b9 743d 5349 483c
000001a0: d953 af3a 7a0f ec3d ff8a f1bd 86ed df3c
000001b0: 80f1 ee3d d261 38be 1455 ebbd b6dc be3c
000001c0: f76d 55be 918b 07be 3ec7 5fbe 0824 193e
000001d0: 9126 fcbd 8a16 cb3b d6d0 25be f115 06bd
000001e0: 07b3 5b3d 00c0 b0bd 3de1 633c 2d89 9ebd
000001f0: 0d43 a5bc 02e6 01be 28b5 793e e7d7 17be
00000200: 80f4 063d 24ee 2dbe 0ff5 b23d bbea 053c
00000210: 54ed a5bd 7998 3bbe 5866 0c3d 5007 60bc
00000220: 2409 343e 1539 0a3e 94c3 8bbd 0d1d 2fbe
00000230: aca2 17be e180 f2bd fd40 0a3e a0da 9e3d
00000240: 54f1 143c e572 0d3c 2165 0b3e 66f5 12bd
00000250: 2033 50bd b607 1a3d e803 bf3d 7672 1c3e
00000260: 707a c03c 198d 463e 4fcf e73b 8beb 01be
00000270: a208 ea3d 6d29 febd 6048 1cbd 8947 14bd
00000280: c2b4 393e d8e8 f8bd 5dea 9cbc ed4c 82bd
00000290: fc92 31bd ef7c 53bd 0b7c a83d 6351 52bd
000002a0: d6eb cd3d 38d9 19bd ab6a 8dbd a738 82bc
000002b0: 9d4c 983d 128d ab3d efb1 aabd 1fb4 30be
000002c0: 0006 3bbe c90e 27be c84b d5bd bcc9 25bd
000002d0: e44b 443e 2e60 d6bc 6d84 e2bc 3f47 2dbe
000002e0: e367 1b3e 7597 1a3e 56f5 4dbe 9d40 26be
000002f0: 4932 d9bd 68c4 0bbe b9c4 fc3c 0882 39bd
00000300: 0175 4dbe 1afa 17bd c837 c23d f629 fc3c
00000310: a03e f8bd 2b41 cd3c 6857 2f3e b21e 70be
00000320: d844 d1bc d4fe 303e d346 36be 32f5 a43c
00000330: 0e57 b5bd b22c bfbd 12fe 543d b036 0cbd
00000340: e15e 713d dda0 ce3d bd5c 79bd bb54 4abe
00000350: 2841 0a3d 424f 20bd 5297 743e 0fbe 04be
00000360: 73cd 31be ee7f 3e3e 6a1a b93c 306e 15bc
00000370: ab6f 2fbd a60e 8dbd 4a3e b03d 3449 2b3e
00000380: 8aa2 223e a7ef 273e c5ee 423e 92c3 9c3d
00000390: 3db4 f43d 43f2 e5bd 7ff5 48be 7d24 473c
000003a0: 44e9 42bd f8a1 ad3d c890 083d 0027 36be
000003b0: bb21 963d 2940 1abe 48af 803e 84cc 283d
000003c0: 96a4 6c3e 4944 e8bd bdb3 f1bd 7eb7 91bc
000003d0: 9773 e73a 471b 9dbd 54b2 66bd eae2 1ebe
000003e0: ad09 9f3d d658 0cbe a208 3ebd 0da7 263e
000003f0: 7229 c93d 1588 32be 8699 923d e655 47be
-0.01502339 0.08907093 -0.046546206 0.16300462 0.06353102 0.1614611 0.046519786 -0.100745186
0.03339465 -0.14677936 -0.15258363 0.0129454555 -0.028325323 0.17127445 -0.0057117445 -0.17442776
0.055241447 -0.022512011 -0.008276084 -0.13390006 -0.15103237 -0.0883755 0.14920852 0.16586603
-0.16574888 -0.0336141 0.13983941 0.052124877 0.019419296 -0.036149647 -0.19287844 -0.0601883
0.05493164 0.035672132 0.16572298 0.23433417 0.13706295 0.17324325 0.060033448 -0.076844625
-0.19675274 -0.1332198 0.19767217 0.031206986 -0.05393728 -0.14212097 0.020824477 0.012492457
-0.04880768 -0.0056439526 -0.107783295 -0.057529293 0.03345112 0.08474256 -0.030838035 0.042308744
-0.034918096 0.22475106 0.06437124 0.17584896 0.028333785 0.09935275 0.15853994 -0.027258635
0.21241325 -0.034918323 0.09400837 -0.036653508 -0.04819142 -0.08985558 0.07417879 -0.17543283
-0.06134008 -0.02367184 0.03320788 0.071934685 -0.12417619 0.007290565 0.06731132 0.1737397
-0.041766766 -0.10357109 -0.002867236 0.15955561 0.053772353 0.16210069 -0.15165697 -0.11265243
-0.11792428 0.15601775 -0.0021530692 0.12986208 0.16256966 0.13186254 0.006317678 0.07378489
0.060693163 0.20005383 0.052030656 0.04885971 -0.13442872 0.062613085 0.05974735 0.012224513
0.0013376429 0.115263894 -0.117940895 0.02733494 0.11667156 -0.18006065 -0.11490837 0.023298603
-0.2084273 -0.13236834 -0.21853349 0.14955151 -0.123120435 0.006197755 -0.16192946 -0.03273577
0.05363753 -0.08630371 0.013908681 -0.07741008 -0.020173574 -0.12685397 0.24385512 -0.14828454
0.032948017 -0.16985375 0.087381475 0.00817364 -0.08101907 -0.18319882 0.03427729 -0.013673618
0.17581612 0.13498338 -0.06824413 -0.17100926 -0.14808148 -0.11840988 0.13501354 0.07756543
0.00909074 0.00863335 0.13612796 -0.03587856 -0.050830007 0.03760501 0.09326917 0.15278038
0.023495883 0.19389762 0.0070742737 -0.12687509 0.11427428 -0.12410245 -0.03815496 -0.036201034
0.1813536 -0.121537864 -0.019154722 -0.06362329 -0.043353066 -0.051632818 0.08226784 -0.051347148
0.10054748 -0.03756067 -0.06905111 -0.015896155 0.07436488 0.083765164 -0.083347194 -0.1725621
-0.18264008 -0.16314234 -0.10414845 -0.040475592 0.19169575 -0.026168909 -0.027651036 -0.1692171
0.15176348 0.15096839 -0.2011312 -0.16235586 -0.10605294 -0.13649142 0.030855523 -0.045290023
-0.20064165 -0.03710375 0.09483296 0.030781727 -0.1212132 0.025055489 0.17123187 -0.2344921
-0.025545523 0.17284709 -0.17800455 0.02013645 -0.08854495 -0.09334697 0.052000113 -0.03423184
0.058928374 0.10089276 -0.060879458 -0.19758885 0.033753544 -0.039138086 0.23885849 -0.12963127
-0.17363529 0.18603489 0.022595603 -0.009120509 -0.042831104 -0.068875596 0.08605631 0.16727144
0.15882316 0.16400014 0.19036396 0.076544896 0.1194844 -0.112278484 -0.196249 0.012154696
-0.04758574 0.08478159 0.0333412 -0.17788315 0.07330652 -0.15063538 0.2513373 0.041210666
0.2310966 -0.11341149 -0.118018605 -0.017787691 0.001765835 -0.07671218 -0.05632241 -0.15516248
0.077655174 -0.13705763 -0.04639495 0.16274662 0.09822358 -0.17434724 0.071581885 -0.19466361

actor.2.bias f4 [14]
00000000: 5758 9cbd 788c 843d 771d 673d 01eb 0b3e
00000010: ee7f 5abd 615f 0fbb f82b 9ebd 3672 2c3e
00000020: f668 d13d 71d9 47be 14f2 72bd af98 23be
00000030: ccd0 fd3d d1bf 0b3d
-0.07634037 0.06472105 0.056424584 0.13663866 -0.05334466 -0.0021876919 -0.0772323 0.16840443
0.10225098 -0.19516541 -0.059312895 -0.15976213 0.123933405 0.034118477

actor.4.weight f4 [7, 14]
00000000: daaa 4b3e efb8 35be 2352 073c b416 253b
00000010: 1f6e 9abd 80e4 ac3c ddf8 a7bd cd75 983e
00000020: 88c4 e4bd 9cb1 cf3d 7a70 02be f997 483e
00000030: f764 ff3b e553 9b3d dbdf ad3d 3aad 183e
00000040: 5b17 063e 1c6e 9a3e 0171 353d 35a8 833e
00000050: 7524 9cbd 5f15 0abe adc3 07be d7b1 bfbc
00000060: 5429 863e 1925 8c3e 42bf 2dbe 3586 263e
00000070: edca ea3c bec0 a33d 5f38 80be 65f0 92bb
00000080: d22f 9d3e e9ba 61be fc44 f5bd 6f02 203e
00000090: aeb0 6a3e 8e52 b4bd 7ad6 85be 316d 8b3e
000000a0: 1740 d2bd d521 8ebe 5827 e53d 2b7a e53d
000000b0: 5e20 86be e6a8 3cbd 875c 8cbe d768 533d
000000c0: 3239 81be 12e4 49be 85bf 33bd 5a13 5a3e
000000d0: 19c6 a5bd 86d2 893e b483 32bc 6e15 89be
000000e0: f24b 603e 12d4 fa3d 4860 563e 05d1 1ebe
000000f0: 7756 103e 7a1d 2abe 1c60 443e a36b 953c
00000100: 0cf1 8e3d db31 70be a303 03bd 40cd 933e
00000110: 7a64 f73d d9e9 563d 9756 b93c cf1c cebd
00000120: 6180 f3bd 925c 71be 7d20 853e a279 2d3e
00000130: d83f b63d 3bbd 54be aa81 cabd c0c7 12be
00000140: 44d3 bc3c 84b4 0d3d 2c62 783e a048 143e
00000150: 1c15 fb3d dae3 f7bd 03bc 8fbd 3cae 5dbe
00000160: fa8e f33c cb2c 6dbd 349d b03d da09 34be
00000170: 9e0e 30be 1c1b 78be 6e25 19be 4933 95be
00000180: 32af 573e 1843 58be
0.19889393 -0.17746328 0.008259329 0.0025190534 -0.07540535 0.021105051 -0.08201764 0.29777375
-0.11170298 0.10141298 -0.12738219 0.19589223 0.0077940184 0.07584361 0.08489963 0.1490983
0.13094847 0.30162132 0.044297222 0.2571427 -0.07624141 -0.13484715 -0.13258238 -0.02340023
0.26203406 0.27372053 -0.1696749 0.16262133 0.028661216 0.07995747 -0.25043008 -0.0044842237
0.30700547 -0.22043957 -0.11976048 0.15625928 0.2291896 -0.088048086 -0.26140195 0.27231744
-0.102661304 -0.27760187 0.11189145 0.11204942 -0.2619657 -0.04605951 -0.27414343 0.051613655
-0.2523895 -0.19715908 -0.04388382 0.21296445 -0.08094425 0.2691843 -0.010895658 -0.26774162
0.21903971 0.122474805 0.20935166 -0.15509422 0.14095484 -0.16612807 0.19177288 0.018239802
0.0697957 -0.23456518 -0.03198589 0.2886753 0.12079711 0.05246911 0.022624297 -0.100640886
-0.11889721 -0.23570469 0.2600135 0.1694093 0.08898896 -0.2077531 -0.09888013 -0.14334011
0.023049958 0.03459598 0.242562 0.14480829 0.12259886 -0.12104006 -0.07018282 -0.21648496
0.029731262 -0.057904046 0.08623734 -0.17581883 -0.17193076 -0.24229091 -0.14955685 -0.2914069
0.21062925 -0.21119344

actor.4.bias f4 [7]
00000000: 7a1c 403d 740c b5bd d5e4 6abc f6a5 1fbe
00000010: a8c9 653e d560 b2bd b339 6ebe
0.046902157 -0.08840266 -0.014336784 -0.15590653 0.22440207 -0.087098755 -0.23264198

critic.0.weight f4 [40, 31]
00000000: 6170 2f3e cf2f 2cbd 16ee 0cbd acb8 22be
00000010: 20cb afbd 8a0e 993d bd81 353e 7f76 64bd
00000020: 0295 f13d 5241 cabd 992f 61bd 93ba dfbd
00000030: d68c bd3c aab2 213d ec93 3fbe d204 d23d
00000040: 90b1 1abe 926c ea3d 65b3 2b3d 8261 313e
00000050: 5361 85be acc4 0f3e c38e 5fbe a9da 4d3c
00000060: 9b8b 2e3d c506 46bd cc02 903d fc16 a4bd
00000070: 2a83 173d 91ec f0bc b549 bebc 69cd 943c
00000080: 7589 2abe a9c9 963d 018e 56bd 3c2a bfbc
00000090: 2a05 88bc 615d 983d fbb9 d53c a384 e0bc
000000a0: f2a5 923c 2933 493d 881e 443d a5c8 c03c
000000b0: 6679 afbc 434f 04be 54a7 39be 55ad 913d
000000c0: d32b 5c3e 4f2f 9e3d 1839 9a3d 7ca3 233e
000000d0: 3957 15bd 089d 1dbe 5992 a2bd e7d9 a23d
000000e0: 0f4f f0bc 13a5 28be 7c1e 46be aeed df3d
000000f0: 3592 e23d 6a59 9f3d 6742 963d 0794 8dbd
00000100: 1f9c 93bd 4ddb 99bd cf88 883d fd35 ecbd
00000110: e33c 053e 3e21 eebc fdba ca3c b17d c3bd
00000120: ee60 1fbd 0a92 243d fe53 51bd 3028 943d
00000130: 1f81 3a3c 28f5 b7bd 1151 c73c 420a 7cbe
00000140: 27da 2ebd ae51 fc3c 81e0 843d cdc1 eabd
00000150: f663 533d d92f 4dbd 6910 e23d 70ea 88bd
00000160: 11df 7a3c 2f48 d3bd 6594 1e3e 0a31 073e
00000170: d420 dbbd b70a 443e a623 573e 884a 203b
00000180: 8320 05be 87ba abbc aa32 03bc 2ca6 fbbd
00000190: a6c2 3b3a 47db 20be b3e4 763b 37da 3bbb
000001a0: 8245 d13c c5b9 b63d f91d 2d3e cf4a c8bc
000001b0: 1257 213d fffb d1bd c4e7 113e b491 0cbd
000001c0: adbf cfbb 0ff2 abbb 058d 8bbd 3653 7bbd
000001d0: 5790 bc3c 3f33 453d 36d8 e9bd ca27 873d
000001e0: bc08 5b3d a805 313e 8bd5 eebd 0416 6b3d
000001f0: f677 81bd 5d3d cd3d 2736 50be a767 0abe
00000200: 37b6 153e c345 c23d 9ac5 483b 3518 dd3d
00000210: 128b 24bd 9625 61bd 8d92 af3d 8cdb 053e
00000220: 7cae ba3d c07b 18bd 08ce 43be d5d9 253d
00000230: 082a dcbd ca45 953e 7d57 c13a 3f6a cf3d
00000240: 1ca3 23be 3ea5 403e 7627 3e3e 533b 1c3c
00000250: 023b a23d 0366 bfbd 2aec a93d a4b4 15be
00000260: d368 27bc 4d56 3fbe 1083 82bd d5b9 473e
00000270: 68ec 203d 75d3 1ebe 6490 113e 3877 22be
00000280: b323 6fbe 6eb0 273e 1e31 613c d476 033e
00000290: c209 49be 6447 293c 114a 203d 2572 65be
000002a0: df3a afbd 38a1 61be 0551 8c3c 2cae 28bd
000002b0: 7096 7e3c c665 6cbc b4a6 613e 6df2 22bd
000002c0: c700 bbbd d72e 10bd 79dc 833e a5d1 7abe
000002d0: f363 b43d 5780 6abe 3ead 20bb 39cd fe3d
000002e0: f70a d93d 1e73 dfbc 42b5 b73c bb8f 1fbe
000002f0: 68df 44bd 9bcc 203e 9ed5 853d 42f2 253e
00000300: 65e0 92bd b948 3ebc 6649 7dbd f51d babd
00000310: 3b10 273e 905c 84bc 6f6e 2cbc 79e4 20be
00000320: c48e a13d c51c 8dbd 8213 963d 99e6 433c
00000330: 67d1 a63d afad bb3d f51c 5c3e 52c6 a83c
00000340: 8085 543e 57f8 9fbd 686d 2f3e c889 15be
00000350: baf8 60bc c2d4 febc 1651 543d 49cd bb3d
00000360: 8351 9ebd 86de 6bbb cd70 ad3c 149b 01bc
00000370: a882 f2bc 18a0 6d3d 7fa5 c5bd f7b8 273e
00000380: 18e1 adbd 969e ff3d ba51 363d eea8 1b3e
00000390: 7208 5d3d 90bf f1bd 6f93 033e 25e1 353e
000003a0: 8742 a33c c646 7f3d e373 77be b741 72bc
000003b0: d36c 7abe d845 003d e420 4e3d 31a6 15bc
000003c0: 23a3 87bd ec75 043e 919b fa3d 637c 6dbd
000003d0: ddc7 9fbd 5542 4b3e 853f 74bd 7de9 6b3c
000003e0: 4922 533c e326 1137 f485 4f3e 1c4c c73d
000003f0: 2941 1fbd f6c2 e33b 262d 473d a640 363b
0.17132713 -0.04203778 -0.034406744 -0.15890759 -0.08583665 0.07473476 0.17725272 -0.05577707
0.11795999 -0.0987574 -0.054977033 -0.10924258 0.023138445 0.039477028 -0.18708771 0.10254826
-0.15106797 0.114464894 0.04191913 0.17322353 -0.26050815 0.14039868 -0.21831803 0.01256434
0.042613607 -0.0483463 0.070317835 -0.080121964 0.036990322 -0.029409679 -0.023228506 0.018164353
-0.16653998 0.07362682 -0.05238152 -0.023335569 -0.016604025 0.074396856 0.026089659 -0.027406996
0.017901395 0.049121056 0.04788068 0.023533175 -0.021420192 -0.12920861 -0.18130237 0.071131386
0.21501093 0.07723867 0.07530421 0.15980333 -0.036460135 -0.15391934 -0.0793807 0.07951718
-0.029334573 -0.16469221 -0.19347566 0.10934006 0.11063043 0.07780726 0.07336884 -0.069129996
-0.07207512 -0.075125314 0.06666719 -0.11533735 0.13011508 -0.029068585 0.024747366 -0.09545458
-0.0389108 0.040178336 -0.05110549 0.07234228 0.011383324 -0.08982307 0.024330648 -0.24613288
-0.042688515 0.030800667 0.06488133 -0.11462746 0.051609002 -0.05009446 0.11038286 -0.066853404
0.015311972 -0.10316502 0.15486296 0.132023 -0.10699621 0.19144712 0.21009693 0.0024458487
-0.13000683 -0.020962967 -0.008007685 -0.12287554 0.0007162489 -0.15708648 0.0037672936 -0.0028664002
0.02554584 0.089221515 0.16905965 -0.024449734 0.039389677 -0.102531426 0.14248568 -0.03431864
-0.006339988 -0.0052473615 -0.06814007 -0.061358653 0.023018045 0.048144575 -0.11418192 0.06599386
0.053475127 0.17287314 -0.11661824 0.057394043 -0.06321709 0.1002147 -0.20333157 -0.13516103
0.1462029 0.09485962 0.0030635358 0.10795633 -0.04017169 -0.054967485 0.08572874 0.13072032
0.091153115 -0.037227392 -0.19121563 0.040490944 -0.10750204 0.29154807 0.0014750805 0.10127687
-0.1598019 0.18813035 0.1856974 0.009535628 0.07921411 -0.09345629 0.08296998 -0.1461969
-0.010217863 -0.18685265 -0.063726544 0.19504483 0.039287955 -0.15510352 0.14215237 -0.15865791
-0.23353462 0.16375896 0.013744621 0.12838298 -0.19632629 0.010331962 0.039133135 -0.22406824
-0.08556151 -0.22034156 0.017128477 -0.04118173 0.015538797 -0.014428562 0.22036248 -0.039781976
-0.09131008 -0.03520092 0.25754145 -0.24494036 0.08808126 -0.2290052 -0.0024517323 0.12441487
0.105977945 -0.027276572 0.022425298 -0.15582173 -0.04806462 0.15703051 0.06534885 0.16205695
-0.07171706 -0.011614018 -0.061837576 -0.09087745 0.16314785 -0.016157418 -0.010524376 -0.15712155
0.078885585 -0.06890253 0.073279396 0.011956834 0.08145409 0.09163987 0.21495421 0.020602379
0.20754051 -0.07811039 0.17131579 -0.1460334 -0.013731176 -0.03110731 0.051835142 0.091700144
-0.07730391 -0.0035990789 0.021171952 -0.007910509 -0.029603317 0.058014005 -0.096507065 0.16379152
-0.08490199 0.1248142 0.044511534 0.1520116 0.053963132 -0.11804116 0.1284921 0.17761667
0.019929184 0.062323354 -0.24165301 -0.014786175 -0.24455576 0.03131661 0.050324336 -0.009133861
-0.06622913 0.12935609 0.12236703 -0.057979953 -0.07801793 0.19849522 -0.05963089 0.01439893
0.012886592 8.6517275e-06 0.20265943 0.097313136 -0.0388805 0.0069507314 0.04862704 0.002780953

critic.0.bias f4 [40]
00000000: 7e84 f23d 92b1 fbbd 0295 7abd 2b74 493e
00000010: 88e1 0abe ebc8 953d 1c0d ca3d eaf5 173e
00000020: 61cf 8f3d 9e8a 8b3d 6cc3 b9bb fd1b 323d
00000030: 2bc3 20bd e7c2 cdbd d269 533d d051 5ebe
00000040: 8783 173e de6d 1ebe c89b 533e 8dd4 51bd
00000050: b21e 1f3e 58ed b13c a516 37bd ac74 45be
00000060: 3974 d7bd 6c13 123c f50d 5f3d 8246 4a3e
00000070: b22c b3ba ad25 d7bd f688 96bc 28f8 50bd
00000080: fdae 7bbe 9ab6 973d 692f 773d 7e9c d73d
00000090: e980 69bb 1476 0a3c be65 b03d 15f0 8abc
0.11841677 -0.12289728 -0.06117726 0.19673221 -0.13562596 0.07313713 0.09865782 0.14839903
0.07021976 0.068135485 -0.005669048 0.043483723 -0.039248627 -0.1004694 0.05161459 -0.21710896
0.14796267 -0.15471599 0.20664895 -0.051228095 0.15539053 0.02171962 -0.04469933 -0.19282788
-0.105202146 0.008915763 0.05445667 0.19753459 -0.0013669936 -0.10505233 -0.018375855 -0.05101791
-0.24578471 0.07407875 0.06034795 0.105278954 -0.0035629815 0.008451004 0.08613156 -0.016960183

critic.2.weight f4 [32, 40]
00000000: 6e42 723e 1f55 d2bc f9c2 9abd 7da6 a23d
00000010: 2c0c ef3d 137e 5c3e 7011 423d 7a35 07be
00000020: 4a39 ddbd 2002 10be b2ac 863d b3c1 1c3d
00000030: 00c7 babd a77f e2bd 53d8 51bd 7d4c 1cbd
00000040: 55ae eabd 28df bc3d 0365 cbbd e9d2 033e
00000050: cf15 1d3d 0bf1 3d3e 5323 11bd 1afe 8cbd
00000060: 2edf c5bd 7ee8 ec3d 0063 abbd 6fd9 2c3e
00000070: a4cd d93d 3bcc 94bc 58f6 98bd 086e 383e
00000080: 5e67 1c3e 6e0a 193e ef32 f7bd 1f32 86bd
00000090: 1930 0e3e a8bb 0ebe 3f96 9dbd 552e 903d
000000a0: e547 4a3e 350b a4bc f1a3 9d3d 2a17 523d
000000b0: 3781 e33d cff3 4e3e b155 cabb 780b 8d3d
000000c0: 8891 0fbc 7ad1 08be a81e d5bd 9789 a13d
000000d0: 7109 b8bd 3a49 213e 5c04 debd b9f6 553e
000000e0: eff9 c7bc 7dd4 33ba d521 edbd d642 773c
000000f0: e8fa a43d 5e4c ec3d 802d 02be 6926 ba38
00000100: 54f2 0a3c cf00 443e 46d2 32be 6dd9 22bd
00000110: a939 a1bc 9dd1 123e 4fa9 fc3c c0af ef3d
00000120: bd74 aabd b1e8 163e 8dff cf3c c3c7 d23c
00000130: 8b80 dabd 5603 ffb9 5550 91bd e160 6b3c
00000140: 7b2f 0bbe e883 3ebe 861c 0bbe 5fc8 f6bb
00000150: b2e3 a6bd fbec 143d 13d1 603c 75fa 3b3e
00000160: dfa2 1a3d 258a f93c 9c18 033e ca3a 62bd
00000170: 06d7 9dbb faf2 593d cc7d eebd c401 653d
00000180: 6693 ef3d ab80 9ebd 4a1a a93d d230 c63c
00000190: d9fb 333e 5e7f 34be de5d dfbc 4944 adbd
000001a0: 5bcd 92bd 35db 22be 6dad 0a3e 2209 ce3d
000001b0: 25c9 e5bd a97a 08be b561 2a3d 8dc8 97bd
000001c0: df56 edbb ce24 05be 5ad4 933d 4224 143e
000001d0: 111d 9a3c b398 5c3d 78ec 5cbd 5837 cc3d
000001e0: 8f8b fdbd 1302 1a3d e0f3 143d 67f1 af3d
000001f0: bdde 28bd 0329 343d 389b 05be a33c 10bd
00000200: 4365 cc3b d7e5 053e 6a01 01bc 70e8 2bbe
00000210: 9a4e 833c 201d a4bd 5c50 1e3e f44c f83d
00000220: c7bc fc3d fb33 1f3e 4145 4e3d 5111 cf3d
00000230: 3ec6 3bbe 5563 103e 56c8 e83d 0b93 cdbd
00000240: c9cc c4bd ce17 dbbd 0a0b d93c 6f33 a23d
00000250: 27d1 563d a394 6dbd 8cfb ac3d 095c c8bd
00000260: 3740 ddbd 2c4e b3bd 87b8 b1bd 12fe 233b
00000270: a204 c23d bb10 14be 676a debc 9bac a3bd
00000280: b114 2abb 203c 04be 8803 eb3d 42b2 ef3c
00000290: 7a49 0f3d afe4 2fbd 89a2 2b3e 644b 3d3e
000002a0: 571b ed3b 17da 88bc a759 1e3e bce5 4a3d
000002b0: e5f7 c43d 93a4 aebd 1325 bf3d d904 fcbc
000002c0: 487b cc3d e2fd 3f3b 95c0 ed3c dcb7 80bb
000002d0: 675d 173e ae3c f3bc f2bb 48bd 83ea 36be
000002e0: d994 ed3d e11d a4bd 80dd 903c 5d04 09be
000002f0: 9990 893d aacf 803d 8b93 d23d b71d 00be
00000300: 5f2a df3d ef46 a83d 47e2 ff3d e952 743d
00000310: dbf8 123d 58d1 65bd fbbf 1e3d 9adb 53bb
00000320: 0c7f 0a3e b641 94bd 5938 18bd 8077 c6bd
00000330: 9ada 9b3d 91d7 8dbd d380 4ebd 28d7 fb3d
00000340: ace5 43bd bc33 efbd f9b6 d83d 7749 523d
00000350: 69b3 48bd 7411 aa38 6d1e 1e3e a587 3dbd
00000360: 2f2f 283e 015c c13c 449d ffbd 0e98 3c3d
00000370: 33c1 543d 799a 813c a29f 91bd 6ebb 0ebe
00000380: c69b 75bd cb72 943c ebdb de3d eafb 29bc
00000390: 89e8 8bbd 7e15 803d 1332 1f3e 658e 453d
000003a0: 50c5 973c f81d bdbd 0764 d63c 6bc5 473d
000003b0: 5530 263e 70d6 6c3c 426e 27bd adbd 05be
000003c0: 2439 78bd 8fea ebbd f5c9 cd3d cab0 04be
000003d0: 76dc 8abe 68b2 74be 84e4 703c 9817 cb3d
000003e0: 4df1 463e 6ac6 85bd be1d 573d 4fc1 233e
000003f0: d48f 863e 1562 6b3d 8879 fcbd 2a8e c43a
0.23658153 -0.025675355 -0.07556719 0.07941911 0.116722435 0.21532468 0.04737991 -0.13203993
-0.10801943 -0.1406331 0.06575908 0.038270663 -0.091199875 -0.11059504 -0.051231693 -0.038158882
-0.114590324 0.09222251 -0.09931376 0.12873425 0.038350876 0.18548982 -0.03543408 -0.068844035
-0.09661709 0.11567782 -0.08368492 0.1687982 0.10634926 -0.01816379 -0.07468861 0.18010724
0.15273806 0.14945385 -0.12070262 -0.065525286 0.13885535 -0.13938773 -0.07694673 0.07040087
0.19753988 -0.020024875 0.07697285 0.051291622 0.1110863 0.20210193 -0.006174766 0.06886953
-0.008762725 -0.13361159 -0.10406238 0.07887571 -0.08986176 0.1575059 -0.10840675 0.20894898
-0.02441117 -0.00068599713 -0.115787186 0.0150916185 0.08055669 0.115380034 -0.1271267 8.8763256e-05
0.008480627 0.19140933 -0.17463025 -0.039758135 -0.019680815 0.14337774 0.030842451 0.117034435
-0.08323047 0.14737202 0.02539041 0.02573002 -0.10669049 -0.00048639876 -0.070954 0.014366359
-0.13592331 -0.18605006 -0.135851 -0.0075312103 -0.08148898 0.036358815 0.013721722 0.1835726
0.037752982 0.03046138 0.12802356 -0.055231847 -0.0048168926 0.053210236 -0.116450876 0.055909887
0.11698036 -0.07739385 0.08256967 0.024193201 0.17576541 -0.17626712 -0.027266439 -0.0846029
-0.07168075 -0.15903933 0.13542719 0.10060336 -0.11220006 -0.13328041 0.041597087 -0.07411299
-0.007243022 -0.13002321 0.07218237 0.14466956 0.018812688 0.053856563 -0.05393645 0.099714935
-0.12380134 0.037599634 0.03636539 0.08590966 -0.041228045 0.043984424 -0.13047493 -0.035214078
0.0062376573 0.13075958 -0.007873872 -0.16787887 0.016028691 -0.08013368 0.15460342 0.12124053
0.12340694 0.15547173 0.050359014 0.10110725 -0.18337342 0.14100392 0.11366336 -0.10037812
-0.09609372 -0.106979 0.026494522 0.079199664 0.052445557 -0.05800308 0.08446416 -0.09783179
-0.10803264 -0.087551445 -0.08677774 0.0025023264 0.0947354 -0.14459507 -0.027150346 -0.07991906
-0.0025952274 -0.12913561 0.11475283 0.029259805 0.034982182 -0.0429427 0.16761221 0.1848579
0.007235925 -0.016705556 0.15463887 0.049535498 0.09617595 -0.08527484 0.09333243 -0.03076403
0.099844515 0.0029295613 0.029022494 -0.0039281677 0.14781724 -0.02969202 -0.049007364 -0.17862897
0.11600656 -0.080135114 0.017683744 -0.1338057 0.06717033 0.06289609 0.10282048 -0.12511335
0.108967535 0.082166545 0.12494331 0.05964938 0.03588186 -0.05610785 0.038757306 -0.0032326938
0.13525027 -0.07239096 -0.037163112 -0.096907616 0.07610054 -0.06925882 -0.050415825 0.12296897
-0.047826454 -0.116797894 0.10581774 0.051339593 -0.048999224 8.1094826e-05 0.15441294 -0.04627194
0.16424249 0.023603441 -0.12481168 0.04604345 0.05194206 0.015820729 -0.07110526 -0.13938686
-0.05996301 0.018121144 0.1088179 -0.010375002 -0.06831462 0.06254099 0.15546446 0.0482315
0.018526703 -0.09234232 0.026170744 0.048772257 0.16229375 0.014455423 -0.040876634 -0.13060637
-0.06060137 -0.11519348 0.10048286 -0.12958065 -0.27121323 -0.23896182 0.01470292 0.099166095
0.19427986 -0.06531985 0.0525186 0.1599171 0.26281607 0.057466585 -0.12327868 0.0014995981

critic.2.bias f4 [32]
00000000: ac2e 22be fa0c a33d a282 263e f5c0 eabd
00000010: 34f1 8dbd 0782 a33d 0ed1 78bd 3e4b e1bd
00000020: bcf3 aebd 61b0 81bd eb6e 2d3e 0bed 8fbd
00000030: f57f 4ebd aea5 e5bd 49d9 963d 0f68 643d
00000040: df86 f23c 3742 dabd 4cb9 13be 76ea 0fbe
00000050: ec69 053e 32f7 323c cb37 35bd 1f39 fe3d
00000060: f8d2 aa3d f83c 293e 7db0 eebd 3b3a 5cbd
00000070: 862b ea3b b180 083e 5547 cdbd c2a1 2e3d
-0.15838116 0.079614595 0.1626077 -0.11462585 -0.069307715 0.07983785 -0.060746245 -0.110006794
-0.085425824 -0.0633247 0.16936843 -0.07027634 -0.050414998 -0.112132415 0.073656626 0.0557633
0.029605327 -0.10657161 -0.14426154 -0.14054283 0.13028687 0.010923194 -0.04424266 0.12413239
0.0834102 0.16527164 -0.11654756 -0.05376647 0.0071463017 0.13330342 -0.10023371 0.042634733

critic.4.weight f4 [10, 32]
00000000: 21f3 9f3d 9a68 073e 73ee efbd da61 babd
00000010: 99cd 44be 4469 2c3e fe3b 37be a803 bdbd
00000020: b8e2 5cbe d697 f7bc 87ed 3fbd e641 d83d
00000030: cfa4 063d 59b8 e83c 3376 11be 56d1 673e
00000040: d0ca dfbc 8088 183e d8d6 fa3d 5859 e0bb
00000050: 9f5d ae3d 05c4 02be 9f72 42be 4e9c 5d3e
00000060: 678c 153e 6c26 d7bc f6ae 393d 09a8 a0bc
00000070: 331c 1c3e b80b 16be 2cfb 333b d45b 10be
00000080: 7228 59bd 0e77 003e df06 0dbd 63a5 bfbd
00000090: 9bfc 403d 5933 fc3d cddb c5bd 6843 103d
000000a0: e592 61be 6ffe 443c b931 f83d 8f41 483e
000000b0: ed90 a2bc 1e11 2c3e 5814 ad3d 89d8 9f3d
000000c0: 3ca8 d9bd 9cc2 a43d 6dff 04be e43e 5b3b
000000d0: c7f2 333c 1371 d83d 9a2f 4d3d 98ab 5a3d
000000e0: ae91 653e 2965 a73d ec59 523d 0700 7f3d
000000f0: ba91 7e3e 9c47 fd3b d5f0 0b3e 3b43 083d
00000100: 2ce9 61be 2886 3bbe 4496 393e 79d2 cabd
00000110: fe97 9e3d 0eca a43b 9dd6 00bd 89ea 823d
00000120: dd25 2dbd d9fe c03c 7517 373e 0227 7fbe
00000130: 924a 6fbb 68e7 db3d 5366 103e d6b3 de3b
00000140: b31d 62be d316 11be 64f3 46bd f21a e83d
00000150: 6499 f43c ff9f fbbd 98fb 0e3e 2ba8 48bd
00000160: 3302 9fbd da77 6d3d 970a 04be 103f 4d3b
00000170: e775 2abe 0b4e 9a3d 8c79 89bd 60ed f83c
00000180: 5de2 0abe faa3 843d a797 9d3c 1984 58bd
00000190: 3b5a 023d bc32 b23d ac76 af3d 7876 d63d
000001a0: fbb6 613e b4b7 4e3e 8f33 9abd 453a e2bd
000001b0: 111c 65be 028a 13be 8c61 123e 2208 82bd
000001c0: c2e3 16be d054 43be 7e67 803c caa0 963c
000001d0: 2985 5a3c 35d8 063e 1a57 8e3d ffc2 c3bd
000001e0: 72d0 433d 9fd7 713e 918e 86be 29aa 43be
000001f0: d6de ffbd 9826 06bd 9194 023e 9733 c03d
00000200: 74dc 10be 7eec 08be 2f66 553e 8a5f 9d3d
00000210: 808d a63d 6452 013c 1ecf 243d 5dd7 223e
00000220: 5d49 c1bc f169 83bd 94f5 393e cfcf 2ebe
00000230: 2cde a2bc 0cd8 e5bd 6ae1 81bc 0475 65be
00000240: 98e3 14be 845a 8bbd 3ba7 4bbe 2ce6 cd3d
00000250: 5a44 643e dc41 febd dded 643c ab8a d8bd
00000260: a4d2 10be 54b6 c9bd bb3a eb39 2859 14be
00000270: 8c1c 54be c04f a4bd 56e7 23bd c5ab 7dbb
00000280: ae33 cabd 8eab 1fbe 188e 86bd fd2f 97bd
00000290: 9efa 603d a00d 223e 6372 313e 8267 fb3d
000002a0: 9bdd ee3c 6555 443e 5a66 20bc 505b 5abe
000002b0: c1ad e6bd 7185 d2ba b968 28bd 557a a7bb
000002c0: c217 19be 50b5 3ebe 86de 8cbb f660 de3d
000002d0: 99b5 ce3d 442c 0c3e 9626 1a3e ee67 bdbc
000002e0: 25f4 34be 794b 22bd 756b 103d bcc0 da3c
000002f0: 768b 4c3b 725b 12bd ca8d ff3d 6dff 553e
00000300: fd46 c93d 9c76 273e 79c2 963c 6520 1b3e
00000310: d8e5 04be 2894 80bd 7129 e3bd f529 bfbd
00000320: c2ac 17bd 27c7 5bbd afe2 50be 55c2 323e
00000330: 72d7 19bc 6b22 d0bd e7b6 d5bc b79b 763e
00000340: 2daf d43d 570e 3b3e 8888 563e 0c1f 09be
00000350: 2a8f 0fbe d9ab 3abd 5424 d9bd 8597 c9bd
00000360: 01d3 f33d 6f2f 56be 7d61 383e 8ccb 443e
00000370: 0e39 513d 8c8c f63d 65de c3bd 6459 46be
00000380: a149 833e 91c7 233d 3801 3b3d 10e8 b7bc
00000390: 7b35 e43d c7b4 143e d0a7 d2bd 4864 17be
000003a0: 065a 62bd 15ac 71bc 929a e2bb a781 2f3c
000003b0: 2a2a 133e 9116 91bd a2c6 9a3d 9e26 083e
000003c0: 9796 fa3d f92c d93d a717 ce3c 4393 0bbd
000003d0: d2f1 53be 0329 40bd 657d 3bbc a5b7 f63d
000003e0: c3f1 f43d f7bc 16be c88f 653e dc53 aa3d
000003f0: 2368 9b3b 9fc7 bc3d 05cd c0bd 39d3 c7bd
0.07810045 0.13223496 -0.117154025 -0.09100695 -0.19219054 0.1683703 -0.17893979 -0.09229213
-0.21570861 -0.030223768 -0.046857383 0.10559444 0.032872017 0.028408216 -0.14205246 0.22638449
-0.027318388 0.1489582 0.122480094 -0.006846588 0.085139506 -0.12770088 -0.18989037 0.21641657
0.1460434 -0.026263438 0.04533287 -0.019611375 0.15245132 -0.14652908 0.0027462943 -0.1409753
-0.053017087 0.12545416 -0.03443038 -0.09357717 0.047115903 0.12314481 -0.09661064 0.035220534
-0.22028692 0.012023552 0.12118859 0.19556259 -0.019844497 0.16803405 0.08451146 0.07804973
-0.10627791 0.08044931 -0.12988062 0.0033454234 0.010983176 0.10568442 0.050094225 0.0533863
0.22418854 0.08173592 0.051355287 0.062255885 0.24860278 0.007729484 0.13666089 0.03326724
-0.22061604 -0.18312895 0.18123728 -0.09903426 0.07743834 0.0050289696 -0.03145467 0.0639239
-0.042272437 0.02355902 0.17880042 -0.24917224 -0.0036512953 0.107374966 0.14101534 0.0067963405
-0.22081642 -0.14168863 -0.04857196 0.113332644 0.029858299 -0.12286376 0.13963163 -0.048988502
-0.07764091 0.057975627 -0.12894665 0.0031318106 -0.16646539 0.07534417 -0.06712636 0.030386627
-0.13562913 0.064765885 0.019237353 -0.052860353 0.03182433 0.08701083 0.08567557 0.10471815
0.22042458 0.20187265 -0.07529365 -0.1104627 -0.22373988 -0.14408115 0.14295024 -0.063492075
-0.1473532 -0.19075322 0.015674349 0.018387217 0.013337412 0.13168414 0.06950207 -0.09558677
0.04780621 0.23617409 -0.26280645 -0.1910788 -0.124936745 -0.03275165 0.12751986 0.0938484
-0.14146596 -0.13371465 0.20839761 0.07684238 0.08132458 0.007893179 0.040236585 0.15902467
-0.023594553 -0.06416691 0.18160087 -0.1707146 -0.01988133 -0.11222848 -0.015854556 -0.22407919
-0.14539945 -0.06804374 -0.19888012 0.100536674 0.22291699 -0.124149054 0.013972727 -0.10573324
-0.14142853 -0.098492295 0.0004486645 -0.14487135 -0.20714015 -0.080230236 -0.04001554 -0.003870712
-0.09873138 -0.15592787 -0.06570071 -0.073822 0.054926507 0.1582551 0.17328791 0.12275602
0.029158404 0.191732 -0.0097900275 -0.21323895 -0.1126361 -0.0016061497 -0.041115496 -0.0051110187
-0.14950469 -0.18623853 -0.004298988 0.108583376 0.10093231 0.13688761 0.15053782 -0.023120847
-0.17671259 -0.039622758 0.03525873 0.026703231 0.0031211055 -0.03573174 0.12478216 0.20898218
0.09827993 0.1635384 0.018403279 0.15149076 -0.12978303 -0.062782586 -0.11091889 -0.093341745
-0.03702999 -0.053656723 -0.20398973 0.17456944 -0.009389745 -0.10162815 -0.026088191 0.24082838
0.10384975 0.18267189 0.2095052 -0.1339075 -0.14019457 -0.045574043 -0.10602632 -0.09843353
0.1190548 -0.20916532 0.18005939 0.19218272 0.051079802 0.12038526 -0.09563903 -0.19370037
0.25642112 0.039985243 0.04565546 -0.022449523 0.11143013 0.14522086 -0.10285914 -0.14784348
-0.055261634 -0.0147505 -0.006915399 0.010712064 0.14371553 -0.07084382 0.075574175 0.13295981
0.12235754 0.10604281 0.025157763 -0.034075987 -0.20697716 -0.04691411 -0.011443471 0.12046746
0.11960175 -0.14720522 0.2241813 0.08316776 0.0047426387 0.09217762 -0.09414104 -0.097570844

critic.4.bias f4 [10]
00000000: 898a 2cbe 0aa8 ac3b b519 29be 0b11 a83d
00000010: a0ab 1abe 8123 a33d 14f1 dd3d e801 efbc
00000020: 44a8 52bc a10e eb3c
-0.16849722 0.0052690553 -0.16513713 0.08206376 -0.15104532 0.07965756 0.10836998 -0.029175714
-0.0128575 0.028693499

critic.6.weight f4 [1, 10]
00000000: 8f76 5d3e 4ff1 923d 4936 8cbe a920 aabe
00000010: 4c11 83be cc95 14be b235 0b3e 1e5e 743d
00000020: f5c6 b23d 207f dd3d
0.21627258 0.07174932 -0.27385166 -0.33228043 -0.25599134 -0.14510268 0.13594702 0.05966007
0.08729354 0.10815263
